hw2/preTrained/ddpg_actor_LunarLanderContinuous-v2_04302023_180430_.pth (torch, 276375 bytes, 6 tensors)

model.0.weight f4 [256, 8]
00000000: cefa 26be f0ef 06bf 8377 fdbe 2d67 d9bd
00000010: 040a 0bbf 2d6f fa3d cfaa a83e 94a4 de3e
00000020: 1916 3a3f cb19 d1bd dc45 b5bc e5ba 19be
00000030: 7717 dd3e 4cf0 eabd ba5b 403c b931 c23e
00000040: 1f82 9a3b 0ea5 03bf 0c90 3a3f f936 0d3e
00000050: 3538 f3bd 3beb 94bd 1f55 69be 2d6a 27bf
00000060: c3da 24bf 4b7c 12bf 8c49 01bf 0079 21bf
00000070: e09a eebd efac 0c3d 78e4 9b3e 60b3 ce3e
00000080: 7d84 233f 4a1c b53d 161d ce3d d849 99be
00000090: 76ae 7d3e b9ff 4abe 0480 4d3f 2439 b2bd
000000a0: 8824 d53e abb7 cb3e 5ac6 efbe 74ae d13e
000000b0: 54fd 423e 3469 193e cac9 09bd 8c25 163f
000000c0: c530 19bf 77ec 913e 7a87 ebbe aa17 d43e
000000d0: 504a 0abe b90b 183f d76d 03bf ed52 82be
000000e0: 23f6 57be b06c 273e e6c2 203e f678 e43e
000000f0: 27de 01bf 7314 e6be ecc7 b73b 687e 573c
00000100: d8ae 25be 9f6b 0a3f 0bbb 803c 674e 253e
00000110: f7f8 c0be 8093 fe3e e9c1 1b3f ac52 d5bd
00000120: 20be b5be 0049 4b3e 573f 3bbe db61 a4be
00000130: 072b b4be a03f b33e f21c 873b 3085 ccb9
00000140: 88be 95be 761d a7be 9a20 f13e faee 213f
00000150: 7dd7 c63e 2c08 30be e95d 15bf 8b0d 213f
00000160: de91 0abf e742 133e ecf1 ae3d b1f1 8b3e
00000170: 1424 113f eb3a 45be d451 1ebe 0286 febe
00000180: ddc5 233e 365f 20be fb34 16be 2bad 1bbe
00000190: 1af8 af3e fdf2 e53e aa55 273e 20ae 30be
000001a0: 8014 d8bd a382 be3e f192 6bbd df6b 9b3f
000001b0: cc49 18bd adc6 d0bd 4836 4d3d efa0 063f
000001c0: 82ab 083f cc52 0ebd 0ec2 143f 52e9 b8be
000001d0: 12c6 16be 898d 41be 7875 b7be 60d0 babd
000001e0: 1076 273e 8c94 373f 2cbc 5dbe 7e9d ffbe
000001f0: af91 54bc 6ece c93d 591a b3be a6d1 2c3e
00000200: c517 cabe 2d8d 503e 15c2 9b3d fa3e 17be
00000210: 20c0 abbd a56f ea3c 4b32 03bf 86b6 1cbf
00000220: 4e30 583e 59d1 ca3e 264a 74be 994f b5be
00000230: b868 87be 51b4 873e 3241 e63e 0cc0 91be
00000240: ce78 393e 6479 873e f0ed 7a3e a70c 263e
00000250: bcf5 163e 22a0 aabe b177 ddbe ee65 873e
00000260: b2fa 81bc 062b 363d 1f9e e2bc ef4e 32be
00000270: f069 ad3e 0c07 743e 482a 943e 0bbc 123e
00000280: bb79 56bf 5488 a9be 4e57 b23d 1073 31be
00000290: 23d6 223e cf05 0c3f 9c30 a7bd c4d1 7a3e
000002a0: 5217 eebe be03 243f bda2 4abd dd0c 803e
000002b0: 3fcc 35bc cc57 1dbf dbf2 223f 5abf 44bb
000002c0: 47dc 203f 7876 8ebe 2f2e d93e 06df 65bd
000002d0: 54bc b13e 438e 343d 1e8e 843e 198f 933e
000002e0: 0052 b3be f373 f4bc 8437 1e3d 6742 443f
000002f0: 4c44 cb3e a452 8f3e 519b 253f 3390 b13e
00000300: 8ec3 e6be 94e7 e6bb 728a d33e 1757 25bf
00000310: 8798 5a3e f650 313f 3c7d 1dbf 7f58 b4be
00000320: dcb1 6dbf 760b c13e 9e19 023e 9059 683e
00000330: 22e0 ea3c 06e2 c0bd 8f8b 343f 5864 33bf
00000340: 1897 45be 74ac b83e 42a7 773f f4e7 d23e
00000350: 1841 14bf 2db8 1fbe bf45 7c3d bb75 40be
00000360: 7014 b53e 300f f93e 0b0c 44bf fd63 893e
00000370: 1b34 a43e 7763 3a3d 8ffe b8bd 805e e6be
00000380: 9152 8d3e 887f a4bc 0fd7 a4bd f977 a43e
00000390: 62b6 9a3e 7b6b c43e 4261 103e 08a0 52be
000003a0: 36bb 003f d5f6 723e 0571 e33e 3d3d 203f
000003b0: c894 45bd f01a d73e 1712 4cbf 6142 443d
000003c0: 3582 bdbe a575 f73d 12cd c83e 5c18 3b3e
000003d0: 1bed a9be 2310 cf3e 7543 3bbf cd60 8cbf
000003e0: c314 63bf e200 3c3e 6c62 00bf 6941 513d
000003f0: db4f d93c 9daa dabc c8ea 42bf 6f56 d43e
-0.16306612 -0.52709866 -0.49505243 -0.10615382 -0.5431216 0.12228236 0.32942817 0.43484938
0.7268997 -0.10209998 -0.022128038 -0.15012701 0.43181965 -0.11471614 0.011740619 0.3792856
0.0047152187 -0.5142373 0.7287605 0.13790502 -0.11875955 -0.07271429 -0.22786377 -0.65396386
-0.64396304 -0.57220906 -0.5050285 -0.63075256 -0.11650634 0.03434461 0.30447745 0.40371227
0.63874036 0.08843286 0.100641415 -0.2993915 0.24773583 -0.19824113 0.8027346 -0.08702305
0.41629434 0.39788565 -0.46831018 0.4095341 0.1904195 0.14981538 -0.033639707 0.5865104
-0.5984004 0.2850072 -0.46001798 0.41424304 -0.1350491 0.5939289 -0.5133948 -0.25453892
-0.21089987 0.16350055 0.15699348 0.44623536 -0.507296 -0.44937477 0.0056085493 0.013152696
-0.16179979 0.54070467 0.015714189 0.1614319 -0.37689945 0.4972191 0.6084276 -0.10416159
-0.35496616 0.19852066 -0.18285881 -0.32105908 -0.35189077 0.3500948 0.0041233236 -0.00039009145
-0.29246926 -0.32639664 0.47095186 0.63255274 0.3883628 -0.17190617 -0.5834642 0.6291129
-0.54128826 0.1438099 0.08542237 0.27332833 0.56695676 -0.19260757 -0.15460902 -0.49711615
0.15993448 -0.1566132 -0.14668648 -0.15202777 0.34368974 0.44911948 0.16341272 -0.17253923
-0.10550785 0.37209043 -0.05751318 1.2142295 -0.037179753 -0.101941444 0.050100595 0.52589315
0.533867 -0.03474693 0.58108604 -0.3611551 -0.14723995 -0.18901648 -0.3583181 -0.091217756
0.16353631 0.7171104 -0.21653813 -0.49924845 -0.012974187 0.098538265 -0.3498104 0.1687685
-0.3947126 0.20366354 0.076053776 -0.14770117 -0.08386254 0.02861769 -0.51248616 -0.6121601
0.21112177 0.39612845 -0.2385641 -0.3541229 -0.26447082 0.26504758 0.44971615 -0.28466833
0.1811249 0.264598 0.24504828 0.16215764 0.14742178 -0.33325297 -0.4325538 0.26444954
-0.015866611 0.044474624 -0.027663289 -0.17412923 0.33869886 0.23830813 0.28938508 0.14329545
-0.83779496 -0.33111823 0.08708058 -0.17329049 0.15901999 0.54696363 -0.081635684 0.24494082
-0.46502167 0.6406821 -0.049471606 0.25009814 -0.011096059 -0.6146209 0.6365182 -0.003002128
0.62836117 -0.2782476 0.42418048 -0.056120895 0.34713995 0.044080984 0.25889677 0.28820112
-0.350235 -0.029840445 0.038627163 0.7666382 0.39700544 0.27992737 0.6469012 0.34680328
-0.4507107 -0.007046649 0.41316563 -0.64586014 0.21347247 0.6926416 -0.6151922 -0.35223767
-0.92849517 0.37704057 0.12705085 0.22690415 0.028671328 -0.094181105 0.7052545 -0.7007499
-0.19295919 0.3606907 0.9673959 0.4119259 -0.57911825 -0.15597601 0.061589953 -0.1879491
0.35367155 0.486444 -0.76580876 0.26834098 0.32071003 0.045505013 -0.09032928 -0.44993973
0.27602056 -0.020080343 -0.08048832 0.32122782 0.30217272 0.3836325 0.14099601 -0.2056886
0.5028566 0.23726971 0.44422165 0.6259344 -0.048237592 0.4201274 -0.797151 0.047914866
-0.37013403 0.12082986 0.39218956 0.18271011 -0.3318871 0.40442 -0.73149806 -1.0967041
-0.88703555 0.18359712 -0.5015018 0.05108777 0.026527336 -0.026692683 -0.761395 0.41472194

model.0.bias f4 [256]
00000000: 9689 233e c991 cf3d 1107 b23e e1fd 5e3d
00000010: 75ed debd 93ea 1dbe 7227 f33e a27d f53c
00000020: 6413 7cbe eb99 cdbe 2bd6 a33e 7b22 b03e
00000030: cdae 1c3e 55d8 47be 33bc 61be 8673 b4be
00000040: fccf 323e ba7f d23d d5c4 033e add3 893e
00000050: c9cb 3abd c35d 063e f9ca a83d 9fe1 abbe
00000060: b498 e13d fcfa 58be 812c 52be 13f3 88be
00000070: eaf0 7c3e 0af7 3bbd f402 373e 6d3b 23bf
00000080: 4d67 84be 6f17 ce3e 4484 1c3e 35fa 813d
00000090: cb03 1bbf abe2 94be dd77 eabe f3e2 b3be
000000a0: d13d 453e aeea b2be aa6e 80be 5d2a abbe
000000b0: bb95 efbd 475f 85be 16b6 30bf be43 9fbe
000000c0: 8e83 0cbe 3456 f5be 8ba0 f13e 4b56 9d3e
000000d0: 0a3f 923d 39d5 1e3e 50ad fb3d e4cb abbc
000000e0: 59f7 56be fcf9 2c3f 6c68 a83e 9b1f 49be
000000f0: 1c08 29be f9e2 c43e 07a6 b33e 3246 17be
00000100: cb70 1d3f 270f 4e3e b7d4 bdbe dea6 c23d
00000110: 5942 3abe 2816 11bc 6500 f53d ebbd 12be
00000120: 330e c53e 0729 eabd 9394 213e 8803 1c3e
00000130: f099 4dbe fd8a c5bb bd46 8abe 4609 a13e
00000140: 6852 f1be c4f6 82bc 9b17 d13e a375 e0bd
00000150: 0e0f a23e f1c1 8e3c 2ce8 a33e 483d 21be
00000160: e903 9a3d 1376 983e b938 52be f91f b2be
00000170: 73a5 aa3e 0a8e 8f3e c59c 65be 05c8 19be
00000180: 6f08 b93e 93d2 c73e 2263 e93d e780 593e
00000190: 9e06 5dbe 7edb 083f 01e3 11be c776 863e
000001a0: d716 3abe 0878 333e 584f 2bbe 0aa4 5cbe
000001b0: 206f b43c e737 a23e e0b5 3a3e b8d8 14be
000001c0: 2caf fa3e 8ac8 e5be eb9f 30bd ce96 9a3e
000001d0: c040 353c 4960 9cbe 2c7c b7bd d21f 7c3e
000001e0: 034c 233e a9df 5dbe 3852 33be 8ad3 25be
000001f0: eda4 03bf d5f9 cb3d 013d cfbd c194 23bc
00000200: 8b05 4f3e d578 46be 7af2 653e d615 ffbd
00000210: e618 02be 50b9 95be c798 debd 4228 e6be
00000220: 6f4a a03d d908 e53e 921c 00be 955c 633e
00000230: cbdb 00bf a257 dd3e b0cf 1f3c dc25 b6bd
00000240: d839 593e 06fe 6f3e 398a e6be b657 623d
00000250: 482f f73d 8b75 78be 622b cabe 6658 66bd
00000260: 1142 0ebf 6f97 7ebe 7be5 273d 5999 4ebd
00000270: c698 9f3d 5319 e4bd 9364 9abe 81fc ecbd
00000280: b11f c73e dcee 5e3e f606 013f ce58 b7be
00000290: 0bd4 b6bd 6a8a 2f3e 840d d43e 1398 873e
000002a0: b175 6e3c 527e 47be 64f0 ae3e 6552 693e
000002b0: 6bdc aebe 8c59 9f3c 96d8 1abd 1d61 dfbc
000002c0: e895 4abe 535c 823e 6438 2dbe 69f7 033c
000002d0: 7293 c63d 27cd 8abd 23a7 463e 0dbd 573d
000002e0: 60f0 be3c 1de5 4ebe 12fd c13e f437 be3d
000002f0: 4ca2 5ebe a556 883e 4847 1e3f 6860 e0be
00000300: 95ec 62be ea44 7bbe 9099 cbbc 4c56 c5bd
00000310: 681e dbbd eda8 cfbe 1cc5 903e b8d4 853e
00000320: 039b 623e 92f5 933e cf17 3dbe 7af6 513e
00000330: 4743 8fbd b8d3 123d d69a 2f3e cf9d aabe
00000340: d14e 8c3e 161c b73e b92b 9b3e b09b 11bf
00000350: 6b79 cb3e efc2 593e 3bf6 743e 5dc5 343f
00000360: fffe 3abe 3d80 34bd 5486 84be 52db e33d
00000370: 48c1 38bf 067d 113f 25e7 8c3e e2e9 44be
00000380: 4c3b 49bd 0a17 b9be 74ec d13e 069d aabe
00000390: 4926 a3be ba30 053e 02a7 4abe d7e4 913e
000003a0: a007 0dbd 582f 3e3e 5531 e63e 96b8 0dbf
000003b0: 573c d5bb b459 ab3e c6c3 403e 8159 e93d
000003c0: 2f22 8f3e ba11 f0bd 96f8 313e ed6d 053e
000003d0: d666 0ebe ce4a 703e ff58 95bd b0c3 783d
000003e0: 7f38 c83e 2aca d63e 1677 eb3d f931 863e
000003f0: 1fa8 99bb e6e9 8c3e 275e 3abc 6a27 483d
0.15970454 0.10135228 0.34771016 0.054441337 -0.10885135 -0.15421514 0.47491032 0.029967133
-0.24616772 -0.40156493 0.31999335 0.34401307 0.15301056 -0.19516118 -0.22044449 -0.35244387
0.17462152 0.10278268 0.12868054 0.26919308 -0.0456045 0.13121705 0.08241839 -0.33570573
0.11015454 -0.21189493 -0.2052479 -0.2674795 0.24701276 -0.04588989 0.1787222 -0.6376255
-0.25860062 0.40252253 0.1528483 0.06346551 -0.6055266 -0.29079184 -0.45794573 -0.35134086
0.19261862 -0.3494467 -0.2508443 -0.33430758 -0.11698481 -0.26049253 -0.6902784 -0.3110637
-0.13722059 -0.4791733 0.47192797 0.307299 0.0714093 0.15511025 0.12288916 -0.020971246
-0.20992793 0.67568946 0.32892168 -0.19640963 -0.16507 0.38454416 0.35087606 -0.14772871
0.61500233 0.20122968 -0.3707635 0.09504484 -0.18189372 -0.00885538 0.11962966 -0.1433026
0.38487396 -0.114336066 0.15779333 0.15235722 -0.20078254 -0.0060285316 -0.27007094 0.31452388
-0.47133183 -0.015986808 0.40838322 -0.109599374 0.3165211 0.017426463 0.3201307 -0.15746033
0.07520277 0.29777583 -0.2052945 -0.34790018 0.33329353 0.28038055 -0.22423084 -0.15017708
0.36139247 0.39027843 0.11395861 0.21240579 -0.21584556 0.5345992 -0.14246751 0.26262495
-0.18172775 0.17526257 -0.16729486 -0.21546951 0.022025645 0.31683275 0.18233442 -0.14535797
0.4896177 -0.44879562 -0.04312126 0.3019318 0.011062801 -0.3054221 -0.08959231 0.24621513
0.15946965 -0.21667351 -0.17511833 -0.16193977 -0.5142353 0.09959761 -0.101190574 -0.009984196
0.20216958 -0.19382031 0.22455779 -0.12455337 -0.1270481 -0.29242945 -0.10868984 -0.4495259
0.07826697 0.44733313 -0.12510899 0.22203286 -0.5033538 0.4323092 0.009754106 -0.0889394
0.21213472 0.23436746 -0.4502733 0.05525943 0.12069565 -0.24263589 -0.39486223 -0.056236647
-0.5556956 -0.24862455 0.040990334 -0.050439212 0.07792811 -0.11137643 -0.30154857 -0.11571599
0.38891366 0.21770805 0.50401247 -0.3580994 -0.08927163 0.17142645 0.41416562 0.2648321
0.014554427 -0.19481781 0.34167778 0.22785337 -0.3415254 0.019451879 -0.03780421 -0.027267987
-0.19783747 0.25461063 -0.16916043 0.008054593 0.09696092 -0.06777411 0.19399695 0.052670527
0.02330798 -0.20204587 0.3788839 0.09288016 -0.21741599 0.26628605 0.61827517 -0.43823552
-0.22160561 -0.24538007 -0.024853498 -0.096356004 -0.10699159 -0.40558568 0.28275383 0.26138854
0.22129445 0.28898293 -0.18466114 0.2050418 -0.06995254 0.035846442 0.17148909 -0.33323523
0.27403882 0.35763615 0.30306795 -0.56878185 0.39741072 0.21265768 0.23922054 0.7061365
-0.18261336 -0.04406761 -0.25883734 0.111258164 -0.72169924 0.56831396 0.275201 -0.19229844
-0.049128816 -0.3615039 0.41000712 -0.33322924 -0.31865147 0.13006869 -0.19790271 0.28494903
-0.0344311 0.18572748 0.44959512 -0.5535978 -0.006507437 0.33466876 0.18824682 0.11394025
0.27955768 -0.11722131 0.17379984 0.13030215 -0.13906416 0.23466036 -0.07292365 0.060733497
0.39105603 0.41951114 0.11497323 0.2621 -0.004689231 0.275222 -0.011374987 0.048865713

model.2.weight f4 [256, 256]
00000000: 7bff 433b 9bdf 45bd 688c 48bb 5796 4abd
00000010: 13dc ee3b 222c 323d cda7 f13c ce51 663d
00000020: 2be9 fd3c e02e 88bd 2a98 7c38 9d94 9bbb
00000030: eb28 8fbd edb0 13bc cb0a 7fbd 24fd fbbc
00000040: 20f7 2b3d 4367 47ba 4169 5abd f80a 023b
00000050: d87f 713d ef42 593d 5014 5abd 915f 13bd
00000060: d7e1 cfbc f887 63bc 4e60 0d3c a0e4 843c
00000070: 600d 6ebd 57e2 91bc dcbb f03c 9a50 e6bc
00000080: f559 85bd 6331 3f3b 0c82 a2bc b6df 3d3d
00000090: dbdd 68bd 5fcc d63b bf72 68bd 4a09 c33c
000000a0: e6a3 573c 6c65 6dbd 2003 8ebc 1e81 83bc
000000b0: 2ead 44bd 695a 063d d8cc ff3c e9e0 1c3d
000000c0: a2fa 0a3d dc90 4abc d85d 97bd ae2b b43c
000000d0: c51b 6ebd 3aa9 5d3d a04f 73bd e72e 58bd
000000e0: ac71 fe3c a48e c13c 8fe7 d83c e712 38bd
000000f0: 3365 c33c e5b5 1ebd d6ec 363c 38a1 4b3d
00000100: b9ff fcbb 495f 923b 352e 5bbd 436b 00bd
00000110: d504 1dbd c9f7 d53c 9b0f de3a a7c8 d1ba
00000120: 74f6 843c a6fc b03c 00f6 5fbd 22ed 77bc
00000130: e418 a73c 689e 53bd 13ab 41bd b3ea 3b3d
00000140: cdf3 80bd 506f 973c 5b9f acbc 1c72 653c
00000150: 07d8 833c 6117 f23b a993 3abb b16f 2bbd
00000160: 0dce b4bc b08b 4fbd 561a b7bc 050b cebc
00000170: 2687 47bd 9eb0 7f3a 9855 85bd 6c04 33bd
00000180: 1f54 2ebd 0544 24bd fc4c 593d f14d 1abd
00000190: 30fb b83c 581f 05bd e6ca 6d3c ef6b 25bd
000001a0: 904f 71bd 52e6 d53a e717 81bd 5f28 6d3d
000001b0: 8495 4b3d 9109 3cbd a2ea 77bd 23b3 4e3c
000001c0: a307 043d 859f cebc 0681 113d 418c 58bc
000001d0: c3cd dcbc 7aa4 813c bdc8 c83c b4e7 483c
000001e0: 6cc8 62bc 941e 72bd 1a30 73bd 5867 763c
000001f0: 825f 0d3d f69c 2b3d b896 50bd 71a1 ffb9
00000200: ad28 173a ca2c 6e3d 997e 30bb 63ee 113d
00000210: 4ed1 173d 6702 f23c 60e1 05bd 86c5 85bd
00000220: 0045 adba 1616 c23c 538b 483c 9d83 b7bc
00000230: 0d86 a23c 477e e63c e7c9 febc 9a93 043a
00000240: c358 553c 21b3 1fbd dcb7 bfbc 18b5 85bd
00000250: ce27 c8bb 9529 5cbd 61a0 b3bc 9889 743c
00000260: 5c79 553d a2ee 3fbd 8a76 2a3d 3426 16bd
00000270: b964 86bd f9b3 213d 6e16 273d 7e4c c3bb
00000280: 00f7 973c 6306 48bc 2350 6ebd f9ea d83c
00000290: faa2 483d 4895 2abd b4fe 163a 5fc2 d6bc
000002a0: 89a7 b33c efc2 56bb 49b7 343d 2dde 0e3d
000002b0: a1e7 46bd 5da3 513d c566 373d 1a75 8d3c
000002c0: 2d69 8cbc 8588 f93b cb4f 1f3d 6df7 da3c
000002d0: 71d0 0cbb 26d7 403d dde1 a23c 6f2b 06bd
000002e0: f0b7 5a3d bc86 06bd bc87 59bd ce71 0e3d
000002f0: f462 4d3d 98cc 66bd d1ce e03c 703a 8fbd
00000300: 24d2 5a3d 38da bb3b 1984 6abd 4d08 dcbc
00000310: 6315 cc3a f150 1f3d 7ea7 d9bc eef3 2b3d
00000320: b0ee 353c 7867 e33b 591b 163d 811d 7abd
00000330: bec1 ef3c 9c3b 65bd 9295 38bd e38c 2c3b
00000340: 72df 053d 07aa e13c 45f6 01bd 5045 fcbb
00000350: 43b8 1e3d 26a3 1abd 6911 afbc 8967 3ebd
00000360: e04c c83c f0bf bdbb a831 4c3d aec3 913b
00000370: 9d22 32bd 6c12 2c3b aa3d eabc 9ebc e3bc
00000380: 160c 133d 9a17 bb3b 0a95 c93b f03a a33c
00000390: 4a5c 2ebd 042a 76bd e747 88bc 8b9b e93c
000003a0: c9b9 4a3d 0367 7dbc eb98 22bd 2171 383d
000003b0: 081d 22bd 73a3 1cbd 805a 13bc f7f4 25bc
000003c0: fec2 843a 0a81 6cbc f134 e9bc 7957 3bbd
000003d0: b6aa 45bd 61da 823c c4d1 a3bb bee5 93bd
000003e0: d78b 7ebd 2cb5 11bd 9fea 8dbc 47ef 8cbb
000003f0: 8698 3f3d a05a 643d d87a 6dbb 04ab 89bd
0.0029906917 -0.04830895 -0.0030601267 -0.04945978 0.0072894185 0.04349912 0.029498959 0.05623036
0.030994972 -0.06649566 6.0223196e-05 -0.0047479407 -0.06990226 -0.00901435 -0.062266152 -0.030760355
0.041983724 -0.0007606635 -0.053323034 0.0019842964 0.058959812 0.05304235 -0.053242028 -0.03597981
-0.025376244 -0.013887398 0.008628918 0.016222298 -0.058118224 -0.017808123 0.029386453 -0.028114606
-0.065112986 0.0029173724 -0.019837402 0.046355926 -0.056852203 0.0065551247 -0.056750055 0.02380814
0.013161635 -0.05795805 -0.017335474 -0.016052779 -0.04801672 0.032801066 0.031225607 0.03830043
0.03393043 -0.012363639 -0.07390946 0.021993484 -0.05813195 0.054116465 -0.05940211 -0.052779105
0.031060062 0.023627587 0.026477603 -0.0449399 0.023851966 -0.038747687 0.0111648645 0.049714297
-0.007720914 0.0044669253 -0.053510863 -0.031352293 -0.038334686 0.02611913 0.0016941907 -0.0016005234
0.0162308 0.021604847 -0.054677963 -0.01513222 0.020397611 -0.05166474 -0.04728229 0.045878123
-0.06296501 0.018485695 -0.02107208 0.014004257 0.01609422 0.007388041 -0.002846936 -0.041854564
-0.022070909 -0.050670326 -0.022351425 -0.025151739 -0.048712872 0.0009753796 -0.06510466 -0.04370539
-0.042560693 -0.04010393 0.053051934 -0.037671987 0.022580713 -0.032500595 0.014513707 -0.040386137
-0.058913767 0.0016319251 -0.06303387 0.05789983 0.049703136 -0.04590756 -0.060526498 0.012615952
0.032233845 -0.02522255 0.035523437 -0.013217033 -0.026953584 0.015825499 0.024509782 0.012262274
-0.01384173 -0.059111193 -0.059372045 0.0150392875 0.03451491 0.041897736 -0.050924987 -0.00048757673
0.0005766254 0.058148183 -0.0026930927 0.035627734 0.037064843 0.029542161 -0.032685637 -0.06531815
-0.0013219416 0.023692172 0.012240249 -0.022401625 0.019839311 0.028136386 -0.031102134 0.0005057395
0.013021651 -0.03898919 -0.0234031 -0.065286815 -0.0061082607 -0.053750593 -0.02192706 0.014925383
0.05211769 -0.046858437 0.041616954 -0.036657527 -0.0656218 0.039478276 0.040792875 -0.0059600463
0.018550396 -0.012208554 -0.058181893 0.026479231 0.04898355 -0.041646272 0.00057599996 -0.02621573
0.021930473 -0.0032769998 0.044120107 0.034879852 -0.048560742 0.051181186 0.044775743 0.017267752
-0.017139995 0.0076151513 0.038894456 0.02672931 -0.0021486545 0.04708018 0.01988309 -0.032756265
0.053398073 -0.032843336 -0.053107962 0.0347765 0.050143197 -0.05634746 0.027442368 -0.06993568
0.053423062 0.005732801 -0.057254884 -0.026859427 0.0015570339 0.03889555 -0.026569124 0.041980676
0.011104271 0.0069398247 0.036647175 -0.061063293 0.029267188 -0.05596505 -0.045064516 0.0026329092
0.032683797 0.027546896 -0.031729 -0.0076986924 0.038749944 -0.037753247 -0.021370606 -0.046485458
0.02445072 -0.005790703 0.049852043 0.0044483757 -0.04349004 0.0026256097 -0.028593857 -0.0277999
0.035900198 0.0057096006 0.0061518 0.019925565 -0.042568482 -0.060098663 -0.016635848 0.028516551
0.049493585 -0.015466454 -0.039696615 0.045029763 -0.039578468 -0.038241815 -0.008993745 -0.010129205
0.0010128913 -0.014435062 -0.028467627 -0.045737717 -0.048258506 0.015973272 -0.0049993712 -0.07221554
-0.06214508 -0.03557317 -0.01732379 -0.004300985 0.046776317 0.05575049 -0.003623655 -0.06722072

model.2.bias f4 [256]
00000000: 04c2 4abb c172 15bd be9d 923c c97d bdbd
00000010: 68ec 5a3d 2fdb 2f3e 6968 503e 8bf0 973d
00000020: 52c5 dd3d bc46 d73d 0c46 02bd 3588 87bd
00000030: 14f2 cebc dad4 b53c 5589 4d3d 3281 4a3d
00000040: 6e43 5abe 4730 8bbe d7c0 e0bc 0071 3abd
00000050: 2872 40bd 0bb2 ebbd 721d 8bbd e04e a53c
00000060: 0cad 7e3e 707d 36be 990a e83d 27b1 94be
00000070: f048 51bd 13ae 8cbd ad24 853d 076b 0dbd
00000080: 98d4 cb3b a736 133d 597b d43d 05cd 4ebc
00000090: ab60 cebc 6be7 563b f48a eb3d 8b1a 2f3b
000000a0: d4d8 9c3d e6ed 273d f2bd 41bd d493 003e
000000b0: 8165 c23b 9b6a 77bc 3142 babc 9dd3 36bd
000000c0: 3aed e93d 71d6 7abd 9ea0 013d 8d98 9abd
000000d0: c624 0dbe 5180 e839 3f26 d43d e2a6 b93d
000000e0: 943a 993d 49e0 22be ffd9 893c 7427 34be
000000f0: 7e45 9abd 87a3 e0bd 1847 71bb 4199 5d3d
00000100: 198e 05be 8671 633d 80fe a2bc f2e8 1dbe
00000110: 1340 c8b9 73c1 75be 0110 f6bd 7d94 15be
00000120: 5f3e 51be 1843 983e 3927 703c 5bb5 453c
00000130: 4573 c73c 51b5 393e d2b8 ae3d b30d 803d
00000140: 415b 943c 71f9 e8bd 3d8b 26be ffd2 813d
00000150: fe5d bd3d 6184 fa3d 5211 143e 9b94 3c3e
00000160: 2f45 67be 4d9f 86bd 4ccc 613d cb15 7d3d
00000170: 9e40 233d 2066 76bd 339a 7dbe e840 423e
00000180: 03e3 36bc 5a26 debc de55 19bc d2b5 00be
00000190: 828f e13d 205c 253b a525 44bb 629b 14be
000001a0: 4023 be3d d5bc a7bc 7a66 413e af62 94bd
000001b0: 1cf4 1cbe e73d 413d 2ffe a93e d130 33bd
000001c0: ce46 c5bd de31 b4bd 06fe 253d 87d8 b2bd
000001d0: db90 ea3d 0f49 c33c 315a c33d f229 1a3d
000001e0: 585c 083e a953 5a3d ede9 333e 6495 243e
000001f0: cfa4 20be 542a 693e fd9b 0fbb 2086 f93c
00000200: 7bee 513d 8fff 39bd 5344 7b3c ec0c f33c
00000210: 5712 933d fa28 893c 93a4 523d caa1 4c3c
00000220: 5a05 9e3d 227f 7fbe e657 c83d fa8b 193e
00000230: 7790 723c 0dc4 473e b267 263e 10f8 4dbc
00000240: 9ed6 dc3d 776b 96bd c06e 953e 68b1 dc3d
00000250: 5240 47bc c7fa 0a3e dbb5 e73c be4b 1fbe
00000260: b2df ab3d 20b4 243e 720b ec3d 19fb b8bb
00000270: 2d54 c4bd d1ee 83bd 4549 e63d 8bb1 813d
00000280: 32f7 a13a 1a68 afba 28d0 4d3d 07f5 bdbb
00000290: 4c77 28bd accc 8d3e a03a 413e 3484 053e
000002a0: 1bf0 d23d 3e80 223e de97 13be c960 3e3d
000002b0: a3a5 a4bc 1df8 263e aa6c 89bd 1567 fabc
000002c0: cad9 a43d 94b8 b63b 482d 2ebc 8215 b8bc
000002d0: fc87 f93d 1191 b33d 26c9 033d d5c6 963d
000002e0: b794 113e f828 92bd 0c73 50bd 8ee1 303d
000002f0: 5b6e 8e3d 37fd d23d f452 8c3c 2f8c a1bc
00000300: c667 96bd f917 e73d e18a 9f3d 3925 46bd
00000310: 3e8c c1bc 80cb 0b3e 4a47 fdbd 38b2 503e
00000320: b1ed 23bd 536d ca3b 90db 9fbd ff5a 2d3b
00000330: 95c7 ae3d a781 393c 2a4a e0bc 7d4a be3b
00000340: c177 d03d 3552 803d cbe5 c3bd b2ee 8cbd
00000350: a25b 2d3e 243a 013e 2e63 dabc d29c 293e
00000360: 11b6 e83d 29f7 96bd a8f6 b63a 8675 d63c
00000370: 13ea 0fbe 8556 9c3d 593f ab3c 15c9 573e
00000380: 1057 a03d 268d e8bd a188 f9bd 7e6d 273c
00000390: dda5 9fbc 0b65 84bd 20cd f93b d8c7 093e
000003a0: e36d 24bd 8638 073e 82c0 653d 7bb8 2f3e
000003b0: f712 893c f2cd 0c3e 39f6 8bbd 4708 26be
000003c0: ba21 883d 29e3 c03a 4dc4 8c3b f7a7 a13d
000003d0: 7e96 213b b1e2 95bd 1fb1 bd3c af3d bc3d
000003e0: aa3f 06be a0ad 55be 7045 f6bd 8737 a7bd
000003f0: f68d 97bd df22 173e d2e4 2cbe a66a 223e
-0.0030938396 -0.03648639 0.017897483 -0.09252507 0.05344811 0.17173456 0.2035233 0.07418927
0.108286515 0.105115384 -0.031805083 -0.06617776 -0.025261916 0.022196222 0.0501798 0.049439617
-0.21314785 -0.2718527 -0.027435703 -0.04551792 -0.046983868 -0.115085684 -0.067927256 0.020179212
0.248707 -0.17821288 0.11330146 -0.29041407 -0.05109495 -0.068691395 0.06501136 -0.034525897
0.0062204115 0.035940792 0.10375089 -0.012622123 -0.02519258 0.0032791744 0.115011126 0.0026718702
0.07658544 0.040998362 -0.047300287 0.12556392 0.0059325104 -0.0151011 -0.02273664 -0.044635404
0.114222005 -0.061239664 0.031647317 -0.07548628 -0.13783559 0.0004434609 0.10358857 0.090650335
0.07481876 -0.1590587 0.016827581 -0.17593175 -0.07532786 -0.1096869 -0.0036816057 0.054101232
-0.13042487 0.055528186 -0.019896746 -0.15420893 -0.00038194712 -0.23999576 -0.12014771 -0.14607425
-0.20433949 0.29738688 0.014657789 0.012067164 0.024346957 0.18135573 0.085313454 0.06252613
0.01810992 -0.11375702 -0.16264053 0.063390724 0.09246443 0.122322805 0.14459732 0.18416063
-0.22584985 -0.06573353 0.055126473 0.06178836 0.039856546 -0.060155988 -0.24765854 0.18970072
-0.011162522 -0.027117897 -0.009358851 -0.12569359 0.110137 0.0025231913 -0.0029929664 -0.14512399
0.09284067 -0.020475784 0.18886748 -0.07245385 -0.15327495 0.047178175 0.3320174 -0.043747727
-0.096326455 -0.08798574 0.04052546 -0.087327056 0.1145341 0.023838548 0.09538687 0.03763766
0.13316476 0.05330244 0.17569704 0.16072613 -0.1568787 0.22770053 -0.0021913045 0.030459464
0.051252823 -0.045409735 0.015336114 0.029669248 0.071812324 0.016743172 0.05142648 0.012489745
0.077158645 -0.24950841 0.0978239 0.14994803 0.014804951 0.19508381 0.16250494 -0.01257135
0.107831225 -0.07344716 0.29186058 0.10776025 -0.012161331 0.13572226 0.028284958 -0.15556237
0.08392276 0.16084337 0.115256205 -0.0056451675 -0.09586368 -0.06442035 0.11244444 0.06332692
0.0012356995 -0.0013382465 0.05024734 -0.005797032 -0.041129395 0.27695215 0.1887002 0.13038713
0.10299703 0.15869233 -0.14413401 0.04647902 -0.020098513 0.16305585 -0.06710179 -0.030566731
0.080493525 0.0055762026 -0.010630913 -0.022471193 0.1218414 0.087679036 0.032174252 0.07362143
0.14216886 -0.071367204 -0.050890967 0.043183856 0.069546424 0.10302203 0.017129399 -0.019720165
-0.07344012 0.11283869 0.07790161 -0.048375342 -0.023626443 0.13651848 -0.12367113 0.20380485
-0.040021602 0.0061775832 -0.0780555 0.0026451943 0.08534161 0.011322415 -0.027379114 0.0058072195
0.10179091 0.0626568 -0.09565314 -0.06881465 0.16929486 0.12619835 -0.02665862 0.16563728
0.113628514 -0.07371361 0.0013959007 0.026179086 -0.14054136 0.0763369 0.02090423 0.210728
0.07829106 -0.11355047 -0.12184263 0.010218976 -0.01948827 -0.06464585 0.0076233298 0.1345514
-0.04014386 0.13205156 0.056091793 0.17160217 0.016732676 0.13750437 -0.068340726 -0.16214095
0.06647058 0.0014716137 0.004295862 0.07893365 0.002465635 -0.073186286 0.023155747 0.09191453
-0.13110223 -0.20867014 -0.12024963 -0.08164888 -0.07400124 0.14759396 -0.16884163 0.15860996

model.4.weight f4 [2, 256]
00000000: 9258 bd3c bf06 ba3e 79b5 9abd db07 00bd
00000010: 94b9 003f 749e d1bf a3ec 1abe 216d 153f
00000020: 6eeb 9f3d 1a87 2d40 dd06 6cbd bb1f 2d3f
00000030: 5072 26bf 8e1d 9b3e 2a84 143f 60bc 043d
00000040: a7be a1be 67bc 74bf 023c 603f 8716 2cbf
00000050: c563 7fbd 4ce9 363e d4c6 4ebd 1424 0abf
00000060: 4a3e cabf 29b8 cdbe 9ee3 a23d 3ed8 2dc0
00000070: cb1f 973b 5382 843f e203 87bf 74fc 8b3c
00000080: 48e1 4fbe 5c64 acbd 68f6 b4be b994 5cbf
00000090: d194 05ba 9490 ee3c a119 16be d7e9 9cbd
000000a0: b012 5abe 958f 5e3c e687 f93c 5ac4 34bf
000000b0: 2b00 f73c f5f3 a0be 4c01 6cbf ce9d 9f3b
000000c0: 5128 ac3e 1800 2a3f 2112 cdbe 21a0 573f
000000d0: b259 b23e 2f88 5dbf c686 07bf 03d8 e73d
000000e0: 9933 f1be 2f2a 443f f8ef dbbb 5955 bb3f
000000f0: 1ec9 573e d5af 89be 6f6c 02bd 66ca dd3e
00000100: 9200 5fbf 9a3c 09c0 c29c c9bd 9b94 733e
00000110: 7616 483f 1fd7 d0be 91e8 4f3e b5e1 c5be
00000120: 1582 a23e d88b b6bd 6075 a33f 5e76 b3be
00000130: 4066 9c3f e2d0 ccbf 9f74 2cbf e156 be3e
00000140: a6cd ab3e d4b2 88be b10f febe 3e22 d33f
00000150: 05bc 22bd 83f9 5740 1d1a 77be fede fa3e
00000160: 642a b5be 8714 c9bc ba54 7fbf c3bf 64bf
00000170: 0584 073e d084 273f 5e15 8d3d b5aa 28bf
00000180: e103 2d3e 74c3 a83f e345 403f 3f3d e2be
00000190: 53db 0e3f a966 3abe 93b0 2fbd 0393 3f3f
000001a0: 56ce 073f 0986 f6bc ece8 b93f baea 093f
000001b0: b797 49bf a0e7 04be 6cd0 e53e 30fd f13d
000001c0: 662f d73e 18d3 203f 217e 37be ea3a 0e3d
000001d0: 0e16 f73e 3769 ac3a 8552 123e a6cd 33be
000001e0: fb83 3e3f dc2b 323c bb6a c9bd 285f 63be
000001f0: 71ed 153f 2ff3 86bf 22cd 6c3e 516f 31bf
00000200: 39e4 e03f 942a 18bf 756b a9be 8b1c 5b3e
00000210: 15ac d6bd 95a4 fbbe e02b 0a3e b6ef d53e
00000220: 9ef8 5e40 6e80 b3be 458f ff3e fb05 0fbe
00000230: 6f52 09bf 43b9 e83e 4a52 703e 6049 a7be
00000240: fa1e 19c0 43bf 87be 500d 0a3f 622b 8abf
00000250: f3fa 133d c907 a0bd 8841 983f 6713 c83e
00000260: 973f 5d3e e282 613c 1e0c 8fbe 59a0 813e
00000270: 9e61 23c0 1e66 af3e 4121 90bf 2ead c13b
00000280: 1329 443f 257d 673e ffd1 3c3f 7081 5dbe
00000290: a8bc 6ebd 24e5 b1be 1cbd bf3e 1640 73be
000002a0: bc12 57bd 703e a53e 2ff9 9fbe d92d 083f
000002b0: 5d56 b5be 0ec7 f73f 3c37 6abd 20dc 7c3d
000002c0: 25a0 6d3f d55c b8be 488a fabe 33fd 4cbf
000002d0: e3dd ea3e d6b5 11be 6a86 37bd bc09 04be
000002e0: ff3a fd3d ccb8 9dbf a543 aabf f93c 633f
000002f0: 1e7e 663e 73e1 ccbf 1afb eb3e 5a61 3fbd
00000300: 9afa 90be 9d02 443f 5170 413f 0929 37be
00000310: f716 66bd 1113 3bbf bc5a 91be bdf1 1bc0
00000320: 34a2 9d3f ff45 373e dd3e 21be 0ee5 09be
00000330: 8abb 443e c945 03bf 22db bf3d fb03 0140
00000340: 3a29 17be b4ec 2abf b6a1 f33d f097 9bba
00000350: 5f09 ba3d 89a0 053f e69d c43e fa0c febf
00000360: afd1 96bc 1e22 10bf 67e2 153d 231d 11bf
00000370: b92e 61be 8c1e da3c 13d5 1e3f dba4 9c3e
00000380: 2eeb 77bf 4d8f f1be 4278 89bf d737 dfbe
00000390: 7b5d 613f 7ccd e8be 3626 ea3c a0cc 16bf
000003a0: f1bd 283c 5629 c9be 0600 cb3e 295e 43bf
000003b0: 53f1 ebbd 375c a03d 599b bf3e 67f9 513f
000003c0: b301 cb3e 72b6 f2bc e2a8 6d3f 7ee4 61be
000003d0: 4e25 c1bc d964 193f e607 3dbf 104e b83e
000003e0: 0ce4 d63d 6141 42bf d6d7 aabe 8daa 2cbd
000003f0: ed4f 62be a218 03be 3a3f 39bf 08ed 46bf
0.023113523 0.36333272 -0.075541444 -0.03125749 0.5028317 -1.6376481 -0.15129332 0.5836964
0.078085765 2.711371 -0.057623733 0.6762654 -0.6501818 0.30295986 0.58014166 0.03240621
-0.3159077 -0.9559998 0.87591565 -0.67221874 -0.062351007 0.17862433 -0.050482586 -0.539613
-1.5800259 -0.40179566 0.07953571 -2.7163234 0.0046119443 1.0352272 -1.054806 0.017088152
-0.20300782 -0.084175795 -0.35344243 -0.8616443 -0.0005095723 0.029121675 -0.14658214 -0.07661789
-0.21296191 0.013584037 0.03046031 -0.7061211 0.030151447 -0.31436124 -0.9218948 0.0048711067
0.3362451 0.66406393 -0.40052894 0.8422871 0.34834057 -0.86535925 -0.5294002 0.11320498
-0.47109678 0.7662687 -0.006711956 1.4635421 0.21072814 -0.26891962 -0.03184169 0.4331848
-0.87110245 -2.1443238 -0.09844352 0.23787157 0.7815927 -0.40789124 0.20303561 -0.38648763
0.3173987 -0.08913392 1.2770195 -0.35051244 1.2218704 -1.6001246 -0.6736545 0.37175658
0.33555335 -0.26698935 -0.49621347 1.6494825 -0.03973009 3.374604 -0.24131055 0.48998255
-0.35383904 -0.024545921 -0.9973866 -0.89355105 0.13233955 0.6543703 0.06888841 -0.6588548
0.16896011 1.3184648 0.7510664 -0.44187352 0.5580341 -0.18203224 -0.042893004 0.748337
0.5304922 -0.03009321 1.4524207 0.5387379 -0.78747123 -0.12978983 0.44885576 0.1181587
0.4202835 0.62822104 -0.17919208 0.034724154 0.48259014 0.0013153915 0.14289291 -0.17558917
0.74420136 0.010874715 -0.0983481 -0.22204268 0.5856543 -1.0542964 0.23125127 -0.6931048
1.7569648 -0.5943997 -0.33089796 0.21397607 -0.10482041 -0.49149004 0.134933 0.41784447
3.4839244 -0.35058922 0.49913993 -0.13967125 -0.5364141 0.45453843 0.23468891 -0.32673168
-2.3925157 -0.2651311 0.53926563 -1.0794489 0.036127996 -0.07813985 1.1894999 0.39077303
0.21606289 0.013764115 -0.27938932 0.25317648 -2.552833 0.34257597 -1.1260148 0.005910537
0.76625174 0.22606333 0.7375793 -0.21631408 -0.058285385 -0.34745133 0.37448967 -0.23754916
-0.0525081 0.322742 -0.312448 0.5319496 -0.35417452 1.9357622 -0.05718158 0.061733365
0.92822486 -0.36008325 -0.48933625 -0.8007385 0.4587241 -0.14229521 -0.04480592 -0.12894338
0.12364768 -1.232202 -1.3301893 0.8876491 0.22509047 -1.6006302 0.46090013 -0.0467237
-0.28316194 0.7656649 0.75562006 -0.17886747 -0.056174245 -0.7307597 -0.28389537 -2.4366295
1.2315125 0.17897795 -0.15746637 -0.13466284 0.19212165 -0.5127836 0.09367968 2.015868
-0.1476182 -0.6676743 0.11896078 -0.0011870842 0.09083819 0.5219808 0.38401717 -1.984771
-0.018410532 -0.5630206 0.036592867 -0.56685084 -0.2199048 0.026625894 0.62043875 0.30594525
-0.9684323 -0.47179642 -1.0739825 -0.4359729 0.88033265 -0.45469272 0.028582674 -0.5890598
0.010299192 -0.3928935 0.39648455 -0.7631555 -0.11520638 0.078300886 0.37423208 0.8202118
0.39649734 -0.029628012 0.9283582 -0.22059819 -0.023577359 0.59919506 -0.7384018 0.35997057
0.10492715 -0.7588101 -0.33367795 -0.042154837 -0.22100802 -0.12802365 -0.723621 -0.7770543

model.4.bias f4 [2]
00000000: fcdd 9abb c6eb 443d
-0.0047261696 0.048076414
