hw2/preTrained/ddpg_critic_LunarLanderContinuous-v2_04252023_023455_.pth (torch, 277399 bytes, 5 tensors)

model.0.weight f4 [256, 10]
1.8750895 -0.8136177 -0.87498945 -0.4614661 -0.21937731 0.6080177 -0.796971 0.48273188
-0.057995435 -0.0875194 1.8072057 0.22980922 0.24747169 0.4019352 -0.07981947 0.11437647
1.0691676 0.89461786 -0.027280962 0.24217673 -1.1692387 -3.559911 0.4366768 -0.8062072
-0.029001284 -0.03156169 0.6058622 -0.08716289 0.108279504 -0.21373014 1.5393357 -1.3864874
-2.898473 0.48410684 -0.29721686 0.46260306 0.037057113 0.18973006 0.027828164 -0.10667841
-0.995978 -0.6355389 -0.54721737 -1.7742114 -0.13482279 -0.20829478 0.82251745 -0.3336782
-0.010677032 0.06475896 -0.4809871 -1.2317064 0.79469573 -1.0867885 -0.30713546 0.7162387
0.25154164 -1.2639436 0.53163916 -0.053308677 0.19375974 -2.0431428 -0.7437618 1.4357632
-0.18240857 0.65921897 -0.046471782 -0.37449586 0.058809757 -0.13117348 -1.0670557 -2.0506957
-0.21217161 0.3792813 -0.34157643 -0.5456957 0.2496484 -0.1391025 0.48717165 -0.12489126
-0.8975326 0.7002993 0.09010585 1.7977293 -0.19232742 0.19425973 0.50327426 1.3047715
0.6147182 -0.15917516 -1.5724616 -0.75885695 0.06014542 0.315869 0.46048895 -0.2495614
0.60775435 0.83143055 -0.16475086 -0.2050034 0.98676556 1.254601 -0.97339165 0.7726919
0.8029291 1.1270641 -0.8137781 -2.1550705 -0.16552499 0.03345653 1.1758599 1.0956293
-0.5175782 0.78737336 -0.6106305 -0.6245326 -0.4059754 -0.88612664 -0.037590545 -0.0114525715
1.3419263 -1.5112756 -0.3223503 -0.20642938 -0.5276492 0.30613354 -0.85109997 -0.408044
0.35101342 0.29322553 -0.6391411 -3.8142867 0.28394142 -0.12895869 0.6343816 0.15239385
0.3780281 -1.3600956 0.09937896 -0.21076818 -1.0332266 -3.0178308 0.6987322 -0.88638514
-0.21370819 0.63343954 0.22080144 -0.6798526 -0.020573508 -0.18703274 0.7216181 -1.5835325
0.104964755 -0.9427001 0.20541845 -0.32042137 0.6256322 0.22322835 -0.7954975 -0.8010622
0.59450233 0.0593909 -0.3112782 -0.31230047 -0.06408157 0.19929147 -2.039487 -1.2398084
-0.4701724 -0.17734434 2.1367152 0.29362234 1.4918033 -0.42772102 -0.21599163 -0.10335592
-0.6533893 -0.13333733 -0.012106946 0.002997459 -0.36657706 -1.3165576 0.114222094 0.28861514
-0.5240077 0.3399693 1.1510046 -0.11224115 0.47510093 -1.0511065 -0.7109661 -1.6547883
0.374393 1.254715 1.4482528 -0.30327457 -0.061210237 0.06993245 0.08721266 -0.189869
0.4098928 -0.050328378 -0.7474672 0.5142985 -1.0049796 1.0932075 -0.36371845 -0.89599437
0.049513053 0.017991811 1.8053919 -2.40203 -0.6525818 -0.80073136 0.47518653 -0.39798483
-0.33057517 -1.9534533 0.30261233 0.39985722 0.5629254 0.11411284 -0.7055405 -1.247254
0.6776052 -0.3189439 -0.6905015 -1.4899346 0.13637762 0.079312794 -1.6643065 -0.15269066
-0.8345427 -0.05063398 0.3646562 0.61294985 1.168787 0.17543782 0.061799366 0.03228269
2.2398982 0.024643643 0.29132864 0.43493733 0.39634854 0.37848192 -0.034895174 -1.1251782
-0.018957874 -0.018777968 -1.6388719 -0.76935554 0.6540457 0.44512743 -0.8348972 -0.63450456
00000000: ef02 f03f 4049 50bf 4fff 5fbf 4945 ecbe
00000010: 72a4 60be 0ca7 1b3f 4b06 4cbf a228 f73e
00000020: 9f8c 6dbd 5f3d b3bd 8452 e73f 1c53 6b3e
00000030: 3869 7d3e 73ca cd3e 6478 a3bd 363e ea3d
00000040: 7cda 883f ad05 653f 537c dfbc 2dfd 773e
00000050: 9da9 95bf 95d5 63c0 1a94 df3e 9863 4ebf
00000060: 1a94 edbc d546 01bd c919 1b3f 7582 b2bd
00000070: a5c1 dd3d 13dc 5abe f408 c53f 6b78 b1bf
00000080: 9580 39c0 dadc f73e cf2c 98be 4fda ec3e
00000090: 33c9 173d 9948 423e e4f7 e33c 367a dabd
000000a0: 6af8 7ebf adb2 22bf 7016 0cbf 5c19 e3bf
000000b0: fc0e 0abe 3a4b 55be 8190 523f ded7 aabe
000000c0: b8ee 2ebc 58a0 843d f143 f6be 8ea8 9dbf
000000d0: 2e71 4b3f e31b 8bbf dc40 9dbe 6b5b 373f
000000e0: 11ca 803e e7c8 a1bf 8119 083f 335a 5abd
000000f0: f468 463e dac2 02c0 2c67 3ebf 17c7 b73f
00000100: 50c9 3abe 93c2 283f 3259 3ebd ecbd bfbe
00000110: 80e2 703d 5752 06be 4895 88bf 993e 03c0
00000120: 8443 59be 2931 c23e 1be3 aebe b7b2 0bbf
00000130: d5a3 7f3e e370 0ebe 906e f93e fdc6 ffbd
00000140: b2c4 65bf d146 333f 6a89 b83d fe1b e63f
00000150: 7bf1 44be 06ec 463e 95d6 003f c102 a73f
00000160: 2c5e 1d3f d0fe 22be 6c46 c9bf 7344 42bf
00000170: 0b5b 763d 95b9 a13e 35c5 eb3e 068d 7fbe
00000180: ca95 1b3f a2d8 543f 73b4 28be 69ec 51be
00000190: ab9c 7c3f c496 a03f 3230 79bf 23cf 453f
000001a0: c38c 4d3f a343 903f c353 50bf adec 09c0
000001b0: 627f 29be b709 093d 9482 963f 953d 8c3f
000001c0: 0180 04bf 4d91 493f 4852 1cbf 5ee1 1fbf
000001d0: 02dc cfbe 32d9 62bf 8bf8 19bd 91a3 3bbc
000001e0: 3ec4 ab3f 7b71 c1bf 190b a5be 3962 53be
000001f0: 0514 07bf 89bd 9c3e b0e1 59bf 25eb d0be
00000200: 08b8 b33e a821 963e c09e 23bf 461d 74c0
00000210: c560 913e bf0d 04be d566 223f 220d 1c3e
00000220: e68c c13e 9d17 aebf 3287 cb3d 9dd3 57be
00000230: c540 84bf 2424 41c0 1de0 323f 23ea 62bf
00000240: 52d6 5abe 1829 223f c619 623e d20a 2ebf
00000250: c689 a8bc 8385 3fbe f7bb 383f 31b1 cabf
00000260: c3f7 d63d cb54 71bf 3759 523e 450e a4be
00000270: 6f29 203f f995 643e b9a5 4bbf 6a12 4dbf
00000280: 4e31 183f df43 733d db5f 9fbe d9e5 9fbe
00000290: 333d 83bd 1013 4c3e f486 02c0 0bb2 9ebf
000002a0: 70ba f0be c199 35be f1bf 0840 ab55 963e
000002b0: 69f3 be3f 40fe dabe e92c 5dbe 45ac d3bd
000002c0: 8544 27bf 9589 08be 365c 46bc 0471 443b
000002d0: fdaf bbbe f684 a8bf 46ed e93d 5dc5 933e
000002e0: 5e25 06bf 7510 ae3e 1e54 933f b0de e5bd
000002f0: 6e40 f33e a88a 86bf e001 36bf 1ad0 d3bf
00000300: 70b0 bf3e 809a a03f 5960 b93f ce46 9bbe
00000310: 96b7 7abd bf38 8f3d 8d9c b23d 056d 42be
00000320: 78dd d13e 2125 4ebd 035a 3fbf 11a9 033f
00000330: 2ca3 80bf 39ee 8b3f 4e39 babe e35f 65bf
00000340: 33ce 4a3d 9063 933c 1517 e73f dcba 19c0
00000350: 9a0f 27bf bbfc 4cbf a64b f33e abc4 cbbe
00000360: 2641 a9be c20a fabf 01f0 9a3e 16ba cc3e
00000370: e11b 103f feb3 e93d 4d9e 34bf 05a6 9fbf
00000380: 8977 2d3f 9d4c a3be b5c4 30bf 2db6 bebf
00000390: 93a6 0b3e bf6e a23d ff07 d5bf f15a 1cbe
000003a0: 97a4 55bf 9465 4fbd 38b4 ba3e 48ea 1c3f
000003b0: d09a 953f f9a5 333e 5521 7d3d db3a 043d
000003c0: 7e5a 0f40 77e1 c93c 0729 953e 1bb0 de3e
000003d0: 32ee ca3e 62c8 c13e 3eee 0ebd d705 90bf
000003e0: 8b4d 9bbc 41d4 99bc 8ec6 d1bf 7cf4 44bf
000003f0: 8a6f 273f bee7 e33e d3bb 55bf e46e 22bf

model.0.bias f4 [256]
-0.32355317 0.45971534 -0.35848176 -0.1070718 -0.27998042 -0.41883218 0.87949747 -0.37563333
0.5505411 -1.3755555 0.76123154 -1.473708 0.27571756 -0.99107945 -0.3992446 -0.7811833
0.8731823 -0.20417866 -1.2832584 -0.34631246 0.11196027 0.48592263 -0.33419892 -0.28669605
0.43202242 0.020351356 0.17929584 0.13200232 -0.48424566 0.10821278 0.5629366 -1.6030879
0.3266518 1.052026 -0.009170177 -0.30667353 0.7568829 -1.1455865 -0.9676012 -0.4910908
-0.7027456 -0.32338768 -1.0909468 0.12797812 1.2539104 0.7376925 -0.45653364 -0.12673454
-1.1138923 0.7028884 0.006725804 -0.47569 -0.3064962 -0.09595376 -0.9630313 -0.17456241
-0.12822583 1.3640648 0.27297327 -0.5230243 -1.553291 0.28837433 1.2667747 -0.6327286
-0.5162437 -0.3722021 -0.12316767 0.5196068 -1.6466961 -0.43623805 -0.3636789 -0.69002724
-0.025267364 0.7293536 -0.43352196 -1.3033457 -1.0453873 -0.6402236 0.27078724 -0.5141192
-0.7308858 -0.678637 -0.26001388 -1.1175697 -1.0436252 -0.46858153 0.9939658 -1.1639063
1.5112462 -1.0187759 -0.4202684 0.4433938 0.42095682 1.3399092 -0.35449657 0.67033434
-1.295512 -0.4316488 1.072983 0.98691964 -1.0331886 -1.2335576 0.08114104 -0.73826075
-0.4423463 -0.10830459 0.13545579 1.0915184 -1.0388489 -1.2344512 1.5862126 -1.1553735
0.41162837 -0.2838438 -0.44358554 -0.73542136 0.70899737 -0.14253974 -0.29649624 -0.47416326
-0.3193029 0.29786035 -0.25626746 -0.2158086 -0.00768527 0.4009265 0.58012486 0.26685885
1.0691605 0.20734306 -1.2809238 0.6250321 -0.09246368 -0.9260286 -1.3648043 -0.1700188
-1.146105 -0.43514064 -0.11965384 -0.780393 -0.9505599 -1.2561783 -0.0069207167 -1.1348022
1.3358235 -0.1046825 -0.28845796 0.20784532 -1.0452456 -0.74472636 -0.05157505 0.95904714
-0.5904195 -0.2467448 -1.3522034 -0.37297848 -1.2882137 -0.45279562 -0.62815624 -0.35370827
-0.7706512 -0.24689546 -0.13675886 -1.3121213 -0.22223295 -1.0676595 0.04543347 -0.1933455
-1.1210728 -0.42314437 0.022630457 0.5020544 0.07594292 -0.39429912 -1.0962597 -0.6482605
-1.0630654 -0.7671072 0.47199175 0.035411883 -0.83255154 0.6029646 -1.3955119 0.6086692
-0.3891134 0.8963421 -0.45368907 0.7399056 -0.38180548 0.15036424 -0.37634996 -1.0647926
-0.8203536 0.95288485 -0.67622286 0.93197894 0.16919504 0.15018384 -0.37203273 0.20756191
0.67733717 0.096788 -0.11257547 -0.25051695 -0.40643108 -0.08226792 -0.78849095 -0.629074
0.4427614 -0.8078095 0.30313906 -1.3874822 -0.61261344 -0.42715672 -1.175635 0.8300497
-0.7095904 0.3204022 -1.2982394 0.3443483 -0.31821436 -1.1107981 0.0594168 0.16938561
-0.41086903 -0.59162855 -0.3421583 -0.7516814 -1.1206641 -0.2877019 -0.39871305 0.101103514
0.7929403 -1.0565605 -1.0508734 -0.07930441 0.87286484 1.0068289 -0.871975 -0.7797761
-1.5364138 0.74364245 -0.944237 -0.19960634 0.69323385 0.47872046 -1.721455 -0.9153671
-0.8612205 -0.019869922 0.28711504 0.28550982 0.2763679 0.27386373 1.1873503 -0.2629479
00000000: c3a8 a5be cf5f eb3e ec8a b7be 7648 dbbd
00000010: 9859 8fbe 2c71 d6be bf26 613f 0353 c0be
00000020: 43f0 0c3f 3412 b0bf 12e0 423f 77a2 bcbf
00000030: da2a 8d3e 62b7 7dbf ca69 ccbe a1fb 47bf
00000040: e088 5f3f 3614 51be d041 a4bf de4f b1be
00000050: 6d4b e53d daca f83e 1f1c abbe d3c9 92be
00000060: 0b32 dd3e e3b7 a63c 5499 373e 9e2b 073e
00000070: 0cef f7be a99e dd3d 9d1c 103f fc31 cdbf
00000080: e83e a73e caa8 863f 833e 16bc 5004 9dbe
00000090: 14c3 413f 94a2 92bf b6b4 77bf 4170 fbbe
000000a0: 23e7 33bf 1293 a5be 25a4 8bbf b20c 033e
000000b0: 2380 a03f 6ad9 3c3f c7be e9be b3c6 01be
000000c0: 0694 8ebf 7ff0 333f 2264 dc3b a48d f3be
000000d0: 12ed 9cbe 6883 c4bd 3889 76bf 7dc0 32be
000000e0: a24d 03be ad99 ae3f 27c3 8b3e ece4 05bf
000000f0: 3dd2 c6bf cda5 933e ac25 a23f 80fa 21bf
00000100: 8c28 04bf 4691 bebe 553f fcbd f404 053f
00000110: f0c6 d2bf 985a dfbe 1f34 babe a0a5 30bf
00000120: 81fd cebc ebb6 3a3f 97f6 ddbe 08d4 a6bf
00000130: 40cf 85bf b2e5 23bf a0a4 8a3e 519d 03bf
00000140: 551b 3bbf 28bb 2dbf 8a20 85be 860c 8fbf
00000150: 8395 85bf ebe9 efbe 8b74 7e3f e2fa 94bf
00000160: 8470 c13f 4067 82bf 6b2d d7be 8304 e33e
00000170: a787 d73e 2582 ab3f 9380 b5be 089b 2b3f
00000180: 56d3 a5bf 1201 ddbe 8257 893f c4a6 7c3f
00000190: 863f 84bf 37e5 9dbf 462d a63d a8fe 3cbf
000001a0: 377b e2be ccce ddbd ecb4 0a3e e0b6 8b3f
000001b0: 00f9 84bf 7f02 9ebf 0409 cb3f 47e3 93bf
000001c0: f4c0 d23e f953 91be a51d e3be 9344 3cbf
000001d0: da80 353f f0f5 11be 5bce 97be 87c5 f2be
000001e0: ab7b a3be 2781 983e 7d35 83be eefc 5cbe
000001f0: b8d4 fbbb 3d46 cd3e 1083 143f b9a1 883e
00000200: 40da 883f bd51 543e 50f5 a3bf 1b02 203f
00000210: 995d bdbd 3610 6dbf e8b1 aebf 6919 2ebe
00000220: 92b3 92bf c1ca debe 130d f5bd d6c7 47bf
00000230: e557 73bf 73ca a0bf 2ec7 e2bb 3341 91bf
00000240: 44fc aa3f c763 d6bd c3b0 93be 67d5 543e
00000250: 9cca 85bf 63a6 3ebf 5c40 53bd 1d84 753f
00000260: bb25 17bf abaa 7cbe 0015 adbf 09f7 bebe
00000270: 30e4 a4bf d4d4 e7be d9ce 20bf 4019 b5be
00000280: 6649 45bf 2ad2 7cbe 840a 0cbe 97f3 a7bf
00000290: 0991 63be 11a9 88bf 7218 3a3d 5dfc 45be
000002a0: 507f 8fbf 61a6 d8be 8263 b93c a386 003f
000002b0: f687 9b3d 93e1 c9be 3d52 8cbf 66f4 25bf
000002c0: 8712 88bf 2361 44bf e7a8 f13e 0d0c 113d
000002d0: 1922 55bf e35b 1a3f 22a0 b2bf bfd1 1b3f
000002e0: df39 c7be ad76 653f ef49 e8be 746a 3d3f
000002f0: 027c c3be 15f9 193e f1b0 c0be 204b 88bf
00000300: b202 52bf 43f0 733f f11c 2dbf 2c96 6e3f
00000310: 7741 2d3e cbc9 193e 137b bebe 1c8b 543e
00000320: f865 2d3f c938 c63d f88d e6bd c243 80be
00000330: bc17 d0be 157c a8bd 8bda 49bf fe0a 21bf
00000340: 9fb1 e23e 9acc 4ebf 0b35 9b3e 0499 b1bf
00000350: 3cd4 1cbf 49b4 dabe 357b 96bf 237e 543f
00000360: b7a7 35bf c20b a43e b52c a6bf 6c4e b03e
00000370: feec a2be a22e 8ebf 085f 733d 6c73 2d3e
00000380: 6d5d d2be f874 17bf 5f2f afbe 316e 40bf
00000390: ec71 8fbf aa4d 93be 1e24 ccbe 5c0f cf3d
000003a0: 23fe 4a3f 603d 87bf 0583 86bf 5a6a a2bd
000003b0: 1274 5f3f c5df 803f c139 5fbf 689f 47bf
000003c0: 35a9 c4bf 5a5f 3e3f 84b9 71bf 9b65 4cbe
000003d0: c677 313f d91a f53e a358 dcbf 8055 6abf
000003e0: f278 5cbf 3fc6 a2bc be00 933e 582e 923e
000003f0: 1880 8d3e de37 8c3e 18fb 973f 1ba1 86be

model.2.weight f4 [256, 256]
0.0004990353 0.01725564 -0.03129582 0.021248631 -0.070354305 -0.017654417 0.015206048 0.02538415
-0.01406154 0.047443423 0.021121873 0.0026365982 -0.011221786 0.021275492 -0.06504543 -0.012802937
0.025636515 0.02774666 0.04992654 -0.002495865 -0.013104128 -0.0407004 0.015530873 -0.030163534
-0.009457831 -0.03559387 -0.04292678 -0.009308496 -0.029069448 0.0074182036 -0.020293709 -0.044481438
-0.019199412 -0.07729828 -0.050016966 -0.014422587 0.028685242 -0.018626498 0.03458488 0.022320248
0.01455085 -0.02022562 0.01916648 -0.0006972328 -0.046182167 0.008931635 0.03547458 0.018273022
-0.034256443 -0.038996782 -0.0427292 -0.03944142 -0.043838497 -0.082811974 -0.0375178 -0.072632805
0.05005356 0.049484383 -0.013511568 0.06754677 -0.052012853 0.041438766 -0.030283654 -0.037510395
0.0070424597 -0.06985447 0.030793473 -0.046892103 0.028513119 -0.028048122 0.019331058 -0.010123315
-0.021916578 -0.05742583 0.009406749 0.06709592 -0.009612896 -0.04908383 -0.1061068 -0.045822717
-0.07129082 -0.043469615 -0.06822618 0.014478845 -0.033170775 0.017755054 0.027574424 0.025261365
0.07686747 -0.055425167 -0.013034495 -0.06695816 -0.027002554 0.05513269 -0.006052264 0.016127681
0.0564716 0.0053513646 -0.018279538 -0.064521015 -0.040770248 -0.051273227 -0.026741773 0.013545677
-0.109635204 -0.007575044 0.027677894 -0.055723783 -0.038080767 0.049606808 0.023509573 -0.045954444
-0.0082230875 -0.03687635 0.053978987 0.027161896 0.043374233 0.00865653 0.021080868 -0.04472287
-0.083165206 0.010846646 0.017123077 -0.019334432 0.005743399 -0.042299874 0.007630086 -0.04821708
-0.0059288135 -0.051081028 0.009830139 -0.04315731 0.0061088107 -0.033192415 -0.053551782 -0.0552417
0.01076479 -0.066784725 -0.010332657 -0.007107588 0.01911557 -0.048028 -0.043982126 -0.01510398
-0.021580344 -0.08181628 0.007934255 -0.040763196 0.010572572 0.034448337 0.08126221 0.0018929751
-0.08352931 -0.04075794 -0.036772612 -0.05875897 -0.0027876552 0.019793509 -0.040827807 -0.060040113
-0.024949199 -0.09481945 -0.0074613555 -0.03912683 0.028467821 -0.027575022 0.018659549 -0.050961755
-0.044278853 0.005845011 0.053091075 -0.021431796 -0.031458892 -0.05316902 -0.055929966 0.0070737754
0.0022463084 0.06664447 -0.07747789 -0.021891367 -0.03666029 -0.03496673 0.027730728 -0.06271622
-0.06491032 -0.06480547 -0.017432347 -0.007303346 0.04254612 -0.07791219 -0.058673456 0.009732891
0.01535183 0.006957352 -0.012333969 -0.03664886 -0.012193938 -0.03178349 0.0065099644 0.011558117
-0.018194366 -0.0073009185 0.04486909 -0.00085302873 -0.027532475 -0.051104806 -0.02412186 0.003394708
0.011855928 -0.020670056 -0.064328484 -0.039688826 -0.024998851 -0.049701527 -0.021213166 0.020975528
-0.04712856 0.019186655 -0.048092626 -0.03970279 -0.044913404 -0.048061997 0.008784142 -0.011671521
0.014407068 0.038928863 -0.053577997 0.008014508 0.037278112 0.036686994 -0.08222436 0.017975511
-0.048414096 -0.049823616 -0.0372255 -0.027142663 -0.012245826 -0.06668223 -0.06851518 0.02620474
-0.06060206 -0.0005388108 -0.06310612 0.022248534 -0.027529776 -0.015309784 0.058752645 0.023072127
0.007846945 -0.0778156 -0.02705339 -0.024278723 -0.09783302 0.043506626 -0.025456773 -0.054969523
00000000: b1d1 023a b35b 8d3c 0c30 00bd 9c11 ae3c
00000010: eb15 90bd ff9f 90bc ca22 793c 6cf2 cf3c
00000020: 6062 66bc 0954 423d c707 ad3c c7ca 2c3b
00000030: 95db 37bc f149 ae3c 8a36 85bd 69c3 51bc
00000040: ab03 d23c f74c e33c c67f 4c3d ab91 23bb
00000050: b2b2 56bc 76b5 26bd 3475 7e3c 8419 f7bc
00000060: 05f5 1abc e1ca 11bd fed3 2fbd a982 18bc
00000070: 0d23 eebc 6714 f33b fe3e a6bc 2b32 36bd
00000080: 1648 9dbc 904e 9ebd 97de 4cbd b74c 6cbc
00000090: 50fd ea3c 9996 98bc e0a8 0d3d f4d8 b63c
000000a0: b066 6e3c 33b0 a5bc 0603 9d3c 80c6 36ba
000000b0: 8329 3dbd fe55 123c cb4d 113d 4eb1 953c
000000c0: 7c50 0cbd 17bb 1fbd d004 2fbd 548d 21bd
000000d0: ff8f 33bd 5399 a9bd 44ac 19bd 82c0 94bd
000000e0: f604 4d3d 23b0 4a3d a05f 5dbc f655 8a3d
000000f0: 6e0b 55bd b2bb 293d 6d15 f8bc 80a4 19bd
00000100: 6fc4 e63b dc0f 8fbd 9842 fc3c ef11 40bd
00000110: 5894 e93c 2dc5 e5bc 2b5c 9e3c 43dc 25bc
00000120: 658a b3bc 5937 6bbd c41e 1a3c 9669 893d
00000130: 687f 1dbc 200c 49bd 864e d9bd 9ab0 3bbd
00000140: ec00 92bd 320d 32bd 2bba 8bbd ad38 6d3c
00000150: 14de 07bd 0c73 913c c2e3 e13c ecf0 ce3c
00000160: b16c 9d3d 8005 63bd a28e 55bc 5c21 89bd
00000170: 7634 ddbc d1d2 613d 1252 c6bb 331e 843c
00000180: c44e 673d 805a af3b f8be 95bc 9823 84bd
00000190: b4fe 26bd e003 52bd 9011 dbbc b0ee 5d3c
000001a0: 6c88 e0bd 1338 f8bb c0bc e23c 9f3e 64bd
000001b0: 94fa 1bbd 8230 4b3d 2697 c03c ba3a 3cbd
000001c0: 21ba 06bc a80b 17bd 1219 5d3d a082 de3c
000001d0: 2ea9 313d 1ed4 0d3c c9b1 ac3c 542f 37bd
000001e0: 8552 aabd 21b6 313c b245 8c3c 3e63 9ebc
000001f0: 1f33 bc3b a242 2dbd cd05 fa3b 467f 45bd
00000200: 7e46 c2bb 573a 51bd 970e 213c b8c5 30bd
00000210: 6b2c c83b c5f4 07bd 1d59 5bbd 1f45 62bd
00000220: cd5e 303c 6ec6 88bd 4e4a 29bc c5e6 e8bb
00000230: 4198 9c3c 02b9 44bd 9a26 34bd af76 77bc
00000240: 43c9 b0bc 4b8f a7bd adfe 013c 4ff7 26bd
00000250: 9538 2d3c b319 0d3d cd6c a63d b41d f83a
00000260: 6a11 abbd ccf1 26bd e19e 16bd 3fad 70bd
00000270: 18b1 36bb ff25 a23c 0f3b 27bd 9fec 75bd
00000280: 4362 ccbc b330 c2bd 637e f4bb 7443 20bd
00000290: 5935 e93c 03e5 e1bc e9db 983c 46bd 50bd
000002a0: be5d 35bd 8287 bf3b 0776 593d bc91 afbc
000002b0: 0adb 00bd c2c7 59bd d216 65bd 21cb e73b
000002c0: cd36 133b e57c 883d baac 9ebd 8655 b3bc
000002d0: 1a29 16bd 4639 0fbd 8d2b e33c 5d71 80bd
000002e0: b4ef 84bd bbb8 84bd 48ce 8ebc e850 efbb
000002f0: d744 2e3d 6d90 9fbd 9453 70bd b476 1f3c
00000300: 3e86 7b3c 80fa e33b 6a14 4abc 1d1d 16bd
00000310: 15c9 47bc 682f 02bd 8a51 d53b 425e 3d3c
00000320: 5a0c 95bc 8b3c efbb a7c8 373d ca9d 5fba
00000330: c98b e1bc 4653 51bd 359b c5bc c079 5e3b
00000340: 5e3f 423c 4054 a9bc a7be 83bd c090 22bd
00000350: 64ca ccbc d493 4bbd 3cc7 adbc dfd4 ab3c
00000360: e009 41bd 552d 9d3c c6fc 44bd 659f 22bd
00000370: 1ef7 37bd a8dc 44bd 5deb 0f3c e839 3fbc
00000380: 9f0b 6c3c df73 1f3d 9a74 5bbd 484f 033c
00000390: efb0 183d 1a45 163d 3f65 a8bd 6141 933c
000003a0: dc4d 46bd d913 4cbd c479 18bd 4a5a debc
000003b0: b8a2 48bc b190 88bd b051 8cbd 53ab d63c
000003c0: de39 78bd fb3e 0dba c83d 81bd 8f42 b63c
000003d0: 2086 e1bc e3d5 7abc 9da6 703d c201 bd3c
000003e0: 7990 003c c95d 9fbd 129f ddbc 2ce4 c6bc
000003f0: ae5c c8bd 0134 323d b98a d0bc b927 61bd

model.2.bias f4 [256]
-0.015075763 -0.1929595 -0.20687592 0.4301826 0.010142002 -0.007539423 -0.45797226 -0.38075837
-1.2132543 0.20018522 -0.06548314 0.2051349 -0.09833134 -0.48377162 -0.05366716 0.56348
0.25661138 0.52508074 -0.028708866 -0.26930848 0.61149234 -0.0658915 -0.04166465 0.16628592
0.26682314 0.072220795 -0.059858285 -0.11025019 -0.60185856 -0.60476637 -1.0261747 0.07333121
-0.090292 -0.7040805 -0.11973068 -0.09090244 0.28739318 -0.19408779 0.21666455 -0.07007645
-0.059283603 -0.5265083 -0.062552206 -0.006051348 -0.039489947 0.006810573 -0.06336027 -0.045069054
0.9048363 -0.48764682 -0.008899187 -0.05510314 0.00275937 -0.013834027 -0.03233368 -0.09194212
1.1504799 -0.011615552 -0.63084286 -0.08925241 -0.5860298 -0.08690214 -0.009606585 -0.6930322
-0.74175537 -0.043168567 -0.13099566 -0.34623256 1.4493701 0.38103938 -0.16377148 -0.1067688
-0.036815383 -0.36375007 0.02177548 0.62063754 -0.8208095 0.44302094 0.7319753 0.15510297
-0.0072768605 -0.03617419 0.30420128 -0.2684735 -0.012110361 -0.121198274 -1.2938076 -0.89100593
0.08239815 -0.46901473 0.07612557 -0.10685037 -0.7466111 0.038912605 -0.09255789 -0.4969751
-0.16985698 0.76911086 -0.3977796 -0.35776433 -0.082580216 0.094024055 -0.069416605 -0.57508117
-0.4377404 -0.43586156 -0.6682319 -0.06971972 -0.1029194 0.24750967 0.32275432 -0.33135596
-0.65753865 0.066995494 -0.55685186 0.023151318 -0.3482892 -0.65591604 -0.0866263 -0.44732237
0.7181274 0.23083425 1.2115614 -0.020550197 -0.6753534 -0.082649335 -0.042563133 -0.25990802
0.079297304 -0.28475145 -0.68579537 0.07508968 -0.027427815 -0.0955411 -0.74596244 -0.028375328
-0.5556467 -0.04248967 -0.13198225 -1.2373352 -0.014353954 0.60267776 -0.69941723 0.3573957
0.113270946 -0.081064455 -0.5442974 -0.08611394 0.9226536 0.0024403383 -0.70632017 0.0014006537
-0.05676217 -0.42892274 0.7335684 0.013725248 0.22265457 -0.44550917 0.0037906936 -0.5516727
-0.26691476 -0.50893056 0.4637945 -0.49036974 0.48113114 -0.26795563 -0.18610011 -0.09113792
-0.1351496 0.43246886 -0.2241006 0.2809859 -0.26916504 -0.1491078 0.025778955 -0.0312572
-0.49439105 -0.07046798 0.022770057 -0.07855082 -0.060549837 0.029841231 -0.066175565 0.013502757
0.0010000162 -0.096347526 -0.14752522 -0.1853874 -0.7297201 0.2396641 0.86095124 0.00646333
-0.4359033 -0.4362105 0.72392094 -0.35246342 0.6091556 -0.5490652 0.4237022 -0.29905942
-0.13990283 -0.020969372 -0.009580498 -1.3164579 -0.10155651 -0.31103736 -0.8707441 -0.096816905
-1.5193596 0.69867927 -0.04211343 -0.08053581 -0.63658386 -0.076327875 -0.06491027 -0.04890643
-0.20668113 -0.65814865 -0.81066215 -0.0765469 0.77288616 -0.3410549 -0.5216212 -0.08430921
-0.031077009 -0.8009757 -0.55611926 -0.06580306 -0.06481169 -0.38169408 0.018476916 -0.6182128
-0.07823415 -0.019347623 -0.07915185 0.02963178 -0.03457792 -0.41339752 0.0027211485 -0.20004427
-0.11023311 0.30553266 0.0012966233 0.728713 -0.14804487 -0.5925091 0.19404283 -0.0933281
-0.041357074 -0.05357855 -0.4248214 0.76949143 -0.035226323 -0.33366793 -0.038473908 -0.6725539
00000000: 5500 77bc 2d97 45be 48d7 53be e540 dc3e
00000010: a42a 263c 440d f7bb 577b eabe c3f2 c2be
00000020: eb4b 9bbf 5bfd 4c3e 061c 86bd e20e 523e
00000030: f161 c9bd eab0 f7be 19d2 5bbd 3a40 103f
00000040: 9162 833e b16b 063f db2e ebbc cde2 89be
00000050: c38a 1c3f 1ff2 86bd 8da8 2abd db46 2a3e
00000060: 0b9d 883e 7fe8 933d f62d 75bd daca e1bd
00000070: 6713 1abf f8d1 1abf b159 83bf ac2e 963d
00000080: 03eb b8bd 9f3e 34bf 5c35 f5bd 0f2b babd
00000090: 3325 933e f3be 46be 50dd 5d3e 3e84 8fbd
000000a0: 5dd3 72bd 3fc9 06bf 5f1b 80bd 634a c6bb
000000b0: 36c0 21bd 3a2b df3b 07c3 81bd 549a 38bd
000000c0: 5aa3 673f d8ac f9be e5cd 11bc d5b3 61bd
000000d0: 8cd6 343b 1da8 62bc 5270 04bd 264c bcbd
000000e0: ed42 933f 284f 3ebc eb7e 21bf f8c9 b6bd
000000f0: 0d06 16bf c0f9 b1bd f064 1dbc 8f6a 31bf
00000100: aee3 3dbf 86d1 30bd ba23 06be 6545 b1be
00000110: f684 b93f 9817 c33e b6b3 27be 9aa9 dabd
00000120: bacb 16bd 733d babe 7e62 b23c 1ae2 1e3f
00000130: 9220 52bf a4d3 e23e bc62 3b3f 50d3 1e3e
00000140: bb72 eebb 632b 14bd 45c0 9b3e 5c75 89be
00000150: 896a 46bc cd36 f8bd 7d9b a5bf f718 64bf
00000160: 5cc0 a83d b322 f0be b9e7 9b3d 5ed4 dabd
00000170: e821 3fbf d362 1f3d fe8e bdbd 8573 febe
00000180: fdee 2dbe 73e4 443f c5a9 cbbe e32c b7be
00000190: d11f a9bd af8f c03d 4b2a 8ebd 8538 13bf
000001a0: 821f e0be 3f29 dfbe 3f11 2bbf 36c9 8ebd
000001b0: 68c7 d2bd 2d73 7d3e 0e40 a53e 7da7 a9be
000001c0: 7454 28bf ef34 893d d88d 0ebf d5a7 bd3c
000001d0: f652 b2be 1dea 27bf 2169 b1bd 7007 e5be
000001e0: 33d7 373f d05f 6c3e 7214 9b3f e358 a8bc
000001f0: f6e3 2cbf 0e44 a9bd ae56 2ebd aa12 85be
00000200: a066 a23d f1ca 91be 4990 2fbf 9ec8 993d
00000210: 4cb0 e0bc 0dab c3bd 65f7 3ebf 6073 e8bc
00000220: dd3e 0ebf a609 2ebd 5b26 07be 0061 9ebf
00000230: d92c 6bbc 1749 1a3f 020d 33bf 92fc b63e
00000240: 99fa e73d 1f05 a6bd 1357 0bbf 815c b0bd
00000250: 0733 6c3f 15ee 1f3b 66d1 34bf 2496 b73a
00000260: 737f 68bd c39b dbbe 23cb 3b3f dddf 603c
00000270: 8fff 633e c719 e4be 496d 783b 6c3a 0dbf
00000280: 0da9 88be 4649 02bf 7976 ed3e be11 fbbe
00000290: d256 f63e 7b31 89be 0791 3ebe 85a6 babd
000002a0: a864 0abe 8f6c dd3e a17a 65be 62dd 8f3e
000002b0: 00d0 89be b7af 18be 632e d33c 8d07 00bd
000002c0: d320 fdbe 8451 90bd 4588 ba3c 41df a0bd
000002d0: 1b03 78bd 9975 f43c 0e87 87bd ab3a 5d3c
000002e0: fa12 833a da51 c5bd da10 17be 32d6 3dbe
000002f0: f0ce 3abf 816a 753e 4d67 5c3f 57ca d33b
00000300: b82e dfbe fc56 dfbe e252 393f 1676 b4be
00000310: 9ff1 1b3f 898f 0cbf 7fef d83e 511e 99be
00000320: b042 0fbe f6c7 abbc 85f7 1cbc b181 a8bf
00000330: dcfc cfbd 4a40 9fbe 16e9 5ebf f147 c6bd
00000340: 607a c2bf a5dc 323f 227f 2cbd f5ef a4bd
00000350: 29f7 22bf ca51 9cbd adef 84bd 1c52 48bd
00000360: 38a4 53be 6e7c 28bf 8e87 4fbf 9fc4 9cbd
00000370: dedb 453f bf9e aebe f888 05bf 4faa acbd
00000380: 3695 febc be0c 4dbf d55d 0ebf c1c3 86bd
00000390: febb 84bd 686d c3be e75c 973c 3243 1ebf
000003a0: 3a39 a0bd e87e 9ebc 5d1a a2bd 59be f23c
000003b0: 94a1 0dbd d7a8 d3be 4c55 323b 68d8 4cbe
000003c0: e6c1 e1bd c76e 9c3e 75f3 a93a ef8c 3a3f
000003d0: 1399 17be adae 17bf 2ab3 463e ce22 bfbd
000003e0: 0966 29bd 2f75 5bbd 3182 d9be 64fd 443f
000003f0: 7a49 10bd 86d6 aabe d196 1dbd 7e2c 2cbf

model.4.weight f4 [1, 256]
-0.0028893747 -0.7040081 -2.7599795 0.4529958 0.009583659 0.02126989 -3.0251367 -0.7437653
-3.1866007 -3.4297342 0.0014128027 0.42501023 0.00048617087 -1.6034803 0.0012441935 -0.6401562
-0.92901343 -4.9422417 -0.00072758755 -2.2274034 -1.0243332 -0.021797508 0.027906213 -4.211891
-4.46559 0.8577891 -0.017698886 0.0145861935 -4.2873154 -4.140343 -3.4786031 4.1473246
0.016968086 -3.7107942 -0.90585035 0.019450398 -2.8050847 -0.011148035 0.57971334 -1.4322348
0.005078192 -2.4440994 -0.029274 -0.012407429 0.00537869 -0.012763771 0.010359774 0.18048628
0.17484291 -2.275256 0.0022626636 -0.5921123 0.00056402193 -0.011767258 0.011000487 0.036043152
0.330231 -0.024368446 -1.5971761 -0.9357714 -2.004581 0.009900328 0.016623406 -1.9654162
-2.37591 0.009631287 0.0073216553 0.69854534 0.45541695 -1.2614036 0.028489778 -0.009540731
0.001191553 -0.21727172 -1.3821464 0.0434369 -4.2638507 1.1501759 0.8890941 -0.19584303
0.006571768 -0.009139191 1.5370287 -2.6008968 0.009750451 -0.69168425 -2.385707 -1.9346861
2.5472522 0.7465384 1.1073446 -2.7729251 -3.9840968 0.8209315 0.011758687 -1.471735
-0.07012942 0.5294556 2.7858765 -1.6364268 0.0035723376 3.4606795 -0.00089884637 -1.0465662
-4.3874035 -1.193098 -2.0541875 -0.008977244 -2.47722 -0.97982466 0.9928593 -1.4183164
-2.2352455 1.1339126 -1.45738 -0.5053556 -4.5492096 -4.1708755 -0.019669756 -1.3295029
0.5795563 -0.504009 1.2999064 -0.13811187 -3.3529305 -0.0072504724 0.03926267 0.7579403
2.251936 -3.0146284 -1.454097 2.0278862 0.019366382 0.022803806 -4.4945517 0.001530539
-3.3258264 -0.02701011 -0.0058112144 -3.2304332 0.017962614 1.5707877 -2.056738 1.0389135
0.8719126 0.0035918942 -1.0239396 -3.640213 -0.7393884 0.016846864 -4.292648 0.017573036
0.013246454 -1.7362447 2.6152968 0.0050462624 0.8837008 -1.7040997 -0.034309395 -1.1585437
1.0194408 -1.785333 1.5416927 -2.6057296 2.07366 1.0766639 -0.7357367 -0.006640443
-0.003188823 0.69044054 -2.2205827 -0.18995076 -2.4335155 -1.1498679 0.011593484 0.014985303
-3.1000304 0.026267216 0.012719832 -0.014693848 -0.024938498 0.026071768 0.008964864 -0.0047891364
-0.020624027 -0.018790841 0.03319523 -3.1150851 -1.1151603 1.0895131 -0.14106548 0.014560012
-4.1254025 -1.9811199 1.1074294 -4.7022204 1.8987311 -4.2457423 0.62297857 0.95277417
-3.4490004 -0.0018341879 3.03092 -6.668789 -0.0006422669 -1.1289208 -2.9899514 -0.009307299
-2.0750544 0.24306336 -1.1487532 -0.019807536 -4.4110923 -0.003465581 -0.006621002 -0.024179677
-0.9748964 -2.1265814 -0.39069328 -0.011386663 0.45901987 -2.096838 -1.5527545 0.026158918
0.03445169 -2.321634 -1.4063307 -0.76739436 -0.025051292 -0.26095524 0.017864374 -0.92498857
-0.021147646 0.021004735 0.0033466972 0.04525929 -0.0059602773 -1.8162721 0.0006536781 -1.2991309
-0.89958656 -1.306684 0.022443796 0.16759129 -0.91102123 -0.902875 1.774114 -0.73224455
0.023449374 0.020263158 -2.119972 -0.34749037 -0.006917816 -1.2692826 0.0012634986 -0.539415
00000000: aa5b 3dbb e039 34bf 81a3 30c0 11ef e73e
00000010: c704 1d3c 313e ae3c d79b 41c0 6767 3ebf
00000020: 44f1 4bc0 c480 5bc0 cb2d b93a f19a d93e
00000030: c0e4 fe39 d83e cdbf 3514 a33a 47e1 23bf
00000040: d3d3 6dbf d826 9ec0 93bb 3eba c78d 0ec0
00000050: 5a1d 83bf b090 b2bc 929b e43c d0c7 86c0
00000060: 1de6 8ec0 1198 5b3f 41fd 90bc eefa 6e3c
00000070: b031 89c0 b17d 84c0 6fa1 5ec0 e2b6 8440
00000080: a800 8b3c a77d 6dc0 cfe5 67bf 7156 9f3c
00000090: 8286 33c0 3fa6 36bc 1868 143f 7853 b7bf
000000a0: f666 a63b 206c 1cc0 07d0 efbc 8748 4bbc
000000b0: b93f b03b 231f 51bc 0bbc 293c 65d1 383e
000000c0: 050a 333e cb9d 11c0 3249 143b ac94 17bf
000000d0: dfda 133a 75cb 40bc 633b 343c fca1 133d
000000e0: 0a14 a93e 56a0 c7bc 4470 ccbf b78e 6fbf
000000f0: 0e4b 00c0 fc34 223c cf2d 883c c292 fbbf
00000100: e90e 18c0 8ccc 1d3c 7fea ef3b ded3 323f
00000110: 692c e93e ac75 a1bf 6563 e93c ba50 1cbc
00000120: e22d 9c3a 7a7c 5ebe 2cea b0bf e4ea 313d
00000130: 7771 88c0 f738 933f ac9b 633f 138b 48be
00000140: fc57 d73b 8cbc 15bc 5bbd c43f 1875 26c0
00000150: 5bc0 1f3c 3812 31bf 6caf 18c0 cba3 f7bf
00000160: 2e06 2340 241d 3f3f 78bd 8d3f 9b77 31c0
00000170: 71fb 7ec0 9128 523f 82a7 403c d061 bcbf
00000180: 03a0 8fbd 678a 073f cd4b 3240 6f76 d1bf
00000190: e11d 6a3b c67b 5d40 8fa0 6bba e2f5 85bf
000001a0: 9c65 8cc0 6fb7 98bf cf77 03c0 4a15 13bc
000001b0: c68a 1ec0 cad5 7abf 072c 7e3f 648b b5bf
000001c0: 430e 0fc0 0c24 913f 6e8b babf fc5e 01bf
000001d0: 2093 91c0 d077 85c0 7822 a1bc 272d aabf
000001e0: cd5d 143f bc06 01bf 5563 a63f 336d 0dbe
000001f0: 6a96 56c0 5f95 edbb e5d1 203d 6008 423f
00000200: b81f 1040 acef 40c0 da1f babf e3c8 0140
00000210: 3fa6 9e3c 0ccf ba3c 5ed3 8fc0 5e9c c83a
00000220: 57da 54c0 4e44 ddbc 006c bebb 6bbf 4ec0
00000230: 5526 933c 920f c93f 98a1 03c0 1efb 843f
00000240: aa35 5f3f fc65 6b3b 7410 83bf 40f9 68c0
00000250: 8f48 3dbf 6f02 8a3c 5f5d 89c0 54f5 8f3c
00000260: a807 593c 443d debf 0661 2740 1e5b a53b
00000270: 373a 623f f01f dabf 0288 0cbd 294b 94bf
00000280: 097d 823f cb85 e4bf 3056 c53f 46c4 26c0
00000290: d8b6 0440 1fd0 893f 3e59 3cbf 1398 d9bb
000002a0: 92fb 50bb b6c0 303f 071e 0ec0 7482 42be
000002b0: b8be 1bc0 df2e 93bf 99f2 3d3c eb84 753c
000002c0: e666 46c0 582e d73c d866 503c 77be 70bc
000002d0: d24b ccbc 7694 d53c 5de1 123c 30ee 9cbb
000002e0: b8f3 a8bc 40ef 99bc b9f7 073d 8e5d 47c0
000002f0: 93bd 8ebf 2a75 8b3f 7873 10be 1e8d 6e3c
00000300: 4c03 84c0 5695 fdbf 3fc0 8d3f 9778 96c0
00000310: 9f09 f33f 1fdd 87c0 867b 1f3f 02e9 733f
00000320: 6cbc 5cc0 2269 f0ba 98fa 4140 b866 d5c0
00000330: cd5d 28ba 7a80 90bf 5d5b 3fc0 a47d 18bc
00000340: b1cd 04c0 9ae5 783e 580a 93bf 6a43 a2bc
00000350: ab27 8dc0 cd1e 63bb fef4 d8bb 7514 c6bc
00000360: cf92 79bf e919 08c0 f308 c8be 208f 3abc
00000370: a704 eb3e 9832 06c0 a9c0 c6bf 3a4b d63c
00000380: 371d 0d3d a795 14c0 a502 b4bf f573 44bf
00000390: 5e38 cdbc ed9b 85be 4f58 923c 0dcc 6cbf
000003a0: d43d adbc 1f12 ac3c 4354 5b3b ce61 393d
000003b0: 6e4e c3bb 9b7b e8bf 985b 2b3a ec49 a6bf
000003c0: 4e4b 66bf 6c41 a7bf 0ddc b73c 0d9d 2b3e
000003d0: b038 69bf d122 67bf 2b16 e33f 6174 3bbf
000003e0: e718 c03c ecfe a53c 9fad 07c0 42ea b1be
000003f0: d9ae e2bb da77 a2bf fa9b a53a 1a17 0abf
