hw2/preTrained/ddpg_critic_LunarLanderContinuous-v2_04242023_185937_.pth (torch, 74135 bytes, 5 tensors)

model.0.weight f4 [128, 10]
0	0x3f44c8fe	0.7686919
1	0x3f8e8c1e	1.113651
2	0x3e27ed75	0.16399176
3	0x3e6b69ae	0.22989532
4	0x3efa6909	0.4890826
5	0x3dd9dd5c	0.10637924
6	0xbf5e3069	-0.8679262
7	0x3f3bdb12	0.7338115
8	0xbe583a3b	-0.21115963
9	0xbeb592c6	-0.35463542
10	0xbf94da12	-1.162905
11	0x3f9bc1f4	1.2168565
12	0x3ec804d4	0.39066184
13	0x3ee44305	0.44582382
14	0xbfe39655	-1.7780253
15	0xbf8442b8	-1.0332861
16	0x3fd066cc	1.6281371
17	0x3ef3b91c	0.47602165
18	0xbd011a6f	-0.03151935
19	0x3f8ee37e	1.1163175
20	0xbe90d8f1	-0.28290513
21	0xbf1bec5f	-0.6090755
22	0x3d74fae6	0.059809588
23	0xbe413c98	-0.18870771
24	0x3e2d1048	0.16900742
25	0x3f95d46b	1.170545
26	0x3eca7163	0.39539632
27	0xbeee7255	-0.46571603
28	0x3ee14203	0.43995675
29	0xbeec96cb	-0.46208796
30	0xbe90e417	-0.2829902
31	0xc02cdcb0	-2.7009697
32	0xbf772be4	-0.96551347
33	0x3c88133c	0.016610734
34	0xbe27c09e	-0.16382071
35	0xbc20fcb6	-0.009825876
36	0xbf024436	-0.5088533
37	0x3f181f14	0.5942242
38	0x3f4fa13b	0.81105393
39	0xbd95885d	-0.073014
40	0x3e4e26ff	0.20132063
41	0xc06293e5	-3.5402768
42	0xbf14f0ae	-0.5817975
43	0x3e3dc370	0.18531585
44	0x3f577657	0.8416495
45	0xbe97bd94	-0.29636824
46	0xbfa881df	-1.3164634
47	0x3eba15e6	0.36344832
48	0x3e981ffa	0.29711896
49	0x3eabc7aa	0.3355077
50	0x3f94ba39	1.1619331
51	0x3f90e8fd	1.1321102
52	0xbf028bab	-0.50994366
53	0x3f94f017	1.163577
54	0xbdf774a6	-0.12082796
55	0x3d7bec1e	0.061504476
56	0xbff9fe65	-1.953076
57	0xc03d534f	-2.9582098
58	0x3d666426	0.056247853
59	0x3d215d7f	0.039395805
60	0x3f6cceb2	0.9250289
61	0xbe9de521	-0.30838874
62	0x3fa864d2	1.3155768
63	0xbe491d6d	-0.19640131
64	0xbf3dd846	-0.7415813
65	0xbc9bf10c	-0.019035839
66	0x400dfd72	2.218594
67	0x3f3cb240	0.7370949
68	0x3d021f41	0.031768087
69	0xbca43b3e	-0.02004778
70	0xbf839ec4	-1.0282826
71	0xc08f11bb	-4.4709144
72	0xbe95ec5d	-0.29281893
73	0x3dd5b9d7	0.10435837
74	0x3e4e053c	0.20119184
75	0xbf143235	-0.5788911
76	0xbeba40dc	-0.3637761
77	0x3dc6e533	0.09711685
78	0xbea9a26c	-0.3313173
79	0xbe29da45	-0.1658717
80	0xbf9ee76c	-1.2414374
81	0xc0950810	-4.657234
82	0xbf0ed6f1	-0.55796725
83	0xbf183857	-0.5946097
84	0xbe32442e	-0.17408821
85	0xbe7a3555	-0.24434407
86	0xc03ab182	-2.9170842
87	0xbd416342	-0.0472138
88	0xbe954ea1	-0.29161552
89	0x3f381516	0.71907175
90	0x3f4ab6e0	0.79185295
91	0x3f80ffc2	1.0078051
92	0x3dd643a4	0.1046212
93	0xbf7661b3	-0.9624283
94	0xbefdce4f	-0.49571463
95	0x3dc76ee7	0.0973795
96	0x3f5a058e	0.85164726
97	0xbf9aa0c8	-1.2080317
98	0xbc966351	-0.018357905
99	0xbe9d271a	-0.30693895
100	0x3f63b65b	0.8895013
101	0x3f6f861c	0.9356401
102	0x3f0c9556	0.5491537
103	0x3eb90ba2	0.36141688
104	0x3f086bc2	0.53289425
105	0xbf9329c5	-1.1497122
106	0xbfc3be05	-1.5292364
107	0x3f621c2f	0.88324255
108	0xbea16869	-0.3152497
109	0xbf5a303d	-0.85229856
110	0xbf101470	-0.56281185
111	0x3f55b385	0.8347705
112	0x3f21b2a6	0.6316322
113	0xbf2a4b35	-0.66521007
114	0xbecd2a8b	-0.4007152
115	0x3d6a8e2d	0.057264496
116	0x3f0dd16f	0.55397695
117	0xbfa302f6	-1.2735279
118	0x3b633b76	0.0034672893
119	0xbe542f7a	-0.20721236
120	0xbfae883e	-1.3635328
121	0xc084d533	-4.1510253
122	0xbf60afac	-0.87768054
123	0x3ee4a12f	0.44654223
124	0x3f10e71e	0.56602657
125	0xbf83d66d	-1.0299813
126	0xbf2c3a2c	-0.67276263
127	0x3e970d96	0.29502553
128	0x3f1711be	0.5901145
129	0x3e67fa18	0.22653997
130	0xbf9b6b7b	-1.2142175
131	0xbfe89c63	-1.8172725
132	0xbc780d6a	-0.015139917
133	0x3e98cbce	0.2984299
134	0xbcb01137	-0.021492584
135	0x3fbf413d	1.4941784
136	0xbe7f5832	-0.24935988
137	0xbdede227	-0.11615401
138	0x3d1561a2	0.036470063
139	0xbe6045f9	-0.21901692
140	0xbf253102	-0.64527905
141	0xbe8b6c4e	-0.27231067
142	0xbef196c5	-0.4718534
143	0xbf34f005	-0.7067874
144	0x3c80a2be	0.015702602
145	0xbed2109b	-0.41028294
146	0xbfa637c8	-1.2985773
147	0x3e65986c	0.22421426
148	0xbda5f76e	-0.08103834
149	0xbed9b24f	-0.4251885
150	0xbeb6d437	-0.35708782
151	0xbe878ae7	-0.26473162
152	0xbeb7966e	-0.35856956
153	0x3f13ce05	0.57736236
154	0xbebc22b0	-0.36745214
155	0x3f7562b4	0.95853734
156	0x3f0beb92	0.54656327
157	0x3f94dc58	1.1629744
158	0xbebc0215	-0.36720338
159	0x3e3a5a60	0.18198538
160	0xbf629c16	-0.8851942
161	0x3fa67730	1.3005123
162	0xbf311300	-0.69169617
163	0x3ed16580	0.4089775
164	0x3d97d0a0	0.07412839
165	0x3f640066	0.8906311
166	0xbfdff0d8	-1.7495375
167	0x3f219348	0.6311536
168	0x3ecff4c4	0.4061643
169	0xbde68b07	-0.11256986
170	0xbf548b8a	-0.8302542
171	0x3f380d5c	0.71895385
172	0xbe8b41fe	-0.27198786
173	0xbef7ff55	-0.4843699
174	0x3e035f36	0.12829289
175	0xbf4b1556	-0.7932943
176	0xbf2607ca	-0.64855635
177	0xbe85edd7	-0.2615802
178	0x3e8933ad	0.26797238
179	0x3d79a7a4	0.06095089
180	0x3fbcc5dd	1.4747883
181	0xbea4c377	-0.32180378
182	0x3e9ce7f9	0.3064573
183	0xbf2aa732	-0.6666137
184	0x3e59f9ac	0.21286649
185	0xbf1044fc	-0.5635526
186	0xbf58ab91	-0.8463679
187	0xbf51a18b	-0.8188712
188	0x3e7dbecf	0.24779819
189	0xbdc6d596	-0.09708707
190	0x3f4d537a	0.802055
191	0x3f1eaa68	0.6197877
192	0xbef90652	-0.48637635
193	0x3f1fb52e	0.62385833
194	0x3ed783a7	0.4209263
195	0x3ee45578	0.44596457
196	0xc037fbae	-2.8747363
197	0x3f0345de	0.51278484
198	0xbeff8f37	-0.49913952
199	0x3e12a445	0.14320476
200	0x3de0409c	0.10949823
201	0x3f5d2694	0.8638699
202	0xbe043a8f	-0.12912963
203	0x3e95391e	0.2914514
204	0x3f8260e0	1.0185814
205	0x3e261008	0.16217053
206	0xbfb347fe	-1.4006345
207	0x3f6bbfca	0.9208952
208	0x3e948354	0.29006445
209	0xbe9eafdb	-0.30993542
210	0xbefc7755	-0.49309793
211	0xbdaa665e	-0.08320306
212	0xbe9f2644	-0.31083882
213	0xbf66f02a	-0.9021021
214	0x3b8f18b5	0.004366959
215	0xbed2df5b	-0.41186032
216	0xbfed03db	-1.8516802
217	0x3e45f8d9	0.19333209
218	0xbe179f48	-0.14806855
219	0xbd867f8c	-0.065672964
220	0x3f928d56	1.1449382
221	0xbfd24fe0	-1.6430626
222	0x3f6e3c67	0.93060917
223	0xbf7e3ba0	-0.9930973
224	0x3e974494	0.29544508
225	0xbeebba31	-0.4604049
226	0xbec4dcae	-0.38449615
227	0x3d24f42b	0.04027192
228	0xbe963128	-0.29334378
229	0xbe0312cb	-0.12800138
230	0x3ed02dbb	0.4065989
231	0xbdd9050b	-0.10596665
232	0x3faf4268	1.369214
233	0x3e7d5605	0.24739845
234	0x3e9778df	0.29584405
235	0xbd0cfb49	-0.03441933
236	0x3f0d0298	0.5508208
237	0xbf56e047	-0.8393597
238	0x3da574c6	0.080789134
239	0x3f0c49a8	0.5479989
240	0xbeec1ddb	-0.46116528
241	0xc058ffc2	-3.3906102
242	0xbe154e9c	-0.14580768
243	0x3e0be956	0.1366323
244	0x3f0d3be9	0.5516954
245	0xbe1ed3f6	-0.15510544
246	0xbf198950	-0.5997515
247	0x3f46a027	0.77588123
248	0x3dbc2ef9	0.09188647
249	0x3d91e113	0.071230076
250	0x3f0c34bd	0.5476797
251	0xc0229922	-2.5405965
252	0xbf541b67	-0.8285431
253	0xbf674622	-0.9034139
254	0x3f1eb544	0.6199534
255	0xbf83feef	-1.0312175

model.0.bias f4 [128]
0	0x3e3032a0	0.17206812
1	0x3e1e1db9	0.15441026
2	0xbdfc2f64	-0.123137265
3	0x3d1d8f94	0.038467005
4	0xbe88dec3	-0.26732454
5	0xc037c595	-2.8714345
6	0xbf32e856	-0.69885767
7	0x3da1d3c6	0.07901721
8	0xbcf73d04	-0.030180462
9	0x3f9f28db	1.2434343
10	0x3f46e95a	0.77699816
11	0x3f8d4402	1.1036379
12	0xbf6ed56d	-0.9329441
13	0xbebc20b0	-0.3674369
14	0x3f71dec9	0.9448057
15	0xbed7a32c	-0.42116678
16	0xbf0e1b91	-0.55510813
17	0x3f3d61eb	0.73977536
18	0x3f406f59	0.75169903
19	0xbe02034c	-0.1269657
20	0x3e93897f	0.2881584
21	0x3f707455	0.9392751
22	0x3f6b549e	0.9192599
23	0x3f21e344	0.63237405
24	0xbeb9457a	-0.3618582
25	0x3f002a20	0.5006428
26	0x3e86186a	0.261905
27	0x3e3e0b47	0.1855899
28	0xbf470e86	-0.77756536
29	0x3f2d99bf	0.6781272
30	0x3f8e9fce	1.1142519
31	0x3f053357	0.52031463
32	0x3ea4c250	0.321795
33	0x3f3e4363	0.74321574
34	0x3f41b68d	0.75669175
35	0x3f492de2	0.78585637
36	0x3c5e8040	0.013580382
37	0xbe2f8b16	-0.17142901
38	0xbf1760f9	-0.59132344
39	0x3f4e4e18	0.8058791
40	0x3f7f5486	0.9973835
41	0xbf1d22ae	-0.6138104
42	0x3f87db72	1.0613844
43	0xbd89fe66	-0.06737976
44	0xbcf758c4	-0.030193694
45	0xbf15d4aa	-0.58527625
46	0x3f8dba8c	1.1072555
47	0x3fb3b101	1.4038392
48	0x3f58bb61	0.8466092
49	0xbe8fc983	-0.2808343
50	0x3f272595	0.6529172
51	0x3f6b32e1	0.9187451
52	0x3f310c51	0.6915942
53	0x3ec77453	0.38955936
54	0x3f5d166b	0.8636233
55	0xbec3cf4e	-0.38244098
56	0x3f4f4df4	0.8097832
57	0x3f12091c	0.5704515
58	0x3f1f2171	0.621604
59	0x3f589b2e	0.84611785
60	0x3f7342dd	0.950239
61	0x3ebf5d18	0.37375712
62	0x3ed7505c	0.42053497
63	0x4006d136	2.1065192
64	0x3fdb286b	1.712171
65	0x3e96148b	0.29312548
66	0xbea783bd	-0.32717696
67	0x3f18a0e1	0.5962048
68	0x3f40c9c1	0.7530785
69	0x3fbb1f6b	1.4618963
70	0x3eba1b33	0.36348876
71	0x3ef6b6a3	0.48186216
72	0x3ff236a7	1.8922929
73	0xbe56d03e	-0.20977876
74	0x3f1ee1a5	0.62063056
75	0x3e448bc5	0.19193943
76	0xbf2f8019	-0.68554837
77	0x3f708315	0.93950015
78	0xbe856384	-0.26052487
79	0xbe45ed6d	-0.19328852
80	0xbee7d7d5	-0.45281854
81	0x3ef0cb5c	0.4703015
82	0xbe272d9c	-0.16325992
83	0x3ecc455a	0.3989666
84	0x3f744a3e	0.95425785
85	0x3e43b5ff	0.19112395
86	0x3f2c41aa	0.67287695
87	0x3f07e041	0.5307656
88	0xbf09bb5f	-0.5380153
89	0x3ed6ce03	0.4195405
90	0x3f37f32b	0.7185542
91	0xbf0e4952	-0.5558063
92	0x3f2688f6	0.65052736
93	0x3f97cc9b	1.1859316
94	0xbf53dd48	-0.82759523
95	0xbf573354	-0.84062696
96	0xbe8ebea8	-0.27879834
97	0x3e1e08e5	0.1543308
98	0x3bec3ae1	0.0072091674
99	0x3e5d23e5	0.21595724
100	0xbee16a53	-0.4402643
101	0x3e88ebb1	0.26742318
102	0x3e90fcbf	0.2831783
103	0x3f9020af	1.1259974
104	0x3f5c85f8	0.8614192
105	0xbca2519a	-0.019814301
106	0x3f33a5b3	0.7017471
107	0xbcc0384c	-0.023464344
108	0x3f54b990	0.83095646
109	0xbf1c4772	-0.61046517
110	0x3eb41182	0.35169607
111	0xbeba510c	-0.3638996
112	0xbf33782e	-0.70105255
113	0x3f80dbab	1.0067037
114	0x3fb90608	1.4454966
115	0x3f74e48e	0.95661247
116	0x3f8f5ca0	1.1200142
117	0xbec6a458	-0.3879726
118	0xbf5afa35	-0.85538036
119	0xbf82c2f0	-1.021574
120	0xbf144f35	-0.5793336
121	0x3f710a68	0.94156504
122	0x3f889c47	1.0672692
123	0xbe86bd79	-0.2631643
124	0x3f3f492b	0.7472102
125	0x3f763728	0.9617791
126	0x3ed15368	0.40883946
127	0x3decba39	0.11558957

model.2.weight f4 [128, 128]
0	0x3ec43e27	0.38328668
1	0x3ee6cc69	0.45077828
2	0xbf9c6a5c	-1.2219958
3	0x3f4e0a04	0.8048403
4	0xbefa1929	-0.4884732
5	0xc047a0aa	-3.1191812
6	0xbfa1becb	-1.263635
7	0xbf463cd1	-0.7743655
8	0xbe2af1a7	-0.16693746
9	0x3f292e16	0.66085947
10	0x3f419899	0.7562347
11	0x3f9ffba7	1.2498673
12	0xbfb17298	-1.3863096
13	0xbfc98ebf	-1.5746688
14	0x3dbcc63f	0.092175
15	0x3f909840	1.1296463
16	0xbd56c3b3	-0.052432727
17	0x3eb1a7a7	0.3469822
18	0x3f345bae	0.7045239
19	0x3ec8c342	0.3921147
20	0x3ed406bf	0.41411397
21	0x3e08bc3c	0.13353056
22	0x3ebd0249	0.36915806
23	0x3cfffbf7	0.031248076
24	0xbed4527a	-0.41469175
25	0x3f98562d	1.1901299
26	0x3f04082d	0.51574975
27	0x3f4f26ab	0.8091838
28	0xbf81b852	-1.0134375
29	0x3f96abb7	1.1771153
30	0x3f6da5af	0.9283094
31	0xbf1dd8b5	-0.61658794
32	0x3f53d65d	0.8274897
33	0x4056a71c	3.3539495
34	0x3ed82207	0.4221346
35	0x3ef01e97	0.46898338
36	0xbe3c32aa	-0.18378702
37	0x3f983e51	1.1894017
38	0x3dee5e6a	0.11639102
39	0x3f8c07a9	1.0939838
40	0x3f5b1930	0.8558531
41	0x3ea5f1a2	0.32410914
42	0x3f392238	0.7231784
43	0x3d1bd7e2	0.03804768
44	0xbe79e12b	-0.24402301
45	0xbfa94c39	-1.3226386
46	0x3f9846be	1.1896589
47	0x3f5940a7	0.84864277
48	0x3f0cab0b	0.5494849
49	0x3fbdf81d	1.4841343
50	0x3f1e6f29	0.61888367
51	0x3ff96419	1.9483672
52	0x3f3b0b63	0.7306425
53	0x3fd2652a	1.6437123
54	0x3f275aaa	0.6537272
55	0xbf719963	-0.94374675
56	0x3f195969	0.59902054
57	0x3f70d8c3	0.9408075
58	0x3fae1654	1.3600564
59	0x3eff6571	0.4988208
60	0x3ef49eed	0.477775
61	0x3e4285c5	0.18996342
62	0x3c9189f2	0.017765973
63	0x3f637afd	0.8885954
64	0x3fcc1efc	1.5946956
65	0x3f587e8d	0.845681
66	0xbe830218	-0.25587535
67	0xbf72dde0	-0.94869804
68	0x3fb2abbb	1.3958658
69	0x3f15cf96	0.58519876
70	0x3f20261b	0.62558144
71	0x3f2f9ffb	0.68603486
72	0x3f2d86ad	0.67783624
73	0x3d601e8e	0.05471664
74	0x3f9af89d	1.2107121
75	0x3e9df982	0.30854422
76	0xbe5433cd	-0.20722885
77	0x3e1a5487	0.15071307
78	0x3d82a976	0.06379978
79	0x3d29743d	0.04137062
80	0xbf834250	-1.0254612
81	0x3ead3d52	0.33835846
82	0xbfb25a08	-1.3933725
83	0x3edf55ee	0.43620247
84	0xbe6a5898	-0.22885358
85	0x3f16ee03	0.5895693
86	0x3f1097f3	0.56481856
87	0x3f7b9f08	0.9828954
88	0x3ed5c5c3	0.41752443
89	0x3dfb0de0	0.12258506
90	0x3f910738	1.1330328
91	0x3e1cc9e5	0.15311392
92	0xbed5a8c1	-0.41730312
93	0x3f74fc47	0.95697445
94	0xbfe3c430	-1.7794247
95	0x3f1f0bf5	0.6212762
96	0x3fb62235	1.4229189
97	0x3e87a4ef	0.26493022
98	0x3efab971	0.48969606
99	0x401020ba	2.2519975
100	0xbf146ee0	-0.5798168
101	0x3bbae8c9	0.0057040197
102	0xbf5fa79b	-0.8736512
103	0x3f1bcdda	0.6086098
104	0xbf7df2b9	-0.9919849
105	0xbebb0bcd	-0.3653244
106	0x3f2b2ec1	0.66868216
107	0x3f13cd29	0.57734925
108	0x3f04b57d	0.5183943
109	0xbf56ade8	-0.8385911
110	0xbf65bd7a	-0.89742243
111	0xbe052e25	-0.13005884
112	0xbe33213f	-0.17493151
113	0x3f07d915	0.53065616
114	0x3fc5f1de	1.5464437
115	0x3f77b2ba	0.9675709
116	0x3f1a8d6a	0.6037203
117	0x3eceecfc	0.4041518
118	0xbfac8a37	-1.347968
119	0xbf40832f	-0.7520017
120	0xbf8dbbfb	-1.1072992
121	0x3f55c3c0	0.83501816
122	0x3f49f129	0.78883606
123	0x3ff04360	1.8770561
124	0x3f38f23e	0.7224463
125	0x3f0795aa	0.52962744
126	0x3f509a44	0.8148539
127	0x3de40391	0.11133493
128	0x3f671253	0.90262336
129	0xbeef873b	-0.4678286
130	0x3f4a8e94	0.79123807
131	0xbe6a86d9	-0.22903003
132	0x3eb4d570	0.3531909
133	0xc03731ea	-2.8624215
134	0x3efe5c0c	0.496796
135	0xc012bee8	-2.292902
136	0xbfe41202	-1.7817996
137	0x3e2f073e	0.17092606
138	0xbe8f6332	-0.28005368
139	0x3f1368bc	0.57581687
140	0xbff55703	-1.9167179
141	0xbe096478	-0.13417232
142	0xbfc7055c	-1.554851
143	0xbe95a4d6	-0.29227322
144	0x3f452167	0.7700409
145	0xbf3df810	-0.7420664
146	0x3dab2f82	0.08358671
147	0x3f780cf1	0.96894747
148	0x3f88fa23	1.0701336
149	0xbfda59cf	-1.7058657
150	0x3ea0e583	0.31425104
151	0x3f0bf3e3	0.54669017
152	0x3d26a388	0.0406833
153	0x3f2b6369	0.6694856
154	0x3e84a390	0.25906038
155	0xbff2effa	-1.8979485
156	0x3fa019ed	1.2507912
157	0x3f568c77	0.8380808
158	0x3f859ecc	1.0439086
159	0xbf5f8589	-0.87313133
160	0xc00ed242	-2.231583
161	0x3fd849ee	1.6897562
162	0xbdaa4010	-0.08313
163	0x3ee00f1a	0.43761522
164	0xbfb3fcd3	-1.4061531
165	0x3d870e18	0.06594485
166	0x3f41de90	0.7573023
167	0x3e990de0	0.29893398
168	0xbf397393	-0.7244198
169	0x3f2c2270	0.6724005
170	0x3f6d0700	0.92588806
171	0x3f25e1ac	0.6479747
172	0xc0cdca29	-6.4309278
173	0xbfaf33de	-1.3687704
174	0x3ea0de28	0.31419492
175	0x3f2d27d1	0.6763888
176	0x3eec1db9	0.46116427
177	0xc08baeae	-4.365073
178	0x3ea5cab2	0.32381207
179	0x3eecf62b	0.4628156
180	0x3f91623d	1.1358105
181	0xc001cb13	-2.0280197
182	0x3ef630e4	0.48084176
183	0xbeb85f03	-0.36009988
184	0xc05568ef	-3.3345296
185	0x3e5886d3	0.21145181
186	0xc0d114ea	-6.533803
187	0x3e788f49	0.24273409
188	0xbfff8ba1	-1.9964486
189	0xbfda5064	-1.7055783
190	0xc08170e1	-4.045029
191	0x3e6e09dc	0.23245949
192	0x3f281860	0.65662193
193	0x3f364d67	0.71211857
194	0x3d17f8ad	0.03710239
195	0xc004d7b6	-2.075666
196	0x3fb4e63b	1.4132761
197	0x3f2c09e4	0.6720259
198	0x3f092ccd	0.53583986
199	0x3ea8f79e	0.33001417
200	0x3e61a567	0.22035752
201	0x3df2e055	0.11859194
202	0x3f887fb0	1.0663967
203	0xbfb6dc33	-1.428595
204	0xbea887e9	-0.3291619
205	0xc06787fa	-3.6176744
206	0x3ef6bb77	0.481899
207	0xbfe3e36a	-1.7803776
208	0xbf725d0b	-0.9467322
209	0xbeed6da7	-0.4637272
210	0xbfeea091	-1.8642751
211	0x3f6362d3	0.8882267
212	0xbfd5db51	-1.6707555
213	0x3f256bed	0.64617807
214	0xc09aaa3e	-4.8332815
215	0x3f4ec45e	0.8076838
216	0x3f256753	0.64610785
217	0x3eace697	0.33769676
218	0x3e1edabe	0.15513131
219	0x3f171f0c	0.5903175
220	0xbff3c566	-1.9044616
221	0x3e234954	0.15945941
222	0xbf3ad721	-0.7298451
223	0xbef23b85	-0.47311035
224	0xbdcf9c2b	-0.101372086
225	0xbf8f79f4	-1.1209092
226	0x3fb872cb	1.4410032
227	0xc08a4cea	-4.321889
228	0x3ef1360d	0.4711155
229	0xbfba947e	-1.4576566
230	0xbe2399c9	-0.15976633
231	0x3f3f6205	0.7475894
232	0xc01a7a61	-2.4137194
233	0xbff47b88	-1.9100199
234	0x3d20aacb	0.03922538
235	0x3f41158e	0.75423515
236	0xbe3b32b2	-0.18281057
237	0xbe483d77	-0.19554697
238	0xbf8bfe4d	-1.0936981
239	0x3dad899c	0.084735125
240	0xbf84eb9d	-1.0384403
241	0xbe0c1592	-0.13680103
242	0x3ea9f3b0	0.3319373
243	0x3fb87d0c	1.4413161
244	0x3f06f369	0.52715164
245	0x3f1445b7	0.57918876
246	0xc05e0f6c	-3.4696913
247	0x3eb41ae4	0.35176766
248	0x3edf5381	0.43618396
249	0xbfafd965	-1.3738219
250	0xbe1642d5	-0.14673932
251	0x3f135d8c	0.57564616
252	0xbfea782b	-1.8317922
253	0xbe4fe1f0	-0.20301032
254	0xc01eef2e	-2.4833484
255	0xbf991e3f	-1.1962355

model.2.bias f4 [128]
0	0x3f7cf6f4	0.9881432
1	0x3f6f6c26	0.93524396
2	0xbda0fc19	-0.07860584
3	0xbf21dc63	-0.6322691
4	0xbf15b39d	-0.58477193
5	0xbf180345	-0.5937999
6	0xbdb4e47a	-0.08832641
7	0xbdb80007	-0.0898438
8	0xbeb68eda	-0.35655862
9	0xbed61d5d	-0.41819277
10	0x3f87a03d	1.0595776
11	0x3f6de69a	0.92929995
12	0x3f6274ea	0.88459647
13	0x3efde19c	0.4958619
14	0xbd68a4fe	-0.056797974
15	0x3f1566aa	0.5835978
16	0x3f881289	1.0630656
17	0xbe6f50ca	-0.23370662
18	0xbe878454	-0.26468146
19	0x3ef13a66	0.47114867
20	0x3eccfa58	0.40034747
21	0x3f864a1f	1.049137
22	0xbe1d9dc2	-0.15392211
23	0xbe491fb5	-0.19641002
24	0xbe5f1368	-0.21784747
25	0xbe8640d2	-0.2622133
26	0x3e92f8cc	0.28705442
27	0xbe8a2dc4	-0.2698804
28	0x3d0f2476	0.03494688
29	0xbdbcc67b	-0.09217545
30	0xbeceeb62	-0.40413958
31	0xbdb3f63c	-0.087872
32	0xbd42628f	-0.047457274
33	0xbe23187c	-0.15927309
34	0xbeb8c050	-0.36084223
35	0xbf0223c8	-0.5083585
36	0x3a02c30c	0.00049881707
37	0xbdb3098a	-0.08742054
38	0xbeb22494	-0.34793532
39	0x3eb8c29e	0.3608598
40	0x3ad806fc	0.0016481574
41	0x3f82538f	1.018175
42	0xbea3a19d	-0.3195924
43	0x3e041387	0.12898074
44	0xbf15f00d	-0.58569413
45	0xbd46cd77	-0.04853579
46	0x3c7403b0	0.014893457
47	0xbec1956b	-0.3780931
48	0xbdc74dd1	-0.09731639
49	0xbdec8938	-0.1154961
50	0x3f9a8ad1	1.2073613
51	0x3f5d1109	0.8635412
52	0xbd8d53bc	-0.06900737
53	0xbd9e1bf4	-0.077201754
54	0x3d59d8e5	0.053185362
55	0x3f841245	1.0318075
56	0xbc9db8aa	-0.019253094
57	0xbd45b4e4	-0.048268214
58	0xbe899876	-0.2687413
59	0x3ea81b24	0.32833207
60	0xbf19dda1	-0.60103804
61	0xbd7f0ec0	-0.062269926
62	0x3d407185	0.04698326
63	0xbee098ff	-0.43866727
64	0x3f89ed27	1.0775498
65	0x3f1b1c36	0.6058992
66	0xbced32c4	-0.028954871
67	0x3f019fa2	0.50634205
68	0x3f881fe0	1.0634727
69	0xbd115e39	-0.03549025
70	0x3f93ab05	1.1536566
71	0xbe923009	-0.28552273
72	0x3e8d7ad3	0.2763277
73	0xbd8061cf	-0.062686555
74	0x3ed567f4	0.41680872
75	0xbe626b71	-0.22111298
76	0xbe40801a	-0.18798867
77	0x3ec11a64	0.37715447
78	0xbefe4fb9	-0.496702
79	0x3f8116cc	1.0085082
80	0x3f8648ca	1.0490963
81	0x3e85a63e	0.26103395
82	0x3f819669	1.0124027
83	0xbee320d5	-0.44360986
84	0x3f8be1c0	1.0928268
85	0xbdc351ae	-0.095370635
86	0x3f8bbfa4	1.0917859
87	0xbf0994c1	-0.53742605
88	0x3d39f70d	0.04540162
89	0xbf01bb91	-0.5067683
90	0xbec30cac	-0.38095605
91	0xbe1b5591	-0.1516936
92	0xbdd0996c	-0.10185513
93	0xbe6dfb43	-0.2324038
94	0xbe0e0f38	-0.13872993
95	0x3eeb1a3d	0.45918456
96	0x3f891490	1.07094
97	0x3f940b05	1.1565863
98	0xbd80b06c	-0.0628365
99	0xbdfdddd3	-0.12395825
100	0xbf132785	-0.57482177
101	0xbe10b65d	-0.14132066
102	0xbee4842b	-0.44632086
103	0xbe0972c1	-0.13422681
104	0xbe4fdd7b	-0.20299332
105	0x3d53784f	0.051628407
106	0x3f07d537	0.53059715
107	0x3c0af141	0.008480371
108	0xbd6e2d1a	-0.05814848
109	0x3f8f7d78	1.1210165
110	0x3f95c819	1.170169
111	0x3d2d92f8	0.04237649
112	0xbe9dac1c	-0.30795372
113	0x3f90bae5	1.1307036
114	0x3edf5c90	0.43625307
115	0xbf17c86c	-0.59290195
116	0x3f0df200	0.5544739
117	0xbe3065f3	-0.1722639
118	0xbcdb3b53	-0.026761686
119	0xbf1a9304	-0.6038058
120	0xbf2027e3	-0.6256086
121	0xbe3c03e5	-0.1836086
122	0xbea69ae8	-0.3254006
123	0xbdd82c8c	-0.10555372
124	0xbdd2fe1e	-0.10302375
125	0xbcf32819	-0.029682206
126	0xbcbd60f6	-0.023117524
127	0x3ca16e4f	0.01970592

model.4.weight f4 [1, 128]
0	0x4005122f	2.0792348
1	0x400a61e4	2.1622248
2	0xbf96235d	-1.1729542
3	0xc0461173	-3.094815
4	0xc0378ab9	-2.867842
5	0xc0479ba8	-3.1188755
6	0x3c9f7d3b	0.019468894
7	0x3cdfdc4d	0.027326727
8	0xc02b99ca	-2.6812615
9	0xc02fd1f4	-2.7471895
10	0x40059762	2.0873647
11	0x40017e93	2.0233505
12	0x40320b84	2.7819529
13	0xbfbaacf6	-1.4584033
14	0xbcde2667	-0.027117921
15	0x404bf958	3.1870937
16	0x4003b411	2.0578654
17	0x40c0b4dd	6.022078
18	0xc01a6cf8	-2.412901
19	0xbf8dd334	-1.1080079
20	0xbf851aea	-1.0398839
21	0x40009f80	2.009735
22	0xbb850166	-0.0040590046
23	0xc0125ed4	-2.2870378
24	0xc0034b0a	-2.051455
25	0xbf8bffed	-1.0937477
26	0xbf8faf0f	-1.1225299
27	0xc01ef549	-2.483721
28	0x3d0a0416	0.033695303
29	0xbff85e77	-1.9403828
30	0xc02d5d41	-2.7088168
31	0x3c3f4832	0.011674928
32	0x3c5d3a04	0.0135026015
33	0x3b95bff7	0.004570003
34	0xc01fcac5	-2.496751
35	0xc038a935	-2.8853276
36	0x3c86c194	0.016449727
37	0xc0232e08	-2.5496845
38	0xc01c1c0c	-2.4392118
39	0xbf91b340	-1.1382828
40	0x3ad699ce	0.0016372742
41	0x3fff76a2	1.9958079
42	0xc031ac09	-2.7761252
43	0xbfd51fee	-1.6650369
44	0xc02dfbf6	-2.7185035
45	0x3d2e9178	0.0426192
46	0x3c3aa906	0.011392837
47	0xc00de88c	-2.2173185
48	0xbc925692	-0.017863546
49	0xbcdbc451	-0.02682701
50	0x3ff0a93d	1.8801647
51	0x405daa3a	3.4635148
52	0x3c07b742	0.008283438
53	0xbfedc96a	-1.8577092
54	0xbfcd09cf	-1.6018618
55	0x3ff6961e	1.9264562
56	0xbc5b244c	-0.013375353
57	0xc015a3a0	-2.3381119
58	0xbf9d2014	-1.2275414
59	0xbfd1ff66	-1.6406066
60	0xc044459f	-3.0667493
61	0xb9fa99e9	-0.00047798388
62	0x40b42c63	5.6304183
63	0xc029c82c	-2.6528425
64	0x4000a153	2.0098464
65	0x3fb2d32e	1.3970697
66	0x3c583864	0.013197038
67	0xbfe11e10	-1.7587299
68	0x4000a241	2.0099032
69	0x3ced9f99	0.029006766
70	0x400073e6	2.0070739
71	0xc022dc4a	-2.5446954
72	0xbfe9851c	-1.8243747
73	0xc041a65d	-3.025779
74	0xbf89e565	-1.0773131
75	0xbfd94068	-1.697278
76	0xc0067056	-2.1006064
77	0xbf8ee157	-1.1162518
78	0xc024164f	-2.5638616
79	0x3fff3950	1.9939365
80	0x400165db	2.0218418
81	0xbf980461	-1.1876336
82	0x4008bc32	2.1364865
83	0xc02c81bd	-2.6954186
84	0x40015b91	2.0212138
85	0xbc10d8c9	-0.008840748
86	0x3ffe661c	1.9874911
87	0xc0376a91	-2.8658793
88	0x3cae3824	0.021267004
89	0xc0290f0b	-2.6415431
90	0xbfd6547e	-1.6744535
91	0xc002cc97	-2.0437372
92	0xba90e913	-0.001105579
93	0xbf99bdd7	-1.201106
94	0x3d02b6f4	0.03191276
95	0x3fd0c369	1.6309634
96	0x40017bd4	2.0231829
97	0x3ff44c80	1.9085846
98	0xbcf9bdf1	-0.030486079
99	0xbd8a9295	-0.067662396
100	0xc0437439	-3.0539687
101	0xbcab0de9	-0.020880656
102	0xbf111a97	-0.566812
103	0xbc4d3e31	-0.012527035
104	0xc01d913b	-2.4619892
105	0x3b52f9a6	0.003219226
106	0xbfd44038	-1.6582098
107	0xbce0b08a	-0.02742793
108	0x3d2ad3b9	0.04170582
109	0x3ff97a2b	1.9490408
110	0x403f176f	2.9858053
111	0xbfc2769f	-1.519245
112	0xc019c3b9	-2.402571
113	0x40034406	2.0510268
114	0x407b1f18	3.9237728
115	0xc0266eb3	-2.6005065
116	0x3faadbc9	1.3348323
117	0xc0021829	-2.0327246
118	0x3bbcb6d4	0.0057590995
119	0xc04de629	-3.2171729
120	0xc0448081	-3.0703433
121	0xbff45856	-1.9089458
122	0xc012d51e	-2.2942576
123	0xbc0c329d	-0.008556989
124	0x3d320182	0.04345847
125	0x3cd73a30	0.026272863
126	0xbb5b46b3	-0.0033458888
127	0x3d7787f1	0.06043238
