hw2/preTrained/ddpg_critic_LunarLanderContinuous-v2_04282023_064336_.pth (torch, 277399 bytes, 5 tensors)

model.0.weight f4 [256, 10]
-1.28091 -0.9322716 -1.2387154 0.4037476 0.48965734 0.4274864 -0.34537303 0.12072494
0.033057746 -0.016186047 0.19576888 -0.12233487 -1.1908554 -2.17983 -1.7217731 -0.14066097
1.2936089 -0.73230946 -0.19779225 0.321195 0.5812746 -0.4638423 2.0086086 1.122203
1.9352977 -0.2697248 -0.6635922 -0.9984169 0.10049898 -0.0135223055 -0.2635669 -1.8832513
-0.45937902 -0.265677 -0.30758646 -0.6552403 -0.93379843 -0.1857957 0.2514639 -0.3945584
-0.46652448 -5.042552 -0.09269134 -0.3462268 -0.10482645 -0.7466434 -0.7352475 0.22411911
0.09810048 -0.07803851 -0.85277504 -1.9429175 0.13897458 0.3060546 -0.250698 0.30533564
0.5524353 -0.8224624 0.21484195 1.0384185 0.00938569 -0.2886025 2.9827967 1.1781932
1.4048525 -0.16242789 -0.9350879 -1.7985982 -0.09973375 0.1819214 0.21451317 -6.2149014
0.8455786 1.301871 0.026286487 0.014484324 -0.2638827 0.18267602 -0.062309947 -0.037590284
-0.8669581 -1.0276785 -0.037091404 -0.43544924 -0.195043 -0.6656057 1.1744416 0.92890096
0.21231683 0.6685265 -0.6050084 -0.7854085 -0.38978836 0.13392985 -0.12043779 -0.076514676
-0.8463325 1.7809955 -0.3635746 -0.36192846 0.6263096 -2.1502395 0.081934296 0.6216403
-0.8369178 2.6024916 0.8972938 -1.2968446 1.2161536 0.50321615 -0.13345635 -3.5479088
-0.841926 -1.0945325 -0.3044535 0.31550553 1.0169297 -1.0515097 0.39694992 -0.78639585
-0.59125984 -2.4576252 1.5013107 -0.06787148 0.17701367 0.13337107 -0.7789614 -2.2995524
0.21351826 0.7367289 0.90425783 -2.207237 0.22800833 0.3550324 -1.0047766 -1.0812818
0.5312571 -0.23118442 -0.05173582 -0.008303041 0.9834977 0.005605241 0.54727536 3.3179438
-1.998204 0.46585348 -1.4117149 0.6325684 -0.12333985 -0.048843298 1.225233 -5.1188025
-0.6315012 -0.89065754 0.37266374 0.21877272 0.24431211 0.9944468 -0.6296975 0.07221103
0.056577176 -1.0492527 0.93842566 0.06750203 -2.3541884 0.38388535 0.61052394 0.974411
-0.021089321 -0.38632205 -1.1993191 -1.031745 -2.4099681 0.9130843 -1.0717841 -0.45083004
-1.9761544 -0.46593037 -0.107208654 -0.04586757 -0.7249244 -2.9386864 -1.2975109 0.42643216
-0.33191743 0.38928398 -0.2750494 -0.8697893 0.51848465 0.13934645 0.2872484 -0.7756688
1.1043012 3.7653608 -0.06815351 -0.5549325 0.4487374 -0.5530792 0.40381956 -0.16003603
2.4812005 -0.95136225 0.07788155 0.2618921 0.12833025 0.38965306 0.6002265 0.05884026
0.22157396 0.3016139 1.0890812 1.3513621 1.4825672 0.31808037 0.52688926 -0.20488597
0.4161095 -0.41690627 -0.44361967 0.37198272 -0.54216236 -0.5554393 0.28773418 -2.6590931
1.9363661 -0.3721547 -0.82417816 -0.33218238 -0.021328254 -0.06641141 -0.39542258 -2.4837043
-0.07999806 0.12312903 0.21308586 -0.20121945 -0.3873206 -1.0794996 0.31504682 0.61208725
-0.3355739 -2.247757 1.6277362 -1.6016773 -0.21025644 -0.8406329 0.9875064 0.6134768
-0.5245699 0.5533912 -0.4510455 -1.1739149 -1.3195615 1.040987 0.6912198 -0.63966125
00000000: dcf4 a3bf 5aa9 6ebf 3a8e 9ebf 01b8 ce3e
00000010: 5eb4 fa3e 7fdf da3e bcd4 b0be a33e f73d
00000020: 8f67 073d 9a98 84bc a377 483e b48a fabd
00000030: f36d 98bf 5682 0bc0 1063 dcbf 6e09 10be
00000040: fa94 a53f a278 3bbf 0d8a 4abe ac73 a43e
00000050: 6ace 143f bd7c edbe 0b8d 0040 59a4 8f3f
00000060: d6b7 f73f 5e19 8abe 2ee1 29bf 4098 7fbf
00000070: 69d2 cd3d a98c 5dbc 3ef2 86be 610e f1bf
00000080: ba33 ebbe d106 88be f97b 9dbe d4bd 27bf
00000090: 6a0d 6fbf 3a41 3ebe e0bf 803e 8f03 cabe
000000a0: 4cdc eebe 965c a1c0 f5d4 bdbd a444 b1be
000000b0: 40af d6bd 0624 3fbf 2e39 3cbf 7b7f 653e
000000c0: e8e8 c83d a8d2 9fbd 774f 5abf 85b1 f8bf
000000d0: 5a4f 0e3e 30b3 9c3e 7d5b 80be f454 9c3e
000000e0: 666c 0d3f e58c 52bf 87ff 5b3e e6ea 843f
000000f0: 70c6 193c b5c3 93be 24e6 3e40 09cf 963f
00000100: 35d2 b33f 7f53 26be ec61 6fbf 7738 e6bf
00000110: 3541 ccbd 9a49 3a3e 57a9 5b3e 79e0 c6c0
00000120: d777 583f b5a3 a63f c256 d73c a84f 6d3c
00000130: a21b 87be 6c0f 3b3e b738 7fbd 45f8 19bd
00000140: f7f0 5dbf f88a 83bf 28ed 17bd 34f3 debe
00000150: 5ab9 47be 2365 2abf 1a54 963f 74cc 6d3f
00000160: 9569 593e 8d24 2b3f d5e1 1abf 8810 49bf
00000170: 5792 c7be e824 093e 17a8 f6bd bab3 9cbd
00000180: 3fa9 58bf a9f7 e33f 7326 babe b04e b9be
00000190: d355 203f 869d 09c0 2bcd a73d d223 1f3f
000001a0: 3f40 56bf 398f 2640 0cb5 653f 01ff a5bf
000001b0: ecaa 9b3f c6d2 003f c8a8 08be f010 63c0
000001c0: 7688 57bf a419 8cbf 54e1 9bbe f189 a13e
000001d0: c12a 823f df97 86bf 053d cb3e 3d51 49bf
000001e0: ce5c 17bf bb49 1dc0 f32a c03f 3400 8bbd
000001f0: 1243 353e 6d92 083e 046a 47bf de2b 13c0
00000200: 88a4 5a3e 449a 3c3f 717d 673f 5f43 0dc0
00000210: 047b 693e cfc6 b53e 859c 80bf 7167 8abf
00000220: 7700 083f 9cbb 6cbe f0e8 53bd 7a09 08bc
00000230: 81c6 7b3f 2bac b73b 3d1a 0c3f 3159 5440
00000240: 26c5 ffbf 5984 ee3e 13b3 b4bf 01f0 213f
00000250: 9a99 fcbd e90f 48bd 6fd4 9c3f 3bcd a3c0
00000260: 10aa 21bf 2202 64bf c8cd be3e f505 603e
00000270: f42c 7a3e 1194 7e3f db33 21bf 60e3 933d
00000280: 78bd 673d ea4d 86bf aa3c 703f 813e 8a3d
00000290: 06ab 16c0 9f8c c43e 4c4b 1c3f 0073 793f
000002a0: 83c3 acbc 01cc c5be 4a83 99bf 3810 84bf
000002b0: eb3c 1ac0 e5bf 693f 3930 89bf 32d3 e6be
000002c0: a1f2 fcbf 6d8e eebe 3690 dbbd a2df 3bbd
000002d0: a594 39bf 7013 3cc0 d614 a6bf 5155 da3e
000002e0: 15f1 a9be 3b50 c73e 46d3 8cbe 83aa 5ebf
000002f0: 69bb 043f d6b0 0e3e 3912 933e 3b92 46bf
00000300: be59 8d3f acfb 7040 1194 8bbd 0e10 0ebf
00000310: e9c0 e53e 9996 0dbf 70c1 ce3e 7ce0 23be
00000320: fdcb 1e40 7a8c 73bf 5d80 9f3d b916 863e
00000330: 0169 033e 9b80 c73e 72a8 193f 7c02 713d
00000340: 49e4 623e 236d 9a3e 0367 8b3f 6ff9 ac3f
00000350: c3c4 bd3f 6edb a23e 37e2 063f a1cd 51be
00000360: 4e0c d53e bd74 d5be 1e22 e3be 8574 be3e
00000370: 27cb 0abf 4531 0ebf e551 933e 952e 2ac0
00000380: d8da f73f 108b bebe 57fd 52bf cf13 aabe
00000390: 97b8 aebc b502 88bd d474 cabe 03f5 1ec0
000003a0: 06d6 a3bd 132b fc3d 2e33 5a3e 790c 4ebe
000003b0: e34e c6be 0b2d 8abf d14d a13e c0b1 1c3f
000003c0: 58d0 abbe 40db 0fc0 a959 d03f c303 cdbf
000003d0: 774d 57be b833 57bf 38cd 7c3f d10c 1d3f
000003e0: 374a 06bf 0cab 0d3f 70ef e6be d842 96bf
000003f0: 64e7 a8bf 103f 853f c8f3 303f d7c0 23bf

model.0.bias f4 [256]
-2.3727713 0.32132012 0.2352858 -1.3149706 -0.785564 -0.85183704 1.019281 -0.594229
-1.1603062 -0.83186775 0.06843462 -0.17502755 -0.71056575 -1.3280925 -0.48554924 0.11336302
-1.0868956 -0.31708702 -1.7541903 -0.6201484 -1.5389159 1.655691 -0.6785037 -0.7871046
0.2941103 -0.42765838 -0.18162112 0.056075085 -0.66834706 -1.7274624 -1.9336946 -0.389489
-0.7010773 -0.27787444 -0.4621821 -1.1429347 0.32675925 -0.30954385 -2.3672674 -0.6851605
-1.4821277 -0.83160096 -1.0035999 0.5986793 0.21768674 0.7456295 -0.694007 -1.1891029
-0.95764285 -0.6765744 -0.62997735 -1.7164168 -0.7792301 -0.09151072 -0.049184814 -1.3404173
-1.1073552 0.89016247 -0.6840448 -0.4278337 -1.2671195 -0.8034531 0.5503371 -0.30674496
-0.9694103 -0.644537 -1.0063338 -0.5606579 -1.3800209 -0.23734283 -1.438079 -0.44582158
-0.70787024 -0.6663628 -0.98771703 -0.23296857 -0.44152632 -0.95501655 1.1499664 -1.2392144
0.19503793 -0.53236216 -1.9526501 -0.29758394 -0.62708 -1.8396885 -1.4606472 -1.6827981
-0.73564893 -1.0627222 1.8731892 -1.1412337 -0.7784331 -0.2567462 -0.83691657 -0.8079839
-0.9056918 0.09261996 -1.0521566 -1.1289377 -0.94629204 -0.87935483 -0.09721784 -1.0958979
-1.296247 -0.12180042 -0.2195567 0.19065021 -1.1925424 -1.078275 0.020102251 -1.3384807
0.14294091 -0.18899608 -0.22104044 -0.66196823 -1.0809542 -0.0044119735 -0.29479614 0.013862925
-0.32915583 -0.2603284 -0.49583316 -0.7770949 1.123365 -0.41422838 -0.8310241 -0.8528417
1.022054 -0.29704013 -1.3433564 0.07242455 -0.96170783 0.30977297 -1.4655257 0.5296478
-1.5457869 -0.75006366 -1.2194551 0.45938218 -1.5252943 -0.5953667 -0.38495725 -0.6692489
-0.018478166 -0.6487406 -0.9318083 0.48605293 0.1609715 -1.4524276 -0.28073826 -0.6661902
0.073527336 -0.96700704 -0.17696144 -1.0194788 -0.9716705 -1.192573 0.1372571 -0.30519298
-0.683843 -0.0384369 -0.91084415 -0.5008025 -0.9922883 0.020362869 -0.9605002 -1.2260952
-1.6405958 -1.060656 -0.38403875 0.32570687 -0.7753479 -0.35537758 -0.8860614 -0.8916101
-1.0029979 -1.9290968 -0.00990239 -0.5090952 -0.8846844 -1.8076893 -1.0916591 0.8153616
-0.36435896 -1.3152088 -0.26319805 -0.9032262 -0.35788548 -1.7932988 -1.2782134 -0.88984853
-0.7424184 -0.08001983 -1.3039674 0.5465147 -0.21126452 -0.6501493 -0.94333214 -0.9702591
-0.6144021 -0.72991645 -0.8238582 -0.36820006 -1.8215454 -1.164551 -1.5273724 -1.1126868
1.018223 1.3966671 -0.32331124 -1.5028541 -0.9309901 -0.7988822 -0.73042333 0.56291187
-0.64841944 -0.9825022 -0.79129314 -1.2927364 -0.8442661 -1.5891831 -0.5209088 -0.87537336
-0.106508814 -1.0049152 1.0006794 -1.1566404 -1.4330775 -0.95105946 -0.51877826 0.36574003
-1.3791882 -1.6956618 -0.8371963 -0.8145752 -0.47434974 -0.7427104 0.5137304 -0.34875935
-0.68705523 -1.3630966 -0.85987574 -0.5924598 -0.09576559 -0.18350035 -1.6691973 -0.9501145
-1.4257451 -0.38532892 -1.227616 1.1776837 -0.16187976 0.029372308 -1.0390471 0.019938866
00000000: 7cdb 17c0 1284 a43e c3ee 703e f550 a8bf
00000010: b91a 49bf fe11 5abf cd77 823f 641f 18bf
00000020: ea84 94bf 49f5 54bf 7327 8c3d 6c3a 33be
00000030: a3e7 35bf effe a9bf e999 f8be df2a e83d
00000040: 651f 8bbf 3b59 a2be 4f89 e0bf 0cc2 1ebf
00000050: 32fb c4bf afed d33f 6bb2 2dbf b07f 49bf
00000060: a095 963e 0af6 dabe e3fa 39be fdae 653d
00000070: cb18 2bbf 7d1d ddbf 4e83 f7bf 1a6b c7be
00000080: cd79 33bf 8f45 8ebe 22a3 ecbe af4b 92bf
00000090: fd4c a73e 887c 9ebe 4f81 17c0 ae66 2fbf
000000a0: 5cb6 bdbf cde3 54bf f675 80bf 0c43 193f
000000b0: 46e9 5e3e 93e1 3e3f 71aa 31bf 8634 98bf
000000c0: 1528 75bf fb33 2dbf 3246 21bf 8cb3 dbbf
000000d0: a07b 47bf f969 bbbd 0476 49bd cb92 abbf
000000e0: d1bd 8dbf b0e1 633f 8f1d 2fbf 050d dbbe
000000f0: f930 a2bf 1aaf 4dbf e4e2 0c3f ad0d 9dbe
00000100: 462b 78bf 6000 25bf 8ccf 80bf 4787 0fbf
00000110: 86a4 b0bf 000a 73be f912 b8bf ba42 e4be
00000120: fc36 35bf c196 2abf 06db 7cbf 508f 6ebe
00000130: bd0f e2be f77b 74bf 1932 933f 949e 9ebf
00000140: 06b8 473e e348 08bf 70f0 f9bf ec5c 98be
00000150: 5188 20bf ea7a ebbf 7df6 babf ee65 d7bf
00000160: 7d53 3cbf 4807 88bf aac4 ef3f f213 92bf
00000170: 6447 47bf 3d74 83be 2a40 56bf 08d8 4ebf
00000180: 6bdb 67bf 89af bd3d 11ad 86bf 0881 90bf
00000190: 3240 72bf 661d 61bf 261a c7bd 6246 8cbf
000001a0: 6ceb a5bf 8072 f9bd 79d3 60be cf39 433e
000001b0: 3ba5 98bf ea04 8abf 7aad a43c 5653 abbf
000001c0: 1a5f 123e 3088 41be 6d58 62be c076 29bf
000001d0: b55c 8abf 5192 90bb 85ef 96be 5221 633c
000001e0: 1d87 a8be c449 85be d8dd fdbe b1ef 46bf
000001f0: 6dca 8f3f be15 d4be ffbd 54bf d553 5abf
00000200: aad2 823f a515 98be 1af3 abbf 5353 943d
00000210: 7c32 76bf 909a 9e3e 5996 bbbf 0097 073f
00000220: 58dc c5bf 2c04 40bf 1b17 9cbf 2434 eb3e
00000230: d83c c3bf f469 18bf 1e19 c5be e553 2bbf
00000240: 865f 97bc dd13 26bf fd8a 6ebf eedb f83e
00000250: b7d5 243e 26e9 b9bf edbc 8fbe 718b 2abf
00000260: 8095 963d c68d 77bf 6135 35be 487e 82bf
00000270: 66bf 78bf 3ba6 98bf 208d 0c3e 4142 9cbe
00000280: 5610 2fbf 0370 1dbd 152d 69bf 9834 00bf
00000290: 9b06 7ebf 08d0 a63c 57e3 75bf b0f0 9cbf
000002a0: 0bff d1bf 93c3 87bf baa0 c4be 0dc3 a63e
000002b0: 337d 46bf 0df4 b5be ebd4 62bf 8f40 64bf
000002c0: 3c62 80bf a5ec f6bf a23d 22bc 1054 02bf
000002d0: ad7a 62bf 5d62 e7bf 7cbb 8bbf 8abb 503f
000002e0: 428d babe c358 a8bf e5c1 86be d539 67bf
000002f0: c43c b7be d18a e5bf 7f9c a3bf 1dcd 63bf
00000300: 220f 3ebf 70e1 a3bd 67e8 a6bf 63e8 0b3f
00000310: ba55 58be 2f70 26bf 377e 71bf e662 78bf
00000320: 7549 1dbf cedb 3abf 5fe8 52bf b884 bcbe
00000330: 6628 e9bf 0210 95bf f080 c3bf 856c 8ebf
00000340: 2255 823f fdc5 b23f 0d89 a5be 865d c0bf
00000350: 5e55 6ebf 8b83 4cbf 06fd 3abf fe1a 103f
00000360: d1fe 25bf 4485 7bbf 3092 4abf 6378 a5bf
00000370: d321 58bf 5a6a cbbf 475a 05bf 7818 60bf
00000380: 4b21 dabd 10a1 80bf 4316 803f cb0c 94bf
00000390: 156f b7bf a278 73bf a7ce 04bf 4742 bb3e
000003a0: 3d89 b0bf 720b d9bf 7f52 56bf 0088 50bf
000003b0: f8dd f2be 4522 3ebf d683 033f 9690 b2be
000003c0: dae2 2fbf f379 aebf d120 5cbf 72ab 17bf
000003d0: c020 c4bd 84e7 3bbe 42a8 d5bf b43a 73bf
000003e0: d17e b6bf d549 c5be 8522 9dbf 57be 963f
000003f0: cfc3 25be 329e f03c 7fff 84bf d556 a33c

model.2.weight f4 [256, 256]
0.41209528 1.4455138 0.77478683 1.4205909 0.4951745 -1.4792433 0.52875865 -2.9219759
0.13089399 -0.24147983 0.111072995 0.8992122 -0.9457828 0.09777367 -2.2318819 1.0514033
0.6989452 -0.7589386 -0.4730707 2.4856064 1.0026494 -0.027279623 -0.26721558 0.09224656
0.53139883 0.22716641 0.87753415 0.30611876 0.04497187 0.4719144 0.9712545 -0.89447975
-0.80380684 -1.8400828 1.2363884 0.34524593 -1.6150153 -1.3997506 0.44871476 0.96711266
1.6509318 0.96845573 0.20848647 0.7261965 0.5695381 0.97584015 1.7598377 1.4350617
-0.17068699 -0.78737295 -1.4106001 0.47170055 -0.4756925 1.12187 0.28375953 -1.2448843
-2.031329 -0.0967007 0.50018716 0.052645303 -1.368997 -0.6777297 0.17556195 0.11752828
-2.8210695 0.34255454 1.1315547 1.0604302 0.43978545 0.66879594 0.6658123 -0.37528774
-2.3816555 -0.3588636 1.0747697 -3.5539844 -0.14675432 0.12271347 -0.1704335 -1.3187275
-0.2993614 0.68379354 0.28560498 0.41207033 -0.44530463 -1.3795648 0.3677623 0.24343245
0.13966353 -2.6171017 0.85798204 -1.3359762 0.612462 -0.32737684 -0.49830538 -0.58647335
-0.3955766 -2.0262222 -1.2220703 0.91580117 0.67664117 -0.055315178 0.13205796 -0.853187
-1.0939989 -0.96183425 -2.0526562 0.5067996 1.0919176 -0.22791168 -1.5717863 -0.949343
-0.774358 1.3251979 1.179773 -1.3167974 -1.0837826 -0.3307299 0.30630085 -0.14230433
-0.71613324 -0.45902312 0.68035424 0.49294296 1.0081253 -1.5140369 -1.0169262 0.75625414
0.4092601 -2.0181777 -0.26198637 -0.024184054 -0.74957204 0.12034203 -4.2761145 0.7666707
0.6725036 -2.568107 2.0160177 2.062169 -1.781698 -0.61646783 -0.061364587 -0.33682716
-0.54708654 -0.7768571 1.0543303 -0.08453215 -0.2207182 0.4113813 0.6505452 -0.5195442
0.099162035 0.5282568 0.8574447 -1.3275031 1.46244 -1.454522 -0.40481573 0.39421698
0.38130772 -1.1016027 0.23726675 -0.0046248003 -1.334274 0.41987407 -0.24294002 -0.19850759
-0.62670374 -0.21391597 0.54716897 0.5826298 -1.696527 -0.05316902 0.28920683 -1.4196128
-1.4009625 -0.9155213 0.7641602 -0.39578217 -1.988633 -1.2242254 0.09469865 -0.49545655
0.96314496 -0.16436279 -1.7390206 -0.08285307 -0.18691653 -0.89221686 0.09511823 -1.811631
-0.20525348 -1.3360145 -0.13687575 -2.54511 0.5982135 -1.3901627 -0.92276114 -1.1378111
-0.51870847 -1.3088124 -0.013156229 -1.784082 0.2615035 -2.7506325 0.98701847 -1.1361836
1.374876 -2.3431246 -0.5212472 0.40694112 -0.92527795 -2.2098734 -1.3199558 1.7506583
-0.34326997 -1.6229594 0.8686881 0.5313489 -0.22625339 -0.45239598 0.8766031 0.8799854
0.47763768 -1.689751 -1.023826 0.21808669 -0.35394165 0.7240303 -1.2903923 0.74805236
0.145668 0.26210523 0.105151325 0.26138005 0.25042963 -0.55405587 0.68680876 0.67475057
0.91071355 -1.639073 0.26397598 -0.11836374 -3.46345 -1.4333202 0.67081916 -1.1587231
-1.8779091 0.1430223 -0.17236683 -1.2487434 0.50933135 -1.134428 -0.574522 -1.0167063
00000000: 27fe d23e 9906 b93f 6e58 463f ecd5 b53f
00000010: 8387 fd3e d857 bdbf ba5c 073f a701 3bc0
00000020: 1309 063e 7d46 77be 3d7a e33d c532 663f
00000030: d21e 72bf 903d c83d 27d7 0ec0 6294 863f
00000040: 13ee 323f cd49 42bf 5336 f2be 2d14 1f40
00000050: d156 803f 8479 dfbc 7bd0 88be c4eb bc3d
00000060: c109 083f 509e 683e 14a6 603f 99bb 9c3e
00000070: 6c34 383d c49e f13e 23a4 783f a0fc 64bf
00000080: 49c6 4dbf d587 ebbf fa41 9e3f 13c4 b03e
00000090: d2b8 cebf 072b b3bf f1bd e53e b294 773f
000000a0: bc51 d33f b7ec 773f 7a7d 553e 04e8 393f
000000b0: 40cd 113f a9d0 793f 5d42 e13f 1ab0 b73f
000000c0: 92c8 2ebe 4691 49bf 8b8e b4bf bc82 f13e
000000d0: f88d f3be 7099 8f3f ee48 913e 5e58 9fbf
000000e0: 4b01 02c0 040b c6bd 440c 003f 9aa2 573d
000000f0: 4b3b afbf b27f 2dbf 83c6 333e abb2 f03d
00000100: 678c 34c0 4f63 af3e c9d6 903f 2dbc 873f
00000110: 8f2b e13e 3636 2b3f ad72 2a3f b725 c0be
00000120: 0b6d 18c0 f8bc b7be 0e92 893f 7b74 63c0
00000130: c446 16be 3351 fb3d 1f86 2ebe 10cc a8bf
00000140: e645 99be 180d 2f3f d13a 923e e2fa d23e
00000150: f8fe e3be 9495 b0bf 574b bc3e 5b46 793e
00000160: f503 0f3e 987e 27c0 b6a4 5b3f 4501 abbf
00000170: 4fca 1c3f f09d a7be e221 ffbe 1e23 16bf
00000180: 0489 cabe a0ad 01c0 cd6c 9cbf f271 6a3f
00000190: 5b38 2d3f 2b92 62bd 343a 073e 776a 5abf
000001a0: 2808 8cbf c53a 76bf b85e 03c0 9ebd 013f
000001b0: f5c3 8b3f ae61 69be 4b30 c9bf 2508 73bf
000001c0: 533c 46bf 16a0 a93f cd02 973f d18c a8bf
000001d0: 63b9 8abf 6e55 a9be 77d3 9c3e 3ab8 11be
000001e0: 8254 37bf 1405 ebbe b22b 2e3f 0563 fc3e
000001f0: 400a 813f f6cb c1bf a32a 82bf df99 413f
00000200: 8a8a d13e d329 01c0 1423 86be a31d c6bc
00000210: f4e3 3fbf e275 f63d eed5 88c0 8844 443f
00000220: 3229 2c3f dd5b 24c0 6f06 0140 94fa 0340
00000230: ae0e e4bf d6d0 1dbf 6f59 7bbd 9c74 acbe
00000240: dd0d 0cbf 1be0 46bf 4cf4 863f 311f adbd
00000250: f403 62be 92a0 d23e 218a 263f d900 05bf
00000260: 7715 cb3d d63b 073f 7f81 5b3f 9feb a9bf
00000270: 3c31 bb3f c72d babf 0244 cfbe cfd6 c93e
00000280: c43a c33e 5101 8dbf 0ef6 723e a38b 97bb
00000290: 7ec9 aabf bcf9 d63e 45c5 78be 9345 4bbe
000002a0: a86f 20bf ca0c 5bbe 4413 0c3f 3a27 153f
000002b0: cc27 d9bf c2c7 59bd eb12 943e dfb5 b5bf
000002c0: bd52 b3bf 9b5f 6abf 01a0 433f f6a3 cabe
000002d0: 878b febf 6bb3 9cbf 5ef1 c13d 7bac fdbe
000002e0: ab90 763f b84e 28be 3a98 debf dfae a9bd
000002f0: 0c67 3fbe 5368 64bf 59cd c23d 86e3 e7bf
00000300: f82d 52be 8602 abbf 2829 0cbe 15e3 22c0
00000310: 8524 193f daf0 b1bf 133a 6cbf cba3 91bf
00000320: 14ca 04bf 2a87 a7bf 398d 57bc cd5c e4bf
00000330: c9e3 853e 5d0a 30c0 3ead 7c3f 776e 91bf
00000340: f0fb af3f c1f5 15c0 7570 05bf 965a d03e
00000350: 04df 6cbf 916e 0dc0 50f4 a8bf 9215 e03f
00000360: 15c1 afbe 22bd cfbf 5862 5e3f 7b06 083f
00000370: f8ae 67be 72a0 e7be 1069 603f b946 613f
00000380: ed8c f43e c349 d8bf bb0c 83bf 1e52 5f3e
00000390: d737 b5be 0d5a 393f 932b a5bf 5c80 3f3f
000003a0: fe29 153e a832 863e 9459 d73d 9bd3 853e
000003b0: 5038 803e 9bd6 0dbf b3d2 2f3f 74bc 2c3f
000003c0: 8624 693f 25cd d1bf dc27 873e b068 f2bd
000003d0: 2aa9 5dc0 0977 b7bf ceba 2b3f 0a51 94bf
000003e0: 535f f0bf 7074 123e ee80 30be d3d6 9fbf
000003f0: 8a63 023f f034 91bf e013 13bf 6f23 82bf

model.2.bias f4 [256]
1.240517 -0.03298974 -0.58949393 -0.46955588 -0.21284977 -0.0017462685 -0.050664764 -0.17720468
-0.40139592 -0.017068237 0.9751551 -0.03811496 0.16291222 -1.0174865 -0.06822145 0.04619526
0.19453916 -0.37265757 -0.016626447 -0.8970316 -0.27817708 -0.09992152 -0.02560191 -1.0417815
-0.13816628 -0.16172569 -0.34883085 -0.17922288 -0.32626304 -0.4028408 -0.05005928 -0.14643237
-0.105909325 -0.20362908 -0.943936 -0.2369749 -0.49562132 -0.28750536 -0.03299134 0.006654523
-0.058180127 -0.4159767 -0.12470471 -0.07356607 -1.2044572 0.24394514 0.358203 0.17388672
0.4220759 -0.34186262 -0.00074626104 -0.48673543 0.0011283478 -0.06582154 -0.034296345 -0.1033511
-0.004734197 0.016643139 -0.51246536 -0.9311537 -0.7688397 1.0037379 0.00053061807 0.009483564
-0.8297307 -0.04266712 -0.09601924 0.17172123 -0.042634156 -0.70361686 -0.09956175 -0.10309546
-0.04176328 -1.2602502 -0.99732494 -0.26600978 -0.20537741 1.8189948 -0.04085616 -0.8793734
-0.07158229 -0.051363703 -0.004402979 -0.031864986 -0.7931347 -0.35667393 -0.40875706 -0.13448223
-0.099857286 -0.11974539 -0.05389274 -0.08876364 -0.26806775 -0.175541 -0.098463036 -0.5755819
-0.7720634 0.2594284 -0.0046937936 -0.9117211 -0.10505705 -0.0503694 -0.013517743 -0.9537735
0.0018517685 -0.41531563 -0.5621935 -0.06478425 -0.23259072 -0.083933905 -0.061877593 0.05960906
-0.31199545 -0.022472182 -0.954756 -0.42611727 -0.356726 -0.3301589 -0.35124564 0.34548825
-0.012731058 -1.3831874 -0.096344136 -0.5454332 0.0833863 -0.104627974 -1.2207704 0.098627955
0.55424744 -0.037994374 -0.8680364 -0.06432911 0.008394687 -0.12475097 -0.29532787 -0.04787095
-0.48517475 -0.036184616 -0.13729261 0.0029389677 -0.030042024 -0.3635431 -0.6402006 -0.049594652
0.71737254 -0.11638627 -0.5279943 -0.48866922 -0.7445291 0.7986307 -0.20148233 -0.010809014
-0.064389184 0.031256292 -0.013766157 -0.1348508 0.0033052696 -0.1952546 -0.029738208 -0.66896856
0.18602557 -0.31446332 0.32475972 -0.24236351 -0.039092053 -0.11012538 0.008149447 -0.13009052
-0.070155144 -0.05812105 -0.85908884 0.071480654 -0.23822261 -0.41132683 0.0041223764 0.6402345
-0.8691884 -0.40123552 0.035285927 -0.093329385 0.13552122 0.10879184 -0.0940776 0.74540555
0.015304258 -0.07811115 -0.0722702 -0.72794676 -0.8805693 0.011589541 0.22446 0.00037544293
-0.045923326 -0.35099155 -0.028602276 -0.3801974 -0.061102096 -0.07915223 -0.10731432 -0.12158841
-0.32290313 -0.22265364 -0.030969337 0.02489178 -0.14445986 -1.1079373 0.08758129 -0.10772705
-0.10049779 -0.031082222 -0.20892972 0.13834065 -0.010551167 0.39860636 -0.112503506 -0.07927526
-0.8098556 -0.98594564 -0.7602829 -0.08800921 -0.43185973 -0.40544555 0.008568917 -0.11676731
-0.04435758 0.17867626 -0.19040321 0.02589138 -0.047200873 -0.96445966 0.7413669 -0.24882783
-0.07758145 0.06686963 -0.11117125 -0.05892981 -0.34392902 -0.4352703 -0.0072492706 -1.0629723
0.0058064004 -0.9706784 -0.0009969514 -0.028467992 -0.066214934 -0.9077056 -0.12900142 -0.13491422
-0.035790488 -0.07416202 -0.00911102 -0.05508744 -0.045198392 0.013258185 -0.19765866 -0.50570655
00000000: 43c9 9e3f 4020 07bd 13e9 16bf a169 f0be
00000010: 4af5 59be 0ce3 e4ba db85 4fbd 2575 35be
00000020: c483 cdbe b0d2 8bbc c4a3 793f 6f1e 1cbd
00000030: 76d2 263e ff3c 82bf b0b7 8bbd 3e37 3d3d
00000040: 4635 473e f9cc bebe 3034 88bc dda3 65bf
00000050: 3a6d 8ebe a7a3 ccbd 19bb d1bc 1959 85bf
00000060: 767b 0dbe 6b9b 25be f599 b2be 3486 37be
00000070: f30b a7be 2641 cebe f60a 4dbd 5ef2 15be
00000080: fde6 d8bd 2484 50be caa5 71bf 8ca9 72be
00000090: 14c2 fdbe e733 93be ed21 07bd 2f0e da3b
000000a0: 494e 6ebd e6fa d4be 2f65 ffbd cfa9 96bd
000000b0: a72b 9abf c1cc 793e 6266 b73e 5c0f 323e
000000c0: 551a d83e 9e08 afbe bba0 43ba 6335 f9be
000000d0: 12e5 933a 72cd 86bd 537a 0cbd bea9 d3bd
000000e0: 5321 9bbb 3157 883c ee30 03bf 1760 6ebf
000000f0: aed2 44bf 7c7a 803f 2d19 0b3a f360 1b3c
00000100: 3b69 54bf b8c3 2ebd bca5 c4bd b1d7 2f3e
00000110: 27a1 2ebd 3c20 34bf 08e7 cbbd b623 d3bd
00000120: f90f 2bbd e14f a1bf b050 7fbf 6f32 88be
00000130: 754e 52be d2d4 e83f ca58 27bd 9d1e 61bf
00000140: bc99 92bd bf62 52bd dd46 90bb dc84 02bd
00000150: e00a 4bbf f79d b6be 9b48 d1be b6b5 09be
00000160: fa81 ccbd 123d f5bd a2be 5cbd b6c9 b5bd
00000170: 2d40 89be 05c1 33be fda6 c9bd 5659 13bf
00000180: f2a5 45bf cdd3 843e 65ce 99bb 8e66 69bf
00000190: 2728 d7bd 2550 4ebd 8679 5dbc 802a 74bf
000001a0: 0ab7 f23a 40a4 d4be eaeb 0fbf 9bad 84bd
000001b0: 432c 6ebe 8ae5 abbd 5c73 7dbd a128 743d
000001c0: debd 9fbe 9517 b8bc e46a 74bf 0b2c dabe
000001d0: caa4 b6be 960a a9be 78d6 b3be d6e3 b03e
000001e0: ed95 50bc 490c b1bf 1350 c5bd 83a1 0bbf
000001f0: 70c6 aa3d 3147 d6bd 3442 9cbf 74fd c93d
00000200: 29e3 0d3f fd9f 1bbd a237 5ebf fbbe 83bd
00000210: df89 093c 707d ffbd 3735 97be 5414 44bd
00000220: d368 f8be 5236 14bd 6f96 0cbe b29b 403b
00000230: b11a f6bc 5222 babe 30e4 23bf c323 4bbd
00000240: baa5 373f ed5b eebd a22a 07bf da32 fabe
00000250: 7699 3ebf 1073 4c3f 6251 4ebe 4a18 31bc
00000260: 7ade 83bd 9906 003d 738b 61bc 5416 0abe
00000270: 399d 583b d2f0 47be 8b9d f3bc 8641 2bbf
00000280: 7d7d 3e3e 5601 a1be e846 a63e 242e 78be
00000290: fd1e 20bd 6a89 e1bd 4285 053c 7336 05be
000002a0: 80ad 8fbd 5710 6ebd 3fed 5bbf 7364 923d
000002b0: a1f0 73be 6e99 d2be 0015 873b 68e6 233f
000002c0: 2283 5ebf be6e cdbe fa87 103d 7a23 bfbd
000002d0: 13c6 0a3e 42ce de3d c2ab c0bd e6d2 3e3f
000002e0: b6be 7a3c bdf8 9fbd 6602 94bd b85a 3abf
000002f0: fd6c 61bf 0fe2 3d3c d8d8 653e 19d7 c439
00000300: 191a 3cbd 2ab5 b3be 524f eabc 3ca9 c2be
00000310: 3146 7abd 901a a2bd 9cc7 dbbd 5803 f9bd
00000320: 8f53 a5be 51ff 63be 68b3 fdbc d9e9 cb3c
00000330: 49ed 13be e4d0 8dbf d25d b33d 00a0 dcbd
00000340: c9d1 cdbd 25a0 febc acf1 55be 2ca9 0d3e
00000350: cdde 2cbc 2216 cc3e 3d68 e6bd 115b a2bd
00000360: b252 4fbf ef66 7cbf e6a1 42bf 2c3e b4bd
00000370: b81c ddbe 8f96 cfbe a564 0c3c b323 efbd
00000380: 4bb0 35bd e9f6 363e 0ff9 42be 291a d43c
00000390: b455 41bd d4e6 76bf 39ca 3d3f b9cc 7ebe
000003a0: 06e3 9ebd f2f2 883d c1ad e3bd 6260 71bd
000003b0: 7717 b0be c0db debe 4a8b edbb 7a0f 88bf
000003c0: 9e43 be3b 617e 78bf 23ac 82ba b535 e9bc
000003d0: b29b 87bd 655f 68bf f318 04be f426 0abe
000003e0: 0c99 12bd 42e2 97bd 6346 15bc 5ea3 61bd
000003f0: f321 39bd dc38 593c 0867 4abe fc75 01bf

model.4.weight f4 [1, 256]
3.310328 -0.89469624 -1.2038685 3.524265 -1.517334 0.0033375435 -1.8851603 -2.795673
-2.169732 0.007834742 1.4404657 0.02551429 2.004959 -1.8815295 0.018586835 -0.8936643
-2.1651735 -0.6629185 -0.029196251 -1.3364148 1.0802263 0.025520884 0.019312698 -1.963849
-0.012899737 2.9801466 -3.2337213 1.3574106 -0.2587871 -0.72846514 -0.00055448833 0.13837013
0.014493144 -0.44935322 -5.8968205 1.3045325 -1.366627 2.298375 0.0016596706 -1.9182554
0.0059049423 1.6687304 0.0012750841 0.0034055093 -0.30089414 0.72850186 3.5219052 3.3874094
2.588458 -0.79557836 0.030642567 -1.4207276 0.02216703 0.010908368 -1.9680195 -0.01687881
-0.02289807 0.028386762 -0.8133628 -1.998355 -1.1677879 1.6620272 -0.003280308 -0.024072472
-1.4122767 0.00027341107 -0.017612442 1.8615947 -0.009893823 -1.5395718 -0.014698886 -0.0039458205
0.036197614 -0.9680914 -3.8270447 2.509132 -0.030554079 2.7477825 -0.012458398 -1.5653414
0.014805633 0.007410576 -0.012804425 -0.00793483 -1.6449978 -0.97337556 -2.2600965 0.025446076
0.0153815625 0.0046929377 0.014442802 -0.009342367 -0.8879168 -0.25547966 0.00067125645 -1.2348235
-1.0428185 1.8215997 0.015066689 -2.3754337 -0.009565973 0.025854317 -0.002793403 2.7546399
-1.6646786 -0.102777645 -2.2619312 -0.008539212 -0.25436532 0.017827952 0.036499467 -0.8952729
-0.047804188 -0.020387452 -1.5100569 -0.13161364 -0.6248183 -0.8754404 -0.83298093 -3.0820093
0.026999546 -2.291871 0.020155597 -1.5912418 -2.5686865 0.028985875 -6.9237194 2.5385177
2.0803735 0.015078297 -2.48725 3.3157594 0.028362453 -0.026433084 -0.1806387 -0.028784782
-1.3520436 -0.004370703 0.027492087 -0.9082106 0.0018278848 3.3600225 -0.90107465 0.013739543
1.8590946 0.031060163 -0.8606803 -1.9405682 -2.0137415 3.6837664 0.020009931 0.04884432
0.008456255 -0.90907294 3.881191 0.017990125 0.057765048 -0.24264291 0.014800656 -1.2353241
4.73614 -0.7597298 2.8407829 -0.3465338 -0.0046132077 -0.010467697 -0.010049306 0.01713234
0.019524127 -0.007091381 -1.661868 -0.9003561 -0.38393348 -0.4496113 -0.031876978 0.75257844
0.025399841 1.8904365 0.022187974 -0.00018828564 2.8993592 1.687754 -2.391067 2.0081446
-0.021724954 0.011025582 0.015130113 -1.4516112 -1.5988264 -0.022905154 -2.6175869 0.002595599
-0.008057906 -0.6591178 -0.0070406436 -1.1121795 0.0037991796 -1.9113777 0.035458248 -0.002262658
-3.931017 -0.067692466 -0.0072154384 -2.374245 0.027571032 -1.4171286 -0.7418078 0.030134028
0.021390375 0.027816549 -0.026174625 3.1478581 -1.5714511 0.888433 0.0025300994 0.019603139
-1.4842101 -1.3020037 -4.0590105 0.012632388 -2.966505 -0.8913769 -2.9425669 -0.012176226
0.01124075 -2.6632543 -0.32663134 -0.89998955 -0.019237433 -1.2434372 1.1676439 -0.9101208
-0.022040153 -1.0859175 -0.0099882195 0.024106653 1.6726065 -1.5391483 0.027584111 -0.557859
0.02007472 -3.0355468 0.021112645 -0.053729814 -0.0012151873 -1.9919215 1.3292091 0.0007737226
0.0042486517 0.005304545 -0.91040045 0.0028871938 -0.018978247 -0.88357145 -0.045944553 -0.8182761
00000000: 6adc 5340 d00a 65bf 5d18 9abf 8f8d 6140
00000010: 0038 c2bf b0ba 5a3b ef4c f1bf 4eec 32c0
00000020: e4dc 0ac0 4a5d 003c 2e61 b83f 5803 d13c
00000030: 4051 0040 f5d5 f0bf 6b43 983c 2fc7 64bf
00000040: 3492 0ac0 07b5 29bf fa2c efbc a40f abbf
00000050: db44 8a3f 2c11 d13c aa35 9e3c 675f fbbf
00000060: 6b59 53bc b9ba 3e40 4af5 4ec0 a1bf ad3f
00000070: be7f 84be b17c 3abf 155b 11ba e6b0 0d3e
00000080: a774 6d3c a011 e6be c1b2 bcc0 ecfa a63f
00000090: a2ed aebf 9318 1340 4e89 d93a 6589 f5bf
000000a0: 3f7e c13b f598 d53f b920 a73a f72e 5f3b
000000b0: cc0e 9abe 197f 3a3f e566 6140 51cb 5840
000000c0: 4ca9 2540 06ab 4bbf 1f06 fb3c 67da b5bf
000000d0: a297 b53c 03b9 323c 10e8 fbbf 6e45 8abc
000000e0: bc94 bbbc 5b8b e83c 8b38 50bf 19ca ffbf
000000f0: 137a 95bf 4fbd d43f 70fa 56bb a233 c5bc
00000100: 7cc5 b4bf 9d58 8f39 f847 90bc bc48 ee3f
00000110: b419 22bc b010 c5bf 99d3 70bc f14b 81bb
00000120: f343 143d d7d4 77bf 4dee 74c0 9e95 2040
00000130: 8c4c fabc abdb 2f40 4f1e 4cbc 1b5d c8bf
00000140: 5393 723c 6bd4 f23b a7c9 51bc 1701 02bc
00000150: 4a8f d2bf 242f 79bf 6ca5 10c0 4a74 d03c
00000160: f302 7c3c 37c7 993b 81a1 6c3c ba10 19bc
00000170: 844e 63bf 3bce 82be 42f7 2f3a b20e 9ebf
00000180: 147b 85bf 2e2a e93f 46da 763c 1b07 18c0
00000190: 99ba 1cbc 6fcc d33c 8711 37bb 054c 3040
000001a0: 3014 d5bf 167d d2bd 7bc3 10c0 0de8 0bbc
000001b0: 2c3c 82be ed0b 923c 7780 153d 9b30 65bf
000001c0: 53ce 43bd 9603 a7bc 8b49 c1bf bac5 06be
000001d0: 18f4 1fbf dd1c 60bf 3d3e 55bf a43f 45c0
000001e0: 272e dd3c 04ae 12c0 5a1d a53c d0ad cbbf
000001f0: 5c65 24c0 c973 ed3c 1c8f ddc0 1377 2240
00000200: d724 0540 f60a 773c 1b2f 1fc0 6735 5440
00000210: 6058 e83c 328a d8bc 5af9 38be 10ce ebbc
00000220: c40f adbf 1d38 8fbb 1637 e13c 7d80 68bf
00000230: a395 ef3a 9c0a 5740 d4ac 66bf d21b 613c
00000240: d0f6 ed3f e271 fe3c 8b55 5cbf 8a64 f8bf
00000250: 24e1 00c0 d4c2 6b40 deeb a33c fb10 483d
00000260: 1b8c 0a3c 01b9 68bf 6f65 7840 0760 933c
00000270: 0b9b 6c3d 6277 78be 737e 723c 1a1f 9ebf
00000280: 758e 9740 a77d 42bf 63cf 3540 e16c b1be
00000290: 642a 97bb b480 2bbc d8a5 24bc 1f59 8c3c
000002a0: 10f1 9f3c d15e e8bb 17b8 d4bf bd7d 66bf
000002b0: ee92 c4be 7433 e6be 6f91 02bd fba8 403f
000002c0: 5413 d03c d3f9 f13f 8ec3 b53c 8b6e 45b9
000002d0: 1a8f 3940 5308 d83f 3e07 19c0 7185 0040
000002e0: 88f8 b1bc a5a4 343c 4be4 773c 65ce b9bf
000002f0: 58a6 ccbf 97a3 bbbc 8b86 27c0 ed1a 2a3b
00000300: 4f05 04bc f2bb 28bf 33b5 e6bb e65b 8ebf
00000310: a8fb 783b 06a8 f4bf ab3c 113d 1a49 14bb
00000320: c895 7bc0 59a2 8abd 7c6f ecbb a1f3 17c0
00000330: a5dc e13c 7864 b5bf 1ee7 3dbf a3db f63c
00000340: de3a af3c 88df e33c 2b6c d6bc 8276 4940
00000350: 4f25 c9bf 5870 633f 06d0 253b c396 a03c
00000360: 99fa bdbf 0fa8 a6bf 6ae3 81c0 13f8 4e3c
00000370: 38db 3dc0 4731 64bf 0453 3cc0 cb7e 47bc
00000380: 1f2b 383c c272 2ac0 393c a7be b765 66bf
00000390: d297 9dbc f328 9fbf 5b75 953f adfd 68bf
000003a0: 8d8d b4bc 58ff 8abf a1a5 23bc 517b c53c
000003b0: f817 d63f d002 c5bf 13f8 e13c d9cf 0ebf
000003c0: bd73 a43c 6646 42c0 6df4 ac3c cb13 5cbd
000003d0: eb46 9fba 49f7 febf 8623 aa3f a5d3 4a3a
000003e0: 4638 8b3b c0d1 ad3b 0110 69bf 1337 3d3b
000003f0: 4578 9bbc bd31 62bf 5b30 3cbd 8b7a 51bf
