hw2/preTrained/ddpg_critic_LunarLanderContinuous-v2_04302023_180430_.pth (torch, 277399 bytes, 5 tensors)

model.0.weight f4 [256, 10]
0	0xc049a76a	-3.1508431
1	0xbf2b367e	-0.66880023
2	0xbf1a32d6	-0.6023382
3	0x3f1fb775	0.6238931
4	0xbd4a03ee	-0.049320154
5	0x3d79e026	0.06100478
6	0xbe923ee4	-0.28563607
7	0xbef056e6	-0.46941298
8	0x3d585be5	0.052822012
9	0xbd3b2af8	-0.045695275
10	0x40199aab	2.4000652
11	0xbff062de	-1.8780172
12	0xbff7aa29	-1.9348804
13	0x3ec13b0b	0.3774036
14	0xbf2521d7	-0.6450476
15	0xbe19da85	-0.15024765
16	0x3fa3fa77	1.2810811
17	0xc07e83bb	-3.9767902
18	0x3f0a0e10	0.5392771
19	0xbeec823c	-0.4619311
20	0x3fa9e2ea	1.3272374
21	0xc098b65a	-4.7722597
22	0x3f96a152	1.1767981
23	0xbfce1f16	-1.6103237
24	0x3eea3ed0	0.45751047
25	0xbf705d65	-0.9389251
26	0xc0194ac2	-2.3951879
27	0x3f89efba	1.0776284
28	0xbec18b5d	-0.37801638
29	0xbc56eeeb	-0.013118486
30	0x3e9bc6a2	0.30424982
31	0xbf35e5ff	-0.7105407
32	0xbf602687	-0.8755879
33	0x40327cb4	2.7888613
34	0xbff0578c	-1.8776717
35	0xbfdc8eb1	-1.7231046
36	0xbf906a03	-1.1282352
37	0x3f11074d	0.56651765
38	0x3ea063e4	0.3132621
39	0xbe83a899	-0.25714567
40	0xbe507036	-0.20355305
41	0xc068edcb	-3.6395137
42	0x3ea62ee8	0.32457662
43	0xbe8446e9	-0.2583535
44	0x3fba1786	1.4538429
45	0xbfc81b6e	-1.5633371
46	0xbf354cf4	-0.70820546
47	0xbe26942a	-0.16267458
48	0xbf7ca0db	-0.98682946
49	0x3e30021d	0.17188306
50	0x3f3cf9cf	0.7381868
51	0xbfdf9c68	-1.7469606
52	0x3fc4cf9c	1.5375857
53	0x3deba895	0.11506764
54	0x3f93478a	1.1506207
55	0x3f90e724	1.1320539
56	0x3f38de88	0.72214556
57	0xbfbdc94c	-1.4827056
58	0xbc911d7a	-0.01771425
59	0x3f9c8292	1.2227347
60	0xbf05a513	-0.5220501
61	0x3fb8d7d4	1.4440866
62	0x3ef5c3ea	0.48001033
63	0x3d8c040d	0.0683671
64	0xbf089060	-0.533453
65	0x3d8ab729	0.06773216
66	0xc003bd4a	-2.0584283
67	0xbedde000	-0.4333496
68	0xbd081488	-0.033222705
69	0xbda89c5e	-0.0823295
70	0xc00fa7c7	-2.2446153
71	0xbfac9e5a	-1.3485825
72	0x3f22110d	0.6330727
73	0xbeab5d3f	-0.3346958
74	0xbed718ac	-0.4201101
75	0x3eb619c8	0.35566545
76	0xbfb788cd	-1.4338623
77	0xbfeb5abe	-1.8387067
78	0xbc6f663a	-0.014611775
79	0xbc5f82fd	-0.01364207
80	0xc0218ea8	-2.524332
81	0xc0b34780	-5.602478
82	0x3f13cb0e	0.5773171
83	0x3ed6ce3f	0.41954228
84	0x3f8bd827	1.092534
85	0x3f024120	0.5088062
86	0x3e9dc235	0.3081223
87	0x3deaa5ff	0.114574425
88	0x3f4df74f	0.8045549
89	0x3f3eb135	0.74489146
90	0xc01d4cd4	-2.4578142
91	0xc009c55e	-2.1526713
92	0xbd371bd1	-0.044704262
93	0x3f54b2ad	0.8308514
94	0x3e1a9a9c	0.15098041
95	0xbee537f8	-0.44769263
96	0xbf094612	-0.53622544
97	0x3fa7eb68	1.3118715
98	0x3d689dce	0.05679112
99	0xbe6c7ee8	-0.23095286
100	0xbfa93d5f	-1.3221854
101	0x3f59ebdd	0.85125524
102	0x3f8c49c3	1.096001
103	0x3f2c0e64	0.6720946
104	0xbf95e509	-1.1710521
105	0x3faaa93a	1.3332894
106	0x3dee6e2f	0.116421096
107	0x3f998479	1.1993552
108	0x3dbf6950	0.09346259
109	0xbd0a1669	-0.03371278
110	0xbca952ec	-0.020669423
111	0xc04544cc	-3.082324
112	0xbf4fb957	-0.8114218
113	0xbf098d4f	-0.53731245
114	0x3f747a68	0.9549928
115	0xbfb7757f	-1.4332732
116	0xbd2ea593	-0.042638373
117	0x3ec44055	0.3833033
118	0x3e695587	0.22786532
119	0xbe8646f9	-0.26226023
120	0x3fad2fdd	1.3530232
121	0x3f45ab49	0.77214485
122	0xbdd68ce9	-0.10476095
123	0x3e0b9993	0.13632803
124	0xbe90a3e2	-0.28250033
125	0x3f2c955b	0.674154
126	0xbfc68bb0	-1.5511379
127	0xbff14f42	-1.8852313
128	0x3e2776f7	0.16353975
129	0xbed45a05	-0.4147493
130	0xbd5e00de	-0.054200046
131	0xbf96092c	-1.1721549
132	0xbcfd817f	-0.030945538
133	0xbf1b8c29	-0.6076074
134	0xbf3c45ec	-0.7354419
135	0xbfa1a883	-1.2629551
136	0x3f229559	0.63509136
137	0xbfd1f7bc	-1.6403728
138	0x3e9b44d9	0.30325964
139	0x3ec2b7b7	0.38030788
140	0x3faf608c	1.3701339
141	0xbf6ffa52	-0.93741333
142	0x3ddaea5b	0.10689231
143	0x3edcca05	0.4312288
144	0x3ed90881	0.423893
145	0x3f9ef98c	1.2419906
146	0xc00fc2b8	-2.2462597
147	0xbf8a1d8c	-1.0790267
148	0xbdbe63e7	-0.092963986
149	0xb9758022	-0.00023412754
150	0x3ea64d84	0.32481015
151	0xc09a337c	-4.8187847
152	0xbee29f4c	-0.4426216
153	0xbfadb36d	-1.3570381
154	0x3e1a9b3f	0.15098284
155	0x3e087ef7	0.13329683
156	0xbf256cf4	-0.64619374
157	0xbf1fe7c9	-0.6246305
158	0xbd5a7470	-0.0533337
159	0x3e62cf3a	0.22149363
160	0x3e8f9f55	0.28051248
161	0xbe77d89f	-0.24203728
162	0xbd44877f	-0.04798078
163	0xbe9a0fc4	-0.30090153
164	0xbd52b1ef	-0.051439222
165	0x3dbf17be	0.093307
166	0x3e278c5a	0.16362134
167	0xbde1037a	-0.10986991
168	0xbced50f4	-0.028969266
169	0xbda59e65	-0.08086852
170	0xbe01db93	-0.12681417
171	0x3ef417f3	0.47674522
172	0xbe99f2ce	-0.30068058
173	0x3f28d6d9	0.6595283
174	0x3f687863	0.90808696
175	0xbfe1af68	-1.7631655
176	0xc000ced1	-2.012623
177	0xbfd3920b	-1.6528944
178	0xbe7b4b55	-0.24540456
179	0x3e3adeae	0.18249008
180	0x3faa40f8	1.3301077
181	0xc08f9917	-4.4874377
182	0x3f5c5ac3	0.8607599
183	0x3f6ea7af	0.93224615
184	0xbd5d985f	-0.05410039
185	0xbf6f2516	-0.93415964
186	0x3e3d5fd5	0.18493588
187	0x3f122977	0.5709452
188	0x3d8a83b5	0.067634024
189	0xbe166427	-0.14686643
190	0x3e83309b	0.2562302
191	0xbe24c7b7	-0.1609181
192	0xbf70db6d	-0.9408482
193	0xbe91dcfe	-0.28488916
194	0xbe7a8fc2	-0.24468902
195	0xbef9c230	-0.48780966
196	0xbf2a6bc4	-0.6657069
197	0x3f0f4808	0.55969286
198	0x3d3d62ff	0.04623699
199	0x3e7763fa	0.24159232
200	0x3fdf1a28	1.7429857
201	0xbf8e1fc3	-1.1103443
202	0xc01ff9c1	-2.4996188
203	0xbf2a4d8d	-0.66524583
204	0x3eb75b0a	0.35811645
205	0xbe55bf0b	-0.20873658
206	0xbf33c176	-0.7021707
207	0xbff6c51b	-1.9278902
208	0x3d91e3c4	0.07123521
209	0x3e64c73a	0.22341624
210	0xbf0393be	-0.5139731
211	0x3e87bea2	0.2651263
212	0x3f843698	1.0329161
213	0x3f93536b	1.1509832
214	0x3f9ec226	1.2402999
215	0xbfc67857	-1.5505475
216	0xbefb7303	-0.49111184
217	0x3f666c4b	0.9000899
218	0xbe0968fa	-0.13418952
219	0xbe6708d9	-0.22561969
220	0x3fbd1bd9	1.4774123
221	0x3faeefde	1.3666952
222	0xbfb5fdda	-1.4218094
223	0xbee3e1b1	-0.44508126
224	0x3eb728da	0.35773355
225	0x3faf38ed	1.3689247
226	0xbf5f0b53	-0.87126654
227	0xbfb7e6a7	-1.4367265
228	0x3dba1301	0.09085656
229	0xbe60cdba	-0.21953478
230	0xbfbe1521	-1.4850198
231	0x3d6e47a8	0.058173805
232	0x3d9b1667	0.07572632
233	0x3f0106e6	0.5040115
234	0xbef720c0	-0.48267174
235	0xbec818bc	-0.3908137
236	0x3edc72a7	0.43056223
237	0xbef8b77f	-0.48577496
238	0x3e211f81	0.15734674
239	0x3eabd977	0.3356435
240	0x3fbba8e2	1.4660914
241	0x3efbfcf9	0.4921644
242	0x3f8b0ba6	1.086293
243	0x3f424795	0.75890476
244	0xbf473a6c	-0.7782352
245	0xbf0089f4	-0.502105
246	0xc0004db6	-2.004743
247	0xbeb4698e	-0.35236782
248	0x3e795ef1	0.24352624
249	0xbd02eed4	-0.031966045
250	0xbebcdc56	-0.36886853
251	0xbf6ecec7	-0.9328427
252	0xc073bd82	-3.8084416
253	0xbe70b373	-0.23505954
254	0xbfb9043d	-1.4454418
255	0x3f7e7166	0.9939178

model.0.bias f4 [256]
0	0xc00a70e9	-2.1631415
1	0x3f04af62	0.5183011
2	0xbec55ce6	-0.38547438
3	0xbf756e77	-0.9587168
4	0xbfcbb35e	-1.5914114
5	0xbfbf7172	-1.4956496
6	0x3fec4073	1.8457168
7	0x3f94c00a	1.1621106
8	0xbfaa6a9d	-1.3313786
9	0xbfc223b5	-1.5167147
10	0xbf95d972	-1.1706984
11	0xbfc8cbf7	-1.5687245
12	0x3fd7dcd6	1.6864269
13	0xbff0b24f	-1.8804415
14	0xbea2d4ee	-0.31803077
15	0xbe457b14	-0.19285232
16	0xbf8ba68f	-1.0910205
17	0x3e41c8d6	0.18924269
18	0xbf86c11e	-1.0527685
19	0x3fa7ab28	1.3099108
20	0xbf3b8e41	-0.7326394
21	0x3f901454	1.1256204
22	0xbe3bfccb	-0.18358152
23	0xc01cfad8	-2.4528103
24	0xc02f5140	-2.739334
25	0xbf9576d9	-1.1676894
26	0xbf405b20	-0.75139046
27	0x3e187039	0.1488656
28	0xbf29f0bc	-0.66382957
29	0xbff264b5	-1.8936983
30	0xbf946be2	-1.1595423
31	0xbf59871b	-0.8497178
32	0xbeca3ac0	-0.39497948
33	0xbfb0e84f	-1.3820895
34	0xbfaa68ab	-1.3313192
35	0xbffd4bb9	-1.9788734
36	0xbf3549f7	-0.70815986
37	0xbfba46fe	-1.4552915
38	0xbfd86b1d	-1.6907688
39	0xbf949bab	-1.1610006
40	0xc022c1d0	-2.5430794
41	0xc0323a21	-2.784798
42	0xbfc23666	-1.5172851
43	0xbfde79a7	-1.7380875
44	0xbf09ed40	-0.5387764
45	0xbf8e9353	-1.113871
46	0xbf4bc460	-0.7959652
47	0x3f410871	0.75403506
48	0x3f800432	1.000128
49	0x3f90b46e	1.1305063
50	0xbd2b9da4	-0.041898385
51	0xbe3efbf5	-0.18650801
52	0xc0005a54	-2.0055132
53	0xbf71106e	-0.94165695
54	0xbf865cde	-1.0497091
55	0xbf30186f	-0.6878728
56	0x3d0fd93f	0.03511929
57	0xbf97cb7c	-1.1858974
58	0x3f22f369	0.63652664
59	0xbfd7542a	-1.682256
60	0xbfe1da9b	-1.7644838
61	0xbd260c80	-0.040539265
62	0x3ff108dc	1.8830829
63	0xbf807719	-1.0036346
64	0xbf3f66a2	-0.7476598
65	0xc01c51fa	-2.4425035
66	0xc013a453	-2.3069046
67	0xbebd5a29	-0.3698285
68	0xbf86ea27	-1.0540208
69	0x3e2798a9	0.16366829
70	0xbf570a0d	-0.8399971
71	0xc0154b5f	-2.3327253
72	0x3ea4609c	0.32104957
73	0x3fe84fd4	1.8149362
74	0xbfd113ce	-1.6334169
75	0xbf84bbc4	-1.0369802
76	0xbf906e4e	-1.1283662
77	0xbe8d690d	-0.2761921
78	0xbfa118fa	-1.2585747
79	0x3f799205	0.97488433
80	0xbfa94f61	-1.322735
81	0xbfa8cb05	-1.3186957
82	0xbe11fde0	-0.14257002
83	0xbfc8b680	-1.5680695
84	0xbef0fe36	-0.47068948
85	0xbf3bd1f0	-0.73367214
86	0x3fa51440	1.2896805
87	0x3d92af5b	0.07162353
88	0x3f500463	0.81256694
89	0xbf2dd572	-0.67903817
90	0xbf05600e	-0.5209969
91	0xbfe0feac	-1.757772
92	0xbfc0f290	-1.5074024
93	0xbd83e02e	-0.06439243
94	0xbe9fa94d	-0.31183854
95	0x3f47bd0e	0.7802285
96	0xc019e096	-2.4043326
97	0xbf1f5aaf	-0.6224775
98	0x3cec50a4	0.028847046
99	0xbfc2d970	-1.5222607
100	0xbf7937e9	-0.9735094
101	0xbfce0e2f	-1.6098078
102	0xc0034437	-2.0510385
103	0xbf6c4abe	-0.9230155
104	0x3f13348c	0.57502055
105	0xbfa6bfe9	-1.3027316
106	0xbfd4153a	-1.6568978
107	0x3e452f71	0.19256379
108	0xc0055a32	-2.08363
109	0xbfe1587c	-1.7605128
110	0xbf8b2080	-1.0869293
111	0x3e972b5a	0.29525262
112	0x3ef932fe	0.48671716
113	0x3fa03443	1.2515949
114	0xbe26b930	-0.16281581
115	0xbdf9ba47	-0.12193733
116	0xbfeaa517	-1.8331631
117	0xbfb08408	-1.3790293
118	0xc00a0a2c	-2.1568708
119	0xc00c65c4	-2.1937113
120	0x3eac17db	0.3361195
121	0xbe525dbf	-0.20543574
122	0xbfa9bcdc	-1.326076
123	0x3dff34d4	0.12461248
124	0xbf90117b	-1.1255335
125	0x3fd5d8e7	1.6706818
126	0xbf9c68e5	-1.2219511
127	0xbf423d1c	-0.75874496
128	0x3f92bbb4	1.1463532
129	0xbf3a0dd6	-0.7267736
130	0xbf900ef7	-1.1254567
131	0xbff8d488	-1.9439859
132	0xbfb011e9	-1.3755466
133	0xc009d2b2	-2.1534848
134	0xbf0e2c83	-0.5553667
135	0xbf933cab	-1.1502889
136	0xbfe6bf39	-1.8027107
137	0xbfa12aa3	-1.2591137
138	0xbe88ea28	-0.26741147
139	0xbfec790c	-1.847444
140	0xbfb338ba	-1.4001687
141	0x3c1e5ceb	0.009665708
142	0x3dd7f664	0.10545042
143	0xbf4dbb0f	-0.80363554
144	0x3fce7293	1.6128715
145	0xbfd9ee59	-1.7025863
146	0x3ddd7119	0.10812587
147	0xc01c51c7	-2.4424913
148	0xbfc97811	-1.5739766
149	0xbfeeec45	-1.8665854
150	0xbefd81f8	-0.4951322
151	0x3f82ceea	1.0219395
152	0xbfedd966	-1.858197
153	0x4000a356	2.0099692
154	0xbefab962	-0.4896956
155	0xbf43bffe	-0.7646483
156	0xbf692929	-0.9107843
157	0xbf26761f	-0.6502399
158	0xbe286dc0	-0.16448116
159	0x3eb580f9	0.3544996
160	0xbf8e4fa4	-1.1118054
161	0xc033a880	-2.8071594
162	0x3f65d306	0.8977512
163	0xbf640c8e	-0.89081657
164	0xbf3fcb2a	-0.7491938
165	0xbfaaf36c	-1.3355536
166	0x3fe03a20	1.7517738
167	0x40496a05	3.147096
168	0x3efef10b	0.49793276
169	0xbf9648fd	-1.1741024
170	0x3ffd7a7b	1.9803003
171	0xbfd7ceba	-1.6859963
172	0xbfdb99c8	-1.7156305
173	0xbfb23fbf	-1.3925704
174	0xbf12c65a	-0.5733391
175	0xbeab8357	-0.33498642
176	0x3e8c5acb	0.2741302
177	0xbfc2216a	-1.5166447
178	0x3f68908d	0.90845567
179	0xbfb59c42	-1.4188311
180	0xbfe6c13b	-1.8027719
181	0xbf50c8bd	-0.815563
182	0xbff5c421	-1.9200479
183	0x3ebbdd5a	0.36692315
184	0x3ed4492e	0.41462082
185	0xbfe7f481	-1.8121492
186	0xbf521f06	-0.8207859
187	0xbfd43926	-1.657994
188	0xbfb119f7	-1.3836049
189	0x3f476a74	0.7789681
190	0xbec35023	-0.38147077
191	0xbf5c4230	-0.86038494
192	0xbf955397	-1.1666135
193	0xbde33c87	-0.11095529
194	0xbfd2e325	-1.6475569
195	0x3f15cfcf	0.58520216
196	0xbe864ed9	-0.2623203
197	0xbfa2f1bc	-1.2730021
198	0xbfbf8430	-1.4962215
199	0x3ee99814	0.4562384
200	0x3e7b10d2	0.24518135
201	0xbf27f63d	-0.65610105
202	0xbfcafd2b	-1.5858511
203	0xbfbb3cc6	-1.4627922
204	0xc000c16e	-2.011806
205	0xbd1df9e7	-0.038568404
206	0xbef9de41	-0.4880238
207	0xbfded368	-1.7408266
208	0x3fce2bc7	1.610711
209	0x3cf70093	0.030151641
210	0x3f8f0cdd	1.11758
211	0xbfd4910f	-1.6606768
212	0xc0008c71	-2.0085719
213	0x3f8959e8	1.0730562
214	0xbfd89706	-1.6921089
215	0xbfd0b9c1	-1.6306688
216	0x3e836ba8	0.25668073
217	0xc023021a	-2.5470033
218	0x3f2825a8	0.6568246
219	0xbfcbcd71	-1.5922071
220	0xbf85f53c	-1.0465465
221	0xbfccf2cd	-1.6011597
222	0xc0150900	-2.3286743
223	0x3d60b375	0.054858644
224	0x3f6ccf78	0.9250407
225	0xbfcc11d5	-1.5942942
226	0xbf881b99	-1.0633422
227	0xc002e425	-2.0451748
228	0xbfe4a286	-1.7862098
229	0xbe9391ad	-0.2882208
230	0xbff4f1d1	-1.9136297
231	0xbedc86e4	-0.43071663
232	0x4002a70f	2.0414464
233	0xbeaef0f7	-0.34168217
234	0xbffb858d	-1.9650131
235	0xbef56f3f	-0.47936437
236	0xbdfb124d	-0.1225935
237	0x400a6277	2.1622598
238	0x3ea1618c	0.31519735
239	0xbf86328d	-1.0484177
240	0xbffb42af	-1.9629725
241	0xbfb26cc2	-1.393944
242	0xc01548f3	-2.3325775
243	0xbf2028ed	-0.6256245
244	0x3fb460e6	1.4092071
245	0xbfc96e62	-1.5736811
246	0x3eb44659	0.3520992
247	0xbfbd9932	-1.4812376
248	0xbf8f0fdb	-1.1176714
249	0x3f1f3804	0.6219485
250	0xbfe71c3e	-1.8055494
251	0x3fcae484	1.5850987
252	0xbfef6a71	-1.8704358
253	0xbee52692	-0.4475599
254	0xbf536ce8	-0.8258805
255	0x3f06c004	0.5263674

model.2.weight f4 [256, 256]
0	0x3d03d86e	0.032188825
1	0x3be24fda	0.0069064917
2	0xbd004926	-0.03131976
3	0x3c0bd7f1	0.008535371
4	0xbdab79d0	-0.08372843
5	0xbb93b6cb	-0.0045078746
6	0xbb32c899	-0.002728021
7	0x3ca3ea66	0.02000923
8	0xbc666260	-0.01406154
9	0x3d50ba64	0.050959006
10	0xbcfcf4c7	-0.030878438
11	0x3c470f43	0.012149635
12	0xbcb16c2e	-0.02165803
13	0x3d376063	0.044769656
14	0xbd8518c4	-0.06498864
15	0x3c3d12c9	0.011540123
16	0x3d096d32	0.033551402
17	0xbcaffdab	-0.021483263
18	0x3d4c7fc6	0.04992654
19	0xbb9afd3a	-0.004729894
20	0x3cc3abd4	0.023885645
21	0xbdc2c959	-0.0951106
22	0x3c82fdd0	0.015990168
23	0xbcf71984	-0.030163534
24	0x3ab5111e	0.0013814305
25	0xbd517674	-0.051138356
26	0xbcdb603c	-0.026779287
27	0xbc952d6d	-0.018210137
28	0xbc71e8ce	-0.014764978
29	0x3d1dd4ea	0.03853313
30	0x3c0040ab	0.007827918
31	0xbd9a4205	-0.075321235
32	0xbd161686	-0.036642574
33	0xbd87eb5a	-0.066366866
34	0xbd11eafb	-0.035624485
35	0xbce5625e	-0.028001007
36	0x3b44b79a	0.0030016662
37	0x3aa684cc	0.0012704371
38	0x3d0f1164	0.034928694
39	0x3cb6d8f4	0.022320248
40	0x3c6e66b0	0.01455085
41	0x3c3c44b0	0.011490986
42	0xbb3f92b3	-0.0029231727
43	0xba36c680	-0.0006972328
44	0xbd3226c9	-0.04349402
45	0x3c2f1ad5	0.01068755
46	0x3bf10c4c	0.007356202
47	0x3cadb802	0.021205906
48	0xbd80717b	-0.06271645
49	0xbd93dae3	-0.07219484
50	0xbdcf38e3	-0.10118272
51	0xbd23b792	-0.03996999
52	0xbd33927f	-0.04384088
53	0xbd8a67fd	-0.067581154
54	0xbcf94012	-0.030426059
55	0xbd45c462	-0.04828299
56	0x3d4e4f54	0.050368622
57	0xbb897784	-0.0041951556
58	0xbc5d5fa0	-0.013511568
59	0x3d57a29a	0.052645303
60	0xbd0bead7	-0.034159508
61	0x3d5f3653	0.054495167
62	0xbd8e0512	-0.06934561
63	0xbd19a480	-0.037510395
64	0xbb69e900	-0.0035691857
65	0xbd2ba12f	-0.041901764
66	0x3cfc4298	0.030793473
67	0xbd89f36d	-0.06735883
68	0x3ce99458	0.028513119
69	0xbb1c0409	-0.0023806116
70	0x3cb15d4a	0.021650929
71	0x3c81ce01	0.0158453
72	0x3bd4c4d9	0.0064931926
73	0xbd9c0ce6	-0.07619648
74	0x3c154cdc	0.009112563
75	0x3d844203	0.06457903
76	0xbc1d7f68	-0.009612896
77	0xbd490708	-0.04907897
78	0xbd770380	-0.060306072
79	0xbd78a18f	-0.06070095
80	0xbda62ab9	-0.081136174
81	0xbd32149e	-0.043476693
82	0xbdbf8e9c	-0.093533725
83	0x3c6eab76	0.014567247
84	0xbd07e350	-0.033175766
85	0xbc5fd15f	-0.013660758
86	0xbcb820b3	-0.02247653
87	0x3ccef7c8	0.025264636
88	0x3d0e656a	0.034764685
89	0xbd630580	-0.055425167
90	0xbae26214	-0.0017271661
91	0xbd86ce7c	-0.065823525
92	0x3b9a4c50	0.004708804
93	0x3d2533e6	0.040332697
94	0xbbb79b04	-0.005603196
95	0xbba04a58	-0.004891675
96	0x3d674ec4	0.0564716
97	0xbcc6e7f2	-0.024280522
98	0xbc9ef6d1	-0.0194048
99	0xbdaa5a49	-0.08318002
100	0xbd5d272e	-0.053992443
101	0xbd51ecc3	-0.051251184
102	0xbd6c93bf	-0.05775809
103	0x3cda3816	0.026638072
104	0xbdcf66db	-0.1012704
105	0xbd0fd7a0	-0.035117745
106	0x3d062e9d	0.032759298
107	0xbd1a1aae	-0.0376231
108	0xbcc035e1	-0.023463191
109	0x3d4b3082	0.049606808
110	0x3d32f877	0.043693986
111	0xbd3c3aba	-0.045954444
112	0xb6fcee1e	-7.5379057e-06
113	0xbd170ba8	-0.03687635
114	0x3d5d1912	0.053978987
115	0x3cde82a0	0.027161896
116	0xbb664017	-0.0035133415
117	0x3ca5da58	0.020245716
118	0x3c5a5c56	0.013327679
119	0xbd372f54	-0.04472287
120	0xbd99c754	-0.07508722
121	0xbca53012	-0.020164523
122	0xbd121776	-0.035666905
123	0xbc9ea208	-0.019364372
124	0x3d26c042	0.040710695
125	0xbd9a5f39	-0.075376935
126	0x3bb4c83c	0.005517034
127	0xbdc367fb	-0.09541317
128	0xbce0ad52	-0.027426396
129	0xbd8192ee	-0.06326853
130	0xbd3610b6	-0.04444953
131	0xbd5ea4a8	-0.054356247
132	0xbd407cc0	-0.04699397
133	0xbce08d11	-0.027411016
134	0xbd920e1f	-0.071316
135	0xbd4171c7	-0.047227647
136	0x3cac4716	0.02102999
137	0xbde96737	-0.1139664
138	0x3ca9a6f4	0.020709492
139	0xbb15d4eb	-0.0022862505
140	0xbc7e95c4	-0.015538637
141	0xbd7992c6	-0.06093099
142	0xbc3e6c87	-0.011622555
143	0xbd4065d6	-0.04697212
144	0xbd880d5b	-0.06643172
145	0xbd71333f	-0.058886763
146	0x3c0597e8	0.008153893
147	0xbd9164a9	-0.070992775
148	0x3d2669af	0.04062813
149	0x3d0d292c	0.034463093
150	0x3d4ecc7a	0.050487973
151	0xbcbc8945	-0.023014674
152	0xbd933e2a	-0.07189591
153	0xbd6c88d6	-0.057747684
154	0xbd169ed0	-0.03677255
155	0xbda1b899	-0.07896537
156	0x3ce99098	0.02851133
157	0x3b53c598	0.003231382
158	0xbd63aa04	-0.05558206
159	0xbd75e77e	-0.06003522
160	0xbd51e34d	-0.05124216
161	0xbd9e42ab	-0.0772756
162	0x3ca500f2	0.020142052
163	0xbd204374	-0.03912683
164	0x3c9e4c44	0.019323476
165	0xbbf384ee	-0.007431618
166	0xbc205398	-0.009785555
167	0xbd86105f	-0.06546091
168	0xbd298fb5	-0.041396815
169	0x3aebb237	0.0017982189
170	0x3d0be171	0.034150545
171	0xbaf773cb	-0.0018879113
172	0xbd00db0a	-0.031458892
173	0xbd59c7c2	-0.05316902
174	0xbd6516d2	-0.055929966
175	0x3be7cd14	0.0070740078
176	0x3b659862	0.0035033454
177	0x3c7afb86	0.015318757
178	0xbdd87334	-0.10568848
179	0xbd2c2506	-0.042027496
180	0xbd199565	-0.03749599
181	0xbd86cdf7	-0.065822534
182	0x3ce39bec	0.02778431
183	0xbd107d2c	-0.035275623
184	0xbd5dcb9d	-0.05414926
185	0xbd278bdf	-0.040904876
186	0xbd20e042	-0.03927637
187	0x38ce3d87	9.834306e-05
188	0xbbdaab9c	-0.0066732895
189	0xbdd1c6cd	-0.10242996
190	0xbd25eab8	-0.04050705
191	0x3c1f751b	0.00973251
192	0xbc408e0d	-0.011752618
193	0xbd1def93	-0.038558554
194	0xbbe49ee7	-0.0069769504
195	0xbcf96a8e	-0.030446317
196	0xbb0daca4	-0.0021617794
197	0x3b1cba78	0.0023914855
198	0x3cd09c0c	0.025465034
199	0x3c3d6513	0.0115597425
200	0xbccb8eae	-0.024848308
201	0xbbef0bcd	-0.007295108
202	0x3cb93404	0.02260781
203	0x3cb04243	0.021515971
204	0xbcc68ecc	-0.024238013
205	0xbd65488d	-0.055977393
206	0xbc137dfc	-0.009002205
207	0x3b5e79c0	0.003394708
208	0x3c62cad6	0.013842305
209	0xbc58cd72	-0.013232576
210	0xbd958c9c	-0.0730221
211	0xbd228c57	-0.03968462
212	0xbcca3a5c	-0.024686031
213	0xbdacedfe	-0.08443831
214	0xbcdeaf1c	-0.027183108
215	0x3d12952c	0.035786793
216	0xbd4109e0	-0.04712856
217	0x3b70a7ba	0.0036721067
218	0xbd44fe38	-0.048094004
219	0xbcf7efa2	-0.030265633
220	0xbd45e01d	-0.048309434
221	0xbcd0b966	-0.02547903
222	0x3c8bc478	0.017061457
223	0xbca9490f	-0.02066472
224	0x3cae982b	0.021312794
225	0x3d1f5e3e	0.038908236
226	0xbd2d715c	-0.042344436
227	0x3c034f48	0.008014508
228	0x3d227437	0.039661612
229	0x3d167f5a	0.036742546
230	0xbd676e52	-0.056501694
231	0xbcc10601	-0.023562433
232	0xbdbeebca	-0.09322317
233	0xbd154fcc	-0.036453053
234	0xbd1655a4	-0.036702767
235	0xbd08b094	-0.033371523
236	0xbd07b4a9	-0.033131275
237	0xbda8c117	-0.08239954
238	0xbdad2faf	-0.084563605
239	0x3c9167b3	0.017749643
240	0xbd3126fe	-0.043250076
241	0xb9c5285d	-0.0003760484
242	0xbd0bd1ec	-0.034135744
243	0x3c06190c	0.008184683
244	0xbccd6909	-0.025074499
245	0xbc7b0f8f	-0.015323534
246	0x3ce93b36	0.028470617
247	0x3d363362	0.044482596
248	0xbc478a92	-0.012179034
249	0xbd9d3990	-0.07676995
250	0xbda39835	-0.079880156
251	0xbd5c219b	-0.053742986
252	0xbd913570	-0.070902705
253	0x3d3ae23e	0.045625918
254	0xbd40941b	-0.047016244
255	0xbd973552	-0.07383217

model.2.bias f4 [256]
0	0xbcb1c3eb	-0.021699866
1	0x3bc8b382	0.0061249146
2	0xbd7e5072	-0.062088437
3	0xbe02738d	-0.12739392
4	0xbce4056c	-0.027834617
5	0xbc08fb62	-0.008360716
6	0xbf72b64a	-0.948094
7	0xbeab823c	-0.33497798
8	0xbfe97210	-1.8237934
9	0xbd412633	-0.04715557
10	0xbd96539f	-0.07340168
11	0xbe2700dd	-0.16308923
12	0xbfdd27e3	-1.7277797
13	0xbeb8c1c5	-0.36085334
14	0xbd631948	-0.055444032
15	0x3e735348	0.23762238
16	0x3d6f0eb9	0.05836365
17	0xbd8c980b	-0.068649374
18	0xbf5911aa	-0.8479258
19	0xbeb06f2d	-0.3445982
20	0x3f21bb3a	0.6317631
21	0xbda54756	-0.08070247
22	0xbd8ac8e2	-0.067765966
23	0x3f184265	0.5947631
24	0xbdd365c8	-0.103221476
25	0xbeb190d0	-0.34680796
26	0xbd80bc65	-0.062859334
27	0xbdd246f1	-0.10267437
28	0xbf83b424	-1.028935
29	0xbde5da8a	-0.11223324
30	0x3df65a39	0.12028927
31	0xbfad8ed8	-1.3559217
32	0x3f362cbc	0.7116201
33	0xbdc1be6b	-0.094601475
34	0xbf0ca638	-0.5494113
35	0xbd72b257	-0.05925211
36	0xbe8ef313	-0.27919826
37	0xbff28f22	-1.8949931
38	0xbe870224	-0.2636882
39	0xbfb7f5dc	-1.4371905
40	0xbd90455a	-0.07044478
41	0xbd97aafe	-0.07405661
42	0xbdd1972a	-0.102339104
43	0xbf616934	-0.8805115
44	0xbd67b4a3	-0.056568753
45	0xbfcf3b6b	-1.6190008
46	0xbe048b0f	-0.12943672
47	0x3dc769ca	0.097369745
48	0x3f114e9f	0.5676059
49	0x3f679b07	0.9047093
50	0x3a6aab8e	0.0008951955
51	0xbfa64bde	-1.2991903
52	0xbe31189f	-0.17294548
53	0xbd7fea65	-0.062479395
54	0xbd4d9196	-0.05018767
55	0xbdd569be	-0.10420559
56	0xbed7d200	-0.42152405
57	0x3c62fdb2	0.013854431
58	0xbdceaee4	-0.100919515
59	0x3d1dfb1c	0.038569555
60	0xbf17c30a	-0.5928198
61	0xbe881aa8	-0.26582837
62	0xbf73fc38	-0.9530673
63	0x3c22c4d4	0.009934623
64	0xbdec02f9	-0.115240045
65	0xbd2acab4	-0.04169722
66	0xc01da438	-2.463148
67	0x3f16bdee	0.5888356
68	0xbea31c31	-0.31857446
69	0xbe40800d	-0.18798847
70	0xbdc48f61	-0.0959766
71	0xbdd307a1	-0.103041895
72	0xbd140047	-0.036133077
73	0xbf19d772	-0.6009437
74	0x3f7e7c79	0.9940868
75	0xbeb3b4f6	-0.35099
76	0xbe44b790	-0.19210649
77	0xbe9d0f44	-0.3067571
78	0xbeddf069	-0.4334748
79	0xbc846218	-0.016160056
80	0xbbe74b0b	-0.0070585064
81	0xbd6d4685	-0.05792858
82	0xbee4476c	-0.4458574
83	0xbd1fb47b	-0.03899048
84	0xbeabe6f9	-0.33574656
85	0xbed4de9d	-0.4157609
86	0x3e646537	0.22304235
87	0xbfa58ae2	-1.2933009
88	0xbdc2da16	-0.09514253
89	0xbf4bf915	-0.79676944
90	0xbc68fa62	-0.014219852
91	0xbf317dfa	-0.6933285
92	0xbd850f29	-0.06497032
93	0x3c5dc116	0.013534805
94	0xbdbe6e51	-0.09298385
95	0xbfcb394e	-1.5876863
96	0x3ef94bbc	0.48690593
97	0x3efae26e	0.49000877
98	0x3f96723f	1.1753615
99	0xbe9500e5	-0.29102245
100	0xbde19d7c	-0.11016366
101	0xbd6ad157	-0.05732855
102	0xbd1efb0d	-0.03881364
103	0xbe682e1a	-0.22673836
104	0xbe12ed77	-0.14348398
105	0xbdf856f5	-0.12125961
106	0xbd72f6a4	-0.059317246
107	0xbdb0ea52	-0.08638443
108	0x3f0458a7	0.5169777
109	0xbf92ac3b	-1.145881
110	0xbf48d19d	-0.78444844
111	0xbe47c08d	-0.19507046
112	0xbd1e1212	-0.038591452
113	0xbe393c5b	-0.1808943
114	0xbdc57d18	-0.09643
115	0xbfa90656	-1.3205059
116	0xbdbb7fc4	-0.09155229
117	0xbef0a951	-0.47004178
118	0xbd8557c1	-0.06510878
119	0xbd9fd8c4	-0.07805017
120	0xbd5393f2	-0.051654764
121	0xbec4680a	-0.38360626
122	0xbeed2293	-0.4631544
123	0xc006d829	-2.1069434
124	0x3dbfd5c9	0.09366948
125	0xbdf13f1d	-0.11779616
126	0xbfff50c9	-1.9946529
127	0xbd8aed86	-0.06783585
128	0xbd3fd72a	-0.046836056
129	0xbdc4921d	-0.095981814
130	0xbf9adc67	-1.2098511
131	0xbde979e4	-0.11400202
132	0x3c4fd1aa	0.012684265
133	0xbc67c50e	-0.014146103
134	0xbfa6d4b3	-1.3033661
135	0xbd554257	-0.05206522
136	0xbee0fff6	-0.43945283
137	0xbce0487b	-0.027378311
138	0x3deae4e1	0.114694364
139	0xbeeef55d	-0.46671572
140	0xbd1e3b83	-0.038630974
141	0x3b129c77	0.0022371092
142	0x3f1d928b	0.6155173
143	0xbf92f7aa	-1.1481831
144	0xbf623a47	-0.88370174
145	0xbf6bc7ae	-0.9210156
146	0xbf28bbf4	-0.65911794
147	0xbd832a0f	-0.064045064
148	0xbf982900	-1.1887512
149	0xbce394eb	-0.02778097
150	0x3c56644d	0.013085437
151	0xbc403d58	-0.0117333755
152	0xbd829379	-0.063757844
153	0xbff02eab	-1.8764242
154	0xbdf98ae4	-0.121846944
155	0xbd82b57f	-0.06382274
156	0x3fa1d538	1.2643194
157	0xbe877b26	-0.26461142
158	0xbc290ed5	-0.010318478
159	0xbf80a9bf	-1.0051802
160	0xbd034333	-0.032046508
161	0xbfb7b9e1	-1.4353601
162	0xbc5fd611	-0.013661877
163	0xbc52bbec	-0.012862187
164	0xbd53e744	-0.051734224
165	0x3e890754	0.26763403
166	0xbfe71968	-1.8054628
167	0xbdb1dcca	-0.0868469
168	0xbd4fc994	-0.05072935
169	0xbe948636	-0.29008645
170	0xbf245bd7	-0.64202636
171	0xbed09a9b	-0.40742955
172	0xbdae1c73	-0.0850152
173	0x3e4caada	0.1998705
174	0x3f59a16c	0.85011935
175	0xbf8b6edd	-1.0893208
176	0x3d965811	0.07341016
177	0xbebee385	-0.3728296
178	0xbf6e7460	-0.93146324
179	0xbda2110f	-0.0791341
180	0xbd7280f1	-0.059205
181	0x3cbbd0c0	0.022926688
182	0xbda504ab	-0.08057531
183	0x3c47062c	0.012147468
184	0x3c014d48	0.00789196
185	0xbde3313c	-0.11093375
186	0xbda5547e	-0.08072756
187	0xbf7a44fe	-0.97761524
188	0xbef1fbd0	-0.4726243
189	0xbea44947	-0.32087156
190	0x3da74265	0.081669606
191	0xbd2a63db	-0.041599136
192	0xbd984042	-0.07434131
193	0xbdfcfd87	-0.12353044
194	0xbe4a90cc	-0.19781798
195	0xbdca9128	-0.098909676
196	0x3fb544c3	1.416161
197	0xbd3f19ae	-0.04665535
198	0xbd31246a	-0.043247618
199	0xbf00cdde	-0.5031413
200	0xbd85ec5d	-0.06539223
201	0xbd187c5e	-0.03722798
202	0xbb88253e	-0.0041548302
203	0xbdb9f1ec	-0.09079346
204	0xbdd69e0f	-0.10479366
205	0xbe79a3bc	-0.24378866
206	0x3c12501c	0.008930232
207	0xbdbf1276	-0.09329693
208	0xbf156760	-0.5836086
209	0xbf8eb88b	-1.1150068
210	0x3e3c42ef	0.18384908
211	0xbd52bfb4	-0.051452354
212	0x3f2b5da9	0.6693979
213	0xbcf8f58a	-0.03039052
214	0xbd829c9a	-0.06377526
215	0xbf2f5b18	-0.68498373
216	0x3d8da268	0.06915742
217	0xbec4fcd8	-0.38474154
218	0xbedfa834	-0.43683016
219	0xbfbce558	-1.475749
220	0xc007d09b	-2.1221073
221	0xbfbfa33a	-1.4971688
222	0x3f0812f2	0.5315391
223	0xbdaa2bc4	-0.08309129
224	0xbd3284ab	-0.043583553
225	0xbdc05da6	-0.09392862
226	0x3dbe6533	0.09296646
227	0xbeb2c5eb	-0.34916624
228	0xbd881158	-0.06643933
229	0x3f3891a7	0.7209725
230	0xbf295ce1	-0.66157347
231	0xbfc18c25	-1.5120894
232	0xbdaaa6c7	-0.083325915
233	0xbd431427	-0.04762664
234	0xbeaf3791	-0.3422208
235	0x3ec25257	0.37953445
236	0xbe45073d	-0.19241042
237	0xbfb2f68d	-1.3981491
238	0xbd8fdc40	-0.07024431
239	0xbf1e2847	-0.6178021
240	0xbe48abba	-0.19596758
241	0xbe09a5cf	-0.13442157
242	0x3a94ef22	0.0011362771
243	0xbfa5d0aa	-1.2954304
244	0xbd39605c	-0.04525791
245	0xbfcc1bc4	-1.5945973
246	0xbd5dfe44	-0.054197565
247	0x3dbb5340	0.09146738
248	0xbcd96ab1	-0.026540132
249	0x3f010791	0.5040217
250	0xbe18327b	-0.14863007
251	0xbf3232b9	-0.69608647
252	0xbdc84bbb	-0.097800694
253	0xbe1b7601	-0.15181734
254	0xbe63b798	-0.22238004
255	0x3e040fc6	0.12896642

model.4.weight f4 [1, 256]
0	0xbcf932e8	-0.030419782
1	0xc03ca2f1	-2.9474452
2	0x3cc82fdf	0.02443689
3	0x3f805b4f	1.0027865
4	0xbc7322dc	-0.014839854
5	0x3cb8424e	0.022492554
6	0xbfd65b6f	-1.6746653
7	0xc05a8d44	-3.4148722
8	0xc0887389	-4.2641034
9	0xbc9eeb9a	-0.019399453
10	0xbc17b534	-0.009259511
11	0x408d3c30	4.413597
12	0x4023a500	2.5569458
13	0x3c88bbe5	0.016691158
14	0x3b627b1c	0.0034558242
15	0x3f92ea42	1.147774
16	0xc0ae47eb	-5.446279
17	0xbf722c62	-0.9459897
18	0xbff92ff4	-1.9467759
19	0xc0a6b507	-5.209598
20	0x3fcb8bbb	1.5902017
21	0xbc487779	-0.012235516
22	0xbaf2989b	-0.0018508615
23	0xbf541e1b	-0.8285844
24	0xbf6c1862	-0.92224705
25	0x403344e3	2.8010795
26	0xba8fb5f8	-0.0010964265
27	0x3bd291d8	0.0064260773
28	0xc06ba685	-3.6820385
29	0xbf61b15a	-0.8816124
30	0xc015bbae	-2.33958
31	0x3feb450d	1.8380448
32	0xc0071e95	-2.1112416
33	0xc00491ef	-2.071407
34	0x3ff07a5f	1.8787345
35	0xbc240c24	-0.01001266
36	0xbf38f544	-0.72249246
37	0xc0a89f62	-5.269456
38	0x40042c09	2.0651877
39	0xc060b142	-3.510819
40	0x3b1e434b	0.0024148996
41	0x3c0e0ed1	0.008670525
42	0xbcd72cc4	-0.026266463
43	0x40125090	2.2861671
44	0xbf61cbd5	-0.8820165
45	0x4020e773	2.5141265
46	0xbc3d4488	-0.011551984
47	0x40a45c73	5.1362853
48	0x3fe9c132	1.8262084
49	0xc0a39fbb	-5.1132483
50	0xb9798802	-0.00023797157
51	0xc013e038	-2.3105602
52	0x409b6419	4.855969
53	0x3c24eb84	0.010065917
54	0x3ba9cd61	0.005181954
55	0x3cd56179	0.026047455
56	0x3f57f38d	0.84356004
57	0xbbcf8465	-0.0063329213
58	0xbf4b773c	-0.7947881
59	0xbfcfada7	-1.622487
60	0xc0353bdc	-2.8317785
61	0xbe70d178	-0.23517406
62	0x3ff4e2c3	1.9131702
63	0xbcca956c	-0.024729453
64	0xc0744192	-3.816502
65	0x3c9ef101	0.019402029
66	0x40193dd2	2.3943982
67	0x3fd1c96c	1.6389594
68	0x40181278	2.3761272
69	0xbf5a2b69	-0.8522249
70	0x3c7cf4a8	0.01543919
71	0xbc163c15	-0.009169598
72	0x3c0c5279	0.008564585
73	0xbbe90e88	-0.007112328
74	0xc09a9b42	-4.8314524
75	0x4027b6a3	2.6205223
76	0xbf1cbb65	-0.6122344
77	0x407a09fa	3.906859
78	0x4008e04d	2.1386902
79	0x3c9514a3	0.018198317
80	0x3bcce017	0.0062522995
81	0x3c5e7588	0.013577826
82	0x3ffcd310	1.9751911
83	0x3c66fb43	0.014097991
84	0x4051a397	3.2756097
85	0xbfcfe39f	-1.624134
86	0xbf0305e6	-0.51180875
87	0xc0545c8d	-3.3181489
88	0xbcabfdbd	-0.020995015
89	0xbff20380	-1.8907318
90	0x3c328ce4	0.010897849
91	0x3f930949	1.1487209
92	0xbf64379e	-0.89147365
93	0xbcaf489d	-0.02139693
94	0x3b7117b5	0.0036787812
95	0xbfc0974c	-1.5046172
96	0xc03a7a63	-2.91372
97	0x3fbbbe58	1.4667463
98	0x3f3d0120	0.7382984
99	0x3fac35f1	1.3453962
100	0xbc2f03f4	-0.010682095
101	0x3b950510	0.0045477226
102	0x3cd0b6ca	0.025477786
103	0xbff77e81	-1.9335481
104	0xbf67fcef	-0.9062032
105	0xbf562872	-0.83655465
106	0xbf598a4b	-0.84976643
107	0x3d266bfa	0.04063032
108	0xc0a6d462	-5.2134256
109	0x4040fd34	3.0154543
110	0x3fdb8544	1.7150044
111	0x3b8e77df	0.004347786
112	0xbf524c1f	-0.821474
113	0x402469ff	2.5689695
114	0xbd06cff7	-0.032913174
115	0xc0c0eafd	-6.028685
116	0xbf57ef38	-0.84349394
117	0xc01deeea	-2.4677072
118	0xbc389755	-0.011266549
119	0xbf645da5	-0.8920539
120	0x3c36088b	0.011110435
121	0xc02752c5	-2.6144269
122	0x4044fcad	3.077922
123	0xbf81ee96	-1.0150936
124	0xc02d454f	-2.7073553
125	0x3cad334c	0.021142624
126	0x401d7587	2.4602983
127	0x3fb8e9de	1.4446371
128	0xbd1af913	-0.037835192
129	0xbcb08641	-0.021548392
130	0xc064a763	-3.5727165
131	0xbbf90922	-0.0075999657
132	0x3ce30011	0.027709993
133	0xc050a2d1	-3.2599375
134	0xc069cdc3	-3.6531837
135	0xbcaea78d	-0.021320129
136	0xc02398c2	-2.5561986
137	0xbcd2015d	-0.025635416
138	0x40132986	2.2994094
139	0xbfd58ba9	-1.6683246
140	0x3a0b5fdc	0.00053167134
141	0x3d2d8a98	0.0423685
142	0xbff6d5aa	-1.9283955
143	0x3ff10195	1.8828608
144	0x40525947	3.286699
145	0xc0744c8b	-3.8171718
146	0xc037c73f	-2.871536
147	0xbf63559c	-0.88802505
148	0xc0224716	-2.5355887
149	0xbbf4def9	-0.0074728695
150	0xbf512341	-0.8169442
151	0xbce405b0	-0.027834743
152	0x3c1c7670	0.009549722
153	0xbff0f2f1	-1.882414
154	0x3ba7d7ba	0.005122152
155	0x3c70da6d	0.014700514
156	0x3fd4f4e3	1.6637233
157	0xc07a6bec	-3.912837
158	0xbc8b28ea	-0.016987283
159	0xc08f86bc	-4.485197
160	0x3ae9c69a	0.0017835677
161	0xbff50dc9	-1.9144832
162	0x3cb473cd	0.022027874
163	0xbf55aff4	-0.8347161
164	0x3ca0f11a	0.019646216
165	0x3fa2d2a4	1.2720532
166	0xc102e415	-8.180684
167	0x3c9ea308	0.019364849
168	0x3d40eabb	0.047098856
169	0x3fd1bf8e	1.6386583
170	0xc07a1440	-3.907486
171	0x3fd6769d	1.6754948
172	0xbc0f2c19	-0.008738541
173	0xbfee4e12	-1.8617575
174	0x4036f0f0	2.8584557
175	0xc0b117e8	-5.5341682
176	0xbfbc8773	-1.4728836
177	0x3ca29beb	0.019849738
178	0xbf13370b	-0.57505864
179	0xbc552c3c	-0.013011035
180	0xbcc28cba	-0.023748744
181	0xbbb912a2	-0.005647973
182	0x3bc2dc70	0.0059466884
183	0x3b34de24	0.0027598226
184	0x3c73b66c	0.014875036
185	0x3cb92453	0.022600329
186	0x3cbb5e30	0.02287206
187	0xc095698e	-4.669135
188	0xc03ddbdf	-2.9665449
189	0x40212d82	2.5184026
190	0x3fcedc46	1.6160972
191	0x3c2409a8	0.010012068
192	0xbf5adcc8	-0.85493135
193	0xc05c33c6	-3.44066
194	0x401f81b9	2.4922926
195	0xbf665a93	-0.89981955
196	0x3fb8fd81	1.4452363
197	0xbf598b77	-0.8497843
198	0x3cbb571b	0.022868684
199	0xbffc0703	-1.968964
200	0xbf5df550	-0.8670244
201	0x3ccda039	0.025100814
202	0xbba7aff2	-0.00511741
203	0x396700b1	0.00022030134
204	0xbcd01886	-0.025402319
205	0xc0890a67	-4.28252
206	0xbc4e37ab	-0.012586514
207	0xbc53472a	-0.012895385
208	0xc057092a	-3.3599343
209	0x40041e5d	2.0643532
210	0xbf986b37	-1.1907719
211	0xbcdd82d1	-0.027039917
212	0xc0aeaf9c	-5.4589367
213	0x3c28c99b	0.010301973
214	0x3cf54506	0.02994014
215	0x3f7a4332	0.9775878
216	0x3f9785c3	1.1837696
217	0xbf4d19e7	-0.8011765
218	0x3fc4b410	1.5367451
219	0xc0c5ff0d	-6.187384
220	0x3fb9d546	1.4518211
221	0xbff34222	-1.9004557
222	0xc0a9d9b2	-5.307824
223	0x3ce07608	0.027400032
224	0x3cb3d57d	0.021952385
225	0xbf4eff22	-0.8085805
226	0xc01734f0	-2.362606
227	0x3d0cd512	0.034382887
228	0x3a4a5d0a	0.00077195524
229	0xc06e54d3	-3.7239273
230	0x40245ebc	2.5682821
231	0xc09335a2	-4.600297
232	0xbcc41173	-0.023934102
233	0xbcfbb41b	-0.03072553
234	0x3f808df5	1.0043322
235	0x3f9fa314	1.2471642
236	0x3fc7b948	1.5603418
237	0xc03ca085	-2.9472973
238	0x3c82c169	0.015961366
239	0xbf953695	-1.1657282
240	0xc06ca441	-3.6975253
241	0xbf952e7e	-1.1654813
242	0x3cc50efa	0.024054993
243	0x4017dab6	2.372724
244	0x3ce4b3dc	0.027917795
245	0xc0559eb5	-3.3378117
246	0xbc704391	-0.014664547
247	0xc0ba9033	-5.8301024
248	0xbca18118	-0.019714877
249	0x3fd3ebf3	1.6556381
250	0xbf6a6cfc	-0.91572547
251	0x3f7ed149	0.99538094
252	0x3c4a1adf	0.012335508
253	0x3f679c88	0.9047322
254	0xc01b5f2f	-2.4276845
255	0xbff15fed	-1.8857399
