hw2/preTrained/ddpg_critic_Pendulum-v1_04242023_162850_.pth (torch, 71063 bytes, 5 tensors)

model.0.weight f4 [128, 4]
-0.71405476 0.3009366 -0.328323 -0.10676819 -0.59170854 -0.49042886 -0.15077804 -0.3007365
-1.1104041 -1.022254 -0.31869087 -0.10563649 0.58529705 1.4771391 -0.17747205 -0.08953239
0.15578026 2.459063 0.44326487 -0.06034926 0.4420323 -2.2335844 -0.498086 -0.059676256
0.7448468 -0.21812029 -0.39415327 0.58423877 -0.9455202 -1.5260601 -0.3119819 -0.115666956
-1.0405475 0.4652106 0.24807228 0.028700404 -0.22169785 -0.6013465 0.6426448 0.5370145
-1.1540428 1.2913129 0.36862677 0.039845858 -0.24620837 -0.5640704 0.15386167 -0.15306945
-1.1901809 0.43072936 0.24299227 0.0578872 1.3585751 -0.5205214 -0.088284686 0.2179904
-1.0334388 -2.2153199 -0.4327528 -0.08249696 0.8952617 -0.1414336 0.06725944 -0.29761088
-0.8078866 -1.7753782 -0.39165235 -0.10607366 1.5678777 0.7811404 -0.4480743 -0.0073901503
0.31954086 2.6655073 0.60335207 0.17127737 -0.22764407 -1.67946 -0.55778944 -0.047967285
0.51190245 1.5547041 0.86377037 0.09562988 -0.7939535 0.37682313 -0.3677479 -0.039822157
0.0060178563 -0.8868106 -0.3972558 0.1826813 -0.5420512 1.9915208 0.119453855 0.057308406
0.84244984 1.1934978 0.30352673 0.026019903 1.0652031 -1.9966855 -0.5251541 -0.18250698
-0.86120206 1.2868475 0.41272706 0.0031177767 -0.6430328 -1.1365908 0.06987037 0.4303646
-0.2608021 2.1852648 0.5019929 0.036799002 0.02180506 1.8487417 0.36897436 0.10925072
-0.6157869 0.14088137 0.21697916 0.072503775 -0.34483874 -2.158663 -0.42114806 -0.008277887
-3.042877 0.855322 -0.65029514 -0.007698263 0.33180228 -1.5809485 -0.24923415 -0.972431
0.08076617 -0.73061967 -0.54701567 0.49961895 1.1334022 -0.55349326 0.04202081 -0.70760864
0.3921427 0.5921131 0.8181703 -0.53966576 -0.733 -0.6287005 -0.016058544 0.12357409
-0.42751727 -0.07834213 -0.20127173 -0.005918648 0.45287803 1.249275 0.24623486 0.060473908
-1.1737983 -0.07126456 -0.052924007 -0.19929536 -0.58191955 1.0745307 0.42777053 0.09875718
-0.80668104 0.47495785 0.25117022 0.004491424 -0.020699559 1.1346048 0.66930467 -0.03672043
-0.53765666 -1.7202744 0.6379312 0.31150424 -1.3592703 -0.725492 0.17676158 -0.019695641
-0.5169353 0.122612625 0.19242981 0.07137426 0.5582172 1.9056567 -0.021870032 -0.04960824
0.3430834 -1.1304324 -0.04841765 0.055658206 -1.2723318 -0.09002516 0.2998194 0.0871942
-3.3536212 0.24936943 -0.4373358 -0.2891356 -0.76152194 0.85771084 0.26930302 0.034420323
-2.3609824 -1.5122285 -0.75614107 0.049388874 1.6757627 -1.1756914 -0.34285522 0.6691996
0.43341377 -0.10302256 -0.4841904 0.14732471 -1.2014518 0.7437661 -0.26297086 0.023712296
-0.6732019 1.6308701 0.31670982 0.15067254 0.4289466 0.61613077 -0.38439518 -0.46450508
1.2932149 -0.6485778 -0.12682922 0.135592 0.86963695 -2.2121954 -0.5713615 -0.18785982
-0.17325343 -2.05257 -0.4285139 0.17573091 0.06741725 -2.2731895 -0.44774085 -0.0963558
-0.70743483 0.69467175 0.6745508 -0.06669048 -0.55385715 -0.3868425 -0.7232997 -0.31779987
00000000: 4bcc 36bf 5d14 9a3e f419 a8be 48a9 dabd
00000010: 367a 17bf 7e19 fbbe 8f65 1abe 22fa 99be
00000020: b921 8ebf 38d9 82bf 732b a3be f257 d8bd
00000030: 07d6 153f e512 bd3f 3cbb 35be c25c b7bd
00000040: dc84 1f3e 4a61 1d40 9df3 e23e c930 77bd
00000050: 0f52 e23e 0cf3 0ec0 2105 ffbe 176f 74bd
00000060: 48ae 3e3f ed5a 5fbe 75ce c9be ac90 153f
00000070: 9d0d 72bf f055 c3bf 17bc 9fbe cce2 ecbd
00000080: a930 85bf 1530 ee3e a906 7e3e 1c1d eb3c
00000090: c304 63be d8f1 19bf 5f84 243f c879 093f
000000a0: adb7 93bf be49 a53f a6bc bc3e 6935 233d
000000b0: 0c1e 7cbe eb66 10bf ea8d 1d3e 3dbe 1cbe
000000c0: d957 98bf 8f88 dc3e f7d2 783e 211b 6d3d
000000d0: cae5 ad3f e440 05bf 9ace b4bd e038 5f3e
000000e0: b947 84bf cdc7 0dc0 c691 ddbe 2bf4 a8bd
000000f0: df2f 653f f8d3 10be 51bf 893d 7460 98be
00000100: a8d1 4ebf 983f e3bf a886 c8be 263d d9bd
00000110: 37b0 c83f d1f8 473f ff69 e5be 1329 f2bb
00000120: dc9a a33e ac97 2a40 4875 1a3f 5663 2f3e
00000130: 871b 69be 8cf8 d6bf 4acb 0ebf 5879 44bd
00000140: 0a0c 033f 8b00 c73f 0e20 5d3f 99d9 c33d
00000150: 8940 4bbf f6ee c03e 7449 bcbe 8f1c 23bd
00000160: 7031 c53b 0506 63bf 1d65 cbbe cf10 3b3e
00000170: dec3 0abf 27ea fe3f 39a4 f43d 38bc 6a3d
00000180: cbaa 573f 89c4 983f db67 9b3e b127 d53c
00000190: 9358 883f 6493 ffbf 8070 06bf 1ce3 3abe
000001a0: bd77 5cbf 6bb7 a43f f650 d33e 9d53 4c3b
000001b0: cc9d 24bf cf7b 91bf 3218 8f3d c058 dc3e
000001c0: da87 85be 61db 0b40 9b82 003f 8dba 163d
000001d0: 86a0 b23c 91a3 ec3f 35ea bc3e d7be df3d
000001e0: 36a4 1dbf 3543 103e c92f 5e3e dc7c 943d
000001f0: b48e b0be 8927 0ac0 b8a0 d7be f99f 07bc
00000200: 7fbe 42c0 62f6 5a3f be79 26bf b641 fcbb
00000210: fde1 a93e 855c cabf 3d37 7fbe 3df1 78bf
00000220: bc68 a53d e409 3bbf 3809 0cbf 0ece ff3e
00000230: 5313 913f bcb1 0dbf 031e 2c3d d725 35bf
00000240: eec6 c83e b994 173f 9c73 513f 8927 0abf
00000250: e3a5 3bbf 84f2 20bf 358d 83bc 6a14 fd3d
00000260: 8be3 dabe d771 a0bd 2d1a 4ebe 38f1 c1bb
00000270: a1df e73e 3ee8 9f3f fe24 7c3e 7db3 773d
00000280: 063f 96bf 27f3 91bd d8c6 58bd 1514 4cbe
00000290: aef8 14bf 398a 893f bd04 db3e 3441 ca3d
000002a0: a682 4ebf ad2d f33e 6299 803e cc2c 933b
000002b0: 1f92 a9bc bb3a 913f 8d57 2b3f 2968 16bd
000002c0: dea3 09bf f431 dcbf 764f 233f 7c7d 9f3e
000002d0: 92fc adbf d8b9 39bf fd00 353e c158 a1bc
000002e0: df55 04bf 541c fb3d 520c 453e ab2c 923d
000002f0: 53e7 0e3f 8fec f33f c828 b3bc 0332 4bbd
00000300: a1a8 af3e 02b2 90bf 9651 46bd dcf9 633d
00000310: c5db a2bf 1c5f b8bd ee81 993e df92 b23d
00000320: bba1 56c0 b35a 7f3e 7aea dfbe 9509 94be
00000330: 1af3 42bf f092 5b3f 16e2 893e 53fc 0c3d
00000340: 561a 17c0 b490 c1bf 7692 41bf fd4b 4a3d
00000350: 647f d63f 0e7d 96bf b88a afbe aa50 2b3f
00000360: 69e8 dd3e 7efd d2bd cee7 f7be 4adc 163e
00000370: 2cc9 99bf 7567 3e3f 1ea4 86be 4a40 c23c
00000380: f656 2cbf 5ac0 d03f ca27 a23e e749 1a3e
00000390: e49e db3e bfba 1d3f 72cf c4be 9cd3 edbe
000003a0: 1188 a53f 3209 26bf 85df 01be a1d8 0a3e
000003b0: 87a0 5e3f 9c94 0dc0 bf44 12bf 535e 40be
000003c0: 5969 31be 4f5d 03c0 2d66 dbbe cef2 333e
000003d0: 0e12 8a3d f07b 11c0 4a3e e5be 3156 c5bd
000003e0: 731a 35bf 02d6 313f 5caf 2c3f 0595 88bd
000003f0: 95c9 0dbf 3810 c6be 2b2a 39bf aab6 a2be

model.0.bias f4 [128]
-0.32050788 0.54721296 0.95203406 0.47896287 -0.1658571 -0.016803218 1.0751886 0.78432244
0.73017174 -0.80368525 0.69770736 0.6934745 0.5884122 0.4706458 0.8329799 1.4230866
0.3610683 2.2367806 -0.6296776 -0.2183415 0.5749275 -1.1559111 0.44689772 0.4840421
-0.70518136 -0.77572185 0.9337492 0.60324097 -0.096741326 0.08835742 0.9952057 0.12404989
-0.20753513 -0.16456255 0.7822523 1.2798978 1.0947486 0.58441776 1.005701 -0.32721952
0.45727375 -0.5119969 0.8601557 0.043142334 -0.62525505 -0.35602474 0.91723955 -0.66343343
0.69973093 0.8803301 -0.49692345 0.8461682 0.76885897 0.18478492 0.12911242 0.539521
0.3780166 0.82034534 0.6613548 -0.55096847 0.14453907 0.031408783 -0.7135436 -0.84544706
1.044833 -0.21689355 1.5216048 -0.9056676 0.60264933 0.9795372 0.2597921 -1.1172369
0.8310119 0.82769567 0.58524907 0.63316756 -0.53921974 0.3720988 -0.49810925 -0.89160347
-0.87714934 1.3754073 0.76034236 -0.20641206 0.0062124194 0.79486257 -0.9173879 0.104168296
0.46982864 0.18934122 0.918964 0.8393575 0.2618212 -0.65001506 1.2886642 0.90298396
0.37108067 0.98872477 0.72264636 -0.036580622 -0.34563017 0.19115503 -0.16182315 1.0020484
0.682628 0.90298223 0.079015985 -0.91327006 0.6215246 1.09574 0.6781532 0.34470847
-0.53194624 0.7641933 1.2828631 -0.029091872 0.7061694 -0.06872059 -0.29054126 0.887582
0.19504312 -0.6247676 0.49765337 -1.1434883 0.5650513 0.7800047 0.3401612 1.1080039
00000000: 9c19 a4be 2616 0c3f 81b8 733f 9f3a f53e
00000010: 72d6 29be e7a6 89bc c89f 893f 5bc9 483f
00000020: 89ec 3a3f 51be 4dbf f39c 323f 8b87 313f
00000030: 2fa2 163f 7cf8 f03e 2c3e 553f b427 b63f
00000040: f2dd b83e 6a27 0f40 8d32 21bf ea94 5fbe
00000050: 732e 133f e5f4 93bf c7cf e43e 5ed4 f73e
00000060: c486 34bf b595 46bf 300a 6f3f 006e 1a3f
00000070: 5120 c6bd bcf4 b43d cdc5 7e3f de0d fe3d
00000080: 1784 54be 1683 28be b041 483f b1d3 a33f
00000090: b920 8c3f 679c 153f cfba 803f 5189 a7be
000000a0: c91f ea3e 3b12 03bf 2a33 5c3f 04b6 303d
000000b0: b710 20bf e048 b6be 36d0 6a3f c6d6 29bf
000000c0: 9121 333f 505d 613f c06c febe 7b9e 583f
000000d0: f1d3 443f 4238 3d3e 0c36 043e 0c1e 0a3f
000000e0: 648b c13e 2702 523f 8c4e 293f 450c 0dbf
000000f0: 0d02 143e 7fa6 003d cbaa 36bf 386f 58bf
00000100: 16bd 853f 5819 5ebe f2c3 c23f d5d9 67bf
00000110: 3a47 1a3f f3c2 7a3f 7803 853e 9e01 8fbf
00000120: 32bd 543f dde3 533f e2d2 153f 4517 223f
00000130: 4e0a 0abf bc83 be3e 2d08 ffbe 2040 64bf
00000140: dc8c 60bf 590d b03f cca5 423f af5d 53be
00000150: 8d91 cb3b 1d7c 4b3f efd9 6abf 3056 d53d
00000160: 618d f03e aae2 413e 3a41 6b3f 22e0 563f
00000170: 6e0d 863e 6367 26bf f3f2 a43f f529 673f
00000180: 49fe bd3e 111d 7d3f 5aff 383f 90d5 15bd
00000190: 70f6 b0be 25be 433e f8b4 25be 1f43 803f
000001a0: b5c0 2e3f d829 673f 22d3 a13d 11cc 69bf
000001b0: 3c1c 1f3f 3541 8c3f 739b 2d3f a17d b03e
000001c0: a12d 08bf 2ca2 433f dc34 a43f 1452 eebc
000001d0: 85c7 343f 61bd 8cbd d3c1 94be 9338 633f
000001e0: 62b9 473e c5f0 1fbf 6ccc fe3e d35d 92bf
000001f0: 34a7 103f 63ae 473f 9c29 ae3e 12d3 8d3f

model.2.weight f4 [128, 128]
-0.08301328 -0.091786645 0.06289074 -0.02973485 -0.06670466 0.013879904 -0.025675735 0.06625039
0.057922374 -0.007807778 0.014522169 -0.038335856 0.06036358 -0.06508128 -0.0626776 -0.04287924
0.0390172 -0.073669136 -0.06336358 0.024769178 0.0016114304 -0.062561564 0.03102771 -0.0075269514
-0.025895927 0.07077684 -0.031264473 -0.07936392 0.021357616 -0.07720386 -0.033438347 0.031884566
-0.052873675 0.06793173 -0.056571208 -0.0025269694 -0.07753906 0.009263956 0.06716179 0.06499805
0.020555098 -0.09556883 -0.1062717 -0.048078712 0.019642867 -0.055586394 0.0010252425 0.01656814
-0.08476824 0.019474862 -0.046438042 0.032550283 -0.04203154 -0.098635346 0.06444579 0.0049495716
0.056117967 0.068430744 -0.09992922 -0.026407555 -0.0273782 0.030826343 -0.09620858 0.07296509
-0.045836415 0.038698383 -0.034564473 0.04949323 -0.024749633 0.0044372547 0.034013595 -0.073966205
-0.1136548 0.05097953 0.02507361 0.006231173 -0.056612696 0.057961464 -0.00614931 0.047263373
-0.009787491 -0.04874701 -0.059106175 -0.008146781 0.0418143 -0.096366055 -0.09125947 -0.026549593
0.010954818 -0.09419989 -0.09831637 -0.086928576 -0.055352665 0.026436167 -0.03724762 0.0035292557
-0.01919814 -0.048223548 -0.076135784 -0.099400975 0.037859507 0.04699502 -0.04749148 -0.03302726
-0.06386701 -0.11059402 0.057572085 -0.019225126 -0.10700209 0.06858903 -0.10064574 -0.012492753
0.067039035 -0.0989976 -0.010343168 -0.03154075 0.055341378 -0.008479153 -0.07534089 -0.016525052
-0.016430331 0.10102231 0.0052744127 0.0007846884 -0.01549569 0.06054369 -0.05029695 -0.09299653
1.8273674 -0.28369603 -1.0558784 1.096595 -0.042657673 -1.7936257 0.7923167 -1.5293949
-0.28120735 0.45626858 -0.4678887 0.3034726 -0.2433509 1.1472676 -4.104971 0.61898357
-0.06602817 1.013924 -0.25465813 -0.5354099 0.52413005 1.5854343 -0.09050377 0.19949651
-0.41510743 -3.816398 -0.36901793 -0.00713913 -0.12084162 -0.29759854 0.29263923 -5.0783644
2.2583365 -0.24077767 0.2594569 0.98127604 0.41540784 0.055085536 -0.7237479 -0.40149343
-0.9556838 0.13318497 -0.2746794 0.326458 0.6163835 0.13286778 0.34018517 1.1366862
0.45576775 -0.12103145 1.1854732 -0.2667238 1.5725869 0.591262 0.4346716 0.39526936
-0.23959331 0.56009775 0.52080524 -2.9684536 -0.3266574 -4.7225084 0.12831347 0.97517
-3.6540902 -0.16841489 -2.8579488 -0.603969 1.0271696 0.26652223 0.5090325 -1.0127294
0.76964676 -0.37637052 -0.42113012 1.161942 -0.11793716 -0.29620427 -1.2573239 0.6212153
-0.27308783 -1.2695762 -1.078115 0.19598082 -0.2939571 -0.4259021 0.914918 -0.19142678
0.7426105 1.1448059 0.29579094 0.49804166 0.580236 -0.14718843 -3.5032566 -2.3469687
-4.260154 0.6536431 -2.8929954 0.24042746 1.0173811 0.32236254 -2.09695 -2.1233983
-0.18127513 -0.372277 0.6203823 0.6554368 -0.3815578 0.6665221 0.4253786 0.98419774
0.03397494 -0.28077215 -1.1501282 -0.34212136 0.25645834 -4.4043427 0.38289514 0.12235732
0.50764036 2.3663657 -0.39224258 0.6384156 0.05575392 0.6095152 -4.2246747 -0.52031696
00000000: de02 aabd a3fa bbbd dccc 803d 8096 f3bc
00000010: 749c 88bd 8968 633c eb55 d2bc 49ae 873d
00000020: 0340 6d3d 64d8 ffbb 64ee 6d3c 0f06 1dbd
00000030: cd3f 773d 5649 85bd 1d5d 80bd 24a2 2fbd
00000040: 80d0 1f3d d8df 96bd c4c4 81bd bbe8 ca3c
00000050: a236 d33a 4720 80bd d32d fe3c a5a4 f6bb
00000060: b223 d4bc 73f3 903d 2d0f 00bd 8d89 a2bd
00000070: 2bf6 ae3c 0f1d 9ebd a6f6 08bd 6499 023d
00000080: 1192 58bd ca1f 8b3d 36b7 67bd 839b 25bb
00000090: cccc 9ebd d9c7 173c 1f8c 893d b31d 853d
000000a0: 2a63 a83c 97b9 c3bd faa4 d9bd 2fee 44bd
000000b0: 14ea a03c 8fae 63bd 6e61 863a e8b9 873c
000000c0: f99a adbd bf89 9f3c d135 3ebd 7253 053d
000000d0: 4429 2cbd 5401 cabd 28fc 833d 0430 a23b
000000e0: f4db 653d 6b25 8c3d b1a7 ccbd a854 d8bc
000000f0: 3f48 e0bc 8787 fc3c 0109 c5bd b96e 953d
00000100: f7be 3bbd 3282 1e3d 7a93 0dbd 6ab9 4a3d
00000110: bebf cabc 6466 913b d751 0b3d 987b 97bd
00000120: d9c3 e8bd e9cf 503d 2c67 cd3c de2e cc3b
00000130: b7e2 67bd 0069 6d3d 2780 c9bb 3d97 413d
00000140: b65b 20bc f2aa 47bd 5119 72bd 137a 05bc
00000150: 7945 2b3d 915b c5bd 3fe6 babd 887e d9bc
00000160: d67b 333c dfeb c0bd 185a c9bd 9c07 b2bd
00000170: 7ab9 62bd a990 d83c f690 18bd 164b 673b
00000180: 6b45 9dbc 0e86 45bd 14ed 9bbd bd92 cbbd
00000190: 9212 1b3d da7d 403d 6d86 42bd 9847 07bd
000001a0: b5cc 82bd 1e7f e2bd b5d0 6b3d 037e 9dbc
000001b0: e923 dbbd 6878 8c3d 5b1f cebd 67ae 4cbc
000001c0: c34b 893d 41bf cabd 6476 29bc e030 01bd
000001d0: a4ad 623d 25ec 0abc 534c 9abd 8c5f 87bc
000001e0: e798 86bc c9e4 ce3d fbd4 ac3b 8cb3 4d3a
000001f0: a2e1 7dbc a9fc 773d 2d04 4ebd f774 bebd
00000200: 2de7 e93f 9b40 91be 0627 87bf 3a5d 8c3f
00000210: d0b9 2ebd 8795 e5bf 44d5 4a3f 36c3 c3bf
00000220: 69fa 8fbe 099c e93e 1c8f efbe c360 9b3e
00000230: fa30 79be aad9 923f ec5b 83c0 b575 1e3f
00000240: c739 87bd 43c8 813f 8d62 82be a010 09bf
00000250: 632d 063f 83ef ca3f 0a5a b9bd d048 4c3e
00000260: f688 d4be dd3f 74c0 ebef bcbe 5def e9bb
00000270: d07b f7bd d65e 98be cfd4 953e f681 a2c0
00000280: 9688 1040 6c8e 76be 89d7 843e e834 7b3f
00000290: 56b0 d43e 5fa1 613d 8b47 39bf 8c90 cdbe
000002a0: b2a7 74bf a461 083e c7a2 8cbe 8125 a73e
000002b0: 4fcb 1d3f 7e0e 083e c02c ae3e ef7e 913f
000002c0: 645a e93e 56df f7bd 96bd 973f 0690 88be
000002d0: 874a c93f f25c 173f 478d de3e bf60 ca3e
000002e0: f357 75be 9162 0f3f 7e53 053f 25fb 3dc0
000002f0: a43f a7be ca1e 97c0 9b64 033e bea4 793f
00000300: 9ddc 69c0 f474 2cbe a2e8 36c0 b69d 1abf
00000310: 4b7a 833f 9a75 883e f44f 023f 1ea1 81bf
00000320: 9207 453f a3b3 c0be 5e9e d7be 84ba 943f
00000330: 0a89 f1bd 16a8 97be fdef a0bf f707 1f3f
00000340: 2bd2 8bbe 7981 a2bf acff 89bf 32af 483e
00000350: 8c81 96be d70f dabe 1138 6a3f 6205 44be
00000360: b91b 3e3f 0089 923f e971 973e 51ff fe3e
00000370: 598a 143f 90b8 16be 5b35 60c0 bc34 16c0
00000380: 2e53 88c0 2755 273f d626 39c0 9e32 763e
00000390: 8b39 823f b40c a53e 6e34 06c0 c2e5 07c0
000003a0: 30a0 39be 179b bebe 60d1 1e3f b5ca 273f
000003b0: 8b5b c3be 31a1 2a3f 39cb d93e 62f4 7b3f
000003c0: 4f29 0b3d 5ec1 8fbe 6737 93bf 882a afbe
000003d0: 824e 833e 60f0 8cc0 d50a c43e 7996 fa3d
000003e0: b8f4 013f 8972 1740 05d4 c8be 346f 233f
000003f0: 395e 643d 3009 1c3f 8930 87c0 7e33 05bf

model.2.bias f4 [128]
-0.056556296 0.29891983 -0.07428762 -0.09342133 0.115910344 -0.10909562 0.10895517 0.09129118
-0.07845025 0.106030434 0.019995248 0.43994504 -0.09542758 0.1610865 0.17971079 -0.08844417
0.21123162 -0.054284696 0.15997441 0.11209943 -0.109228075 0.012588225 -0.20099053 -0.0961108
0.29362717 0.10877201 0.1644567 -0.08358442 0.06816031 0.06660982 0.05768904 0.18046016
0.11521791 0.039155178 -0.025775703 -0.03266361 0.14106943 0.24479905 -0.091627315 0.16626626
-0.038079813 0.26491654 0.08986962 0.15032361 0.21234155 0.3451287 -0.021217305 0.27855325
-0.0155029055 -0.07361165 -0.012726563 -0.023301734 -0.009484066 0.20873141 -0.073245294 0.06480109
-0.05501915 -0.029455774 0.051078875 -0.01625552 -0.11214662 -0.0039129355 0.14683661 0.13215
0.20726292 0.096647575 -0.13920332 0.0402534 -0.00684892 -0.005600315 0.03170158 0.37897107
0.07965229 -0.118453525 0.01409859 0.092608996 0.13994649 -0.08337734 0.04384221 0.16803113
0.18346395 0.21060686 -0.05835366 -0.10649279 0.17242303 0.016455304 -0.008533401 0.04404158
-0.019194866 0.07798337 -0.082135975 -0.14727913 0.082704194 0.14536795 -0.08459821 -0.042246956
-0.094218224 -0.008523576 0.10676789 -0.005230479 -0.038876407 0.08138788 -0.11601916 -0.08421854
0.18970051 0.5460517 0.25367704 0.17286372 0.29566756 0.07460293 -0.0029851655 0.10837351
0.113613494 0.14591295 0.10186028 -0.0066522807 -0.07278777 -0.124851465 -0.052066818 0.1725051
0.10857022 0.06401824 0.033844262 -0.019149844 -0.023708731 -0.06627805 0.35409582 0.094889246
00000000: 93a7 67bd 050c 993e 1c24 98bd af53 bfbd
00000010: 6762 ed3d 866d dfbd e323 df3d dff6 ba3d
00000020: 86aa a0bd 7c26 d93d 13cd a33c 7a40 e13e
00000030: 896f c3bd dcf3 243e 1b06 383e 3822 b5bd
00000040: 1a4d 583e a159 5ebd 55d0 233e 6394 e53d
00000050: f8b2 dfbd d83e 4e3c 76d0 4dbe bdd5 c4bd
00000060: 4d56 963e dcc3 de3d 5667 283e 4f2e abbd
00000070: a297 8b3d bb6a 883d 584b 6c3d 8cca 383e
00000080: 5ef7 eb3d 2e61 203d 9127 d3bc 47ca 05bd
00000090: 8174 103e 9aac 7a3e 1aa7 bbbd b441 2a3e
000000a0: 94f9 1bbd 24a3 873e 900d b83d 6fee 193e
000000b0: 1070 593e b5b4 b03e eacf adbc 889e 8e3e
000000c0: e6ff 7dbc b4c1 96bd 1383 50bc 47e3 bebc
000000d0: 0e63 1bbc b0bd 553e a101 96bd 6fb6 843d
000000e0: c35b 61bd 3c4d f1bc 1538 513d 4c2a 85bc
000000f0: 21ad e5bd 1538 80bb 565c 163e 5452 073e
00000100: bb3c 543e 2aef c53d 518b 0ebe c0e0 243d
00000110: e86c e0bb d982 b7bb 84d9 013d 7f08 c23e
00000120: bd20 a33d c397 f2bd c6fd 663c c9a9 bd3d
00000130: 224e 0f3e bdc1 aabd e493 333d 5a10 2c3e
00000140: f9dd 3b3e 53a9 573e 3f04 6fbd e418 dabd
00000150: aa8f 303e 46cd 863c aecf 0bbc f264 343d
00000160: 8d3e 9dbc bfb5 9f3d e836 a8bd 57d0 16be
00000170: d160 a93d 56db 143e d441 adbd 250b 2dbd
00000180: 7cf5 c0bd 78a6 0bbc 20a9 da3d 7064 abbb
00000190: de3c 1fbd b0ae a63d 749b edbd c57a acbd
000001a0: da40 423e 0bca 0b3f f5e1 813e 3003 313e
000001b0: bd61 973e 6cc9 983d c4a2 43bb eef2 dd3d
000001c0: 31ae e83d 346a 153e 1f9c d03d 60fb d9bb
000001d0: c111 95bd 20b2 ffbd 0444 55bd 2da5 303e
000001e0: 105a de3d ff1b 833d 48a0 0a3d 22e0 9cbc
000001f0: d038 c2bc c9bc 87bd 0c4c b53e 4b55 c23d

model.4.weight f4 [1, 128]
-0.028063176 2.6920395 -0.016776187 -0.0007667333 -0.5660285 -8.337165 -0.5586545 1.2501593
-0.008763015 -0.4416392 -0.48152313 2.388356 -0.0054250713 -0.5138085 -0.43289325 0.09683822
1.861364 0.035272535 -0.44185525 -0.49350485 0.023234207 -0.5755035 0.7417608 -0.014887556
2.0131173 -0.42280653 -0.3902052 0.014905886 1.1675459 -0.49569127 0.01198318 2.4757233
-0.48225665 -0.00827175 0.003299876 0.0055296454 -0.5490618 1.996041 0.064238265 -0.4501442
0.035738092 1.8901047 -0.5094321 -0.47398102 -0.4377177 -0.5930291 1.060595 1.4445003
0.044956174 -0.010110388 0.021284997 0.059838958 1.2546151 -0.42149895 0.0009285648 -0.57592905
-0.019988507 -0.008028436 -0.57231015 -0.05615293 0.05095974 -0.54341125 -0.5010235 -0.4245541
3.1642962 -0.524196 7.9423018 0.03711104 0.005665275 0.054860972 0.03014618 1.8778932
-3.6106684 0.047419883 0.038358763 -1.8296727 -0.4417771 6.4015856 -0.5018196 -0.4297566
-0.49775553 -0.43085074 0.0731337 4.0881686 4.622157 0.011962404 0.03330035 0.05957753
0.04756297 -0.42652512 0.0502884 0.7452201 -0.59903073 -0.49162886 0.00046104344 0.024275387
-0.025240624 0.02048089 -0.44529435 0.032228537 0.00780867 1.1697302 -0.025891146 0.9695929
-0.52805 2.5322747 2.0906458 -0.5193249 1.9312068 -0.5473049 -0.54888886 -0.5011747
-0.50495714 -0.5465766 -0.4678372 0.053991757 -0.026932824 0.84697556 -0.03602005 -0.43755728
-0.526784 -4.352301 -0.54534316 0.012200832 0.063773185 0.003182227 1.8262246 -0.46558294
00000000: bfe4 e5bc 604a 2c40 376e 89bc 9afe 48ba
00000010: 3ee7 10bf 0765 05c1 fb03 0fbf 3805 a03f
00000020: c092 0fbc 891e e2be 338a f6be d3da 1840
00000030: ccc4 b1bb f488 03bf 2fa4 ddbe 1e53 c63d
00000040: 2d41 ee3f ef79 103d da3a e2be abac fcbe
00000050: aa55 be3c 3354 13bf 09e4 3d3f f0ea 73bc
00000060: ead6 0040 197a d8be fac8 c7be d137 743c
00000070: 2572 953f 3fcb fdbe 1a55 443c 4072 1e40
00000080: 58ea f6be 3c86 07bc bc42 583b 0732 b53b
00000090: 508f 0cbf 467e ff3f 5a8f 833d 4d79 e6be
000000a0: 1b62 123d f3ee f13f 246a 02bf a4ad f2be
000000b0: 891c e0be c1d0 17bf 94c1 873f 63e5 b83f
000000c0: f723 383d 0aa6 25bc e05d ae3c b219 753d
000000d0: 3a97 a03f b6ce d7be ee6a 733a 1670 13bf
000000e0: f0be a3bc b489 03bc eb82 12bf 9d00 66bd
000000f0: 29bb 503d 001d 0bbf 1343 00bf 285f d9be
00000100: d483 4a40 b631 06bf 5627 fe40 bf01 183d
00000110: c5a3 b93b e6b5 603d 1ff5 f63c ce5e f03f
00000120: 3115 67c0 5a3b 423d 141e 1d3d b732 eabf
00000130: 9c30 e2be cad9 cc40 4077 00bf 0f09 dcbe
00000140: d0d9 febe 7898 dcbe 1fc7 953d 47d2 8240
00000150: b6e8 9340 f5fd 433c f365 083d 9107 743d
00000160: 64d1 423d 8061 dabe 36fb 4d3d bfc6 3e3f
00000170: 145a 19bf c7b6 fbbe 34b8 f139 2ddd c63c
00000180: 6dc5 cebc 8ac7 a73c 9ffd e3be 1202 043d
00000190: dfdf ff3b b8b9 953f ab19 d4bc 3e37 783f
000001a0: 492e 07bf ca10 2240 24cd 0540 7af2 04bf
000001b0: c931 f73f 2d1c 0cbf fb83 0cbf fc4c 00bf
000001c0: df44 01bf 72ec 0bbf 5c88 efbe 7626 5d3d
000001d0: 3aa2 dcbc 64d3 583f c389 13bd 8207 e0be
000001e0: 51db 06bf 0d46 8bc0 9c9b 0bbf 00e6 473c
000001f0: 849b 823d e98c 503b bac1 e93f e360 eebe
