hw2/preTrained/ddpg_critic_LunarLanderContinuous-v2_04252023_174207_.pth (torch, 277399 bytes, 5 tensors)

model.0.weight f4 [256, 10]
0	0xbfb69a17	-1.4265774
1	0xbe9fe439	-0.31228808
2	0xbf2567f7	-0.6461176
3	0xbecac65b	-0.39604458
4	0xbeb328ba	-0.3499201
5	0x3f54f4fd	0.8318632
6	0x3ebfc536	0.37455148
7	0x3f57ac90	0.84247684
8	0x3e962fa1	0.29333213
9	0xbf32b900	-0.6981354
10	0x3f8095ea	1.004575
11	0xc0202593	-2.5022933
12	0xbde7e8ca	-0.11323698
13	0x3e6f6dea	0.23381773
14	0x3de64e33	0.11245384
15	0x3ebe7103	0.37195596
16	0x3dc6b672	0.097027674
17	0x3f0b0226	0.54300153
18	0xbeeb717d	-0.45985022
19	0xbb312ffc	-0.0027036658
20	0xbc900cde	-0.01758426
21	0xc096bb74	-4.7103825
22	0xbfd6fbd7	-1.6795605
23	0xbb45acda	-0.0030162842
24	0xbe6b19e8	-0.22959101
25	0xbe7b25c1	-0.2452612
26	0xbf2e370c	-0.68052745
27	0x3f53bbc2	0.8270837
28	0xbf5d72a1	-0.86503035
29	0x3f6b7e88	0.91989946
30	0xc00a13e0	-2.157463
31	0xbe0beda6	-0.13664874
32	0xbf5ca461	-0.8618832
33	0x3dcdeddd	0.100551344
34	0x3d2bf51d	0.041981805
35	0x3de1184c	0.109909624
36	0x3e0f1c94	0.13975745
37	0xbf3dd2dd	-0.74149877
38	0x3d8c9415	0.06864182
39	0xbd264b35	-0.040599067
40	0xbe52dafd	-0.2059135
41	0xbfc6fdbf	-1.5546187
42	0x3e44beb7	0.19213377
43	0x3f1afd89	0.60543114
44	0x3ebd320c	0.36952245
45	0xbfc850bb	-1.5649637
46	0xbe1de788	-0.15420353
47	0xbf4afe79	-0.79294544
48	0x3f2d8280	0.6777725
49	0x3f86027e	1.046951
50	0xbf3951ac	-0.72390246
51	0xc0d453d0	-6.635231
52	0xbfc398c0	-1.5280991
53	0xbeee04da	-0.46488076
54	0x3ef0bedd	0.47020617
55	0x3e6230c4	0.22088915
56	0x3db74d1b	0.089502536
57	0xbf8b49ea	-1.0881932
58	0x3f04ffa1	0.5195256
59	0x3e8ff68a	0.28117782
60	0xbe1f9c28	-0.15586913
61	0xc0a94b52	-5.2904444
62	0x3f908de5	1.1293303
63	0x3e8aa9d1	0.27082685
64	0x3dba5aed	0.09099374
65	0x3ef7005d	0.48242465
66	0xbeb3f587	-0.3514826
67	0x3e7d7166	0.2475029
68	0xbdf87055	-0.12130801
69	0x3f0edd4f	0.5580644
70	0xbea8952d	-0.32926312
71	0xc0dc2ce2	-6.880479
72	0xbf0e4c01	-0.5558472
73	0x3e4767e7	0.1947323
74	0x3f18fe02	0.59762585
75	0x3e85e35e	0.2615003
76	0xbea69ae2	-0.3254004
77	0xbe3bf1cd	-0.18353958
78	0x3f88e6bb	1.0695413
79	0xbeac1564	-0.3361007
80	0xbf25d1a8	-0.64773035
81	0xc10f8c54	-8.97176
82	0xbf3b7beb	-0.7323596
83	0xbecc7102	-0.39929968
84	0x3f5eb73a	0.8699833
85	0xbf1900a6	-0.59766614
86	0xbd0f8300	-0.03503704
87	0x3f89a653	1.0753883
88	0xbd872d24	-0.06600407
89	0x3d91c208	0.07117087
90	0xbf927acb	-1.1443723
91	0xbf90a368	-1.1299868
92	0x3f4c6b93	0.79851645
93	0xbe239f45	-0.15978725
94	0x3d0a9660	0.033834815
95	0x3ebe38f3	0.37152824
96	0xbcc630f8	-0.024193272
97	0x3e89ea4b	0.26936564
98	0x3c75a96e	0.0149940085
99	0xbd464097	-0.04840144
100	0xbd070f04	-0.032973304
101	0xbeb5defd	-0.3552169
102	0xbfd500e0	-1.6640892
103	0xbec9f6f3	-0.3944622
104	0x3f4932a9	0.78592926
105	0x3fe4c041	1.7871171
106	0x3ff448ca	1.9084713
107	0xbf9d26b2	-1.2277434
108	0x3da36e99	0.07980079
109	0x3ddf2de4	0.10897425
110	0x3f0f0954	0.5587361
111	0x3e9c4f0f	0.30529067
112	0xbfd97b0f	-1.699068
113	0x3efdac6c	0.4954561
114	0xbf55d287	-0.83524364
115	0xbf9f8a4b	-1.2464079
116	0xbf0fac25	-0.56122047
117	0xbf98085c	-1.1877551
118	0xbda35a9c	-0.07976267
119	0xbf7046a1	-0.9385777
120	0x3f5e4b05	0.8683322
121	0x3ea8ee03	0.3299409
122	0xbf3c8eaa	-0.7365519
123	0x3e879830	0.26483297
124	0xbebf6393	-0.37380657
125	0x3f2caa8a	0.6744772
126	0xbfb617b9	-1.422599
127	0xbf45717e	-0.771263
128	0xbeb1b853	-0.3471094
129	0xbf34a8da	-0.7057015
130	0xbf13a721	-0.57676893
131	0xbea55ef7	-0.32299015
132	0x3fedc81b	1.8576692
133	0xbf13bf32	-0.57713616
134	0xbdfc0af4	-0.12306777
135	0x3eb70002	0.35742193
136	0x3df7b491	0.12094987
137	0x3f0f846c	0.56061435
138	0x3e3b51eb	0.18292968
139	0xbefcf8d9	-0.49408606
140	0xbe2d3fee	-0.16918918
141	0xc089505b	-4.291059
142	0x3f8ce701	1.1007997
143	0xbf819305	-1.0122992
144	0xbec1edae	-0.37876648
145	0x3ea2c1ce	0.31788486
146	0x3fb5ba15	1.4197413
147	0xbfeed5ed	-1.8659035
148	0xbfa5fedf	-1.2968405
149	0x3e7d462f	0.24733804
150	0x3fcbd844	1.5925374
151	0xbecf5b84	-0.40499508
152	0xbed5c85e	-0.4175443
153	0x3ead73c1	0.33877376
154	0xbf12984b	-0.5726363
155	0xbddc6c67	-0.107628636
156	0xbf098a1d	-0.5372637
157	0xbf25e2d7	-0.64799255
158	0xbea62715	-0.32451692
159	0xbee1c1f1	-0.44093278
160	0xbffd3d74	-1.9784379
161	0xc078c6e1	-3.8871386
162	0xbda8bed3	-0.08239522
163	0x3f86aef3	1.052214
164	0x3ecf4061	0.40478805
165	0x3e5bac72	0.21452501
166	0x3d6199f1	0.05507845
167	0xbe93e43c	-0.28885067
168	0xbf667d5e	-0.90035045
169	0x3eab3c59	0.3344448
170	0x3f05a1d1	0.5220004
171	0xbf75f72d	-0.96080285
172	0xc010b438	-2.2609997
173	0x3f96a3af	1.1768702
174	0xbfcfe490	-1.6241627
175	0xbe7231e8	-0.2365185
176	0x3eb0fb81	0.34566882
177	0xbfaaf1bb	-1.335502
178	0xbe044fd2	-0.12921074
179	0x3e09eb0a	0.13468567
180	0x3f34ff3e	0.7070197
181	0xbfed2ac4	-1.8528676
182	0xbec3531b	-0.38149342
183	0x3fe73a60	1.806469
184	0xbec9058b	-0.3926204
185	0x3f23bf0e	0.639634
186	0xbf45a714	-0.77208066
187	0x3fbc1bb8	1.4695959
188	0x3dfb8707	0.12281614
189	0x3ee67b71	0.45016053
190	0x3d6da67c	0.0580201
191	0xbd1c8d22	-0.038220532
192	0x3e367262	0.17817071
193	0x3f3e8376	0.74419343
194	0x3fd8b6d7	1.6930798
195	0x3e2b9016	0.16754183
196	0x3ed69ed8	0.41918063
197	0xbface5a3	-1.350758
198	0x3f567953	0.83778876
199	0x3ea1ef15	0.31627718
200	0xbff13d1b	-1.8846773
201	0xbe307da5	-0.1723543
202	0xbf876373	-1.0577224
203	0x3f911377	1.1334065
204	0x3f78cef4	0.97190785
205	0x3f4743c0	0.77837753
206	0xbc5542e5	-0.013016437
207	0xbb28557b	-0.0025685716
208	0xbca31d3d	-0.019911403
209	0x3dc9b625	0.098491944
210	0x3f3a97e9	0.72888047
211	0xbfb1fbf8	-1.390502
212	0x3f194a26	0.59878767
213	0x3fb56d6b	1.4174017
214	0x3e836f86	0.25671023
215	0xbfa6754f	-1.300455
216	0xbecda49a	-0.40164644
217	0x3f3cbc4c	0.7372482
218	0x3f725b4d	0.94670564
219	0x3e7e34f1	0.24824883
220	0x3f19c330	0.6006346
221	0x3f0b9cd8	0.545362
222	0xbf80b34a	-1.0054715
223	0xbeeef950	-0.46674585
224	0x3f9e3a1c	1.2361484
225	0x3ece3fbf	0.4028301
226	0x3f564745	0.837025
227	0x3f14d1f1	0.58132845
228	0x3c2039e9	0.009779432
229	0xbd6cfcf2	-0.057858415
230	0x3f293e24	0.66110444
231	0xc049a5f4	-3.150754
232	0xbc12faae	-0.0089708995
233	0x3f9a8c83	1.2074131
234	0xbeeb8013	-0.4599615
235	0xbd216fb5	-0.039413173
236	0xbfdae116	-1.7099941
237	0x3e4b3af7	0.19846712
238	0x3f02d529	0.51106507
239	0xbe673624	-0.22579247
240	0xbf1357fb	-0.5755612
241	0xbf73d49e	-0.95246303
242	0x3fd5c89b	1.6701845
243	0xbf09178d	-0.5355156
244	0xbf120737	-0.5704226
245	0x3f5197db	0.8187234
246	0x3f389f9e	0.72118556
247	0x3e201518	0.15633047
248	0x3d1d3d03	0.038388263
249	0xbe23cc94	-0.15996009
250	0x3e3b76ac	0.18306988
251	0x3d8c33fd	0.068458535
252	0x3f1a2555	0.60213214
253	0x402ad06a	2.6689706
254	0x3fb06450	1.3780613
255	0xbe86a12c	-0.2629484

model.0.bias f4 [256]
0	0xbfcf7f76	-1.6210773
1	0xbf5b4674	-0.8565438
2	0xbee5c7ae	-0.44878906
3	0xbfd0559c	-1.6276126
4	0xbf24571d	-0.64195424
5	0xbf0a51f5	-0.54031307
6	0x3eb5b495	0.35489336
7	0x3ebd8aa6	0.37019843
8	0xbe13acd3	-0.14421396
9	0xbfdf359d	-1.7438236
10	0xbf040710	-0.51573277
11	0xbf3cf423	-0.73810023
12	0x3e850705	0.25981918
13	0xbf05b689	-0.5223165
14	0x3eb61a8a	0.35567123
15	0xbf3ecd96	-0.7453245
16	0xbfa4a79e	-1.2863653
17	0x3dd7c125	0.10534886
18	0xbf68a923	-0.9088308
19	0x3e109754	0.14120227
20	0xbfc5d62c	-1.5455985
21	0xbebbd681	-0.3668709
22	0xbca2a401	-0.019853594
23	0xbf9b045e	-1.2110708
24	0xbf261b47	-0.6488537
25	0x3ec70bfe	0.38876337
26	0x3dd11ee9	0.10210974
27	0xbfafa4ee	-1.3722208
28	0x3f178148	0.5918164
29	0xbe1f4cbf	-0.1555662
30	0xbe5032ce	-0.2033188
31	0xc0070935	-2.109937
32	0xbfd28a77	-1.6448506
33	0x3ceaedbd	0.028677816
34	0xbf912a7f	-1.1341094
35	0xbf227cbe	-0.6347159
36	0xbf4094df	-0.7522716
37	0xbfc7dccb	-1.5614256
38	0xbfd1b902	-1.6384585
39	0xbf4deff9	-0.80444294
40	0xbf09e1a6	-0.5385994
41	0xbfa9a109	-1.3252269
42	0xbfba8c4e	-1.4574068
43	0x3e0206a1	0.12697841
44	0x3e701797	0.23446499
45	0x3e5a7916	0.21335253
46	0xbf69035e	-0.9102076
47	0xbdb693b3	-0.0891489
48	0xbfaffd28	-1.3749132
49	0x3fd3e9ba	1.6555703
50	0xbf4ae0e0	-0.7924938
51	0x3e46a12c	0.1939742
52	0xbf51723a	-0.8181492
53	0xbe4457c9	-0.19174112
54	0xbfa0107b	-1.250503
55	0xbf058a0c	-0.5216377
56	0xbf57eb65	-0.8434356
57	0x3f82c028	1.0214891
58	0x3d45b8f9	0.048272107
59	0xbfd91fb8	-1.6962805
60	0xbe944a46	-0.28962916
61	0x3f4b6a9e	0.7945956
62	0xbf2c95ea	-0.6741625
63	0xbf43138b	-0.76201695
64	0xbd24743a	-0.040149905
65	0xbf03cf0e	-0.51487815
66	0xbf44b6cb	-0.7684142
67	0xbfbcc6d1	-1.4748174
68	0xbea4c81e	-0.32183927
69	0xbf060864	-0.52356553
70	0xbf1d7242	-0.6150247
71	0xbf150ced	-0.5822285
72	0xbf104c2b	-0.56366223
73	0x3f92a1c5	1.1455618
74	0xbe7f5171	-0.24933411
75	0xbeef41b5	-0.46729818
76	0xbf89f4e1	-1.0777856
77	0xbf284a60	-0.6573849
78	0x3f4406bf	0.76572794
79	0xbd1c681d	-0.038185228
80	0xbf62a9e2	-0.8854047
81	0xbf13906c	-0.57642245
82	0xbf5b5a1f	-0.8568439
83	0xbf3b8840	-0.73254776
84	0xbf577354	-0.8416035
85	0xbf811b87	-1.0086526
86	0x3f516eb0	0.8180952
87	0x3d2744e4	0.040837184
88	0x3f7d3519	0.98909146
89	0xbfb4e256	-1.4131572
90	0xbdf16e01	-0.1178856
91	0xbfc68a0f	-1.5510882
92	0xbe91f64f	-0.2850823
93	0x3f7ca25a	0.9868523
94	0xbed7d936	-0.42157906
95	0x3fa20cb8	1.2660131
96	0xbea2885e	-0.31744665
97	0x3e96f0a5	0.29480472
98	0x3ec7ca62	0.39021593
99	0x3eedd419	0.4645088
100	0xbfec23b7	-1.8448399
101	0xbf932a2b	-1.1497244
102	0xbf442808	-0.7662358
103	0xbf15685d	-0.5836237
104	0x3f0694c5	0.52570754
105	0xbf6ba2cc	-0.92045283
106	0xbe81e7ef	-0.25372264
107	0x3e8b79d0	0.27241373
108	0x3f91b50e	1.1383379
109	0xbfa34e63	-1.2758297
110	0xbe97bb02	-0.29634863
111	0xbf23d02c	-0.6398952
112	0xbf2d678e	-0.67736137
113	0x3f3d5f4d	0.7397354
114	0xbe92cdac	-0.2867254
115	0x3e82d41d	0.25552455
116	0x3f809793	1.0046257
117	0xbe9ad223	-0.30238447
118	0xbf7c8127	-0.9863457
119	0xbf422de5	-0.7585128
120	0xbe656058	-0.22400033
121	0xbe08a9b4	-0.13345987
122	0x3e90aed8	0.28258395
123	0xbfd1c0df	-1.6386985
124	0xbf6fffe4	-0.93749833
125	0x3fa2c72c	1.2717032
126	0xbb2a54c7	-0.0025990473
127	0x3b2906aa	0.0025791326
128	0x3ec329a9	0.38117722
129	0xbf4d0ab3	-0.8009445
130	0xc003bfe4	-2.058587
131	0x3ecdbe5f	0.40184304
132	0xbfa85372	-1.3150465
133	0xbf5a5aef	-0.85295004
134	0xbf03af0a	-0.51438963
135	0xbf295466	-0.66144407
136	0x3d1e0065	0.038574595
137	0x3cc4e83d	0.024036521
138	0xbf3111df	-0.69167894
139	0x3dc55630	0.096355796
140	0xbfbb9d25	-1.4657332
141	0xbf7109c9	-0.94155556
142	0x3efdb79f	0.49554154
143	0x3ed193d6	0.40933102
144	0xbf47cd73	-0.78047866
145	0xbe8932ae	-0.26796478
146	0xbda7b7e1	-0.08189369
147	0x3e2e1259	0.16999187
148	0x3e83d27f	0.25746533
149	0xbdb45fe1	-0.0880735
150	0xbe40de3f	-0.1883478
151	0xbf6ce318	-0.9253402
152	0xbf750f29	-0.9572626
153	0xbfd4556b	-1.6588567
154	0xbfb23efb	-1.392547
155	0x3e821bd3	0.25411853
156	0x3d864d08	0.06557661
157	0x3f336f13	0.7009136
158	0xbf2b8f1d	-0.6701525
159	0xbf0a2d18	-0.5397506
160	0xbf0e3310	-0.55546665
161	0xbed3ee94	-0.41392958
162	0x3df93789	0.121687956
163	0xbfc4b105	-1.5366522
164	0x3eebffeb	0.46093687
165	0xbd832c72	-0.06404962
166	0xbcbed0b6	-0.02329288
167	0xbf66ee9b	-0.90207833
168	0x3d1762ca	0.036959447
169	0xbfd6f4ac	-1.6793418
170	0xbf593662	-0.84848607
171	0x3eec8933	0.46198425
172	0xbfb48f92	-1.4106314
173	0xbf07607a	-0.52881587
174	0x3ecb6508	0.39725518
175	0xbeab678c	-0.33477437
176	0xbe96fca1	-0.29489616
177	0xbf404387	-0.7510304
178	0x3f6d52bd	0.92704374
179	0x3eea6cc4	0.45786107
180	0xbfc27026	-1.5190475
181	0xbe26a9ad	-0.16275664
182	0xbf222b13	-0.63346976
183	0x3e943c7f	0.28952405
184	0xbdf5ba48	-0.11998421
185	0xbf96302d	-1.1733452
186	0xbf770016	-0.96484506
187	0xbebd6a19	-0.3699501
188	0xbe8a5158	-0.27015185
189	0xbe7455fe	-0.23860928
190	0x3eadfe8b	0.33983263
191	0xbf02ec92	-0.5114223
192	0x3edd89d6	0.43269223
193	0xbd2964bd	-0.041355837
194	0xbfdb3ede	-1.712856
195	0x3fb346f3	1.4006027
196	0xbe67b3e6	-0.2262722
197	0xbf4d615e	-0.80226696
198	0xbe69592a	-0.2278792
199	0xbc020f04	-0.00793815
200	0x3f7de8c8	0.9918332
201	0xbf4a661a	-0.79062045
202	0xbf857fdc	-1.0429645
203	0xbf35ed37	-0.71065086
204	0xbf833fe6	-1.0253875
205	0x3f21c399	0.63189083
206	0x3ea01b85	0.31270996
207	0xbebafbfb	-0.3652037
208	0x3f1124ee	0.56696975
209	0x3c7bedcb	0.0153765185
210	0xbfa73280	-1.3062286
211	0xbf2c64e1	-0.6734143
212	0xbfa91434	-1.320929
213	0xbfed6ce0	-1.8548851
214	0xbf912405	-1.1339117
215	0x3f4d286e	0.80139816
216	0xbfbdda21	-1.4832193
217	0xbf0e315b	-0.5554406
218	0xbf98c694	-1.1935601
219	0x3f48e542	0.7847482
220	0xbe6494f3	-0.22322445
221	0xbfb48230	-1.410223
222	0xbf83e68c	-1.0304732
223	0xbff8505c	-1.9399524
224	0xbeb581eb	-0.35450682
225	0xbf404ab7	-0.75114006
226	0x3cbcd9b7	0.023053033
227	0x3f4f0021	0.8085957
228	0xbe6d4f51	-0.23174788
229	0xbf1ac1a4	-0.6045172
230	0xbe92366e	-0.28557152
231	0x3d6cb4f0	0.057789743
232	0x3f4b10a6	0.7932228
233	0xbf56b311	-0.83866984
234	0xbee549bb	-0.44782814
235	0x3f80cd9e	1.0062749
236	0x3ee28ca9	0.4424794
237	0x3f9cc9bd	1.2249066
238	0xbfcdcd53	-1.6078285
239	0xbef05eb9	-0.46947268
240	0xbf329f7a	-0.6977459
241	0xbeb75a17	-0.3581092
242	0xbf5c590d	-0.8607338
243	0xbf8df22d	-1.1089531
244	0x3d0855c6	0.033284925
245	0xbf8de3c4	-1.1085134
246	0xbf40ea6b	-0.75357693
247	0xbf833a48	-1.0252161
248	0xbf91f191	-1.1401845
249	0xbf189fff	-0.59619135
250	0xbf9ed888	-1.240983
251	0xbf2d72e1	-0.67753416
252	0xbf46b4a9	-0.77619416
253	0xbe55cdeb	-0.20879333
254	0x3f668a77	0.9005503
255	0xbf2c1a42	-0.67227566

model.2.weight f4 [256, 256]
0	0x3e866f58	0.26256824
1	0x3f1d4d14	0.61445737
2	0xbe74907d	-0.23883243
3	0x3e9a88b3	0.30182418
4	0xbea14281	-0.3149605
5	0x3ee02607	0.43779013
6	0x3d0963c3	0.033542406
7	0x3e63f6c6	0.22262105
8	0xbfedb436	-1.8570621
9	0x3f8c9c5d	1.0985218
10	0xbee71078	-0.45129752
11	0x3b5c7558	0.0033639278
12	0xbf1d7edb	-0.6152169
13	0xbe51b858	-0.20480478
14	0xbec657b6	-0.38738793
15	0xbea35637	-0.31901714
16	0xbf189ae9	-0.59611374
17	0xbd900ca9	-0.07033665
18	0x3eb93305	0.36171737
19	0x3e92c118	0.28662944
20	0x3cb7ceed	0.022437537
21	0xbe9ec965	-0.31013027
22	0x3ea61f24	0.32445633
23	0x3eae79e8	0.34077382
24	0x3eaa5b50	0.3327279
25	0x3e9b9115	0.30384126
26	0xbf963e3e	-1.1737745
27	0xbef33b50	-0.4750619
28	0xbe02f24b	-0.1278774
29	0xbf551274	-0.8323128
30	0x3f0419d3	0.51601905
31	0xbf1a615e	-0.6030482
32	0x3f10bf70	0.5654211
33	0x3ed9c9b2	0.42536694
34	0xbd6c8de7	-0.057752516
35	0xbfbc17c8	-1.4694757
36	0x3e79440d	0.24342366
37	0x3e053ab0	0.13010669
38	0xbf50e639	-0.8160129
39	0xbeb8c1cf	-0.36085364
40	0xbd5bba81	-0.05364466
41	0x3e5d3745	0.21603115
42	0x3e43cc45	0.19120891
43	0x3ebb31fb	0.3656157
44	0xbcd7624a	-0.026291985
45	0xbe5b83af	-0.21436952
46	0xbe8fc3d1	-0.28079084
47	0xbe795c40	-0.24351597
48	0xbf8bcd3c	-1.0922008
49	0xbf8d06db	-1.1017717
50	0xbf5685b5	-0.8379777
51	0xbcf09c87	-0.029371513
52	0xbf994c0a	-1.197633
53	0xbbc474d8	-0.005995374
54	0xbe309a46	-0.1724635
55	0xbf0bab28	-0.5455804
56	0x3f3bf5cf	0.7342195
57	0x3e923a41	0.2856007
58	0xbe4ba42c	-0.19886845
59	0xbe720819	-0.23635902
60	0x3eec3c26	0.4613964
61	0x3f01c288	0.50687456
62	0xbf64112c	-0.890887
63	0xbc699332	-0.0142562855
64	0xbefa68eb	-0.4890817
65	0x3eb1ecdc	0.34751022
66	0xbe339c4a	-0.17540088
67	0x3f77c3df	0.9678325
68	0xbef6b7ae	-0.4818701
69	0xbc9e9cf8	-0.019361958
70	0x3e3258ef	0.17416738
71	0x3e3f066e	0.18654796
72	0xbee8b27e	-0.4544868
73	0xbf11138c	-0.5667045
74	0xbf378629	-0.7168909
75	0x3e24164f	0.16024135
76	0xbed42ba6	-0.4143955
77	0xbd321be0	-0.043483615
78	0x3e352fb4	0.17693979
79	0xbeed9002	-0.46398932
80	0xbed59f10	-0.41722918
81	0xbf03c486	-0.51471746
82	0xbf21736b	-0.6306674
83	0xbddd9307	-0.10819059
84	0xbf1cd409	-0.6126104
85	0x3ef1d943	0.4723607
86	0xbb8ab007	-0.00423241
87	0xbf69f445	-0.9138835
88	0xbf9e5f7c	-1.237289
89	0x3ec3190d	0.3810505
90	0x3d81b75a	0.063338
91	0xbe69c5b3	-0.22829323
92	0x3e8191b3	0.25306472
93	0xbe3384d6	-0.17531142
94	0xbf60c376	-0.8779825
95	0x3f219407	0.63116497
96	0x3f5eae7a	0.8698498
97	0xbf287e68	-0.6581788
98	0x3c9508ce	0.018192675
99	0xbe4fc1bd	-0.20288749
100	0xbed64fbd	-0.4185771
101	0xbf4147b9	-0.75500065
102	0xbe5a1a79	-0.21299161
103	0xbed27bab	-0.41109976
104	0xbfa30c05	-1.2738043
105	0x3db02f51	0.08602775
106	0xbe44f963	-0.19235758
107	0x3f9852fc	1.1900325
108	0x3e03ba9d	0.12864156
109	0xbf0c2de2	-0.5475751
110	0x3df933a5	0.121680535
111	0x3e1bcd79	0.152151
112	0xbc888a8f	-0.016667632
113	0x3f21e304	0.63237023
114	0x3e068300	0.1313591
115	0xbc5bd0d6	-0.01341649
116	0xbe57224f	-0.21009181
117	0xbe89637a	-0.26833707
118	0xbdf9b7a0	-0.12193227
119	0x3da03bf8	0.07823938
120	0xbf57f750	-0.84361744
121	0xbe5471b1	-0.20746495
122	0x3e188f67	0.14898454
123	0x3cffbe65	0.031218717
124	0x3eb8c773	0.36089668
125	0xbf32c887	-0.6983723
126	0xbe8a6752	-0.27031952
127	0x3e8f4c02	0.27987677
128	0xbe362a3d	-0.1778955
129	0xbf81e6d6	-1.014857
130	0xbf8aba05	-1.0838019
131	0x3db692cf	0.0891472
132	0x3d82ca67	0.063862614
133	0x3ea5bbee	0.3236994
134	0x3f366198	0.71242666
135	0xbe54747e	-0.20747563
136	0x3dc63842	0.09678699
137	0x3e3761ad	0.17908354
138	0xbe25f62b	-0.16207187
139	0x3e40a29a	0.18812028
140	0xbe3792bd	-0.1792707
141	0xbe9101bd	-0.2832164
142	0x3e193d15	0.14964707
143	0xbe8e7abe	-0.2782802
144	0x3db1f2ff	0.08688926
145	0xbc89efa4	-0.016837902
146	0x3fd9619c	1.6982913
147	0xbe02dbf3	-0.12779216
148	0x3e016bd3	0.12638788
149	0x3d543b46	0.05181434
150	0x3f02c788	0.5108571
151	0xbf891c8b	-1.0711836
152	0xbf41d998	-0.75722647
153	0xc02e95f5	-2.7279027
154	0xbe9ea338	-0.309839
155	0xbe707524	-0.23482186
156	0x3f03734e	0.51347816
157	0xbe8b6e01	-0.27232364
158	0xbe76f0a5	-0.24115236
159	0xbefdf999	-0.4960449
160	0xbd629f70	-0.055327833
161	0x3e7241b2	0.23657873
162	0xbf1ef57d	-0.62093335
163	0xbfc5d3db	-1.5455278
164	0xbe411b85	-0.18858154
165	0xbf879f91	-1.0595571
166	0xbecf06a4	-0.40434754
167	0xbe34d58f	-0.17659591
168	0x3f5d6928	0.8648858
169	0xbf9f2fdd	-1.2436482
170	0x3ea78e3f	0.32725713
171	0x3cb518aa	0.022106487
172	0x3e095f7b	0.13415329
173	0xbdf326e1	-0.1187265
174	0x3e1f4f12	0.15557507
175	0xbe35710e	-0.17718908
176	0xbf23eeb6	-0.6403612
177	0x3e427451	0.18989684
178	0xbec9171c	-0.39275444
179	0x3e848b1a	0.25887376
180	0xbf5f9f89	-0.87352806
181	0xbf992480	-1.1964264
182	0xbf33770d	-0.7010353
183	0x3e590360	0.21192694
184	0xbf556f1b	-0.8337266
185	0x3e728cfc	0.23686594
186	0x3efaac74	0.48959696
187	0xbfb66a8c	-1.4251266
188	0x3dede292	0.116154805
189	0x3ef2523d	0.47328368
190	0xbf2abcc7	-0.666943
191	0xbdf95f54	-0.121763855
192	0xbf5641ae	-0.8369397
193	0xbd60bfd4	-0.05487044
194	0x3f121bc9	0.57073647
195	0x3b0dff87	0.0021667199
196	0x3e1a5c35	0.15074237
197	0xbba83ff5	-0.0051345774
198	0xbe53005c	-0.20605606
199	0xbed28817	-0.41119453
200	0xbf4d45a7	-0.80184406
201	0xbf4b3814	-0.79382443
202	0x3e24b3c2	0.16084197
203	0xbf179fa0	-0.59227943
204	0xbf89ac18	-1.0755644
205	0x3d79b12b	0.060959976
206	0x3dd01ec2	0.101621166
207	0x3d86276a	0.065504864
208	0xbc626ac6	-0.013819402
209	0xbf1ade77	-0.60495704
210	0xbee59e8c	-0.44847524
211	0xbef9d6e7	-0.4879677
212	0xbf74ca6b	-0.95621365
213	0xbfd732c7	-1.6812371
214	0xbe18cedf	-0.14922665
215	0x3f9731a5	1.1812025
216	0x3f0ef831	0.5584746
217	0xbd89a090	-0.06720078
218	0xbf4cdc3c	-0.8002355
219	0xbefc20c5	-0.4924375
220	0xbe9349d5	-0.28767267
221	0xbd158e2e	-0.036512546
222	0x3d9fb68f	0.07798492
223	0x3c20abb0	0.0098065585
224	0xbf354464	-0.7080748
225	0x3f1299dc	0.5726602
226	0xbf3a9c43	-0.72894686
227	0x3e1e81e5	0.15479238
228	0xbea7e439	-0.32791308
229	0x3dccde6a	0.100033596
230	0x3f0366ba	0.51328623
231	0xbf0e15f4	-0.5550225
232	0xbef8c366	-0.48586577
233	0x3eedc67c	0.46440494
234	0xbf35c47e	-0.7100295
235	0xbd6766bc	-0.05649446
236	0xbdcf7964	-0.10130575
237	0xbe35f1e1	-0.1776805
238	0x3f2fa1e2	0.6860639
239	0xbf0e4830	-0.555789
240	0xc0143b47	-2.316118
241	0xbeacef3c	-0.3377627
242	0xbf20c6da	-0.62803423
243	0x3edc1eca	0.4299224
244	0x3eed7c07	0.46383688
245	0xbf2d2bd4	-0.67645
246	0x3eaad228	0.33363461
247	0x3f69d850	0.9134569
248	0xbe8efd3a	-0.27927572
249	0x3f1f5470	0.62238216
250	0x3e5f3177	0.21796213
251	0x3ea4d42d	0.32193127
252	0xbecb80cc	-0.39746702
253	0xbed3300f	-0.41247603
254	0xbf23ab2e	-0.63933074
255	0xbe1d6baf	-0.1537311

model.2.bias f4 [256]
0	0xbe2eb7e7	-0.1706234
1	0x3f33d2fb	0.70243806
2	0xbd8e5be2	-0.06951119
3	0xbf0c5926	-0.5482353
4	0xbf7ce36e	-0.9878453
5	0xbbde4e33	-0.0067842244
6	0x3e48f563	0.19624858
7	0xbe81cdbc	-0.25352275
8	0xbe90662d	-0.28202954
9	0xbc14c785	-0.009080772
10	0xbdbc0706	-0.09181027
11	0xbdadb60f	-0.084819905
12	0xbf80b24d	-1.0054413
13	0x3dbbadf2	0.09164037
14	0xbd825028	-0.06362945
15	0xbc262dda	-0.010142768
16	0xbf2fdf95	-0.68700534
17	0xbe7325ce	-0.2374489
18	0xbd0f556b	-0.03499357
19	0xbf11b720	-0.5692005
20	0xbd69c293	-0.057070326
21	0xbd9bd423	-0.07608821
22	0xbe475efb	-0.19469826
23	0xbe4e1e5b	-0.20128767
24	0xbe7eb888	-0.2487508
25	0xbf1ecfe4	-0.62035966
26	0x3ea57f27	0.32323572
27	0xbdf35e61	-0.11883236
28	0xbe996c22	-0.2996531
29	0xbf3fd3d6	-0.7493261
30	0xbf08f5c9	-0.5350004
31	0xbdd4d202	-0.10391618
32	0xbfb02ace	-1.3763063
33	0xbf0e52b3	-0.5559494
34	0xbe57c68f	-0.21071838
35	0xbdafeda5	-0.08590249
36	0xbd8a6ec5	-0.06759409
37	0xbd047784	-0.03234054
38	0x3d95e03e	0.073181614
39	0xbeed39bb	-0.46333107
40	0xbd53b27e	-0.051683895
41	0xbf8a4e65	-1.0805174
42	0xbf11922d	-0.5686367
43	0xbc9bff50	-0.01904264
44	0x3f145826	0.57947004
45	0x3ecaa408	0.3957827
46	0xbd6bf021	-0.05760205
47	0xbd643fe7	-0.055725005
48	0x3f0b57c8	0.5443082
49	0xbd931bd4	-0.07183042
50	0x3f002ddb	0.5006997
51	0xbefa36f0	-0.4887004
52	0x3eb11415	0.34585634
53	0xbd35e0db	-0.044403892
54	0xbeecd92f	-0.46259448
55	0xbddd7514	-0.108133465
56	0xbd45c8d6	-0.048287235
57	0x3bc946f4	0.0061424915
58	0xbf25fff7	-0.64843696
59	0x3f7bd926	0.9837822
60	0xbe081e7a	-0.13292876
61	0x3d7fa7ce	0.06241589
62	0xbf922138	-1.1416388
63	0x3cd312d7	0.02576582
64	0x3e9e5898	0.30926967
65	0xbd8e1bc9	-0.06938893
66	0xbd43a54a	-0.047765054
67	0xbeaa1fcb	-0.3322738
68	0x3e93f320	0.28896427
69	0xbb9bd30f	-0.0047553848
70	0xbe9d9640	-0.30778694
71	0xbddd40b8	-0.1080336
72	0xbc52f839	-0.012876564
73	0xbf9fd973	-1.2488235
74	0x3d8f3fe1	0.06994606
75	0xbd35136c	-0.044207975
76	0x3e94ea5c	0.29085052
77	0xbe109020	-0.1411748
78	0xbd25d988	-0.040490657
79	0xbf060ccb	-0.5236327
80	0xb8134b11	-3.5117442e-05
81	0xbefda210	-0.49537706
82	0xbc165916	-0.009176513
83	0xbcd20188	-0.025635496
84	0x3e93f29f	0.28896043
85	0xbe63f8e0	-0.22262907
86	0xbea94164	-0.33057702
87	0xbda4abee	-0.080406055
88	0xbdc53188	-0.09628588
89	0x3ef21b2a	0.4728635
90	0x3f9f315d	1.243694
91	0x3e50c909	0.20389189
92	0xbf05c8c9	-0.522595
93	0x3c408ad9	0.011751854
94	0x3f05c3de	0.52251995
95	0xbf6eca00	-0.9327698
96	0xbf61cf6f	-0.88207144
97	0xbece0e9b	-0.40245518
98	0x3f8bc265	1.09187
99	0xbec3abff	-0.3821716
100	0xbd9192c3	-0.07108071
101	0xbd5f3bcd	-0.05450039
102	0xbd017559	-0.031606052
103	0xbbdd175e	-0.0067471704
104	0xbb82b008	-0.0039882697
105	0x3f02cf3b	0.5109746
106	0xbf027a17	-0.50967544
107	0x3f4e48d3	0.8057987
108	0xbfa6af78	-1.3022299
109	0xbdb75776	-0.08952229
110	0xbea8f71d	-0.33001032
111	0x3da955d7	0.08268326
112	0xbe5b1c9b	-0.21397631
113	0xbdf3ac89	-0.11898143
114	0xbddb5738	-0.10709995
115	0xbf04f609	-0.5193792
116	0x3e119f54	0.14220935
117	0x3f3d69a5	0.73989326
118	0xbd40ced1	-0.047072235
119	0xbd25ca42	-0.04047609
120	0xbc35ba3e	-0.011091767
121	0x3e1d96a9	0.15389504
122	0x3f017882	0.50574505
123	0xbeefe6a6	-0.46855658
124	0xbf098c22	-0.5372945
125	0xbdbf6e24	-0.093471795
126	0xbd9c69e1	-0.07637382
127	0xbfae0dc2	-1.3597949
128	0x3f32392a	0.69618475
129	0xbdd3ea96	-0.10347478
130	0x3ea893fd	0.32925406
131	0xbdaf1274	-0.085484415
132	0x3c84c6bb	0.016208043
133	0x3d9886a9	0.074475594
134	0xbe81bdc9	-0.25340107
135	0xbf084f35	-0.5324586
136	0xbe872fd5	-0.2640368
137	0xbd8b76d0	-0.06809771
138	0xbb30f72f	-0.0027002802
139	0xb85301ec	-5.030811e-05
140	0xbefdd57d	-0.4957694
141	0x3e75d371	0.2400644
142	0xbf313a3d	-0.6922949
143	0x3f6013dc	0.87530303
144	0x3d9adc31	0.075615294
145	0xbd61f16c	-0.05516188
146	0x3e660b28	0.22465193
147	0xbe90f0e5	-0.28308788
148	0x3e8d13f0	0.27554274
149	0x3ba7a2fc	0.005115865
150	0xbd821627	-0.063518815
151	0xbd8f32e1	-0.06992126
152	0xbd7af173	-0.06126542
153	0xbe207e96	-0.15673289
154	0xbdc5fab6	-0.0966696
155	0x3ed3df93	0.4138151
156	0x3efc7cdf	0.4931402
157	0xbf84a625	-1.0363203
158	0xbd3031ad	-0.043016125
159	0x3e8e4ea9	0.27794388
160	0xbd0646a4	-0.032782212
161	0x3ee58dda	0.44834787
162	0x3e2b0abc	0.16703314
163	0xbe04c654	-0.12966281
164	0xbcff8122	-0.031189505
165	0x3f871999	1.0554687
166	0xbfa33323	-1.2749981
167	0xbe025341	-0.12727071
168	0xbdc4e95a	-0.09614821
169	0x3f43ae85	0.7643817
170	0xbbc562e4	-0.0060237516
171	0x3d252014	0.040313795
172	0xbef77c93	-0.4833723
173	0xbe7ef099	-0.24896468
174	0xbcf8879d	-0.030338103
175	0xbceab4d2	-0.028650675
176	0xbee507e9	-0.44732597
177	0xbf8800cf	-1.0625247
178	0xbeef376a	-0.46721965
179	0xbdbb915a	-0.09158583
180	0xbd80c2fe	-0.06287192
181	0xbcfbe19d	-0.03074723
182	0xbf10cee1	-0.5656567
183	0xba94ec0a	-0.0011361849
184	0x3f34243d	0.70367795
185	0x3cbd1ba1	0.023084464
186	0xbea41529	-0.32047394
187	0xbe74609f	-0.23864983
188	0xbf9cdfc5	-1.2255789
189	0x3f82748b	1.0191816
190	0x3eb8ca04	0.36091626
191	0x3d0eaa01	0.034830097
192	0xbe1a9a87	-0.1509801
193	0xbdfc511d	-0.12320159
194	0x3f0a0234	0.5390961
195	0xbe345611	-0.17610957
196	0x3eb93e17	0.36180183
197	0xbcd62879	-0.026142346
198	0xbd65f264	-0.056139365
199	0xbdcc20c2	-0.099671856
200	0xbc0e2021	-0.008674652
201	0xbc926625	-0.017870972
202	0xbdcea5a2	-0.10090186
203	0xbee2d2c1	-0.44301417
204	0xbdd34256	-0.10315387
205	0x3e3946e0	0.18093443
206	0xbf1af49c	-0.60529494
207	0xbd8c34ba	-0.06845994
208	0xbde695e8	-0.11259061
209	0x3f09a233	0.5376312
210	0xbf77d463	-0.9680845
211	0xbdc41e08	-0.095760405
212	0xbd4e6f27	-0.050398972
213	0xbd14a046	-0.03628566
214	0xbf9e06e7	-1.2345856
215	0xbd36d27f	-0.04463434
216	0x3da947df	0.082656614
217	0xbdfa0441	-0.122078426
218	0xbdb3585e	-0.08757089
219	0xbed41ecf	-0.41429755
220	0xbe1a06e5	-0.15041693
221	0x3ea1a763	0.31573018
222	0xbf90ff03	-1.1327823
223	0xbdb36e3b	-0.08761259
224	0xbd328457	-0.04358324
225	0xbe8d37d6	-0.27581662
226	0x3ca89709	0.020579832
227	0x3d103572	0.03520722
228	0xbd846dde	-0.06466268
229	0xbdbe71ec	-0.092990726
230	0x3f1c047f	0.6094436
231	0xbfa14221	-1.2598306
232	0x3e37483d	0.1789865
233	0x3b8bb1d5	0.0042631426
234	0xbdd65c24	-0.10466793
235	0x3f030127	0.51173633
236	0xbd576812	-0.052589484
237	0xbd93c499	-0.072152324
238	0xbb9226d0	-0.004460193
239	0xbe6306e5	-0.22170599
240	0xbce27cc5	-0.027647385
241	0xbdea56be	-0.11442326
242	0x3bae2019	0.005313885
243	0x3e92ef1d	0.28698054
244	0xbf1f83c2	-0.6231042
245	0xbe4fc737	-0.20290838
246	0xbd8bf0a9	-0.06833012
247	0xbd81abd7	-0.06331604
248	0x3f86a057	1.0517682
249	0xbd90a00d	-0.07061777
250	0xbe160a8b	-0.1465246
251	0x3d898caa	0.06716283
252	0xbd2114cb	-0.03932647
253	0xbeceb3b2	-0.40371472
254	0xbefc2eb8	-0.49254394
255	0xbf181f6f	-0.59422964

model.4.weight f4 [1, 256]
0	0x3f17c8bb	0.59290665
1	0xbf44dde1	-0.7690106
2	0x3d00f045	0.03147914
3	0x3f44c386	0.76860845
4	0xbfe44728	-1.7834215
5	0x3cc40574	0.023928382
6	0xc008ccdb	-2.1375034
7	0x3f81ccf5	1.0140673
8	0xbfa42fb9	-1.2827064
9	0xbc191e04	-0.009345535
10	0xbce2c4d0	-0.027681738
11	0x3fd17afa	1.6365654
12	0x3faf7f7d	1.3710781
13	0xbeb80507	-0.35941336
14	0xbce6ddaf	-0.028181879
15	0x3ce0d228	0.02744396
16	0xbfa7dfa2	-1.3115122
17	0xbfe1b49b	-1.7633241
18	0xbd2231bf	-0.039598223
19	0xbfc5b2c3	-1.5445179
20	0x3ae8aee3	0.0017752316
21	0xbc63523c	-0.013874587
22	0xbf705769	-0.9388338
23	0xbe839f73	-0.25707588
24	0xbfddfd8e	-1.7343004
25	0x3c981494	0.0185645
26	0xbfda1c00	-1.7039795
27	0x3cad4201	0.021149637
28	0xc044d2fb	-3.0753772
29	0xbf9def5c	-1.2338672
30	0xbbb676b9	-0.005568352
31	0xbc207518	-0.009793542
32	0xc0a2c73f	-5.086822
33	0xc00f4ee0	-2.2391891
34	0xbeff7687	-0.49895117
35	0x3cae8f46	0.021308552
36	0xbcdf0e4b	-0.027228495
37	0xbc76575d	-0.0150354775
38	0x3ec415af	0.38297793
39	0xc002bdb7	-2.0428293
40	0x3c1744c0	0.0092327
41	0xc03aaf30	-2.9169426
42	0x3ef1fdc4	0.4726392
43	0x3c47cfac	0.012195509
44	0xc012ab9e	-2.2917247
45	0x3ffbd214	1.9673486
46	0x3c91f60e	0.017817523
47	0xbd038f85	-0.032119293
48	0x3ffe649e	1.9874456
49	0x3cb22b48	0.021749154
50	0x3ff4d66e	1.9127939
51	0xbfccd5ba	-1.6002724
52	0x405ce338	3.4513683
53	0xbcc26a86	-0.023732435
54	0xbf947ecb	-1.1601194
55	0xbc805c26	-0.01566894
56	0x3cec8f1a	0.02887683
57	0x3ac6f71c	0.0015179846
58	0x3c39ee81	0.011348368
59	0xbeefe6b0	-0.46855688
60	0xbfe6d1f4	-1.8032823
61	0xbed6e5f2	-0.4197231
62	0xbfbd816e	-1.4805124
63	0x3bfb44f4	0.007668132
64	0xbfa5382c	-1.2907767
65	0x39c85952	0.00038213521
66	0xc022611a	-2.5371766
67	0x3f9b0d9a	1.2113526
68	0x3f760492	0.96100724
69	0xbc4e4b53	-0.012591201
70	0x3fed4cd4	1.8539071
71	0xbc322f3b	-0.010875518
72	0x3d003951	0.03130466
73	0xc046d88f	-3.1069677
74	0xbf1291a1	-0.5725346
75	0xbfb26f4d	-1.3940216
76	0xc0340433	-2.8127563
77	0xbbff86bc	-0.007798044
78	0x3ae9c610	0.0017835516
79	0x3c6282ab	0.013825099
80	0x3fe86245	1.815499
81	0xc039ca45	-2.9029706
82	0xbc642b9d	-0.013926414
83	0xbb86e9dc	-0.0041172337
84	0xc022c146	-2.5430465
85	0xbe8d42a9	-0.2758992
86	0xbe07a838	-0.13247764
87	0xbcd93fd3	-0.026519692
88	0xbc4a3fad	-0.012344283
89	0x3fe553a3	1.7916149
90	0x3fc12214	1.5088525
91	0x3f9460ef	1.1592082
92	0xc00465ee	-2.0687213
93	0x3cb14011	0.021636995
94	0x3fd13091	1.6342946
95	0xc080d537	-4.026027
96	0xc0887988	-4.2648354
97	0x403dd81c	2.9663153
98	0x3f87c935	1.0608279
99	0x3c63f92a	0.013914386
100	0x3cbf3dc2	0.023344878
101	0xb9082adc	-0.00012985937
102	0x3d42c84b	0.047554296
103	0xc010be7a	-2.2616258
104	0xbfc56ed5	-1.5424448
105	0xbed9ea03	-0.4256135
106	0x3fae3c09	1.3612071
107	0x3ef6732d	0.48134747
108	0xc0839dc1	-4.113007
109	0x3cddd573	0.02707932
110	0x4007be25	2.1209805
111	0xbeb3a558	-0.35087085
112	0xbf9b23e0	-1.2120323
113	0x3f5ff47d	0.87482435
114	0xbe867bab	-0.26266226
115	0xc0938b6a	-4.6107683
116	0xbfc54733	-1.5412353
117	0xbf81e5be	-1.0148237
118	0xbcbc25ee	-0.022967305
119	0xbc97f112	-0.018547568
120	0x3cea975d	0.028636629
121	0xbf034846	-0.51282156
122	0x3fb2d819	1.3972198
123	0xbde68c29	-0.11257202
124	0xbfa84101	-1.3144838
125	0x3c340a02	0.010988714
126	0x3c60aac3	0.013712588
127	0x3f5dbfc2	0.86620724
128	0x3f0c6464	0.54840684
129	0x3a42bb13	0.0007428389
130	0xc00c3561	-2.190758
131	0x3b459aef	0.0030152162
132	0xbd014a8c	-0.031565234
133	0x3fc20d8a	1.5160382
134	0xbfc73fa0	-1.5566292
135	0x3ea9e4dd	0.3318242
136	0xbfd96535	-1.6984011
137	0x3c0b547d	0.00850403
138	0x3ff0c28b	1.880937
139	0xbe8b1b70	-0.2716937
140	0xc01d620d	-2.4591095
141	0x3fc468c7	1.5344476
142	0xbe0ca9fe	-0.13736722
143	0x3f87c9fd	1.0608517
144	0x402ff93b	2.7495868
145	0xbc945578	-0.01810716
146	0xc01f2a6e	-2.4869647
147	0xc009f3a3	-2.1554954
148	0xbf6e15f9	-0.9300228
149	0x3c946764	0.018115707
150	0xbfc83dbe	-1.5643842
151	0xbcfc34b2	-0.030786846
152	0x3c3a04e2	0.011353703
153	0xbfb548a8	-1.4162798
154	0xb98a8e5b	-0.00026427474
155	0x3ee2f1ca	0.44325095
156	0x3f93e097	1.1552914
157	0xc0941ea2	-4.6287394
158	0x3cbbf0d5	0.022941986
159	0xbfe6faf9	-1.8045341
160	0xbb6e968d	-0.0036405653
161	0xbf69791e	-0.91200435
162	0x4004c6dc	2.0746374
163	0xbf441b0c	-0.7660377
164	0x3a9a74cc	0.0011784076
165	0x3f480e71	0.78147036
166	0xc00f32ac	-2.2374678
167	0x3a90fa15	0.0011060858
168	0x3cb42b8a	0.021993417
169	0x3f3b8bcc	0.7326019
170	0x3c037e4c	0.008025717
171	0xbe91b114	-0.28455412
172	0xbea9eda3	-0.33189115
173	0xbf33bb43	-0.70207614
174	0x3bdc6073	0.006725365
175	0x3c9036ab	0.017604193
176	0xc018e453	-2.3889358
177	0xbfb02d2f	-1.3763789
178	0xbfc94b30	-1.572607
179	0x3b2108f8	0.0024571996
180	0xbcded7dd	-0.027202541
181	0x3c5a5f77	0.013328425
182	0xbfd9c91a	-1.7014496
183	0xbc2c50f7	-0.01051735
184	0x3f104563	0.56355876
185	0x3fc520af	1.5400599
186	0x3fafa0c3	1.3720936
187	0xbfd67fdd	-1.6757771
188	0xbff53c32	-1.9158995
189	0x3fc6af5f	1.5522269
190	0x3fcd50b2	1.6040251
191	0x3d3f9e7a	0.046781994
192	0xc008e887	-2.1391923
193	0xc004e5b4	-2.07652
194	0x401399df	2.3062665
195	0xc0285c09	-2.6306174
196	0x40664de9	3.5985053
197	0x3ccbadca	0.024863143
198	0x3c23f78f	0.010007753
199	0x3c8bc861	0.017063322
200	0xbf42ce69	-0.76096207
201	0x3d2a5da6	0.041593216
202	0x3fc805c3	1.5626758
203	0xc007f789	-2.1244833
204	0xbcbeefbe	-0.023307677
205	0xbf991a9b	-1.1961244
206	0x40392110	2.892643
207	0x3cc17456	0.023615044
208	0x3cbdbf57	0.023162527
209	0x3eb6bb0a	0.35689574
210	0xc0017ba7	-2.0231721
211	0x3b00e12a	0.0019665458
212	0xc0090332	-2.14082
213	0x3c3d475a	0.011552656
214	0xc077a256	-3.8692832
215	0x3c84cb96	0.016210359
216	0x3f07c7f1	0.5303946
217	0xbfb36dfc	-1.401794
218	0x3cef202c	0.029190145
219	0xbc16e186	-0.009209042
220	0x40441c5a	3.0642304
221	0xbe8f331e	-0.27968687
222	0xc09fa68d	-4.989081
223	0x3cbb7fda	0.022888113
224	0x3cb3c6fb	0.021945467
225	0xbfc8ed9c	-1.5697513
226	0xbc5e9d25	-0.013587271
227	0xbf41c1f9	-0.75686604
228	0xbccbeaf2	-0.024892304
229	0xbfa71ddd	-1.3055989
230	0x400170a6	2.0225005
231	0xc08962a6	-4.293292
232	0x3e8dfe11	0.277329
233	0x3ca290af	0.019844381
234	0x3ce72c69	0.028219419
235	0x40372a7c	2.861968
236	0x3c3020a0	0.010749966
237	0xbfb21770	-1.3913403
238	0x3cd7e6f4	0.026355244
239	0xbff2be97	-1.8964413
240	0x3b5d332d	0.0033752427
241	0x3cfb5e3a	0.03068458
242	0x3c341a30	0.010992572
243	0xbfc2f9a1	-1.5232431
244	0xbf95ed77	-1.1713094
245	0xbf9bc1dc	-1.2168536
246	0xbca62d37	-0.020285232
247	0x3be4c50c	0.0069814976
248	0x3f9f9394	1.2466912
249	0x3ca453a2	0.02005941
250	0xc0016c77	-2.0222452
251	0x3d141a14	0.036157683
252	0xbc35c5ab	-0.011094491
253	0x3ed0f618	0.40812755
254	0xbf7d6f46	-0.98997915
255	0xbe8c9b0b	-0.27462038
