hw2/preTrained/ddpg_actor_LunarLanderContinuous-v2_04252023_174207_.pth (torch, 276375 bytes, 6 tensors)

model.0.weight f4 [256, 8]
000000 ba ff a4 bd 5c 1e 32 be b0 fb 1c bf da 60 28 3e
       -0.080565885 -0.17394394 -0.61321545 0.16443196
000010 5d 62 f2 bd 94 2e 58 be 6f 19 ac 3e c0 3b 10 3f
       -0.118351676 -0.21111518 0.33613154 0.5634117
000020 ae 9d a9 3e ba e2 e4 bd a0 ff 70 3e e1 14 02 be
       0.33128113 -0.11176057 0.23535013 -0.12703277
000030 3b 44 25 3e 0a a8 70 bd a6 df 7c 3d 23 6c 6f 3e
       0.16139309 -0.058754005 0.061736725 0.23381095
000040 0e be 8e be d4 35 4e bc 16 52 5e 3e 72 7a e1 bd
       -0.27879375 -0.012586076 0.21711001 -0.11009683
000050 67 7e 36 bf 0c 12 f7 be 01 36 31 bf 8f 19 86 be
       -0.71286625 -0.48255956 -0.6922303 -0.26191375
000060 11 25 58 bf 3c 3c f2 be a1 c7 24 bf 66 4f e1 be
       -0.8443156 -0.4731158 -0.6436711 -0.4400589
000070 f2 df 25 be 0a e2 a0 3d cf 2c 68 3e 03 5b 97 3e
       -0.1619871 0.078556135 0.22673343 0.29561624
000080 08 be 91 3e 09 bc 61 be 95 91 7f 3e 6b 28 76 be
       0.28465295 -0.22044386 0.24957879 -0.24038856
000090 a9 60 4e 3e bc 7e 5c be 8f 6e c9 3e b0 ff b8 3b
       0.2015406 -0.2153272 0.39342162 0.0056457147
0000a0 b3 09 cf 3e 59 f2 98 3e bc f8 51 bd c2 5f 3c 3e
       0.40437087 0.29872397 -0.051262602 0.18395904
0000b0 ee 1b 1c 3f c6 91 88 3e d9 cd 42 3e 24 9c dc 3d
       0.6098012 0.26673716 0.19023837 0.10771969
0000c0 a6 f3 9f be 34 16 e9 3d dc 51 a5 be 73 96 2f 3f
       -0.31240577 0.11381188 -0.32289016 0.6858894
0000d0 f2 16 33 be b1 78 c3 3d 29 f2 e9 bd f6 c4 68 3e
       -0.17489222 0.095445044 -0.114231415 0.22731385
0000e0 1a 4a 36 3d 3b ea b6 3e 6f 88 83 3f 2d c5 2e 3f
       0.044504263 0.3572558 1.0276011 0.68269616
0000f0 07 15 49 be 0c 4a 77 be be 50 d4 3d 42 91 02 be
       -0.19636928 -0.2414934 0.10366963 -0.12750724
000100 b7 d1 c7 bd 10 8e 03 3f 67 99 29 3e 00 74 98 bd
       -0.09756797 0.51388645 0.16562425 -0.07444
000110 2f de 6b be 41 7a b4 3d 12 35 4a 3e 9b cd ba bd
       -0.23033975 0.088123806 0.19746807 -0.091212474
000120 bd ff f4 be 7e ef 26 3e 9a 36 56 bf 12 0b 41 3e
       -0.47851363 0.16302297 -0.83677065 0.18851879
000130 a5 70 76 be 1c b0 09 3f 33 fc 74 be 72 26 65 be
       -0.24066408 0.53784347 -0.23924331 -0.22377947
000140 1b b6 81 be 94 79 34 be 60 39 44 3f 0d ea 8a 3d
       -0.25334248 -0.17624503 0.7665005 0.06782923
000150 7e 0b 23 3e e7 ab 57 be f1 82 2f bd fc a1 d3 3e
       0.15922353 -0.2106167 -0.042849485 0.41334522
000160 a1 04 8b 3d 4e 02 c1 bd 7f 36 c0 bf 92 48 2e 3f
       0.06787992 -0.09424268 -1.5016631 0.68079484
000170 ad 1c 22 3e 25 09 21 bf b3 28 b0 be c6 b3 16 be
       0.15831251 -0.6290458 -0.3440605 -0.14717016
000180 df bd de be ff 9a f7 bd 9f 36 d1 be d4 5e 78 3e
       -0.43504235 -0.1209011 -0.40861985 0.24254924
000190 b3 71 b2 bc 3a ab 28 3f 39 8b bf 3e b2 6c 08 be
       -0.021782732 0.6588627 0.37410906 -0.13322714
0001a0 1d 6f 3d bf 80 e7 1a 3e a2 1f 29 3e ff 86 9f 3e
       -0.7399767 0.15127373 0.16515973 0.3115768
0001b0 62 34 6a be b5 76 b2 bc 31 b9 b5 3e 47 8f 06 3f
       -0.22871545 -0.02178512 0.35492852 0.52562374
0001c0 34 68 08 3f c6 56 12 bf 43 54 26 3e f6 7c 7f be
       0.53284 -0.57163656 0.16243081 -0.24950013
0001d0 e8 19 a6 3e 1b a3 d9 3b 53 cc 47 be 94 08 5e 3e
       0.3244164 0.006641758 -0.19511537 0.2168296
0001e0 15 f7 94 bd 55 a6 2c 3e 5e d7 d2 bf 6b 90 84 3d
       -0.0727369 0.16860326 -1.6471975 0.06472858
0001f0 d0 8f b1 3e 81 4b 5a 3c 47 5b 1a bf 08 72 bf bd
       0.34680033 0.013323666 -0.6029553 -0.093479216
000200 cd 9b b8 be 08 db 35 3e 5b c0 e8 3d 8d e3 fb bd
       -0.36056367 0.17759335 0.11364814 -0.12299261
000210 6f cd 2b be 93 f0 41 be 6d 41 5c bf cd d0 1b bf
       -0.16777585 -0.18939428 -0.8603733 -0.6086548
000220 12 7f 23 3e 98 1b 7f 3e 7e 4f 67 bf 40 23 96 be
       0.15966442 0.2491287 -0.9035567 -0.2932377
000230 f0 b2 4e be 7e aa b6 3e 5f 23 a8 3e 50 b3 32 be
       -0.20185447 0.3567695 0.32839486 -0.17451215
000240 ca 26 89 3e 1c bc 8f 3e 5e 22 24 3f 68 4f 62 be
       0.26787406 0.28073204 0.6411494 -0.22100604
000250 85 f4 e7 3d 0e e4 3d bc 69 1b 16 bf e7 90 76 3e
       0.11325935 -0.011590017 -0.58635575 0.24078713
000260 2b 19 9f be 4e 27 ed bd fe 9f 59 3d b5 e6 e6 be
       -0.3107389 -0.115797624 0.053131096 -0.4509789
000270 52 5b 96 3d a4 71 cd 3d 7f 83 b2 3e 1d 6f d5 3d
       0.07341637 0.10031441 0.3486595 0.10421584
000280 1c ac 5f be 33 55 95 bf 87 8c cc 3c 77 57 fb bd
       -0.21842998 -1.1666626 0.024969352 -0.12272542
000290 b3 89 05 bf 81 1c 03 3e 7e 0d d1 3d e5 20 a7 3e
       -0.5216324 0.12803842 0.102076516 0.32642284
0002a0 54 70 08 bf 2f a2 d6 3e 81 7c 3f 3e 44 7d bf 3e
       -0.532964 0.4192061 0.18699838 0.37400258
0002b0 f4 ea c6 bc 70 b7 70 be cc 57 de 3e 61 79 19 bf
       -0.024281956 -0.23507476 0.4342636 -0.59950835
0002c0 dc 14 8e 3e 50 7e ac bf 1b 60 0b 3e 7b 7d 5e 3d
       0.2775029 -1.3476048 0.1361088 0.054318886
0002d0 f6 7c 15 3e 46 f4 c4 bd a4 4e 05 3f 13 f2 14 3f
       0.1459845 -0.09616904 0.5207312 0.58181876
0002e0 27 70 6c be da ea 95 3d 48 ec 16 be 97 e6 00 3f
       -0.23089658 0.07320185 -0.14738572 0.5035185
0002f0 32 5c 49 3f 1e c5 2e 3f 10 39 2f 3e af 5b 38 3e
       0.78656304 0.68269527 0.17111611 0.18003725
000300 ad 25 77 be 6d b2 08 3c e2 e4 1f 3f d9 5e 21 bf
       -0.24135466 0.008343321 0.6245862 -0.6303535
000310 fa 22 8d 3e fe 5a da 3e 96 8b d5 be e9 89 3f be
       0.27565747 0.42647547 -0.41708058 -0.18704952
000320 a8 09 0b bf 19 18 c0 3e 96 88 fd 3d bd 2d 7c 3e
       -0.5431161 0.37518385 0.12379567 0.24626823
000330 2c e9 5a be 4b 1b 4a be 56 d8 80 3e 2e d5 01 bd
       -0.2137801 -0.19736974 0.2516505 -0.031697445
000340 a5 7b 31 be 27 2b 83 3e 9a e7 6f 3f 5a 2d b5 be
       -0.17332323 0.2561886 0.9371277 -0.35386163
000350 4b 3c 02 be bf 53 06 3f 88 a8 40 be b6 ea 25 3e
       -0.12718312 0.52471536 -0.1881429 0.16202816
000360 b8 6f af 3e 55 d9 df bd be 9d 70 bf 26 58 37 3e
       0.34264922 -0.10930125 -0.93990695 0.1790472
000370 2c 55 78 3e ca 7f a7 be 39 b1 ca be 26 aa a6 bd
       0.2425124 -0.32714683 -0.39588335 -0.08137922
000380 57 98 65 bd dc 9b 1f be 87 1a dc 3e f0 4c 50 3d
       -0.056053486 -0.155868 0.4298899 0.050854623
000390 e9 3d 25 3f bd dd 59 3f 1c 85 1b be 51 66 fc be
       0.6454759 0.8510397 -0.15187496 -0.4929681
0003a0 16 91 50 3d f7 a6 2b 3e 23 4a b0 3e 30 72 8a 3f
       0.050919615 0.16762911 0.34431562 1.0816097
0003b0 79 39 0c ba ac 67 f5 3e 91 8a 72 be 02 8e 6c 3e
       -0.000534914 0.47930658 -0.23685671 0.23101047
0003c0 6a e0 f9 be 66 cc c0 3d 77 9b 7a 3e e6 dc c6 3d
       -0.48804027 0.09413986 0.24473368 0.09710102
0003d0 41 16 6b be 9d e6 db 3d 95 01 8a 3e 73 e1 4c bf
       -0.22957708 0.10737345 0.26954332 -0.8003151
0003e0 30 0a a6 be f6 c6 77 3e 17 5b e5 be 53 f1 f4 bd
       -0.32429647 0.24196991 -0.4479606 -0.119600914
0003f0 cb 93 ba 3e 2d ec d0 3e 59 53 b9 be d0 d5 39 3e
       0.36440882 0.40805188 -0.36196402 0.18147969

model.0.bias f4 [256]
000000 45 07 71 3c d8 c8 af 3e cf 26 61 3e db 70 39 3e
       0.014711206 0.3433292 0.2198746 0.18109457
000010 81 ca 54 3d a1 bc 13 bd 02 30 ab 3e 69 a1 f7 bd
       0.051950935 -0.036068562 0.33435065 -0.120913334
000020 b8 3d cd be 57 30 dc be 28 0d f4 3e ef 53 04 3e
       -0.4008615 -0.4300563 0.47666287 0.12922643
000030 79 89 08 3e 07 36 3e be a7 e8 b2 be 24 6f 4c be
       0.13333692 -0.18575297 -0.34943125 -0.19964272
000040 3f 6e b0 bb fe a7 13 be 3b f7 2e be f8 98 12 3e
       -0.005384236 -0.14419553 -0.17086498 0.14316165
000050 b7 63 73 be eb b0 1c be 47 4a c1 bd a7 dc 98 be
       -0.23768507 -0.15301864 -0.094379954 -0.29855844
000060 f1 d7 30 3e c8 7b 35 be db b3 92 be 01 bc 48 be
       0.17269875 -0.17723 -0.28652844 -0.19602968
000070 e9 bc 87 3e e6 c5 2d 3d 73 12 2c 3e 4a 2a 97 3c
       0.26511315 0.04242506 0.16803913 0.018452782
000080 a4 ca 3a be 06 0e 8d 3d 1f 68 9a 3e c4 12 4e bd
       -0.18241364 0.068874404 0.30157563 -0.050310865
000090 29 2c c6 be 03 43 75 bb f8 55 51 be d7 cf f1 bd
       -0.38705567 -0.0037423975 -0.2044295 -0.118072204
0000a0 ed d3 51 3e b8 ab 55 bd 4b 2f 26 3d ec be 1a 3d
       0.20491 -0.052165717 0.040572446 0.037779734
0000b0 09 31 dc bd 7e 2e ef bd 5a a8 39 be 45 e5 6e bd
       -0.1075154 -0.116787896 -0.18130627 -0.058324117
0000c0 71 88 01 be ac 9b 66 be 23 8c f4 3e 2c e2 56 3d
       -0.12649705 -0.22520322 0.47763166 0.052461788
0000d0 a5 1e f3 bd af 66 32 3d 76 3d da 3d 27 ef 21 be
       -0.11871079 0.043554958 0.10656254 -0.15813886
0000e0 d8 14 b5 be ce 59 02 3f 11 b9 56 3e 67 69 69 be
       -0.35367465 0.5091828 0.20969035 -0.22794114
0000f0 6e 75 22 be a2 e2 9c 3d 79 5c 88 3e 1e 1f 41 be
       -0.15865108 0.07660414 0.2663305 -0.18859527
000100 e1 9f 8e 3e cc 09 e3 3e b1 d1 14 be 11 e7 84 3e
       0.27856353 0.44343412 -0.14533116 0.2595754
000110 69 e2 06 3b 7d 28 82 3e bb 59 5a 3e f2 32 42 be
       0.0020581728 0.25421515 0.21323292 -0.18964747
000120 46 da 8e 3e 06 3a a2 bd 2a 60 c0 3d 64 40 56 bd
       0.27900904 -0.07921223 0.09393342 -0.0523075
000130 1f a1 aa bd 3c 56 f3 3d b8 f4 27 be 42 9f aa 3e
       -0.08331513 0.11881682 -0.16401947 0.3332463
000140 46 d0 54 be e0 42 fc bd 3a db 88 3e 58 3f 0e 3e
       -0.20782575 -0.12317443 0.26729757 0.13891351
000150 c8 b4 24 3e cd 24 78 3e 5f 42 b2 3e 0a 58 27 be
       0.16084588 0.24232788 0.34816262 -0.16342178
000160 b6 7f 1c 3c 96 b0 9a 3e 38 e5 62 be bd b9 08 be
       0.009551933 0.3021285 -0.22157753 -0.13352104
000170 50 8d 24 3e d8 79 dc bd 46 68 6b be 0f f1 9a be
       0.16069531 -0.10765427 -0.22988996 -0.30262038
000180 ac 11 9e 3d 64 c1 e7 bd 60 ae 01 bd 1e 12 5f 3e
       0.077182144 -0.11316183 -0.031660438 0.21784255
000190 23 ec 68 3d 26 34 8d 3d a0 99 21 be 52 41 20 3e
       0.056865823 0.06894712 -0.1578126 0.15649918
0001a0 49 19 3a be dd 33 eb be 3c 5a 8f bd 9e e6 cc 3e
       -0.18173708 -0.45938006 -0.06999633 0.40019697
0001b0 11 99 dc bd c6 37 8a 3e 33 59 ea bd 3b f1 76 bc
       -0.107713826 0.26995677 -0.11442795 -0.015072162
0001c0 85 44 1f 3e 2f 29 38 be db f8 93 be 21 cf a1 3c
       0.15553482 -0.1798446 -0.289008 0.019752087
0001d0 04 68 93 3e b6 6b 96 be b8 cc 8e be 2f 81 9b 3e
       0.28790295 -0.29379052 -0.27890563 0.30371997
0001e0 2a 1b 6b 3e a4 7f e2 3d c4 68 f7 bd 2f 94 e7 3c
       0.22959581 0.11059502 -0.12080529 0.028268902
0001f0 b3 49 fc bd 10 ba 03 3d 69 c1 8f be 6b 8b b7 bd
       -0.123187445 0.032159865 -0.28077248 -0.08962139
000200 81 57 4a 3e a9 90 11 3c 89 18 24 be 48 5a a0 3d
       0.19759943 0.008884587 -0.16024984 0.0782972
000210 d1 55 9b be ba 56 10 3d 81 63 fb bc ab 99 6a be
       -0.3033891 0.03523896 -0.030687096 -0.22910182
000220 fa e6 ad be 0b cb 44 be ab 27 6e be 35 33 07 3f
       -0.33965284 -0.1921808 -0.2325732 0.5281251
000230 7d 0a 57 39 82 e7 44 3e ec 0b 2a 3b 5f f3 cc 3d
       0.00020507905 0.19228938 0.0025947047 0.10007357
000240 80 53 58 bd 0d e1 99 bd a2 fc a0 bc 91 b0 bd bd
       -0.052814007 -0.07513628 -0.019651715 -0.09262193
000250 a9 44 50 3d e8 a0 b6 be 2b 3c 3d be 86 87 3d be
       0.05084673 -0.35669637 -0.18479984 -0.1850873
000260 e6 d8 b3 be 60 72 a3 bd 93 4b 0b 3d 03 95 fc 3c
       -0.35126418 -0.079808 0.03400762 0.030832773
000270 8b 8c 62 be 8e 0c 78 be 7c c0 08 bc 4f 02 28 be
       -0.22123925 -0.24223539 -0.008346673 -0.1640713
000280 c3 0e 46 3e 2d 6f 42 3e 56 b8 25 3e 8a c3 a5 be
       0.19341569 0.18987723 0.161836 -0.32375747
000290 02 94 d3 bd 46 cb 19 3d 56 22 9d 3e 8f e0 8f 3d
       -0.103309646 0.037547372 0.3069026 0.07025253
0002a0 dc 50 a5 3d 7a eb 2a be 55 f6 3e 3e ff 1c 82 bd
       0.08072063 -0.1669139 0.18648656 -0.06353187
0002b0 20 37 82 be 2b c3 b4 3e d4 d6 b0 bd a2 a9 9c bc
       -0.25432682 0.3530515 -0.08634725 -0.019123856
0002c0 61 5b 85 be 00 9e 44 3e e9 58 6c be 0d f5 8a bc
       -0.2604628 0.19200897 -0.23080792 -0.016962552
0002d0 7a b3 f6 3d 1b ee 4f be 61 c9 dd 3d 2c 78 08 3e
       0.12045951 -0.20305674 0.108294256 0.13327092
0002e0 b9 ad a5 3d cd f0 13 be 1e 62 09 3e 28 6f 1b be
       0.080897756 -0.14447327 0.13416335 -0.15179121
0002f0 13 61 eb bc 37 9c 3a 3e 1f b6 72 3e 38 bd 47 be
       -0.028732812 0.18223654 0.23702286 -0.19505775
000300 7c b3 bb be 8b 80 fe be 6b 1e 3d be 45 83 8d be
       -0.36660373 -0.49707446 -0.18468635 -0.27639213
000310 e6 b8 45 be 24 f3 b4 be ef 05 ab 3e 3b 41 68 3e
       -0.19308814 -0.35341752 0.33402964 0.22681133
000320 07 c1 5d bd 28 b7 16 3e d1 5c ce bd 8f 49 04 3e
       -0.054139163 0.14718306 -0.10076297 0.12918685
000330 be aa 0b bd 30 c7 85 3e 4d 50 0c 3f fb de 82 be
       -0.03409838 0.2612853 0.5481003 -0.25560746
000340 94 95 c1 3d c5 21 60 3e 6f 87 54 3e 38 06 87 3c
       0.09452358 0.21887882 0.20754789 0.016482458
000350 24 bd c6 3e 90 26 30 3e 9b e6 b9 3d aa da e4 3e
       0.38816178 0.1720221 0.09077188 0.44698077
000360 d1 14 a3 be 27 6e 01 be 7e 07 4a be 72 d9 b0 3d
       -0.3185182 -0.12639676 -0.1972942 0.086352244
000370 34 1e 32 bf 8a 83 dd 3e d8 87 0b bc 39 d9 94 be
       -0.69577336 0.4326442 -0.008516274 -0.29071978
000380 43 8a 56 3c 17 6e 04 bc 76 53 31 3e dc 2f 32 be
       0.013094488 -0.008082888 0.17316994 -0.1740107
000390 a9 d3 80 be 8a 8f 2f be f9 a0 35 be 7b 75 b0 bd
       -0.25161484 -0.171446 -0.17737187 -0.086161576
0003a0 c6 65 55 be de f8 f1 3d f4 10 ff bd d9 b4 65 bc
       -0.20839605 0.11815046 -0.124544054 -0.014020168
0003b0 45 4e 6a be cd 45 28 3e c3 1c 25 3e cb 3c af bd
       -0.2288142 0.16432877 0.16124253 -0.08556517
0003c0 0f fe 5e 3e 81 4b 8a 3e b0 38 6e bd 68 68 0d bb
       0.21776603 0.2701073 -0.05815953 -0.0021577124
0003d0 2b 34 c7 be b9 3f 4f 3d ef 0b c5 bd df 78 20 bc
       -0.38906989 0.05059788 -0.09621417 -0.009794443
0003e0 93 37 09 3e db 80 ae 3e a7 1a 3a 3e 66 dd eb 3d
       0.13400106 0.34082684 0.1817423 0.11516838
0003f0 22 6f 24 bd ad bd 4b 3d 5d 21 4a be a6 f0 09 3d
       -0.040145047 0.049741436 -0.1973929 0.033676766

model.2.weight f4 [256, 256]
000000 7d 5f 43 3c f1 b6 de bc a7 0c 94 39 33 a2 1f be
       0.011924622 -0.027186843 0.00028238186 -0.15589218
000010 88 c0 8b bd 07 e5 bb bb 06 6f 94 3d 5c f9 44 3d
       -0.06823832 -0.0057340893 0.072477385 0.04808937
000020 c4 80 81 be ed 13 e3 3d 91 36 c0 3d 1c 0d 04 3e
       -0.25293553 0.11087785 0.09385408 0.12895626
000030 d0 1c 3c bd 55 93 e8 bb 2b 12 59 3e fc 7f c5 3d
       -0.045925915 -0.0070976415 0.21198337 0.09643552
000040 8f cc 00 3e 36 c8 6b bc e2 e7 41 be da 7a 0b 3d
       0.12578033 -0.014390996 -0.18936113 0.034052707
000050 67 5e 88 bc 1b 00 80 bd a6 7c 4d bc 4b bd 1a 3e
       -0.016646577 -0.0625002 -0.012541926 0.15111272
000060 c9 63 1a bd 25 b7 01 be 67 71 81 3d 1d a2 86 3d
       -0.03769282 -0.1266752 0.06320458 0.065738894
000070 de 7f 72 bd 13 77 84 bd 67 b1 d8 bc 11 01 7e 3c
       -0.059203975 -0.06468024 -0.02645178 0.015503184
000080 57 d6 7b bd 0a 94 27 bd 84 20 ef 3a 41 5e 19 be
       -0.061483707 -0.040912665 0.0018243943 -0.14977361
000090 47 97 8b bd b9 52 e2 be 32 64 c6 bd 43 d4 43 bd
       -0.06815963 -0.44203737 -0.096870795 -0.04780985
0000a0 26 20 bc bd 48 c5 66 bd fb 1f 37 3d a1 00 81 be
       -0.09185819 -0.056340486 0.044708233 -0.25195792
0000b0 4d 7a 79 bc 6b 50 a3 bd a2 15 fd 3d 03 b5 48 be
       -0.015226913 -0.07974323 0.12357642 -0.196003
0000c0 ef ba 2e be 3c 32 1e 3c e6 00 48 3d cd 28 23 3d
       -0.17063497 0.0096555315 0.04882898 0.039833833
0000d0 09 d3 ee 3d b7 86 19 3e 4c 1a 06 be b2 74 62 3c
       0.116613455 0.14992796 -0.13095969 0.013821768
0000e0 55 e3 3d bc 3c fd a0 3d 7a 8d 66 3c bb d4 b1 bc
       -0.011589845 0.078608006 0.014071817 -0.021707883
0000f0 be 64 4a be 28 70 09 bd 61 33 53 3c 31 e5 2e 3e
       -0.19764993 -0.033554226 0.012890668 0.17079617
000100 d7 84 c0 3e d6 5e 49 bd d7 2f 9f bd 72 f2 a5 bd
       0.3760135 -0.04916271 -0.077727966 -0.081028834
000110 f9 a6 0b bc 3b 85 1e 3c 89 3f 13 bd 51 62 1d 3e
       -0.008523696 0.009675319 -0.035949264 0.15369536
000120 06 91 3b be 78 66 70 bc d4 92 12 be a6 f3 12 bd
       -0.18317041 -0.014672868 -0.14313823 -0.035876893
000130 48 e9 8b be 68 d2 a8 be 71 b2 cb bd 15 a7 0b bf
       -0.27326417 -0.32973027 -0.09946144 -0.5455182
000140 98 34 4b 3e ca 28 5e be 18 46 2b 3d e2 75 28 3e
       0.19844282 -0.21695247 0.041814893 0.16451219
000150 e7 a4 1e be c2 7f f8 3c b0 cd 16 be 3c 2a 21 bd
       -0.15492593 0.030334357 -0.14726901 -0.03934692
000160 89 b4 ef 3d 24 e7 81 bd 93 61 48 be 53 15 84 bd
       0.11704356 -0.06342915 -0.19568472 -0.0644938
000170 e0 b7 81 bc 8f 82 2e be 5c db 01 be 1a 2f 12 be
       -0.015834749 -0.17041992 -0.12681335 -0.1427578
000180 67 cc 8c be f9 9b be 3b 5b f3 f0 3d df cf 60 bc
       -0.27499697 0.0058169332 0.11765166 -0.013721435
000190 a5 0d 74 3c d0 1e df 3c 36 51 64 bd 11 3a a8 bd
       0.014895831 0.027236372 -0.05574151 -0.082142
0001a0 21 9b ea bd 50 28 26 bd 35 c8 ba 3c 39 2e 3d 3e
       -0.1145537 -0.04056579 0.022800544 0.18474664
0001b0 c5 8c 14 3b c1 42 65 3c 48 7c 6b be 50 b8 8c 3c
       0.0022666913 0.013992966 -0.22996628 0.01717773
0001c0 de df 64 bc 72 73 92 be 22 bf 3f 3e e6 47 10 3e
       -0.01396939 -0.28603703 0.18725255 0.14089927
0001d0 ae 9b c0 bd 70 20 a6 39 a1 c1 0f be 8a b4 19 3d
       -0.094046935 0.00031686155 -0.14038707 0.03752569
0001e0 c5 20 b0 3c 13 e4 0f 3d af d0 c8 3b 5a a8 e5 3d
       0.0215 0.035129618 0.0061283926 0.11213751
0001f0 6c 49 d4 bd 50 dc b0 3b f9 9b 01 3e e1 6c c6 3d
       -0.103655666 0.005397357 0.12657155 0.09688736
000200 23 22 fc bd 65 69 30 3e 51 d8 f1 3c 89 a2 28 3e
       -0.123111986 0.17227705 0.029522093 0.16468252
000210 67 84 6f be ee 54 ca be 48 c4 1b bd 1b 20 8d be
       -0.23390351 -0.3951792 -0.038028985 -0.27563557
000220 2a 55 bd 3d 4b ff e7 3d 63 ab b9 bd 14 52 21 3d
       0.092447594 0.1132799 -0.090658925 0.039384916
000230 5a ff 31 be de 86 5d be 6e d6 eb bd cb 29 43 be
       -0.17382565 -0.21633479 -0.115155086 -0.19058912
000240 3b f3 43 3d 62 96 e3 3a cd 4e b5 3d af 44 75 3d
       0.047839385 0.0017363543 0.08852921 0.059879955
000250 10 9a 89 be 41 0d 78 bc 59 69 8e bd ce 62 8c 3e
       -0.26875353 -0.015139879 -0.06953687 0.27419132
000260 ae 8c 87 3e 26 37 ae 3d de 9e ff 3c ad 76 dd bb
       0.26474518 0.085066125 0.031203683 -0.006758532
000270 e0 d9 ab be 1c f1 e9 bd 5c 4a 22 3e 4b fc 6f be
       -0.33564663 -0.11422941 0.15848678 -0.23436086
000280 4b a7 6d 3d 14 a0 94 bd 2b 7d f2 3c 09 50 1a 3e
       0.05802087 -0.07257095 0.0296007 0.15069593
000290 fb c2 28 3e 52 b7 15 3e f2 bc 57 be 49 37 e8 bd
       0.16480629 0.14620712 -0.2106817 -0.1133867
0002a0 e2 76 a0 bc 75 3b 0c be 64 47 9f 3d 16 1f 89 3c
       -0.019587938 -0.13694556 0.077772886 0.016738456
0002b0 f8 47 89 bd a0 f2 72 bd ac 85 42 3e b6 56 59 bc
       -0.0670318 -0.059313416 0.18996304 -0.013265302
0002c0 96 78 12 3c 1b d5 b5 be 20 19 0d 3c 27 3a f4 3d
       0.008939883 -0.3551415 0.008611947 0.11925154
0002d0 4d e6 80 3c f7 60 7e 3c 34 37 2d be cd 07 3c bd
       0.015734816 0.015526048 -0.1691559 -0.045905877
0002e0 dc c2 be 3c 8c 5f 9c 3d ec ee 9c bd 01 74 ba bd
       0.023286276 0.076354116 -0.07662758 -0.09104157
0002f0 85 37 f8 bd bf d3 f6 bd db fa 82 3d 4b 26 1c be
       -0.121199645 -0.12052106 0.06395503 -0.15248983
000300 56 d8 9c bb 10 6d d9 3d 43 65 3a be 8e 12 46 3e
       -0.0047865314 0.10616505 -0.18202691 0.19343016
000310 81 fc 86 3c 48 a8 c7 3d 2c 2c 8a bd 82 8b dd bd
       0.016477825 0.09748894 -0.06746706 -0.10817625
000320 77 c8 4d 3e e0 17 de 3d af 91 36 be 4a cd 23 be
       0.20096003 0.108443975 -0.17829011 -0.1599628
000330 8c ae 1b be 96 be 8f be 59 3d de bd fc 0f 37 3e
       -0.15203303 -0.28075093 -0.10851545 0.17877191
000340 a5 98 a8 bd 2d 4a 90 3d 43 a2 31 be b4 04 d2 3d
       -0.0823224 0.07045398 -0.17347054 0.10254803
000350 e8 6d 8e 3d 88 ff ec bd 5d c2 dd 3d a1 6f 48 3d
       0.06954557 -0.11572176 0.108280875 0.048934583
000360 51 c5 72 3e 39 11 97 3c 2c a4 0a bd 1a 97 9f bd
       0.23708083 0.01844083 -0.033847973 -0.07792492
000370 c7 85 3a 3e 22 e3 14 3d 60 a6 e3 be c9 63 6a be
       0.18215095 0.036349423 -0.44462872 -0.22889628
000380 0a a1 88 3d 7c 6e 00 3e 8f ea 09 be 03 10 6f 3e
       0.06671341 0.12542146 -0.13468383 0.23345952
000390 fa 27 b2 bd 41 82 df be 17 cf 01 bd 81 d1 b2 bd
       -0.08699031 -0.43654063 -0.031691637 -0.08731366
0003a0 0c 6b bc bd 6a da d4 3d 26 77 4c be c4 e0 8b be
       -0.09200105 0.10393222 -0.19967327 -0.2731992
0003b0 ea 85 96 3b 80 8c de bb cc 2f 10 bd 4b 72 a1 3d
       0.0045936005 -0.0067916512 -0.035201833 0.07883128
0003c0 8b 69 66 bd f3 a1 9c be 5d 93 8c be 08 8a 0f be
       -0.056252997 -0.30592307 -0.2745618 -0.14017498
0003d0 52 c4 13 be 0e ae da 3d ed 18 9f be d4 78 d3 bd
       -0.14430359 0.106777295 -0.31073704 -0.103257805
0003e0 6e 8d 30 bd 9c 2d 1a be dd e5 36 bd 9b 28 9c bd
       -0.043103628 -0.15056461 -0.04465281 -0.076249324
0003f0 15 f8 08 3e 59 02 0a 3d ed e0 a5 3d e8 14 1e be
       0.13375886 0.033693645 0.08099542 -0.15437663

model.2.bias f4 [256]
000000 b9 96 4e be 6e 8b 55 3d ab 45 67 3d 9d 25 ab bd
       -0.20174684 0.052134924 0.056462925 -0.083567835
000010 66 9d c2 bc b1 7d 5e bd 9b b9 53 3b cc 6d 21 bd
       -0.023756694 -0.054319087 0.0032306674 -0.03941135
000020 9d 49 f0 bd 64 92 f0 bd cf 39 bb 3b 7d 41 4d 3b
       -0.117327906 -0.11746672 0.0057136784 0.0031319552
000030 6e 7e 53 3e 1c 47 17 bd a9 48 e7 bd f4 bb f4 bb
       0.20653698 -0.03693305 -0.11293156 -0.007468695
000040 f7 ff 14 3d 34 a0 92 bd 60 0f 79 3c 38 c1 30 3e
       0.03637692 -0.071594626 0.01520142 0.17261207
000050 36 10 c3 bb 9b 3a 06 3d e4 e3 a4 3c e3 80 fd bd
       -0.00595286 0.032770734 0.020128198 -0.12378099
000060 3f 19 70 bc ec aa 9b 3c 34 f6 2d bd ea c3 50 bd
       -0.014654457 0.0190024 -0.042471126 -0.05096809
000070 16 00 f0 3d fe 3f dd 3c 08 db fd 3c 5e 39 4d 3d
       0.117187664 0.027008053 0.030988231 0.050103538
000080 ec da 7d 3d fc 61 6e bd 6a 10 20 bd e3 eb 3a bd
       0.06197636 -0.058198914 -0.039078154 -0.045635115
000090 02 f7 09 3d a1 6d f6 bd 11 34 e8 3d 78 f6 1b 3d
       0.03368283 -0.12032629 0.11338056 0.038076848
0000a0 14 40 8f 3c 3d 65 ae 3d e4 c1 52 3b 01 d0 aa 3d
       0.01748661 0.085154034 0.0032159025 0.08340455
0000b0 c9 8b 34 3d 7d 9c 1d 3d 85 0d cb 3c 95 fa 38 bd
       0.044078622 0.038479317 0.02478672 -0.04516085
0000c0 d3 da d3 bd c6 1f 8b bd 27 83 03 3c 83 39 43 be
       -0.10344472 -0.0679317 0.008026875 -0.19064908
0000d0 11 18 70 3d 5e 29 e5 3d 96 a4 cc bd 61 97 b2 3c
       0.0586167 0.11189531 -0.0999233 0.021800699
0000e0 61 c4 c0 3c 68 0b 07 be b3 3a 9f 3c 7e 06 58 3d
       0.02353114 -0.13187945 0.01943717 0.052740566
0000f0 96 a7 66 3b aa 04 4c 3c 5f 85 05 3e 13 6d f5 bc
       0.0035195104 0.012452284 0.13039158 -0.029959237
000100 3a 8d 84 3e 96 78 b0 bb 63 3c 03 3e 04 da 71 3d
       0.25888997 -0.0053854687 0.12816004 0.059045807
000110 e6 a7 9d 3c 80 5d 1b 3e ad 5e e2 bb c1 5d 15 be
       0.0192451 0.15172386 -0.006908259 -0.14586546
000120 87 9d 08 3e 07 06 c2 3d 5e 89 65 3d 9a 73 93 3c
       0.13341342 0.09473806 0.056039207 0.017999459
000130 22 e9 56 3d 7a b2 85 bd 49 f9 4b bd c6 15 c4 3c
       0.052468427 -0.06528182 -0.049798284 0.023936164
000140 3c cf 82 bb 69 90 04 3d e3 96 87 bd 14 82 d1 bd
       -0.0039919894 0.032364283 -0.06620576 -0.102298886
000150 72 2a f7 3c ba a9 1b 3d 6b 11 b7 3b 6b c8 ae 3d
       0.030171607 0.03800366 0.005586793 0.085343204
000160 54 c2 b8 bd d7 22 3f be ca 5f 36 3d a0 d9 40 bc
       -0.0902144 -0.18665634 0.044524945 -0.011770636
000170 64 ec 30 3d 25 3d 12 3b af 3c ff 3d 69 06 57 3d
       0.04319419 0.0022314277 0.12462746 0.052496348
000180 17 ad ad bd 70 ca a2 bd 21 98 92 3d 56 81 c3 bc
       -0.0848028 -0.07948768 0.071579225 -0.023865383
000190 83 82 e5 3c 6a c0 73 bd fc 39 01 be cc 4b e5 bc
       0.028016334 -0.059509672 -0.12619776 -0.027990244
0001a0 b3 bc 19 3e 20 3b 70 bd 5f ad 8f 3d 35 19 31 bd
       0.1501339 -0.058650136 0.0701549 -0.04323693
0001b0 b1 56 83 be ef a5 91 3d 18 7f bc 3d e9 34 05 3e
       -0.25652078 0.071117274 0.09203929 0.13008465
0001c0 ba b7 2e bd 0c 20 2b 3e f7 27 15 3e ef 6a 8f bd
       -0.042655684 0.16711444 0.14566027 -0.07002818
0001d0 3c d6 27 bd 93 d9 c9 3d f7 df d9 bd d8 b3 85 bd
       -0.040975794 0.09855952 -0.10638421 -0.06528443
0001e0 67 9b 3e bc cb 7e 59 bd 68 6e 10 3e 9d 76 f5 3d
       -0.0116337305 -0.053099435 0.14104617 0.11985514
0001f0 5a 28 93 3d 7b a3 7f bd b9 ed 0a bc af b5 27 3d
       0.07185431 -0.062411766 -0.008479529 0.04094475
000200 b0 fe c6 3b 7b c3 81 bd 08 e2 b7 3c 56 14 20 3d
       0.0060728416 -0.06336113 0.022446647 0.039081894
000210 0d 14 ca 3c 96 5d 93 bc 95 b7 84 3c d8 16 91 bc
       0.024667764 -0.017988961 0.01620082 -0.017711088
000220 12 2f 77 3c f1 70 0a 3e 12 8c 19 3d 39 c8 74 3d
       0.015086906 0.13519646 0.037487097 0.05976126
000230 ce dc 03 bc 44 41 37 bd c6 b3 97 3c b6 4d c6 bc
       -0.008048249 -0.044739977 0.01851834 -0.024206977
000240 f9 d1 fd 3c 8a 11 b6 bd a1 61 f8 3d 95 74 97 bd
       0.030983912 -0.08890064 0.12127996 -0.07395283
000250 e8 ad 38 3d 95 f2 9d 3d 7e a7 29 bd 67 30 3b 3d
       0.045087725 0.077122845 -0.0414195 0.045700457
000260 0b 21 dd 3b 23 be 3a 3e 11 15 94 bd eb 99 9f bd
       0.006748324 0.18236594 -0.072305806 -0.077930294
000270 9e 84 e6 bd 18 c1 0a 3d 37 99 c0 bc 33 60 74 bd
       -0.112557635 0.033875555 -0.023510559 -0.059662055
000280 e0 63 6b bd 09 5f d9 3d 0a 94 e4 bd d4 57 44 be
       -0.057468295 0.1061383 -0.11161049 -0.19174129
000290 8d cc 19 bc 72 bd a1 3c a9 61 88 bc b2 ff af ba
       -0.009387148 0.019743655 -0.01664813 -0.0013427644
0002a0 de fe 88 bd 7d b4 4f 3d df 55 9e 3d 75 0c 3e 3e
       -0.06689237 0.050709236 0.07731222 0.1855944
0002b0 17 72 35 3d 42 49 7d bd 6e c4 86 bd 82 bc ae 3c
       0.044298258 -0.061837442 -0.06580435 0.021330122
0002c0 22 3b 46 bc 9f 07 cf 3d 15 67 a2 3d e2 0b 27 3d
       -0.012099059 0.101088755 0.079298176 0.040782817
0002d0 e5 cb e7 3d 58 15 3c 3d 05 20 cb 3c a3 68 57 3d
       0.11318187 0.045918792 0.024795542 0.052590024
0002e0 36 91 93 bd 3d 3b 1a 3d 36 09 32 3d 4d d8 75 bc
       -0.07205431 0.03765415 0.043465815 -0.015005183
0002f0 ca ce 92 bd ab d5 40 3d 60 d9 70 bd f1 96 49 3d
       -0.07168348 0.04707877 -0.058801055 0.049216215
000300 0b cb ec 39 58 44 0a be ba 92 64 3e 6b 7e 1c bd
       0.00045164707 -0.13502634 0.22321597 -0.0382065
000310 9f 9e a7 bc 03 6d ac 3d 89 c0 0d bd d7 ae 43 3e
       -0.020461379 0.0841923 -0.034607444 0.19109665
000320 a9 21 c9 3d 33 c4 4b 3e 47 0d 27 3e 20 d0 c3 3c
       0.09820873 0.19899063 0.16313659 0.023902953
000330 7d 87 c5 bc c0 cb 8a bd 1a 09 7e bd 1b c7 91 3d
       -0.024112457 -0.067771435 -0.0620204 0.071180545
000340 2d 75 3d be 51 c6 22 bd b0 e2 ae 3d a3 b5 08 3e
       -0.1850173 -0.03973991 0.08539331 0.13350539
000350 17 b7 c9 3d 90 ee 34 3e 17 73 c9 bd 50 53 a1 3d
       0.09849375 0.1766913 -0.09836405 0.07877219
000360 ba 55 e4 3c 7c 2e f7 bc a9 08 52 be 02 69 2c 3d
       0.027872909 -0.030173533 -0.20511116 0.04209233
000370 0c b4 1b 3e 5a 1e 13 3d 47 0a 3c 3c e8 29 c3 3c
       0.15205401 0.035917617 0.01147706 0.023823693
000380 6d 3b f6 bd 96 c7 41 3e f7 ea d0 3c 10 90 03 3b
       -0.12023053 0.18923792 0.025502665 0.0020074882
000390 36 07 4c 3d ef 86 90 bc ce 23 09 be 63 84 83 3c
       0.049811564 -0.017642466 -0.13392565 0.016054338
0003a0 7e 2f 01 be e7 74 b2 3c 7e 72 a7 bd 51 e6 d0 3c
       -0.12615773 0.021784259 -0.081761345 0.025500448
0003b0 57 cb 49 3c d3 2e 3d 3e 7a a3 dd 3d e2 3a 42 3e
       0.012316546 0.18474893 0.10822196 0.18967775
0003c0 a8 24 83 3d cf b4 e8 3c 42 0e 95 3c 82 7f 5c bd
       0.06403476 0.028406529 0.018195275 -0.05383254
0003d0 36 51 cd bc 46 25 c7 bd ee d1 89 3c 4b 82 35 be
       -0.025063138 -0.09723906 0.016823735 -0.17725484
0003e0 7c a9 e5 bd 36 bf ce bd a5 e2 e5 3d cb 37 0f be
       -0.11213967 -0.10095064 0.1122487 -0.13986127
0003f0 24 ba 87 bd 50 f0 c2 bd e4 8e 04 bc ea c5 87 bc
       -0.066273004 -0.09518492 -0.008090708 -0.016573865

model.4.weight f4 [2, 256]
000000 ba e1 37 3f ff f8 7f 3e 7b 12 84 bf 5e 89 3f bd
       0.71828806 0.24997328 -1.031814 -0.046761863
000010 b9 82 ff 3e 19 4e 12 3e ba e2 32 bd aa 47 bc 3e
       0.4990442 0.14287604 -0.043673255 0.36773425
000020 67 92 dd be 8a 23 ca 3d e2 00 f1 3e 63 4b 64 3f
       -0.4327576 0.0987006 0.47070986 0.8917753
000030 d8 62 07 c0 76 94 94 3e 84 d6 68 3e 4c c9 11 3e
       -2.115408 0.29019517 0.22738081 0.14236945
000040 73 69 00 3f ca df ac be a0 d4 04 bf 98 ac a0 bf
       0.501609 -0.33764488 -0.5188694 -1.2552671
000050 e8 cc 0c 3d d3 4c 95 3e 8a 4c 6b 3f 72 59 35 bf
       0.0343751 0.29160175 0.91913664 -0.7083961
000060 e9 b6 6d be 06 5d 80 be 32 c7 38 be 83 af 00 be
       -0.23214306 -0.2507097 -0.18044737 -0.12566952
000070 63 0f 52 3f 05 64 b9 3e 8c fd 5d be 21 e5 8e be
       0.8205473 0.3620912 -0.21678752 -0.27909186
000080 f7 d0 36 bf 5a 90 4d be 99 80 12 bf f6 09 46 bd
       -0.71412605 -0.20074597 -0.57227474 -0.048349343
000090 7a 2d 9c 3e 18 84 48 3f 39 ad d1 be f5 dc 11 be
       0.30503446 0.7832656 -0.4095247 -0.14244445
0000a0 dc a1 7a 3e f5 d4 f7 3d 47 c5 d6 bc 19 61 1e 3d
       0.24475807 0.12101165 -0.026217116 0.03866682
0000b0 b2 24 ed bf f5 c2 5d bd a0 b5 58 3c d1 8e c2 3a
       -1.8526824 -0.054141004 0.0132268965 0.0014843588
0000c0 ce f9 bc be 76 cd 2e 3e b3 fb 85 be c8 4f 14 bf
       -0.36909336 0.17070565 -0.26168594 -0.57934237
0000d0 91 a4 27 be fc 2e 66 be 41 b3 43 bf 86 53 7c 3f
       -0.16371371 -0.2247886 -0.76445395 0.98564947
0000e0 13 1f 07 bd 46 e5 88 3d 27 35 26 3f cd 80 b5 bf
       -0.03298862 0.066843554 0.64924854 -1.4179932
0000f0 4c 77 40 bf e2 20 b3 bd 26 42 3e bf 87 2a ad be
       -0.7518203 -0.08746506 -0.74319685 -0.33821508
000100 23 07 21 bf 07 88 30 bf a7 9d 12 3f fd 8d fb bc
       -0.62901515 -0.6895756 0.5727181 -0.030707354
000110 86 75 9f 3e 79 84 2c c0 f5 59 b1 3e 2c 98 0c bf
       0.3114435 -2.6955855 0.34638944 -0.54919696
000120 ba c2 80 3f 74 88 e6 be f9 40 45 3f a6 f1 49 bd
       1.0059426 -0.4502598 0.77052265 -0.04930272
000130 79 5d 29 3e 56 22 c9 bd 63 96 06 bf 2e bd 0b 3f
       0.16539563 -0.09821002 -0.5257322 0.5458554
000140 0c 7d 91 40 45 9c f9 bc e3 cf 71 ba a9 d6 6b 3f
       4.5465145 -0.030470023 -0.0009224398 0.9212442
000150 05 bd a2 3b f1 6a c4 3f 8c e6 15 bd 00 2c 65 be
       0.0049663805 1.5345136 -0.03659682 -0.22380066
000160 0c 0f 18 3d ba 45 53 be 49 8e 21 be 40 08 0b bd
       0.037123725 -0.20632067 -0.15776934 -0.033943415
000170 ba 82 8e 3e 6f e8 cd 3f 78 4c a2 3e dd 8b b5 be
       0.2783411 1.6086558 0.31698966 -0.3545827
000180 25 b3 88 3d 75 5e 8e 3e 63 f6 74 3d 69 12 45 bd
       0.06674794 0.2780644 0.059805285 -0.04811326
000190 66 17 f4 3e 47 6f bb bd 4d a7 99 be 79 3a 81 bf
       0.47674102 -0.09152084 -0.30010453 -1.009597
0001a0 86 05 22 c0 9e 47 25 bd c0 da c7 3f 0a 4f b8 3e
       -2.5315871 -0.040351503 1.5613632 0.35997802
0001b0 a8 e8 2e 3d e2 3a 0e 3f f0 90 fa 3e ef 7e 71 3e
       0.042702347 0.555586 0.48938704 0.23583578
0001c0 5e 6d 18 3d d0 c5 d0 3e 5e 4e 0d bf c6 6a bd 3c
       0.037213676 0.4077592 -0.55197704 0.023122203
0001d0 77 0f 0f 3e 60 3a 23 bf 55 7c 9a bf 58 3f a3 be
       0.13970743 -0.6376095 -1.2069193 -0.31884265
0001e0 38 57 7d 3e 54 fa f1 3e 1d 03 26 3f b6 c3 43 be
       0.24740303 0.47261298 0.648485 -0.19117627
0001f0 95 6f a5 3f e6 6b 3e be ab ac 8a bd 50 65 fd bc
       1.2924677 -0.18595847 -0.06771215 -0.030932099
000200 b5 59 e1 3f af 2e 24 bf 09 5d ff bc 3c fa ba 39
       1.7605501 -0.64133734 -0.031172292 0.00035663124
000210 6c b3 51 bd 16 0e 08 bf 66 72 17 3e a7 b3 85 3c
       -0.0511965 -0.53146493 0.14789733 0.016321016
000220 5e 8f 34 3f d6 52 db bf a9 15 72 3e 81 90 97 be
       0.7053126 -1.7134655 0.23641075 -0.29602435
000230 9e aa a5 be 07 42 9b 3e 5c 21 68 3f d2 dd b2 3c
       -0.32356733 0.30323812 0.906759 0.021834288
000240 48 0b 00 bd 9d 7a bb be eb e1 3c 3f 28 00 a6 ba
       -0.03126076 -0.36616984 0.73782223 -0.0012664841
000250 e8 a1 dc 3f 52 f5 c4 be bb 44 12 3e fb 4b 8e be
       1.723691 -0.38468415 0.14284031 -0.27792343
000260 34 cc 22 3e f0 49 9f 3e 8e 4c 02 bd c9 3e 7f bd
       0.1589821 0.31111097 -0.03181129 -0.062315736
000270 af 2b c0 bd 6b 9f 82 3e ed e9 1c be 67 89 0f bf
       -0.09383332 0.2551225 -0.1532361 -0.56069034
000280 6c d4 0a be 92 17 b6 3e 32 db 8c 3e 44 17 f0 bd
       -0.13557595 0.35564858 0.27510983 -0.117231876
000290 72 97 83 bf e9 59 95 bc eb ae 19 3b 8e ea 94 bf
       -1.0280592 -0.018231349 0.0023450206 -1.163408
0002a0 34 e6 f7 3e 52 d0 df 3e 07 28 c2 bc bf 4e 47 3f
       0.4841782 0.43713623 -0.023700727 0.7785453
0002b0 b2 40 1b 3f 79 dd 9b be 57 c0 83 be dd 65 a5 3e
       0.6064559 -0.30442408 -0.2573268 0.32304278
0002c0 47 d0 56 3e cb bb 9a be 22 af 42 be e9 be cb be
       0.20977889 -0.302214 -0.1901212 -0.3979409
0002d0 a1 ce 3a bf ba f7 72 bd 35 f4 b8 be 25 a0 07 3f
       -0.7297154 -0.05931828 -0.36123815 0.52978736
0002e0 85 78 05 3e ac 85 c0 3d 2c 2b e7 be 7f 34 c0 3e
       0.13034256 0.09400496 -0.45150125 0.3754005
0002f0 68 4e d0 3d 84 73 f2 3e 77 42 30 3f bf 50 48 bf
       0.10171205 0.47353756 0.6885142 -0.7824821
000300 0a 51 b9 be 96 9f af 3e 6b 4b 83 40 9e 59 d5 ba
       -0.3619464 0.34301442 4.1029563 -0.0016277318
000310 17 62 66 bd c3 fd b5 be ec 52 82 be a5 26 1a c0
       -0.05624589 -0.35545167 -0.2545389 -2.4086087
000320 ed e7 7a 3f ba 36 95 3f 6c 59 7f be 48 72 e3 be
       0.9801014 1.1657326 -0.24936455 -0.44423127
000330 11 fc c0 bb 9b 6a e5 bc 71 e5 11 3f 57 8c b4 3f
       -0.0058894237 -0.028004935 0.56990725 1.4105328
000340 7c 45 ca bc c1 17 ac bb e2 14 d2 3d a2 1f 45 bf
       -0.024691336 -0.005251855 0.10257889 -0.7700139
000350 4e b1 fa be 83 fb 5a 3f e2 f2 06 3f 47 8b ef be
       -0.48963398 0.85540026 0.5271436 -0.46785948
000360 3e ef b8 be 18 8b 62 bd df 8f cf be a8 30 74 be
       -0.36120027 -0.05530843 -0.40539452 -0.23846686
000370 bb 47 a3 be 6c 0a 3b be 7a f3 92 3f e5 0c 0d 3e
       -0.31890664 -0.18265694 1.1480553 0.1377445
000380 e7 80 a7 bf 25 e9 cc be 90 d9 00 be b2 2c 27 3e
       -1.3086213 -0.40021625 -0.12582994 0.16325644
000390 bf cd 00 3f 14 c4 2a be ce e2 e0 bd 8c c8 49 bc
       0.50313944 -0.1667636 -0.109807596 -0.0123158805
0003a0 67 b8 2d 3f 05 be 96 be 69 30 1b 3e 8a d1 07 3f
       0.678595 -0.29441848 0.15155186 0.53054106
0003b0 04 08 e9 be 04 9a f6 3e 80 4b be 3f 2b 69 a7 40
       -0.45513928 0.4816438 1.4866791 5.231588
0003c0 bf 0f 66 3e 66 e5 13 3f 0b e0 83 3f 3c 77 95 39
       0.22466944 0.5777191 1.0302747 0.0002850833
0003d0 42 25 e4 bc dc 3a 28 3e 84 9a 53 bc 02 6d 38 3f
       -0.027849797 0.16428703 -0.012915257 0.7204133
0003e0 ab 43 19 3f 8f 85 fb be 06 3a ff be 83 5c f1 be
       0.5986888 -0.49125335 -0.49848956 -0.47140893
0003f0 07 e7 4a be 4c 04 1d 3e 42 14 92 be 6c cc ef be
       -0.19814692 0.1533367 -0.2853108 -0.4683565

model.4.bias f4 [2]
000000 d3 39 ca bc b7 e0 a6 3d
       -0.024685776 0.0814833
