hw2/preTrained/ddpg_critic_LunarLanderContinuous-v2_04302023_005707_.pth (torch, 277399 bytes, 5 tensors)

model.0.weight f4 [256, 10]
00000000: 0601 7ac0 a348 84bf 8c90 afbf 84ec 33bf
00000010: 9372 91be 5e74 e1be ac40 c93e 9ed7 c53f
00000020: f171 d3bc cfc2 273d d85f 21bf d643 7fbf
00000030: e66a b43e 68f2 213a 1ccc d43d 3a6c 733f
00000040: 38b7 3d3f 3950 2abf 9b20 353e 6cac 8b3f
00000050: f685 dabe 18ce c0c0 753e 32bf a8c4 363f
00000060: 67b1 0d3f 6800 bc3e 3fda 01c0 660b ca3e
00000070: e4ac b43e be0d b63d 2069 aabf 1f0e 583f
00000080: 859c b6bf cbc9 b53e 6644 d1be 10fb ea3e
00000090: b87b b4bf 8097 113f 756c 8fbd 9ca7 8fbf
000000a0: fa8a 553f 8079 5d3f 5b7d 3abf 4c7a 10bf
000000b0: e460 ca3f 444b 713f 072d a3bf eeef c3bd
000000c0: 8187 9b3d c504 40ba 5400 e93e 0b22 bfbf
000000d0: 2897 4bbf 3f4a c0bb 06d1 4bbf 0725 263f
000000e0: bad0 fabf 65a6 a7bf adc7 26bf 165d 3ebf
000000f0: 3cf5 97bf 1e99 63c0 4b10 03bf 892e ecbe
00000100: 9083 00c0 3fdd aa3e ed42 26be 6f54 823f
00000110: 261f 46be 4f30 dfbd 2c16 d43e 7e7b 81c0
00000120: 809b aabe 0872 123e 4b9b 2abf 23a1 46be
00000130: 46e7 ed3e e152 0cbf cc9d 6fbe 55b7 753e
00000140: 0745 19bf f39e 70c0 78ce 973f c459 8dbf
00000150: 2a60 fdbe 9d60 3b3f a3fc 1cbf db7a 92be
00000160: f178 203e 8807 17bf 0ce0 0dbf f67a 36c0
00000170: 68c6 003e 92a0 bbbf 39fc 8a3f 12ee 543f
00000180: 2db9 d4bf c1a5 b2be d4c8 98bf 3d54 2b3d
00000190: b5eb 16c0 5bd1 1540 211a c4bf 4188 b93f
000001a0: 24c9 903f ef7c 96bf 4be7 15c0 ef0e 21c0
000001b0: ae2e 033d 91dd cd3d 9c38 c8be e79f d43f
000001c0: 5dc8 97bf f866 5ebf 4ede d6be e732 09bf
000001d0: 929a c7bf 4eb0 06c0 af6a 4a3e a20d 323f
000001e0: 0617 8e3f 2dea 2c3d a311 73bf c07c 0fbf
000001f0: 424f 73bf bd06 d93e b47e 4dbf a3c1 e6be
00000200: 195a 86bd 63cb 5d3d 6965 683f dbdc ba3f
00000210: 8637 1c3f 0796 82bf c5bf 0abe cd74 06bf
00000220: aaad 213e d078 24bf ee8a cabd b571 623d
00000230: fda7 4a3f 0dcc 50be 3e45 bf3f c8dd 0a3f
00000240: 959c 3cbf 826a 7fbe a02f 9d3f 50a8 5ec0
00000250: 68cc abbc 0218 6d3e 36d2 933f 4b04 77c0
00000260: ed38 ce3f 88bd aabe ebed f23d 109a 2ebe
00000270: 3c49 85bf 273f a4bf 7f27 363f b137 283f
00000280: c60e d9be ed8b 8abe a3d1 ffbd 586e 09bf
00000290: b41c 54bf b24e 923f 060b 8abf ce41 68bf
000002a0: 183f 4d3e 22eb 03bf 76be 4cbd dcbf 7cbf
000002b0: 37e4 293e 0441 8f3f 3b85 f8bf 3fd5 bcbf
000002c0: 6d03 41be 48f6 73c0 e27b 8b3e 2997 3d3e
000002d0: 929f 323f 1953 a1c0 1f0d 93bf 6c66 2f3f
000002e0: 28eb 0a3f 5199 043f c8d3 383d 5f7a 773f
000002f0: 90e9 0bbe 1298 15be 30ae 01c0 eaeb 9a3f
00000300: e075 4bbf 51ba 673f 67c7 883f 49eb 043e
00000310: 0e8d b13f fd66 51be a5ff 653e 09ea b53c
00000320: d02d 023e aace 41c0 7708 c83c c2f2 28bf
00000330: 619e fabe 85a5 543f abf9 873f ad45 16c0
00000340: 43fb 033e 6438 e63c ee07 9e3e 55d7 813d
00000350: ba55 62be 6bcb 233f b9ed 883c 1a5a f2bd
00000360: cbe1 00bf 5d3b 9cbd ca25 743e d28d 7cbe
00000370: 4c13 ec3e ee4e a0be 99ba 5abf 0e97 8b3e
00000380: d3e3 00bf 041e c63e 720c 573f 6aac 09c0
00000390: d8ab 233d 2e24 983d a7e8 093f 03bc e5be
000003a0: 9645 96bd 169e 923f 38b4 b8bd 3e05 4dbd
000003b0: f662 fdbe c89d 10be 72f8 3cbe 0692 bdbe
000003c0: 63f7 513f b381 cf3f 88ae a83f d286 e63e
000003d0: 9339 1ebf be81 1c3f 99db d3bf 2c6b afbf
000003e0: 284e 8ebd f383 f5bd bbbe bd3e c4af e0bd
000003f0: d18d 4fbf 8403 9c3f e0e4 dcbd c5e9 b13e
-3.9063125 -1.0334667 -1.3715987 -0.7028277 -0.28407726 -0.44034094 0.39307153 1.5456426
-0.025811167 0.04095727 -0.6303687 -0.99712884 0.35237807 0.0006177784 0.10390493 0.95087016
0.74107695 -0.6652866 0.17688219 1.0911994 -0.4268033 -6.025158 -0.6962655 0.71393824
0.5534882 0.3671906 -2.0289457 0.3946182 0.35288155 0.0888934 -1.3313332 0.8439655
-1.4266516 0.35505518 -0.40872496 0.4589467 -1.4100256 0.56871796 -0.070031084 -1.1223025
0.83415186 0.8651352 -0.7284753 -0.5643661 1.5810819 0.9425547 -1.2748116 -0.09567247
0.07594205 -0.00073249295 0.45508063 -1.4932264 -0.7952752 -0.005868226 -0.7961582 0.6490025
-1.9594948 -1.3097655 -0.6514843 -0.7436079 -1.1871715 -3.5562205 -0.51196736 -0.46129254
-2.00803 0.33371922 -0.16236468 1.0182017 -0.1934782 -0.10897886 0.41423166 -4.0463247
-0.33321762 0.14301312 -0.6664321 -0.19397406 0.4646551 -0.54813963 -0.23400038 0.23995717
-0.5987095 -3.7597015 1.1859884 -1.1043019 -0.4948743 0.73194295 -0.61322993 -0.28609356
0.15671135 -0.58995867 -0.55419993 -2.851255 0.12575686 -1.4658377 1.0858222 0.83175766
-1.6619011 -0.34892085 -1.1936288 0.041828383 -2.3581364 2.340903 -1.5320474 1.4494706
1.1311383 -1.1756877 -2.342242 -2.5165365 0.03202694 0.10052026 -0.3910569 1.6611298
-1.1858021 -0.8687587 -0.4196648 -0.53593296 -1.5594046 -2.1045108 0.19767259 0.6955205
1.1100776 0.042215515 -0.94948786 -0.5604973 -0.9504281 0.42387953 -0.8027146 -0.45069608
-0.065601535 0.054149043 0.9077974 1.459865 0.6102222 -1.0202035 -0.13549717 -0.52521974
0.15788904 -0.64246845 -0.0988978 0.05528422 0.7916258 -0.20390339 1.4943006 0.5424466
-0.73676425 -0.24942973 1.2280159 -3.479023 -0.020971492 0.2315369 1.1548526 -3.859637
1.6111122 -0.33347726 0.118617855 -0.17050958 -1.0412974 -1.2831773 0.71154016 0.6570998
-0.42394084 -0.2705988 -0.12491157 -0.53683996 -0.828563 1.1430266 -1.0784614 -0.9072541
0.200436 -0.5153066 -0.049986325 -0.98730254 0.16590963 1.1191716 -1.9415659 -1.4752578
-0.18848963 -3.8119068 0.27242953 0.18514694 0.69774735 -5.0413938 -1.1488379 0.6851566
0.5426507 0.5179644 0.045123845 0.966711 -0.13663316 -0.14608791 -2.0262566 1.2103245
-0.7947674 0.9051867 1.0685853 0.12980379 1.3871171 -0.20449443 0.22460802 0.022206323
0.12712789 -3.0282388 0.024418099 -0.6599542 -0.4894896 0.8306506 1.0623068 -2.3480027
0.12888817 0.028103061 0.30865425 0.063398995 -0.22103015 0.63982266 0.016714917 -0.11833592
-0.5034453 -0.0762851 0.2384254 -0.24663475 0.46108472 -0.3131022 -0.85440975 0.27263683
-0.5034763 0.38694775 0.84003365 -2.1511483 0.039958805 0.07428776 0.53870624 -0.44870004
-0.07337491 1.1454494 -0.09018749 -0.050053827 -0.49489564 -0.14122689 -0.1845415 -0.3702547
0.8201811 1.6211456 1.3178263 0.45024735 -0.618066 0.6113547 -1.6551391 -1.3704581
-0.06948501 -0.11988058 0.37059578 -0.10971025 -0.8107577 1.2188573 -0.10785842 0.34748664

model.0.bias f4 [256]
00000000: ab98 103e b349 28bf 7bd7 19be 39a5 943f
00000010: af70 31be c2a2 b3bf b63f 87bf 85f1 933f
00000020: d2c1 f7be 0797 05bf ee30 0dc0 f25a 0dbf
00000030: 93a0 953f ba0f 58bf f3bb 96bf f7d3 8dbf
00000040: 1a1c 143f 5492 d3bf c81c 98bf 8809 eebe
00000050: 7e63 f73d 07bf fa3f 0b24 893e ce3f b5bf
00000060: a408 56bf 2ee8 45bf c83d 86bf d86a d83f
00000070: e94e 87bf a86e 8cbf faf9 06bf 0443 b93e
00000080: 93d0 d2bf 355b c63f c54f 99bf 4a6e 03c0
00000090: 7948 9abf 9511 c3bf 8d1e d0be d299 e4bf
000000a0: 2503 b13f becb 0dbf e6aa 81bf 26c3 bebe
000000b0: 6e54 843f eca4 7c3f 740b 91bf 1a95 ec3f
000000c0: 5570 dbbc 7f5c c03f ad14 113e 37e4 8d3f
000000d0: f6d5 17bf ab52 89be 8648 bfbf c4ac 14c0
000000e0: 4460 e0bf e88e e63f 2e4c 90bf 6ee1 ecbf
000000f0: 9741 bebe 0c91 0fbf 9775 9e3f 217e babf
00000100: 7fdd 8cbf 7e41 813c 4bee 913e 5b04 083e
00000110: dc5c 9bbf 3acf 46bf 32f0 693e acb4 66bf
00000120: 868e 71bf df3e f83f 9eaa 3d3f 522c dfbe
00000130: 7ed9 74bf 8662 b3bf e70b 963f a3f1 b5be
00000140: 345a 32be c69a 89bf f039 18c0 da92 0a3f
00000150: d203 98bf da1c f2bd acb4 8b3f b555 203f
00000160: 887d d83e c516 8d3e cf92 04bf 4e05 ffbf
00000170: 2fc8 923f 2567 9a3f 8698 7f3e dbbb 08bd
00000180: d7af 8a3f 336a 193d 4e39 0e3e 62b5 583f
00000190: 23f2 c7bf 5594 aabf 0e27 b1be 1781 98bf
000001a0: 247d b93f e096 203e 7f94 813f f09f c73f
000001b0: 779b 58bf 0e3c 77bf 266d 2f3f 140f b23e
000001c0: 117b f23d 13fc fabe 0092 9cbe 4481 a43e
000001d0: e93a 7ebf db19 bfbc 3afc d7bf 29a9 a4bf
000001e0: b3fe f3bf fc68 d7be ee68 af3f 1523 9fbf
000001f0: 56e6 6c3d a811 8c3e 3c7b 853e 92fb c13f
00000200: 4f88 483e e7ee 28bf 2da7 a2bf c816 2cbf
00000210: 0772 453e 16c7 a0be 33eb b9bf 303c a3bf
00000220: 5b40 99bf 5a9e ba3f 6eef 223f 844c 19bf
00000230: ac72 5fbd 0b54 863e 5614 3dbf 191a a2bd
00000240: b834 7b3f 3674 71be 9e03 933f 0b46 1a3f
00000250: f592 7fbf 5af3 17bf 8e97 bf3f a1b7 60bf
00000260: 0898 97bf 9be5 23bf ed4b 59bd 61e0 c73d
00000270: f590 283f f7ab 883f 4c98 bf3f 079b 74bf
00000280: 1d3e b33e 25d9 4dbf 0f51 63be 1add b3bf
00000290: ff39 593f c0c1 30bf 9674 a83f 36d9 0a3f
000002a0: edc6 c2bf 1f63 8ebf b695 24bf 9b62 6fbf
000002b0: 7d33 223e f3fe 1fbf 6b15 cb3e caef b8bf
000002c0: dc53 c0bf a24f c03e 7dc5 333e e30b a7bf
000002d0: 5b42 1fc0 acfc 81bf 1b05 ffbf f4e6 d83f
000002e0: e9a4 373c 5504 18bf 0f9b 92bf bb94 efbe
000002f0: 3075 10bf e3e8 083f 03de 9c3f 87ef cc3c
00000300: 4736 5abd f476 f33f 77ef 9cbe ad35 88bf
00000310: d915 78bf 9528 a03e 38fc 39bf 6176 0dc0
00000320: ed5f bfbe f394 cebd 39ac ae3d e12b 2abf
00000330: 71c5 1bbf 3ffc 48bf 0233 5abf a74c 5f3d
00000340: bfb2 05bf 6e93 433f 2d0a b2bf 70e1 5ebf
00000350: 5b36 4dbf 069b bebf 90fc a2bf fc93 94bf
00000360: e5cc a5bf 789c b4bf ab4f cdbf 8ee4 7a3d
00000370: 8dfb 883f 9284 76bf 77d9 fc3d f25c 9c3e
00000380: e973 d33f 087e 72bf 89ec ed3e 558e aabf
00000390: 3ba7 3abf f9ef b8be bcdc 81bf ea0c 61bf
000003a0: d506 e13f fa1d a6bf 5c65 1bbf 041a a2bf
000003b0: dcaf 1a3f babe 883f 3ee5 da3f 7fc9 5a3f
000003c0: 844e 0dbf cb4b 95be e423 68bf 7b48 31bf
000003d0: d0b6 58be 6b8c 503d 0528 b2be 3423 cabf
000003e0: 857e c73f 74f7 29bc 9e08 f5bf 5dc3 64bf
000003f0: 1fa3 80be e3df 63bf 79c4 1a3f 49aa 613f
0.14120738 -0.65737456 -0.15023606 1.1612922 -0.17328142 -1.4034045 -1.0566318 1.1558081
-0.4839006 -0.52183574 -2.2061114 -0.55216897 1.1689628 -0.84398997 -1.1776108 -1.1080312
0.5785538 -1.6529031 -1.1883783 -0.46491647 0.120795235 1.9589547 0.2678531 -1.4160097
-0.83606935 -0.77307403 -1.0487604 1.6907606 -1.0570956 -1.097127 -0.52725184 0.3618394
-1.6469902 1.5496584 -1.1977469 -2.0536065 -1.2053367 -1.5239741 -0.40648308 -1.7859442
1.3829085 -0.5538901 -1.0130279 -0.3725826 1.0338266 0.9868915 -1.133162 1.8483002
-0.026786963 1.5028228 0.14168043 1.1085271 -0.59310853 -0.26820883 -1.4944007 -2.3230448
-1.7529378 1.8012362 -1.1273248 -1.8506296 -0.37159416 -0.560807 1.2379636 -1.4569741
-1.1005095 0.0157783 0.28502116 0.13282911 -1.2137713 -0.7765995 0.22845533 -0.90119433
-0.943581 1.9394187 0.74088466 -0.435885 -0.95644367 -1.4014442 1.1722382 -0.35535917
-0.17417222 -1.0750358 -2.3785362 0.5413033 -1.1876166 -0.11821909 1.0914512 0.6263078
0.42283273 0.27556434 -0.5178651 -1.9923494 1.1467341 1.2062727 0.24960527 -0.033382278
1.0834912 0.037454795 0.13889048 0.8465177 -1.5620769 -1.3326517 -0.3460011 -1.1914395
1.4491315 0.15682554 1.0123442 1.5595684 -0.8461222 -0.9657601 0.6852592 0.3477713
0.11839879 -0.49020442 -0.3058014 0.32129872 -0.9930864 -0.023327759 -1.6873848 -1.2864124
-1.9062103 -0.42072284 1.3703897 -1.2432581 0.057836853 0.2735722 0.26070583 1.5154898
0.19583248 -0.65989536 -1.2707268 -0.6722226 0.19281779 -0.3140189 -1.4524902 -1.2752743
-1.1972765 1.4579575 0.6364659 -0.5988238 -0.05455272 0.26235995 -0.73859155 -0.07915134
0.9812732 -0.23579487 1.1485479 0.6026313 -0.99833614 -0.593557 1.4968126 -0.87780195
-1.1843271 -0.64022225 -0.053050924 0.09759594 0.65846187 1.067748 1.4968352 -0.9554905
0.35008326 -0.8040946 -0.2219889 -1.405185 0.8485412 -0.6904564 1.3160579 0.5423769
-1.5216957 -1.1123999 -0.6429094 -0.93509835 0.15839954 -0.62498397 0.39664778 -1.4448178
-1.5025592 0.37560755 0.17555805 -1.3050503 -2.488425 -1.0155234 -1.9923433 1.6945481
0.011208751 -0.5938161 -1.145357 -0.4679316 -0.56428814 0.53480357 1.2255253 0.02501656
-0.05327442 1.9020677 -0.30651447 -1.064138 -0.96908337 0.31280962 -0.7265048 -2.2103503
-0.37377873 -0.100870036 0.085289426 -0.66473204 -0.60848147 -0.78509897 -0.8523408 0.05451646
-0.5222587 0.76396835 -1.3909355 -0.8706274 -0.80161065 -1.4891059 -1.2733326 -1.1607661
-1.2953154 -1.411025 -1.6039938 0.061253123 1.0701767 -0.96296036 0.123461656 0.30539662
1.6519748 -0.9472356 0.46469525 -1.3324686 -0.72911423 -0.36120585 -1.0145488 -0.8791033
1.758021 -1.2977898 -0.6070154 -1.2664189 0.6042459 1.0683205 1.7101209 0.8546371
-0.5519793 -0.29159388 -0.90679765 -0.6925122 -0.21163487 0.050915163 -0.34796157 -1.5791993
1.5585486 -0.010373939 -1.9143255 -0.893606 -0.25124452 -0.890135 0.60456043 0.8815046

model.2.weight f4 [256, 256]
00000000: 1aa4 adbc 3000 c23c 0e4d 15bd d3d9 933c
00000010: 4241 4abd fec2 083d 2e23 603c 32b9 b03c
00000020: a82e 933c f656 5f3d f9aa f0bc f6b1 dabb
00000030: dcc6 f7bc 49f2 f83c 6be7 11bd be46 a13c
00000040: 0fd3 f33c dd89 c13c f615 b43c 1ce8 6cbc
00000050: f8fa b13c 0b07 7dbd f3ea b53c 9c06 0abd
00000060: 176b 4a3c 40e1 57bd b678 44bd 841c 013d
00000070: 2f4e 01bd 36de 9d3d 11ab 913a a1ea 90bd
00000080: f9f2 2abd 1cfd 4fbd d5a3 57bd 71b9 97bc
00000090: 5a42 993c a2c9 03bd 23d8 433c 3cb0 29bd
000000a0: 7dfc d13c 7059 b1bc 4473 c63b ab7f 29bd
000000b0: 832f 61bd 4d2d 85bb 6408 b13c 86b6 a23c
000000c0: 94fa 21bd fb2d d0bd cc71 41bd b0d2 24bd
000000d0: 71d9 8cbd ff6c a9bd ec0f 95bd 9f0d 153b
000000e0: aedc 523d f061 d13c f3a8 e2bc a9ab 933d
000000f0: cd23 70bd b98f 4aba 0025 8dbd 3cd5 adbc
00000100: a677 c4bc e570 babd 5f5c 0bba b5a9 a9bd
00000110: a656 8fbc ed97 5e3d 90f2 37bb 6fc2 b83c
00000120: 1392 04bc 15be 33bc cc10 92bc 166f 9c3d
00000130: 11fc 6ebd 410a 89bd b13c d7bd 927b a9bc
00000140: ff0d 5bbd 5fbb 8fbd 7836 d7bd b0a1 423a
00000150: dda8 09bd d0f8 d0bb 9c1b 35bd 21fe 723c
00000160: 7dc6 153a 26fd e1bd e7e1 0fbd 0399 92bd
00000170: 4daa 5ebd b32a 383d 0ebb 30bd 946d 9bbc
00000180: fbaa ea3c c18a 89bc bdaa 58bd eb9c f4bd
00000190: 5741 bfbd daac debd 136f 2abd d729 f93c
000001a0: 1461 9abd 71af 483c de50 e23c 00c9 3fbd
000001b0: 352e 04bd 3302 abbc b8ea db3c c50b b5bd
000001c0: 16c5 a83c bb59 42bd a1a3 dc3c cf73 8abc
000001d0: 8bb6 563c 16fb 5a3d 5d14 033c 7ead bbbd
000001e0: 8ddb f4bd e80a 41bc de35 c2bc 443a 94bc
000001f0: 9f8a c93c e3d1 7bbd 234a bfbc 2727 babd
00000200: 92b6 7ebc 3405 69bd 5e76 26bd 71ed b1bc
00000210: 1610 82bd 59f4 32bd 3e8d 7ebd 140c 17bd
00000220: 9eaa 873d d750 88bd f934 21bc 8747 263c
00000230: ffab 8dbd 1a9b eabd 37e7 10bd 6ef0 68bd
00000240: 62d6 a2bc 4789 4bbd ccd8 b73c 45b1 9abd
00000250: 0fb2 30bb 35b4 8a3b cd50 373d fe7e f73b
00000260: 6e20 b8bd 6683 bbbd cf66 89bd a200 90bd
00000270: deaa 253b 4a28 b83c 3479 89bd d738 adbd
00000280: 63aa babc f003 acbd 03d9 673c 908b 01be
00000290: 2b59 fbbb 6d92 3ebd 4f68 8a3c d548 eabd
000002a0: 7db1 0fbd a75f 573c 2abd 4b3d ed38 a8bc
000002b0: dd9b d83c c2c7 59bd ae64 96bd 5d94 353b
000002c0: 7123 3abc 126c 2f3b f8f1 a2bd 8c2c dabc
000002d0: 7c1f b6bd b2c4 4dbd f179 883c 8768 c3bd
000002e0: 2614 b0bd ca7a 8bbd 1078 8bbd 7969 983c
000002f0: 461f bb3c 37b0 8cbd be47 a5bd c8fe b7bc
00000300: ab76 3abc 3a8e 95bd d35e 0eba 1a3d 27bd
00000310: 522c fe3b 3060 86b9 b520 523b a3f7 7bbb
00000320: 194a 1abc d8bb 0f3b 12cb 043d 7544 09bc
00000330: 3788 16bd 3d84 25bd 7550 4d3d 3c58 a8bc
00000340: c3a1 343d 3576 72bc abfb 6bbd f180 98bd
00000350: c8c7 a0bc 0711 7ebd 9fc1 7dbd 3ada 593c
00000360: 9e5a 2cbc b9e0 a4bb 3544 a2bd 21a0 2fbd
00000370: 6571 8abc 6d65 c8bc 6a74 f4bb dea6 c7bc
00000380: d0a0 413c 28af 003c 923a 80bd dee0 acbd
00000390: f5e5 3f3d 462a 2f3d b4e4 4cbc bbca 813b
000003a0: 7d20 4fbd 4661 ccbd bf34 88bd 5ed2 b7bb
000003b0: 8a54 5ebd dab2 6abd 07ab 66bd 597b 3f3d
000003c0: d173 98bd 62b4 38bc d25b a6bd 9dbb ba3c
000003d0: 7927 5abd 5b41 4ebd 435c f4bb c1fd 793d
000003e0: ce64 55bd 056d 96bd b0d4 8ebc 6255 3dbd
000003f0: 46d6 b4bd b860 e23b 93fc 5fbd 2157 8ebd
-0.021196414 0.02368173 -0.03645044 0.018048203 -0.04937864 0.033389084 0.0136802625 0.021572683
0.017966583 0.05452629 -0.029378401 -0.0066740466 -0.03024619 0.030388968 -0.035621088 0.019687053
0.029763727 0.023625309 0.021983128 -0.014459636 0.021726117 -0.061774295 0.02220676 -0.03369771
0.012354634 -0.05270505 -0.04796668 0.031521335 -0.031568702 0.07708399 0.0011113604 -0.07076002
-0.041735623 -0.050778493 -0.052646477 -0.018521043 0.018708397 -0.032174714 0.0119533865 -0.041427836
0.025633091 -0.021649092 0.006056221 -0.04138152 -0.05497695 -0.004064238 0.021610446 0.019862425
-0.03954561 -0.1016502 -0.047227666 -0.04023999 -0.06877411 -0.082727425 -0.072784275 0.0022743715
0.051479988 0.025559396 -0.027668452 0.07210476 -0.058627892 -0.0007727105 -0.06891823 -0.021219842
-0.023982834 -0.09103564 -0.00053161936 -0.08284322 -0.017497372 0.054344106 -0.0028068163 0.02255365
-0.008091467 -0.010970612 -0.017830275 0.076383755 -0.058345858 -0.06691409 -0.10509623 -0.020688806
-0.053480145 -0.0701816 -0.10508436 0.0007424606 -0.033608306 -0.006377317 -0.044215783 0.014831097
0.0005713476 -0.11034612 -0.035127547 -0.07158091 -0.05436163 0.044962596 -0.04314714 -0.01897315
0.028645983 -0.016789796 -0.052897204 -0.11943992 -0.093386345 -0.108728126 -0.041609835 0.030415459
-0.075380474 0.01224886 0.027626451 -0.046822548 -0.03227063 -0.020875072 0.026845321 -0.088401355
0.02060179 -0.047448855 0.026933493 -0.016900925 0.013105045 0.05346211 0.00800046 -0.091639504
-0.119559385 -0.011782385 -0.023707327 -0.01809419 0.024602233 -0.06147946 -0.02335078 -0.09089499
-0.015546458 -0.056889728 -0.040640227 -0.021719666 -0.063507244 -0.04369006 -0.062146418 -0.036876753
0.066243395 -0.06656044 -0.00983929 0.010148889 -0.06917571 -0.114553645 -0.035376754 -0.056869917
-0.019877616 -0.049691465 0.022442244 -0.07553343 -0.00269616 0.004232908 0.044754792 0.0075529804
-0.089905605 -0.09155922 -0.06709062 -0.07031371 0.0025278847 0.022480149 -0.06712571 -0.08458107
-0.022786325 -0.083991885 0.014150861 -0.12650895 -0.0076705418 -0.04652636 0.016895441 -0.11439673
-0.035081375 0.013145364 0.049740948 -0.020534957 0.026441509 -0.05316902 -0.07343422 0.002770684
-0.011360989 0.0026767296 -0.07956308 -0.02663257 -0.08892724 -0.05023641 0.016659709 -0.095414214
-0.08597593 -0.068105295 -0.068100095 0.01860498 0.02284206 -0.06869548 -0.08070324 -0.022460356
-0.011380832 -0.07302518 -0.0005431 -0.040829755 0.0077567482 -0.00025630137 0.0032062952 -0.0038447164
-0.00941708 0.0021932032 0.032420225 -0.008378138 -0.036751 -0.040409315 0.050125558 -0.020549886
0.04409958 -0.014798691 -0.057613056 -0.074464686 -0.019626513 -0.062027957 -0.06195223 0.013296658
-0.010519652 -0.005031672 -0.07923166 -0.04287732 -0.016899774 -0.024462426 -0.0074601667 -0.02437156
0.011818126 0.0078542605 -0.062611714 -0.084413275 0.046850163 0.042764924 -0.012505699 0.003960935
-0.050568093 -0.09979491 -0.066506855 -0.0056097945 -0.05427984 -0.057299472 -0.056315448 0.046748493
-0.07443965 -0.011273475 -0.08122982 0.02279454 -0.0532603 -0.050355297 -0.0074572875 0.061033014
-0.052098088 -0.073450126 -0.017435402 -0.046224006 -0.08829932 0.0069085024 -0.054684233 -0.06950212

model.2.bias f4 [256]
00000000: 31a0 cabc 66c3 92be 961f 77bf 1f21 47be
00000010: 4608 04c0 73f4 41bb e3ab a5bf a574 f63c
00000020: e7e8 3ebf 1bdb 18bd 6036 133f 5984 203f
00000030: d2db c8bd bc3b b2bd 5abf 21bd 131b 95be
00000040: 1ce4 fcbe a59b 2fbf 4b17 54bc 7939 f33c
00000050: 9813 d73e 3c47 a2be 3c9e 63bf f23d 31bf
00000060: a5f0 2fbf 0212 90bd beae 44bd f8f4 d7be
00000070: a9b6 73bf 6031 4bbf 8140 8dbc 3572 81bd
00000080: 0ef0 b8bd dab0 d53c 8d8f 49bf 2897 d6be
00000090: 0ccf 95bf 2858 3fbf b2b7 d43e aaa5 033f
000000a0: 6bd0 3ac0 c098 f8be 9402 ef3e 2577 14bc
000000b0: b46b 18bd bc71 533c 5979 0dbd 4642 0f3f
000000c0: 33ba 2dbf 20a3 64bf 5503 473b 94dd bebf
000000d0: 0518 153d 38fa 683e 1a28 a4bd 70dd 90bf
000000e0: 3cda 9a3f 99f9 12bc 4657 f0be b22b 31bf
000000f0: b9e8 adbf c607 febd fa97 85bd 1d78 0c3d
00000100: 1795 1dbf 8c90 ef3e b25a c2bd 004e 04bf
00000110: fe4d 9c3e 43a0 2ebf 55cb c9bd 0f1c dabd
00000120: 9b69 e83d 87c0 c0bf 2da1 23bd d398 293f
00000130: 38a1 5abf 85fd cd3d fee7 a9bc 8ec7 f1be
00000140: 301b 063c c5aa 5fbd 8f33 2ebc d865 6ebb
00000150: d60e ad3b 2b0b eabe a670 88bf c672 b1bd
00000160: e26d 98bd a3e5 1c3f 37b3 9d3c 94a2 9fbd
00000170: b98f d9bd 9645 2abb f69f dabd 8432 883c
00000180: e1ef abbf a7c1 b63f d154 98be e9c5 7abf
00000190: 8627 a0bd a350 15bd 24e4 09bd acd9 87bf
000001a0: b833 46bf ff84 4ebf f0a5 60bf 4f24 0f3f
000001b0: 674f 93bf c45d 26be 49d8 c83e 7724 b1bd
000001c0: f9c8 58be 7f10 303f 7083 b1bd 7aec c0be
000001d0: 6c3f d5be 773e f9be 0f48 85bd 75c5 51bf
000001e0: d82a 50bc abc6 99bf b5d5 c53e cb3e c6bc
000001f0: 4a8d a1be 42f6 9abd eb37 2dbd 109d cb3e
00000200: 374e 28bc 8674 3fbf 0b2b 99be 58e7 823f
00000210: 3723 f33b 6a69 d2bd 9857 b2be 820a 673e
00000220: 6aa2 113f 8a78 25bd 266d bebd 1be5 7dbf
00000230: 204a 4a3c da34 ac3e b618 6fbf d20c e9be
00000240: d798 fa3d 4400 80bd 9c3d 4ebf 8e2f 89be
00000250: 0582 85bf d613 263b 8697 ecbd f106 353c
00000260: 70bf 6cbd 9cc4 9dbf 120a 8cbd b228 f63c
00000270: 6298 243f aa21 66be a331 143b ee46 8ebf
00000280: f917 cfbc fe1c 01bf 2c8c 99be dff9 90bf
00000290: 1379 1fbd 3ee2 1b3f a3db 8bbf a698 45bf
000002a0: 38c6 7fbd 4672 9f3e 7a0c babf b910 9fbf
000002b0: 0dd2 abbd b769 8dbf 3bed cabc 90fa 0abb
000002c0: 240e debe 5795 91bd 2846 e33c af07 96bd
000002d0: d6d2 42bd d592 f7bc b807 e5bd 124f 79bb
000002e0: 65c2 0f3e 6437 d2bd 63b4 8cbd 707f 2bbf
000002f0: a5be 81bf f080 1abd 79bb 76bd d3e0 d2ba
00000300: db52 d8bf fa28 abbf 4042 843f dbd4 fdbc
00000310: 66a5 bbbd 6c7d 09bf 5a70 f4bc 51c6 fbbe
00000320: 8d93 17bf 6084 a4bd fcfd cdbb c40d dcbe
00000330: 41a9 00be 6028 58bd 1d9c 8c3c 9f03 69bd
00000340: 50a4 94be 269b 83bd 4214 57bf cd34 6fbd
00000350: 1dec 42bf 98d9 71bd c382 98bd 8d20 e1bc
00000360: 08b9 83bf 5b1b a7bf ce68 8fbf 0d2a b6bd
00000370: 756e 753f 8f01 8ebf c8a1 76bf 563a acbd
00000380: ea16 08bd 8ca2 34be 3133 77bf 78d1 a2bf
00000390: f0c8 82bd 4858 a5bf 3cbe 38bc 17d8 dfbe
000003a0: beed 97bd cf83 aaba 6106 d8bd 1405 253d
000003b0: 21d3 7ebd 215e 85bf 3886 08bd a71a 88bf
000003c0: f0e2 00bf ab64 cabd 86bd f53c 5c84 943f
000003d0: 10aa 8abf c082 87bf 67a7 a9be 57d4 12bd
000003e0: b4e4 cdbb 5440 7dbd 93f8 93bf 1144 a9be
000003f0: 1d6c b9bc e323 75bf 87ea 2fbf 591b 80bf
-0.024734588 -0.28664702 -0.9653257 -0.19446228 -2.063005 -0.0029595166 -1.2943081 0.030084917
-0.7457413 -0.03731833 0.57504845 0.62701946 -0.098075524 -0.087028 -0.039489128 -0.29122218
-0.49392784 -0.6859687 -0.012945007 0.029690491 0.42007136 -0.31694973 -0.8891332 -0.69235146
-0.6872657 -0.07034685 -0.04801821 -0.42179084 -0.9520059 -0.79372215 -0.017242672 -0.063206114
-0.09030162 0.026085306 -0.78734666 -0.41912198 -1.1703811 -0.7474389 0.41546398 0.5142466
-2.9189708 -0.4855404 0.46681654 -0.009061609 -0.03721209 0.012905534 -0.034539554 0.559605
-0.6786224 -0.8931141 0.0030366976 -1.491137 0.03639986 0.22751701 -0.08015461 -1.1317577
1.209785 -0.0089706415 -0.46941584 -0.692073 -1.3586646 -0.124038264 -0.06523128 0.034294236
-0.6155562 0.46789968 -0.09489955 -0.5168152 0.30528253 -0.6821329 -0.09853236 -0.10649883
0.11348268 -1.5058755 -0.03994863 0.66248816 -0.8540225 0.10058121 -0.020740505 -0.4722256
0.008185193 -0.054606218 -0.01063241 -0.0036376622 0.0052813096 -0.45711645 -1.0659378 -0.086644694
-0.074428335 0.612879 0.019250495 -0.07794681 -0.10623116 -0.0025981418 -0.106750414 0.01662565
-1.343258 1.4277848 -0.2975221 -0.97958237 -0.078200385 -0.036453854 -0.033664837 -1.0613303
-0.77422667 -0.80671686 -0.877532 0.5591478 -1.1508607 -0.16246706 0.39227512 -0.08649533
-0.21170415 0.6877517 -0.08667648 -0.37680417 -0.4164995 -0.4868047 -0.06507885 -0.8194192
-0.012705527 -1.2013754 0.38639608 -0.024199864 -0.31553108 -0.07566501 -0.042289656 0.39768267
-0.010272554 -0.74787176 -0.29915652 1.022685 0.0074199694 -0.102740124 -0.34832454 0.22562602
0.5688845 -0.040398158 -0.09298162 -0.9917771 0.012346774 0.33634073 -0.9339708 -0.45517594
0.12236183 -0.06250051 -0.8056276 -0.26794094 -1.0430304 0.0025341413 -0.11552338 0.011049018
-0.057799757 -1.2325625 -0.06837858 0.030048702 0.6429502 -0.2247378 0.0022612594 -1.1115396
-0.025279986 -0.50434864 -0.29989755 -1.1326255 -0.038933825 0.60892093 -1.0926403 -0.7718605
-0.062444896 0.3114187 -1.4535058 -1.2426978 -0.083896734 -1.1047887 -0.024771323 -0.0021206476
-0.43370163 -0.071085624 0.027743414 -0.07325684 -0.04756435 -0.030221382 -0.11183113 -0.0038041514
0.14039 -0.10264471 -0.068703435 -0.6699133 -1.0136305 -0.03772062 -0.06023738 -0.0016088731
-1.6900285 -1.337188 1.0332718 -0.030985286 -0.091624066 -0.53707004 -0.02983873 -0.4917474
-0.5920952 -0.08033061 -0.006286381 -0.42979252 -0.12564565 -0.05277288 0.017164284 -0.05688822
-0.2903161 -0.064260766 -0.84015286 -0.058399964 -0.7614153 -0.059045404 -0.07446816 -0.027481342
-1.0290842 -1.3055223 -1.1203859 -0.08894739 0.9587167 -1.1094226 -0.9634061 -0.08409564
-0.033224978 -0.17640132 -0.96562487 -1.2720175 -0.06385982 -1.2917566 -0.011275824 -0.4371955
-0.074183926 -0.0013009253 -0.10548092 0.040288046 -0.062213067 -1.0419351 -0.033331126 -1.0633134
-0.5034628 -0.09882482 0.029997598 1.1602893 -1.0833149 -1.0586777 -0.3313553 -0.035847034
-0.006283367 -0.061828926 -1.1560234 -0.33059743 -0.02263456 -0.95757884 -0.68717235 -1.0008346

model.4.weight f4 [1, 256]
00000000: bcd8 953c 33eb 8ebf 6f45 54c0 6ecd 3340
00000010: 70cb e4c0 29c8 4b3c 213b 26c0 79ed 3c3c
00000020: 9e33 b2bf 0161 fa3c 319a a23f bac8 943f
00000030: ca9c 3a3a 0838 56bf a92f 84bb 6c29 e3bf
00000040: 4ac4 86c0 3894 75c0 5c66 ecbc 929e 9ac0
00000050: 4ba0 f33f f443 3bc0 d630 06be ba66 75c0
00000060: 6da2 96c0 da3f 9b3f cfdd 203c f90c 04c0
00000070: 1435 4cc0 9cc7 99c0 c959 17bd 96ed 1f3d
00000080: 8a83 c33c 96b6 6fc0 05a4 fabf 716c e63f
00000090: 366e 7fc0 42ce cfbf e02f 4d3f dbbc 96c0
000000a0: 74b4 26c1 fee6 a5bf c2b3 503f 4bfb 5f3c
000000b0: 8e2a d6bc cff2 5c3c 4ae7 263d 7c82 cb3e
000000c0: fb74 1f40 6431 23c0 5fb6 f6bc 8126 1cc0
000000d0: 72f0 e63a 99b0 083f f2aa ee3c b58f 18c0
000000e0: 745b b23e 61ba 16bb 24b9 babf b051 10c0
000000f0: 3619 0fc0 0752 553c 1d63 753c b3b6 d73b
00000100: f257 01c0 af52 943f 1a49 253c b410 a63f
00000110: e762 31bf 4ba3 99bf aa61 60bc 46a9 1dbc
00000120: 6c7d 863f d412 1fc0 d9a1 1fbf 6683 c13e
00000130: 9910 ffbf 3557 b9bf 036f 3b3d 3b30 1fc0
00000140: 8c8f 2e3c 670e 1b3c cb10 c1bc d0d8 ca3c
00000150: 5d1e 8039 d12b aebf 8021 a9be 1357 c03c
00000160: 7894 14bc 175b 203f 0c21 963f 5dd8 06bc
00000170: a63f ebc0 6052 ebba 5158 53bc 9e7a 13c0
00000180: 931e 22c0 402e ab3e 801a 1b40 1658 71c0
00000190: 7e60 ae3c ff04 7a3c 8c72 f53c ac32 0dc0
000001a0: bf69 a0c0 32a2 12c0 0969 97c0 d1fc 0c3f
000001b0: a415 4ec0 4aa7 1440 0ac7 443f ff7d 95bf
000001c0: 51d9 5dc0 2681 ab3f 280c 8bbc b6cd d0bf
000001d0: 4574 71c0 0edf afc0 a724 21bc 76b9 0ac1
000001e0: 9a64 dd3c d64e 17c0 20d0 7240 4525 f5bf
000001f0: 732c d8bf ab14 bcbb c62c 363d 4eba d23f
00000200: cfdc 17bc ff3b 7dbf aacb 8ec0 6911 d23f
00000210: 9b26 f43c 3d08 c7bc cb63 86c0 f5e4 d8be
00000220: 223f 75c0 a4c5 3c3c d96a 663a 701b 04bf
00000230: d27f 1f3b 1861 bf3f cc96 ebbf b90b 2b3f
00000240: 8286 13c0 ba26 82ba 8537 66c0 236f a3c0
00000250: d282 3ec0 c34b 883c b485 52c0 b524 bbbb
00000260: b934 743c cde8 d1bf a6fc 733c 6363 0c3d
00000270: a50c b93f a6a3 15c0 2193 f1bc 925a 28c0
00000280: c753 843b 2b09 fbbf 79c0 a0bf 1e23 18c0
00000290: 30d5 0abc 95dd 0a3f 7025 80c0 895d b440
000002a0: aebf 3a3e ef73 da3e bc4f 6ec0 5c06 17c0
000002b0: 7ec0 5dbc 017e 0fc0 2482 ea3c afb2 343d
000002c0: 60d5 b4bf 9d89 683c 64f1 343b 893c 9dbc
000002d0: cf0c dfbb 85ff 3abc a67a f4bc c85e 32bc
000002e0: b884 efbf c8e8 313c 4510 9d3c e61c 1fc0
000002f0: 5722 2cc0 9ee5 1440 63a7 563f 1ef9 123d
00000300: fe74 9fc0 6e1b 21c0 1242 893f 79bb 86c0
00000310: 4742 833c 49fb 0dc0 0a92 143d e800 bf3f
00000320: 8ac6 8ac0 e558 9f3c 7bf0 6f3a 3830 56c0
00000330: ad4c d23b 5d9f 2bc0 a416 80bc 6e70 e9bc
00000340: 1542 9ac0 ea9e b93f 8687 d0bf 589c cb3c
00000350: e429 26c0 fa94 1abb 4573 3fbc e804 08bb
00000360: 743a 21c0 4ee0 18c0 3488 fabf 28a4 47bc
00000370: b04e f53e 7276 9ebf 57fa 19c0 b103 d83c
00000380: 1d08 3f3d 8221 96c0 89e6 19c0 ae1b 23c0
00000390: 51f6 2b3b 5685 ffbf 6647 ecbc d320 89c0
000003a0: a579 41bc 0707 c9bc 33d5 b3bc 1a8c 373d
000003b0: bba5 81bc f743 13c0 f0a9 9b3c f6cd 27c0
000003c0: db6a f1bf 6b23 e73c aac6 d53c a363 073f
000003d0: 0a9f c3c0 794e 35c0 7a46 b1bf 2276 bf3c
000003e0: b657 cdbb cf46 aa3c e701 43c0 900f e03f
000003f0: 615a 5ebc 5b42 33c0 b720 ccbe c437 99bf
0.018291824 -1.1165527 -3.316738 2.8094134 -7.1498337 0.012437859 -2.597359 0.011531227
-1.3922002 0.030563833 1.2703305 1.1623757 0.00071187003 -0.83679247 -0.004034002 -1.7747016
-4.211461 -3.8371716 -0.028857403 -4.8318567 1.9033293 -2.9260225 -0.13104567 -3.834395
-4.7073274 1.2128861 0.009818508 -2.0632918 -3.1907396 -4.8056164 -0.03695086 0.03904494
0.023866434 -3.7455192 -1.9581305 1.8001844 -3.9911017 -1.623482 0.80151176 -4.7105536
-10.419056 -1.2961118 0.8152429 0.013670753 -0.026143339 0.013485624 0.04074792 0.3974799
2.491515 -2.5498896 -0.030116258 -2.43985 0.0017619266 0.53394467 0.029134247 -2.3837712
0.34835398 -0.0022999274 -1.458775 -2.2549858 -2.2359138 0.013020045 0.014977244 0.0065830587
-2.0209928 1.1587733 0.01008823 1.2973847 -0.6929154 -1.2002958 -0.01369516 -0.009622877
1.0507026 -2.4855242 -0.62356335 0.37795562 -1.992694 -1.4479738 0.045760166 -2.4873188
0.010654341 0.009463883 -0.023567578 0.024761587 0.00024436685 -1.3607122 -0.3303337 0.02347902
-0.009068601 0.6263899 1.1728835 -0.008230296 -7.3515196 -0.0017953627 -0.012899474 -2.304359
-2.533116 0.33433723 2.4234924 -3.7710013 0.021286245 0.01525998 0.029961847 -2.2062178
-5.0129085 -2.2911496 -4.7315717 0.5507327 -3.2200708 2.3227105 0.7686621 -1.1679076
-3.466389 1.3398788 -0.01697357 -1.6312778 -3.7727215 -5.4959784 -0.009835399 -8.670279
0.02702551 -2.3641868 3.793953 -1.9151999 -1.6888565 -0.0057397685 0.044476293 1.6463106
-0.009268953 -0.9891967 -4.4623613 1.6411563 0.029803565 -0.02429592 -4.1996818 -0.4236218
-3.8319783 0.011521731 0.0008789725 -0.51604366 0.0024337661 1.4951506 -1.8405395 0.6681476
-2.3050847 -0.0009929754 -3.5971386 -5.1073165 -2.9767346 0.016637689 -3.2894106 -0.005711163
0.014905148 -1.639917 0.014891779 0.03427447 1.4456984 -2.3381133 -0.029489102 -2.630528
0.0040383074 -1.9612173 -1.2558738 -2.3771434 -0.008473679 0.5424436 -4.00457 5.636418
0.18237182 0.42666575 -3.7236166 -2.3597631 -0.013534663 -2.2420657 0.028626509 0.04411572
-1.4127617 0.014192966 0.00276097 -0.019193904 -0.006806947 -0.01141346 -0.02984364 -0.010886855
-1.8712378 0.010858722 0.019172797 -2.4861388 -2.689596 2.3265147 0.8384916 0.035882108
-4.9830313 -2.5172992 1.0723288 -4.210385 0.016022814 -2.2184622 0.036272086 1.4922152
-4.3367357 0.019451568 0.0009152961 -3.346693 0.006417832 -2.6816018 -0.015635796 -0.028495993
-4.8205667 1.4501622 -1.6291358 0.024854824 -2.5963068 -0.0023587332 -0.011685197 -0.0020754877
-2.5191927 -2.3886905 -1.9572816 -0.012185134 0.47911596 -1.2379897 -2.4059045 0.026368948
0.046638597 -4.6915903 -2.4046957 -2.5485644 0.0026239345 -1.9962566 -0.02884264 -4.285257
-0.0118087875 -0.024539484 -0.021952247 0.044811346 -0.015826097 -2.3010232 0.019001931 -2.6219459
-1.8860735 0.02821513 0.026095707 0.5288641 -6.113164 -2.8329146 -1.3849633 0.02337176
-0.0062665595 0.020785717 -3.046991 1.7504749 -0.013571353 -2.800925 -0.3986871 -1.1970143
