hw2/preTrained/ddpg_actor_LunarLanderContinuous-v2_04242023_173315_.pth (torch, 73623 bytes, 6 tensors)

model.0.weight f4 [128, 8]
0.08296188 -0.37551722 0.025734715 0.04611908 -0.11113597 0.042481557 0.24191515 0.53293437
0.010482368 -0.23244146 0.015180189 -0.11407123 0.19448085 0.18482526 0.304691 0.46233734
-0.16293374 -0.034979954 0.12944159 -0.17751758 -0.17968133 -0.44143593 -0.42257643 -0.34210706
-0.35210592 -0.18713462 -0.12212847 -0.408291 -0.42231062 0.13190524 0.2695866 0.015513943
0.30177233 0.12405816 0.098236986 -0.2784525 0.38870484 0.024513923 0.5350823 -0.01429295
0.41874835 0.3046788 -0.065502286 -0.08398239 0.12490115 0.053594455 0.22889924 0.2555594
-0.23987457 -0.0060269735 -0.38175595 0.39814466 -0.07718796 0.17170303 -0.22215898 0.3061249
0.049573906 -0.044991855 0.4546833 0.2002082 -0.52695525 -0.69298 -0.10704256 0.05262688
0.13961545 0.30414012 0.15559506 -0.179138 -0.2821263 0.31523636 0.5025487 -0.4000663
-0.187875 0.40737942 -0.30396727 -0.19945225 -0.45255825 0.016811984 -0.01632528 -0.12172153
-0.38310498 -0.061862625 0.12662192 -0.032625183 0.32614273 -0.05705507 -0.01326464 0.31594878
-0.3711078 0.18263546 -0.3710076 0.5374467 0.46943107 0.08365361 -0.18055163 0.2354546
-0.3629276 0.012804517 -0.3531484 0.026246814 0.08020646 0.5066803 0.5771943 0.05110729
-0.06862586 0.25489366 0.24387608 0.32774976 -0.08158204 -0.030273793 0.21620663 0.16552605
0.22462946 -0.18966016 0.26687932 -0.2716045 -0.10710888 -0.17180474 -0.20137306 0.21168739
0.2249726 0.1569552 -0.49007362 -0.19139373 0.36803314 0.12946527 -0.23733383 0.39640847
-0.48369202 0.12268616 -0.29346934 0.2963961 0.14660323 0.04083022 0.012944714 0.04324045
0.09999523 0.358677 -0.3800885 -0.3745197 -0.22590382 0.42399275 0.1645977 -0.29897463
-0.10476542 0.077475846 0.23075269 -0.20168158 0.06687842 -0.13284837 -0.60638434 0.19062753
-0.2011362 0.062979095 -0.06922979 -0.29859528 0.13486175 0.4709876 0.40101776 0.018989008
-0.5298722 -0.29086798 -0.33179322 -0.21138363 -0.18900065 0.18999009 -0.27097654 0.006187796
-0.18926138 0.19363852 0.09575032 0.44040716 0.15951441 -0.2597517 0.40491033 -0.08276341
0.258678 -0.58816326 0.28084534 0.048924662 0.15411133 0.10562903 0.54871136 0.3177407
-0.08708158 -0.18647633 -0.040784046 0.1513165 0.38557443 0.3969441 0.22209981 0.19377625
-0.4056314 -0.38976133 0.26187688 -0.42772585 -0.20093288 0.20124474 -0.10384677 -0.49530458
-0.22319326 0.27611145 0.14517562 0.04839794 -0.14741397 -0.28431383 0.4258296 -0.2822729
-0.21971227 0.2636175 0.2730933 -0.3307985 -0.60995287 -0.12185128 -0.12421915 0.096747585
0.22333598 0.042662404 -0.22815435 0.06939734 0.33274993 0.42977154 -0.24489768 0.0051700296
-0.40707517 -0.1919476 0.038706772 0.03642057 0.37587172 0.351266 0.04399152 -0.077568464
0.46545255 0.27695122 0.42048597 0.42364326 0.11591729 0.1609685 0.18164845 0.04862596
-0.13574556 0.26305452 0.31775162 0.497335 -0.17469174 -0.023689354 0.11004827 -0.3411403
-0.20333104 0.2773588 -0.44144264 -0.118930385 0.24279822 0.1494899 -0.44147876 0.031736497
00000000: ebe7 a93d cb43 c0be 9cd1 d23c 5ce7 3c3d
00000010: 419b e3bd 2401 2e3d 9bb8 773e 636e 083f
00000020: 3dbe 2b3c 2205 6ebe 54b6 783c 2d9e e9bd
00000030: fd25 473e d542 3d3e 7500 9c3e 7bb7 ec3e
00000040: 1ad8 26be 2447 0fbd 568c 043e 2bc7 35be
00000050: 62fe 37be e403 e2be f05b d8be a828 afbe
00000060: 3a47 b4be 38a0 3fbe 7e1e fabd 850b d1be
00000070: 1939 d8be 2b12 073e 4107 8a3e 312e 7e3c
00000080: e781 9a3e 3412 fe3d 7930 c93d 5391 8ebe
00000090: 5204 c73e 6cd1 c83c 27fb 083f fa2c 6abc
000000a0: 2f66 d63e dcfe 9b3e 1026 86bd f6fe abbd
000000b0: 2dcc ff3d dc85 5b3d 9064 6a3e afd8 823e
000000c0: aea1 75be eb7d c5bb 8475 c3be 9ed9 cb3e
000000d0: b914 9ebd ebd2 2f3e a57d 63be 67bc 9c3e
000000e0: 020e 4b3d 6149 38bd 40cc e83e 6103 4d3e
000000f0: 8ae6 06bf 2367 31bf 2139 dbbd 498f 573d
00000100: 5af7 0e3e 41b8 9b3e 5054 1f3e f46f 37be
00000110: dc72 90be a966 a13e 08a7 003f 7dd5 ccbe
00000120: 4e62 40be 0994 d03e 99a1 9bbe 363d 4cbe
00000130: b7b5 e7be 49b9 893c 98bc 85bc 2349 f9bd
00000140: 5626 c4be aa63 7dbd 2da9 013e fca1 05bd
00000150: 2efc a63e 94b2 69bd ef53 59bc 0ac4 a13e
00000160: d701 bebe ca04 3b3e b5f4 bdbe 1b96 093f
00000170: 4559 f03e 9552 ab3d 87e2 38be 031b 713e
00000180: a5d1 b9be 09ca 513c decf b4be 8f03 d73c
00000190: 4943 a43d cdb5 013f 01c3 133f e155 513d
000001a0: b78b 8cbd 6c81 823e a7ba 793e d1ce a73e
000001b0: 7c14 a7bd bf00 f8bc 4565 5d3e a97f 293e
000001c0: 4405 663e 4636 42be 68a4 883e bf0f 8bbe
000001d0: e75b dbbd 95ed 2fbe bd34 4ebe 94c4 583e
000001e0: 385f 663e ddb8 203e eeea fabe b8fc 43be
000001f0: d76e bc3e 8b92 043e a407 73be 0df6 ca3e
00000200: 7ba6 f7be e242 fb3d 9d41 96be 3bc1 973e
00000210: 281f 163e 973d 273d 1116 543c e61c 313d
00000220: 4dca cc3d 83a4 b73e f69a c2be 0cc1 bfbe
00000230: 5553 67be 9415 d93e 4d8c 283e 3413 99be
00000240: 418f d6bd a8ab 9e3d 6f4a 6c3e 9e85 4ebe
00000250: 8ef7 883d 6709 08be 013c 1bbf dd33 433e
00000260: a6f6 4dbe 2ffb 803d 59c8 8dbd 7be1 98be
00000270: 3319 0a3e 4925 f13e 3352 cd3e d68e 9b3c
00000280: b4a5 07bf a6ec 94be cde0 a9be f374 58be
00000290: 6389 41be c38c 423e 70bd 8abe ffc2 ca3b
000002a0: bccd 41be 2d49 463e be18 c43d 0c7d e13e
000002b0: bf57 233e 2dfe 84be 6850 cf3e dd7f a9bd
000002c0: 7171 843e de91 16bf f6ca 8f3e 3a65 483d
000002d0: 5ccf 1d3e 0854 d83d 5978 0c3f e9ae a23e
000002e0: d457 b2bd a7f3 3ebe 2c0d 27bd b6f2 1a3e
000002f0: 036a c53e 423c cb3e 226e 633e 486d 463e
00000300: ebae cfbe cc8e c7be ba14 863e e2fe dabe
00000310: 59c1 4dbe 1a13 4e3e 9ead d4bd 9098 fdbe
00000320: c68c 64be 7b5e 8d3e eba8 143e eb3c 463d
00000330: b0f3 16be 9591 91be 5606 da3e 1386 90be
00000340: 41fc 60be dff8 863e e3d2 8b3e 6c5e a9be
00000350: df25 1cbf 2a8d f9bd 9c66 febd 9923 c63d
00000360: 30b2 643e c6be 2e3d 4ba1 69be 3120 8e3d
00000370: 335e aa3e 040b dc3e 75c6 7abe 5a69 a93b
00000380: 286c d0be e98d 44be fe8a 1e3d bc2d 153d
00000390: 4272 c03e 23d9 b33e 7430 343d 37dc 9ebd
000003a0: cc4f ee3e 8dcc 8d3e f049 d73e c5e7 d83e
000003b0: 0b66 ed3d edd4 243e 0d02 3a3e 042c 473d
000003c0: e200 0bbe 15af 863e 57b0 a23e b1a2 fe3e
000003d0: 64e2 32be 2d10 c2bc fd60 e13d f1a9 aebe
000003e0: 0336 50be f901 8e3e c504 e2be c691 f3bd
000003f0: 19a0 783e e113 193e 8109 e2be 21fe 013d

model.0.bias f4 [128]
-0.11064474 0.47415686 0.11233418 0.48269475 -0.11977703 -0.07971888 0.15311041 0.2619397
-0.080075264 -0.14918067 0.321427 -0.08475308 0.33613768 -0.0035338555 0.5315355 -0.08132707
-0.0946828 0.029727357 0.02154876 0.32554108 -0.04994668 0.067349695 0.11883217 -0.15975791
0.14312074 -0.10358373 -0.22761133 0.3176622 0.04872647 -0.033710513 -0.24448639 -0.28530985
0.1749987 0.27500135 0.03882316 -0.107026346 -0.25792518 0.053193 0.24085274 -0.01892766
0.39705482 0.39217645 -0.029431773 0.0073749633 -0.31506187 0.30493122 -0.13754256 0.019848514
-0.21961035 0.047635294 0.24751699 -0.44178826 0.12250997 -0.022804735 0.11767659 -0.07473419
0.36766246 0.35310164 0.3012746 0.24404544 0.14741275 0.35945457 0.26197746 -0.24739687
0.21540064 0.0077956617 -0.22144595 0.09136285 -0.1269025 -0.06857503 -0.063207 0.36042017
-0.101882875 0.062262855 0.16463476 0.0322605 -0.13090043 -0.021520875 -0.00947827 0.3034179
-0.40102366 0.19447917 0.20590167 0.010588091 0.5306806 0.40989897 0.1472895 0.37092578
0.31009808 0.017157193 0.28367957 0.21328829 0.22890908 0.2979693 0.042381663 0.15092328
0.35464117 0.37443024 0.1326164 -0.053699397 -0.22219944 -0.14311954 0.2810405 0.2279309
0.26424593 0.30452904 -0.1652156 0.16801156 0.003456106 -0.16956423 0.02432907 -0.12910661
0.121979564 0.33359334 -0.04500693 -0.07354171 0.26012513 0.21518008 -0.2826493 -0.072028674
0.40480703 -0.12420308 -0.12400918 0.006246535 -0.14938211 -0.104058966 0.31811023 -0.1885439
00000000: b699 e2bd b0c4 f23e 760f e63d c423 f73e
00000010: a94d f5bd a743 a3bd fac8 1c3e f61c 863e
00000020: 80fe a3bd d1c2 18be 1492 a43e 0693 adbd
00000030: 3d1a ac3e 4298 67bb b612 083f cf8e a6bd
00000040: 0ee9 c1bd c986 f33c 0687 b03c 52ad a63e
00000050: e494 4cbd a3ee 893d 485e f33d 9497 23be
00000060: 3e8e 123e b523 d4bd f212 69be 9fa4 a23e
00000070: 6895 473d 0914 0abd a45a 7abe 2214 92be
00000080: dc32 333e facc 8c3e 0905 1f3d a130 dbbd
00000090: c50e 84be e7e0 593d 1aa2 763e 2e0e 9bbc
000000a0: c54a cb3e 5acb c83e e71a f1bc ada9 f13b
000000b0: ca4f a1be f21f 9c3e f5d7 0cbe 5a99 a23c
000000c0: 89e1 60be 3a1d 433d 1875 7d3e 1232 e2be
000000d0: 82e6 fa3d ffd0 babc 6d00 f13d 3d0e 99bd
000000e0: 413e bc3e bdc9 b43e aa40 9a3e 0ce7 793e
000000f0: 5ef3 163e 6e0a b83e e921 863e 9b55 7dbe
00000100: fc91 5c3e c072 ff3b bac2 62be 721c bb3d
00000110: bbf2 01be 1171 8cbd ac72 81bd fe88 b83e
00000120: f8a7 d0bd 5607 7f3d 0496 283e 9623 043d
00000130: c30a 06be 8c4c b0bc bf4a 1bbc 9759 9b3e
00000140: f952 cdbe 8c25 473e e3d7 523e ac79 2d3c
00000150: afda 073f 47de d13e 0fd3 163e fce9 bd3e
00000160: 2dc5 9e3e 3e8d 8c3c 733e 913e 3f68 5a3e
00000170: 2467 6a3e 6f8f 983e 6598 2d3d a28b 1a3e
00000180: 8793 b53e 52b5 bf3e 98cc 073e e6f3 5bbd
00000190: 4088 63be ee8d 12be 8ae4 8f3e b866 693e
000001a0: 3e4b 873e 3beb 9b3e 472e 29be 390b 2c3e
000001b0: d67f 623b 3fa2 2dbe c24d c73c 8634 04be
000001c0: 6cd0 f93d bfcc aa3e 3059 38bd 099d 96bd
000001d0: 1f2f 853e 2b58 5c3e 69b7 90be c583 93bd
000001e0: de42 cf3e 2f5e febd 86f8 fdbd bcaf cc3b
000001f0: a0f7 18be de1c d5bd 58df a23e a711 41be

model.2.weight f4 [128, 128]
-0.119374506 -0.08642402 -0.035091765 0.03283161 -0.16445693 0.015160902 0.07865878 0.025726097
-0.01638732 -0.026246734 -0.17057593 -0.11866778 -0.03770981 -0.063211575 0.01493355 0.033491574
-0.027722921 0.027156638 -0.0038435988 -0.06102264 0.13275044 0.048944935 -0.36384907 0.2301571
-0.19569848 -0.07480722 0.08752025 0.024757715 0.10191413 0.030531323 -0.089648984 0.055615213
0.06338766 0.022398448 0.031375043 0.070771575 -0.07124224 0.07453685 0.041412935 -0.04917716
-0.09471382 0.04060305 0.076785 -0.017161544 -0.004446174 0.041275255 0.05912098 -0.04578204
0.1738921 0.00031978867 0.12073218 0.21200894 -0.0354089 0.055562098 -0.108393006 0.12230449
-0.03726069 -0.20876199 0.050137345 0.051221572 0.02434526 0.060624663 -0.16844697 -0.10583062
0.008402542 0.018514229 -0.013557197 -0.12969385 -0.0051737283 0.09626119 -0.0072483807 0.16985524
0.22341657 0.064227946 -0.23641022 -0.039509542 0.04936033 0.027113667 0.12603518 -0.009193398
0.16801533 0.07075547 -0.16802323 -0.07944665 0.076759234 0.039827347 0.11319216 0.08331373
0.003649622 -0.030168168 0.06831996 0.037907545 -0.0038833718 -0.04495307 0.051052112 0.06521802
0.040519256 -0.062165022 -0.016998956 0.09706744 0.033651676 -0.06496077 0.027876852 -0.11803737
-0.01548864 0.058422573 0.12616587 -0.03413017 0.061599836 -0.21261181 -0.013129591 -0.00809856
0.06039064 0.022564009 -0.060230438 0.06787672 -0.20918806 0.09631941 0.05561012 -0.07183266
0.045400545 0.2451172 0.058871478 0.04204407 0.07717685 -0.18311863 0.0011143107 -0.101006135
0.13250746 -0.027648082 0.0103534255 0.15008597 -0.07454941 0.08112388 0.08206201 -0.26730084
0.022738334 -0.06365843 0.08931573 -0.13742565 0.095771275 0.034457393 0.063342944 0.016873257
-0.07808061 -0.013996165 -0.03158337 0.014066605 0.031774767 0.023245255 0.04848035 0.019450039
-0.006226003 -0.04084405 -0.10431506 -0.007000186 0.05086438 0.02356813 0.09674685 0.029801311
0.059453707 -0.019983815 -0.053764503 -0.030819194 -0.071808375 0.00062557706 -0.053674594 -0.04282708
-0.024332628 -0.13030204 0.17895262 -0.008638189 0.07356336 0.08053191 -0.06574595 -0.039927583
-0.063091524 -0.07557172 -0.028413462 0.0035159928 -0.07751343 0.056907337 0.061489515 -0.15579133
0.13245372 0.054942798 0.03451761 -0.035777435 -0.077060424 0.031161295 -0.05647489 0.049147755
-0.10554006 0.009261354 0.03963942 -0.2080743 0.0049995403 0.00039687625 0.07941263 0.108128674
0.04904254 0.16771474 0.02426714 0.12649858 -0.06424559 0.09739306 -0.02149748 -0.033191882
0.100002535 -0.0015679727 0.10570154 0.020584406 0.07730953 0.01502807 0.05469502 0.026272679
0.04531535 0.033604566 -0.12847216 0.05712733 -0.04514167 0.06271771 -0.059434596 -0.0990109
-0.024716564 0.038686384 -0.08437001 -0.03216001 0.045314815 0.10731881 -0.07240556 0.03895694
0.076285355 -0.048155855 0.047065336 0.09249907 -0.079138845 -0.040930957 -0.0657199 -0.005590826
0.109037444 -0.034206223 -0.04014691 0.065445215 -0.004861404 0.12951621 -0.1504762 0.017453102
-0.095901646 0.13632378 -0.12247073 0.05067348 0.1371127 0.06550183 -0.07003468 0.025172178
00000000: 9f7a f4bd 14ff b0bd 62bc 0fbd 707a 063d
00000010: 6667 28be 6f65 783c db17 a13d 89bf d23c
00000020: b33e 86bc 6403 d7bc 75ab 2ebe 1808 f3bd
00000030: 9a75 1abd 1275 81bd d9ab 743c 762e 093d
00000040: 2e1b e3bc 9977 de3c e3e4 7bbb e0f2 79bd
00000050: bbef 073e 7c7a 483d 6d4a babe 4eae 6b3e
00000060: 2f65 48be 8734 99bd d13d b33d b1d0 ca3c
00000070: 5bb8 d03d d31c fa3c e399 b7bd c7cc 633d
00000080: 64d1 813d f37c b73c 1e83 003d b0f0 903d
00000090: 74e7 91bd c7a6 983d 9ca0 293d fd6d 49bd
000000a0: 52f9 c1bd 624f 263d 7441 9d3d 5e96 8cbc
000000b0: 36b1 91bb 3e10 293d d728 723d f385 3bbd
000000c0: c510 323e 4fa9 a739 6f42 f73d df18 593e
000000d0: ec08 11bd 1595 633d 27fd ddbd c77a fa3d
000000e0: aa9e 18bd b4c5 55be d15c 4d3d b6cd 513d
000000f0: b66f c73c 9151 783d 5d7d 2cbe b9bd d8bd
00000100: d1aa 093c 27ab 973c 011f 5ebc 77ce 04be
00000110: 6188 a9bb 9624 c53d d383 edbb 88ee 2d3e
00000120: 50c7 643e f189 833d 8515 72be c2d4 21bd
00000130: 0f2e 4a3d 7b1d de3c 5e0f 013e e89f 16bc
00000140: 360c 2c3e 3ee8 903d 480e 2cbe edb4 a2bd
00000150: f233 9d3d 0022 233d 4bd1 e73d 64a0 aa3d
00000160: 7f2e 6f3b 3c23 f7bc 56eb 8b3d f144 1b3d
00000170: 2b80 7ebb b620 38bd 051c 513d 0691 853d
00000180: 85f7 253d c0a0 7ebd 6541 8bbc 4bcb c63d
00000190: 57d6 093d 270a 85bd ff5d e43c 94bd f1bd
000001a0: 11c4 7dbc 824c 6f3d a031 013e 14cc 0bbd
000001b0: 1c50 7c3d e9b6 59be 7f1d 57bc d3af 04bc
000001c0: 2d5c 773d 28d8 b83c 31b4 76bd f302 8b3d
000001d0: 6535 56be 1c43 c53d 70c7 633d 001d 93bd
000001e0: ecf5 393d 0100 7b3e 3823 713d 6736 2c3d
000001f0: e50e 9e3d 7383 3bbe 100e 923a 4edc cebd
00000200: 09b0 073e 3b7e e2bc 6aa1 293c 23b0 193e
00000210: 5cad 98bd 4724 a63d 2110 a83d a8db 88be
00000220: be45 ba3c 5a5f 82bd 2aeb b63d 4fb9 0cbe
00000230: bb23 c43d 3223 0d3d f2b9 813d c939 8a3c
00000240: bae8 9fbd 2c50 65bc 905d 01bd 9e77 663c
00000250: 4226 023d d56c be3c 5593 463d b055 9f3c
00000260: 8003 ccbb 174c 27bd 22a3 d5bd d161 e5bb
00000270: 2b57 503d f311 c13c 3623 c63d e121 f43c
00000280: bb85 733d 19b5 a3bc 2b38 5cbd 8978 fcbc
00000290: 4510 93bd c4fd 233a e4d9 5bbd 736b 2fbd
000002a0: 3855 c7bc e66d 05be 5b3f 373e 3187 0dbc
000002b0: 63a8 963d eaed a43d d0a5 86bd 1b8b 23bd
000002c0: 2136 81bd 59c5 9abd 59c3 e8bc 926c 663b
000002d0: 5cbf 9ebd ab17 693d 6edc 7b3d c387 1fbe
000002e0: f3a1 073e b30b 613d 5662 0d3d 5c8b 12bd
000002f0: dbd1 9dbd f945 ff3c 3752 67bd 284f 493d
00000300: 6325 d8bd efbc 173c f25c 223d 6e11 55be
00000310: 2fd3 a33b d413 d039 17a3 a23d 9172 dd3d
00000320: d5e0 483d 6abd 2b3e e2cb c63c d888 013e
00000330: 3193 83bd 0376 c73d 7c1b b0bc 36f4 07bd
00000340: 21ce cc3d 6f84 cdba 0d7a d83d a1a0 a83c
00000350: 7554 9e3d 4b38 763c e307 603d cd39 d73c
00000360: 979c 393d f1a4 093d 358e 03be 59fe 693d
00000370: 79e6 38bd 2572 803d b171 73bd 3ac6 cabd
00000380: 647a cabc 9d75 1e3d 2fca acbd 37ba 03bd
00000390: 079c 393d f7c9 db3d 5e49 94bd 5091 1f3d
000003a0: 7f3b 9c3d 133f 45bd 95c7 403d 2770 bd3d
000003b0: 8c13 a2bd 38a7 27bd 2898 86bd 3f33 b7bb
000003c0: 064f df3d d31b 0cbd 1671 24bd 2408 863d
000003d0: 6a4c 9fbb e69f 043e 6f16 1abe cff9 8e3c
000003e0: 1568 c4bd 7698 0b3e efd1 fabd ff8e 4f3d
000003f0: 4667 0c3e d325 863d 586e 8fbd e235 ce3c

model.2.bias f4 [128]
-0.06831086 0.034183767 0.0775245 -0.069785275 -0.15107425 0.027621035 0.04460414 0.12388351
0.07732942 0.09636186 0.087255515 -0.09411079 0.008550348 -0.07861621 0.0061632935 0.040668212
-0.14225711 0.022758838 -0.030066613 -0.014691079 0.05778859 0.012308224 0.024091206 0.01700189
-0.0031634916 0.12074061 0.067940764 -0.060492408 -0.112200305 -0.04091449 -0.07873586 0.049866386
0.009343723 -0.055112243 -0.15714002 0.10699192 -0.049771924 0.093743704 0.019439979 -0.0031864988
0.019315936 0.07504025 -0.029863367 0.00030558906 0.008587458 0.037807494 0.048455212 0.027855773
0.04939027 0.07193262 0.094582535 0.019426005 -0.083918504 0.0055717058 0.094712496 -0.010718377
0.062297937 0.035347875 -0.05498778 0.10162759 0.06162339 0.034675024 0.08600304 -0.009948722
-0.094947 -0.00048335342 -0.07666431 0.03733017 0.11170776 0.05772282 0.022538885 0.08293693
-0.05584141 -0.013318079 -0.08079837 -0.0060247527 0.029844202 0.041475207 0.026913248 0.09182738
0.052832276 0.00018612877 0.0041069086 -0.034236085 0.065074146 -0.050386544 0.13317028 0.011256256
-0.02943508 0.0999528 0.03947117 0.033811454 -0.051308878 0.08125906 -0.028077316 -0.09717427
-0.014367688 0.102504686 0.08710245 0.005613406 -0.0017106228 0.06350489 0.064700104 -0.016490512
-0.018878615 0.06344109 0.047901724 0.022745648 -0.009484612 -0.08176492 -0.08380808 0.09640891
0.09504038 0.03616152 -0.016395546 0.04077136 -0.03993375 0.13438082 -0.01368548 -0.06372537
0.016689982 -0.080795564 0.10051657 0.09448692 -0.038214125 0.08785767 0.06420382 -0.0633463
00000000: 90e6 8bbd 4704 0c3d 2ac5 9e3d 95eb 8ebd
00000010: 35b3 1abe 8245 e23c d5b2 363d a3b6 fd3d
00000020: e35e 9e3d 5e59 c53d 05b3 b23d 28bd c0bd
00000030: c216 0c3c 8901 a1bd 74f5 c93b b693 263d
00000040: d9ab 11be be70 ba3c 424e f6bc dab2 70bc
00000050: bbb3 6c3d 6fa8 493c ec5a c53c 8c47 8b3c
00000060: 9552 4fbb da46 f73d 8724 8b3d e3c6 77bd
00000070: 46c9 e5bd f495 27bd 4440 a1bd b240 4c3d
00000080: 6a16 193c 60bd 61bd 50e9 20be 941e db3d
00000090: a5dd 4bbd b3fc bf3d 9740 9f3c 94d4 50bb
000000a0: 743c 9e3c b4ae 993d 05a4 f4bc 7837 a039
000000b0: 69b2 0c3c 08dc 1a3d f978 463d ca31 e43c
000000c0: 744d 4a3d 6951 933d 7db4 c13d 4923 9f3c
000000d0: 77dd abbd db92 b63b a0f8 c13d 229c 2fbc
000000e0: 1f2c 7f3d efc8 103d de3a 61bd 2022 d03d
000000f0: cf68 7c3d 6607 0e3d 5d22 b03d f7ff 22bc
00000100: 9373 c2bd 996a fdb9 2e02 9dbd 85e7 183d
00000110: 0ac7 e43d c46e 6c3d 78a3 b83c d6da a93d
00000120: f6b9 64bd 1234 5abc 9e79 a5bd 4a6b c5bb
00000130: d47b f43c e8e1 293d 2c79 dc3c fe0f bc3d
00000140: a866 583d 902b 4339 3f93 863b 233b 0cbd
00000150: 9845 853d 1f62 4ebd ca5d 083e 296c 383c
00000160: d621 f1bc 0eb4 cc3d 86ac 213d e17d 0a3d
00000170: 4229 52bd 266b a63d 6602 e6bc 4e03 c7bd
00000180: 7466 6bbc faed d13d c562 b23d aaf0 b73b
00000190: fa36 e0ba da0e 823d 7d81 843d 1c17 87bc
000001a0: 53a7 9abc 67ed 813d 9934 443d 1555 ba3c
000001b0: 5965 1bbc 5e74 a7bd 92a3 abbd 0972 c53d
000001c0: 88a4 c23d 1a1e 143d f44f 86bc dfff 263d
000001d0: 9291 23bd 209b 093e 1039 60bc 7282 82bd
000001e0: 6eb9 883c 2578 a5bd a2db cd3d 5c82 c13d
000001f0: 6a86 1cbd b9ee b33d 4b7d 833d b4bb 81bd

model.4.weight f4 [2, 128]
-0.105448216 -0.11269971 -0.023233939 -0.16673224 0.2726958 -0.259153 0.33506724 -0.11128997
-0.12834993 -0.23553085 -0.12829436 -0.0074725226 -0.19689155 0.14586139 0.30909437 -0.027191773
-0.23249742 0.33731422 -0.064174905 -0.26105526 -0.13330744 0.17786431 -0.40585843 0.20848599
-0.467236 -0.17255229 -0.08924916 0.052535072 -0.14867204 -0.29036996 -0.3418758 -0.1542198
0.062195677 -0.103641436 0.35619426 -0.027416075 -0.23636241 -0.05962995 -0.1210771 0.063649744
-0.025484217 -0.1083616 0.078032695 -0.10117455 -0.18172367 0.22613515 0.18151657 0.13079807
0.16369334 0.18809828 -0.28287643 -0.06878957 0.04693182 0.31681868 -0.088781014 0.17237394
0.01872289 0.2724032 -0.04926869 -0.12067655 0.0756928 -0.16591817 -0.41512406 0.30865768
0.25563034 0.25477424 0.2766596 0.024296802 0.3085564 0.00043721712 0.06256503 0.35007986
0.1977268 0.12098279 0.1951347 0.1193895 0.29720348 -0.21271163 -0.09724259 -0.33659008
0.25721714 0.024226218 0.17929368 -0.10417041 0.27645928 0.10990016 0.0907788 -0.17784129
-0.10831646 -0.48645467 0.27975392 -0.16213827 -0.027138669 -0.05558709 0.06098575 0.23445387
-0.093358144 -0.2298767 -0.20280088 -0.25920483 -0.41680768 0.087740175 -0.2580011 -0.06148359
-0.2829507 -0.03508488 0.06901297 0.023062775 -0.024859224 0.048445754 0.1253212 -0.18844359
0.17051807 0.21535386 0.07644748 -0.16134813 0.37324607 0.23013315 -0.030281896 -0.042545184
0.17779969 0.29107606 0.3156796 0.19339964 0.20731552 0.32944468 0.10918714 -0.23738715
0.21548544 0.13723178 -0.040391058 -0.07989149 0.32019678 0.061512027 -0.1613881 0.14560212
0.5760247 -0.048272405 0.097974166 -0.2175047 0.16741914 0.23403157 -0.26694432 -0.0137383845
0.27136728 -0.17127974 0.11971699 0.0502552 0.14415272 -0.028084172 -0.12430064 -0.2377211
0.0058160857 -0.16771342 0.10691977 -0.14627858 -0.20726575 0.28745437 0.15938163 -0.12897646
0.27624983 0.32262298 0.095339544 0.21744828 0.11253 -0.22914413 0.04322162 0.03631771
-0.12153739 0.16462727 -0.13332355 0.14368193 0.25720778 -0.11898693 -0.2923189 0.3182481
-0.060978428 0.14895616 -0.23251367 -0.015043595 -0.23299204 -0.036651842 0.14972274 -0.32425615
-0.15096769 -0.12230294 -0.1255033 -0.013881865 -0.07988289 -0.18288149 -0.41391504 -0.076533325
0.011088732 -0.1004944 -0.19737855 0.25115025 0.15459825 0.06602483 0.18107156 0.15631473
0.16179232 0.20168169 -0.12041935 -0.05560151 -0.0074227504 0.048108555 -0.11914227 -0.102789044
-0.294838 0.07613811 0.22198284 -0.14086056 0.1031791 0.11410468 0.31574032 0.18982103
0.20451222 0.24985257 -0.21588847 -0.012085387 -0.123144016 0.2277409 -0.09477909 0.14614889
-0.074576154 0.26495382 0.05309846 0.08794452 0.2655693 -0.3581453 -0.12456551 -0.007822908
0.10165504 0.20688267 -0.010443248 0.1882132 0.32025468 -0.25895983 -0.0082477005 0.013589807
0.021767637 -0.024796566 -0.0033565296 0.2932904 0.17812003 0.080914736 -0.025147818 0.3310436
-0.38186103 0.16944827 -0.09148406 0.24136382 0.22978114 -0.3570157 -0.102952614 0.12038117
00000000: 3cf5 d7bd 1bcf e6bd 1a55 bebc dbbb 2abe
00000010: c99e 8b3e b4af 84be ef8d ab3e ffeb e3bd
00000020: 2a6e 03be 002f 71be 995f 03be 10dc f4bb
00000030: f09d 49be b05c 153e 9e41 9e3e 48c1 debc
00000040: ce13 6ebe 73b4 ac3e 226e 83bd 09a9 85be
00000050: bf81 08be 1022 363e adcc cfbe 5a7d 553e
00000060: 8f39 efbe 8cb1 30be 43c8 b6bd 042f 573d
00000070: 7c3d 18be 5fab 94be 580a afbe cceb 1dbe
00000080: e5c0 7e3d f641 d4bd 185f b63e ad97 e0bc
00000090: fd08 72be 893e 74bd 45f7 f7bd cc5a 823d
000000a0: 47c4 d0bc b0ec ddbd 9bcf 9f3d 9a34 cfbd
000000b0: c515 3abe f98f 673e 7bdf 393e eeef 053e
000000c0: 3a9f 273e d69c 403e 2ed5 90be 8ce1 8cbd
000000d0: 953b 403d 0f36 a23e d2d2 b5bd cb82 303e
000000e0: bf60 993c 6f78 8b3e f7cd 49bd 4425 f7bd
000000f0: d404 9b3d 74e6 29be 248b d4be 6108 9e3e
00000100: fbe1 823e c571 823e 54a6 8d3e 160a c73c
00000110: 1bfb 9d3e 4a3a e539 1822 803d ab3d b33e
00000120: e578 4a3e d3c5 f73d 64d1 473e 7b82 f43d
00000130: 0e2b 983e 14d1 59be 1f27 c7bd 8955 acbe
00000140: f7b1 833e 1076 c63c c398 373e 4c57 d5bd
00000150: 128c 8d3e 5613 e13d 3cea b93d 071c 36be
00000160: 05d5 ddbd 9610 f9be e83b 8f3e 9307 26be
00000170: ea51 debc 4aaf 63bd 32cc 793d ad14 703e
00000180: 8e32 bfbd cc64 6bbe 09ab 4fbe 7fb6 84be
00000190: d167 d5be 1fb1 b33d b818 84be 38d6 7bbd
000001a0: eade 90be 2ab5 0fbd ac56 8d3d 25ee bc3c
000001b0: 92a5 cbbc 0e6f 463d 3354 003e 5bf7 40be
000001c0: 4a9c 2e3e b985 5c3e 7f90 9c3d 7238 25be
000001d0: 1c1a bf3e 06a8 6b3e bd11 f8bc dc43 2ebd
000001e0: 1f11 363e ec07 953e c2a0 a13e 8e0a 463e
000001f0: 854a 543e f9ac a83e 829d df3d 9e15 73be
00000200: 37a8 5c3e 7d86 0c3e 1871 25bd 269e a3bd
00000210: d5f0 a33e 09f4 7b3d ec42 25be b918 153e
00000220: 5b76 133f 49b9 45bd aea6 c83d 8db9 5ebe
00000230: ec6f 2b3e f9a5 6f3e edac 88be f616 61bc
00000240: a7f0 8a3e f563 2fbe 2e2e f53d 66d8 4d3d
00000250: c59c 133e c710 e6bc 5591 febd 296d 73be
00000260: dd94 be3b 11bd 2bbe c1f8 da3d 0dca 15be
00000270: 793d 54be 382d 933e f034 233e 6812 04be
00000280: 9e70 8d3e d72e a53e 6141 c33d c3aa 5e3e
00000290: 2176 e63d c2a4 6abe 2709 313d e1c1 143d
000002a0: 98e8 f8bd 0d94 283e f885 08be 5b21 133e
000002b0: bdb0 833e 6baf f3bd d3aa 95be 6af1 a23e
000002c0: 84c4 79bd f787 183e 1018 6ebe 6979 76bc
000002d0: 7795 6ebe 3e20 16bd eb50 193e e704 a6be
000002e0: 4697 1abe f779 fabd f083 00be c370 63bc
000002f0: a499 a3bd 4945 3bbe acec d3be 81bd 9cbd
00000300: 83ad 353c 02d0 cdbd 9a1d 4abe c496 803e
00000310: 014f 1e3e 0738 873d d36a 393e f810 203e
00000320: e3ac 253e a585 4e3e 6c9e f6bd 69be 63bd
00000330: 8b3a f3bb 7a0d 453d dd00 f4bd 1083 d2bd
00000340: 02f5 96be 4cee 9b3d 784f 633e c03d 10be
00000350: 904f d33d b7af e93d b7a8 a13e 7260 423e
00000360: a76b 513e 5ad9 7f3e de11 5dbe c901 46bc
00000370: ee32 fcbd e934 693e 8a1b c2bd 0ea8 153e
00000380: 62bb 98bd 07a8 873e c57d 593d 421c b43d
00000390: b3f8 873e d25e b7be 341c ffbd a82b 00bc
000003a0: 8530 d03d 0dd9 533e 281a 2bbc f6ba 403e
000003b0: 6cf8 a33e 6296 84be 5d21 07bc c8a7 5e3c
000003c0: 0b52 b23c 2b22 cbbc 39f9 5bbb 292a 963e
000003d0: 1965 363e a0b6 a53d cc02 cebc 8c7e a93e
000003e0: 4a83 c3be d983 2d3e ff5b bbbd 1428 773e
000003f0: bf4b 6b3e c3ca b6be d2d8 d2bd 678a f63d

model.4.bias f4 [2]
0.016014105 0.069805555
00000000: 0330 833c 37f6 8e3d
