hw2/preTrained/ddpg_actor_Pendulum-v1_04292023_142054_.pth (torch, 70551 bytes, 5 tensors)

model.0.weight f4 [128, 3]
-0.31442654 -0.56687653 -0.19671218 0.011948099 -0.84246093 -0.18297766 0.27220133 0.7854028
0.18080974 -0.09964976 -0.58810645 -0.12226045 0.23821546 0.4827755 0.23456596 0.7139701
-0.05243802 0.15816504 0.28175724 -0.027093932 -0.14496286 -0.38924256 -0.870296 -0.59090626
-0.71075034 -1.1564215 -0.35640872 -0.8575171 -0.7849518 0.23903686 0.4975886 0.7099488
0.2545727 0.24960342 0.2546491 -0.35942262 0.5769166 -0.14283404 0.3667328 0.3532928
0.85050887 0.45046487 -0.16689269 -0.31041154 0.03676856 -0.07728396 0.30549112 0.40635163
-0.6787846 -0.54694206 -0.51593524 0.52028495 -0.8199177 0.18496528 -0.33075875 0.5192176
0.026562952 0.20446412 1.0595654 0.52789336 -0.3598132 -0.79872507 -0.03534772 0.28537655
-0.1377981 0.61505854 0.35250238 -0.50104713 -0.41251853 0.5021668 0.6755168 -0.34332475
-0.6565788 -0.19043602 -0.41717994 -0.021685831 -1.106077 -0.039271917 -0.34289715 -1.1345809
-0.37525788 -0.27463174 0.60393727 -0.07037748 0.7934251 -0.27992663 -0.20343538 0.6424879
-0.91047883 -0.26226422 -0.2957303 1.3108463 0.31308988 -0.69359225 -0.45569804 0.19721496
-0.3179882 0.54833126 -0.18273805 -0.68714374 0.40870237 0.4345376 0.42665717 -0.08418645
-0.35622525 0.42239943 0.6541805 0.177211 -0.2505303 0.3489037 0.31865337 0.084084034
0.76458526 -0.30341563 0.5762555 -0.14335121 0.10409204 -0.09081764 0.5408556 0.41326272
0.619739 0.2563212 -0.4371892 -0.6575507 0.4544016 -0.19457054 -0.36766833 -0.19774711
-0.56263363 -0.0034798384 -0.070978224 0.005534053 -0.13795826 -0.36700156 -0.3457376 -0.609741
0.680056 0.5785273 -0.11670315 -1.0197835 -0.33475626 0.5555775 0.9404683 -0.59106284
0.08307243 0.17917618 0.53896016 -0.340708 -0.060680903 -0.3442235 -0.6973193 -0.1523643
-0.25200257 0.018180225 -0.24301271 -0.5390894 0.23953722 0.8419112 0.46770245 0.2674377
-1.0359516 -0.47672626 0.012816907 -0.18306206 -0.50932574 0.8181448 -0.6709757 0.0861697
-0.73333734 0.10606318 -0.044377413 0.556336 0.20917763 -0.47611222 0.38760588 -1.370747
0.27661568 -0.36955795 0.8145497 0.20216079 0.1408067 0.23275867 0.67170227 0.8058593
-0.08680001 -0.2309213 0.036817834 1.081654 0.5504731 0.5437554 0.5228854 0.14930323
-1.0554792 -0.4158736 0.44624293 -0.3882546 0.5574988 0.51631075 -0.4633731 -0.820375
-0.6463538 0.22364883 0.37924132 0.39905584 -0.19758286 -0.28310394 0.4874578 -0.91031164
-0.3704731 0.5076729 0.54048747 -0.6930536 -0.57660806 -0.18411328 -0.011937473 0.23142752
0.349494 -0.00021104826 -0.41548547 0.15550287 0.4409111 0.18506992 -0.7825561 -0.45204523
-0.14424153 -0.14291285 0.87517625 0.29326862 0.5978731 1.0369282 -0.13935257 -0.5735752
0.6530157 0.2906085 0.3820738 0.65767986 0.29460517 0.04492743 0.10123674 0.33676484
-0.5106727 0.64443153 0.21679015 0.06914994 -0.8998663 0.17115392 0.097841054 -1.15164
-0.25586876 0.40406942 -0.74787474 -0.20248412 0.35886833 0.4158017 -0.46151966 0.16322751
00000000: 84fc a0be d21e 11bf eb6e 49be f6c1 433c
00000010: 85ab 57bf 7f5e 3bbe f95d 8b3e 2810 493f
00000020: 3026 393e 2c15 ccbd 258e 16bf b063 fabd
00000030: c1ee 733e 5a2e f73e 0f32 703e bfc6 363f
00000040: 40c9 56bd 04f6 213e 7c42 903e 18f4 ddbc
00000050: 2571 14be cd4a c7be b8cb 5ebf a245 17bf
00000060: bcf3 35bf 9f05 94bf 347b b6be 3e86 5bbf
00000070: 9af2 48bf 14c6 743e efc3 fe3e 34bf 353f
00000080: 5a57 823e 0a98 7f3e 5e61 823e 3e06 b8be
00000090: ceb0 133f 1643 12be 67c4 bb3e cbe2 b43e
000000a0: f3ba 593f 55a3 e63e ebe5 2abe 43ee 9ebe
000000b0: a19a 163d 0e47 9ebd 5569 9c3e 520d d03e
000000c0: d4c4 2dbf 6504 0cbf 5514 04bf 6531 053f
000000d0: 20e6 51bf 8a67 3d3e 3659 a9be 72eb 043f
000000e0: 8c9a d93c 0b5f 513e d79f 873f 0524 073f
000000f0: 7039 b8be 3f79 4cbf c5c8 10bd e01c 923e
00000100: f21a 0dbe 7a74 1d3f 317b b43e a044 00bf
00000110: a135 d3be 018e 003f abee 2c3f 43c8 afbe
00000120: 8c15 28bf a901 43be 9c98 d5be 7ca6 b1bc
00000130: ee93 8dbf 97db 20bd 3790 afbe f239 91bf
00000140: cd21 c0be 889c 8cbe a29b 1a3f 1122 90bd
00000150: e81d 4b3f 8b52 8fbe 5d51 50be 167a 243f
00000160: 2415 69bf 7f47 86be f669 97be d0c9 a73f
00000170: 514d a03e 438f 31bf 4151 e9be b8f2 493e
00000180: 59cf a2be 705f 0c3f af1f 3bbe a7e8 2fbf
00000190: 7041 d13e b67b de3e cf72 da3e f269 acbd
000001a0: 2863 b6be bd44 d83e 6078 273f cd76 353e
000001b0: 8245 80be 81a3 b23e 8926 a33e 4034 ac3d
000001c0: dcbb 433f 4b59 9bbe 7b85 133f a9ca 12be
000001d0: 352e d53d 99fe b9bd 8375 0a3f 2c97 d33e
000001e0: 37a7 1e3f 883c 833e 43d7 dfbe 3e55 28bf
000001f0: 54a7 e83e 803d 47be 063f bcbe 387e 4abe
00000200: c208 10bf 000e 64bb 085d 91bd 0057 b53b
00000210: ee44 0dbe a1e7 bbbe 8504 b1be fc17 1cbf
00000220: 2618 2e3f 5d1a 143f 1002 efbd 4488 82bf
00000230: 2c65 abbe 543a 0e3f 88c2 703f e54f 17bf
00000240: e121 aa3d f679 373e 4bf9 093f 4771 aebe
00000250: 8a8c 78bd 103e b0be 8583 32bf 6305 1cbe
00000260: 7b06 81be b2ee 943c 53d8 78be c301 0abf
00000270: 3f49 753e 7e87 573f b276 ef3e 98ed 883e
00000280: 109a 84bf 7715 f4be 01fe 513c 9f74 3bbe
00000290: 2c63 02bf f071 513f 10c5 2bbf bd79 b03d
000002a0: ffbb 3bbf a737 d93d 17c5 35bd 096c 0e3f
000002b0: a932 563e fbc4 f3be 4774 c63e a374 afbf
000002c0: 92a0 8d3e b336 bdbe 5486 503f 3d03 4f3e
000002d0: a22f 103e 4a58 6e3e aef4 2b3f cc4c 4e3f
000002e0: 34c4 b1bd a276 6cbe 4cce 163d a373 8a3f
000002f0: ceeb 0c3f 8e33 0b3f d1db 053f f2e2 183e
00000300: f119 87bf 62ed d4be f479 e43e 4fc9 c6be
00000310: 3eb8 0e3f f12c 043f 3d3f edbe 1904 52bf
00000320: 7177 25bf 3304 653e eb2b c23e 0c51 cc3e
00000330: 2953 4abe 00f3 90be 1294 f93e 2f0a 69bf
00000340: a6ae bdbe daf6 013f 635d 0a3f f66b 31bf
00000350: 969c 13bf 3188 3cbe 6495 43bc 56fb 6c3e
00000360: e1f0 b23e d64c 5db9 83ba d4be 253c 1f3e
00000370: 1abf e13e f882 3d3e 9955 48bf 7972 e7be
00000380: 0db4 13be bf57 12be 8d0b 603f 4e27 963e
00000390: 360e 193f 10ba 843f 71b2 0ebe d3d5 12bf
000003a0: 092c 273f a3ca 943e 2d9f c33e b55d 283f
000003b0: 7dd6 963e d305 383d 3555 cf3d 716c ac3e
000003c0: 72bb 02bf 77f9 243f 3dfe 5d3e 7c9e 8d3d
000003d0: a35d 66bf f942 2f3e e460 c83d f168 93bf
000003e0: 3b01 83be 30e2 ce3e b874 3fbf ff57 4fbe
000003f0: 97bd b73e f6e3 d43e 4e4c ecbe 1d25 273e

model.0.bias f4 [128]
0.32108837 0.10912942 0.29387298 -0.0272299 0.5056079 -0.03890766 -0.3562916 -0.3340345
0.43243942 0.1497902 0.31630185 -0.3341224 0.49068812 -0.16495742 0.55704165 0.37837785
-0.15206371 -0.16733663 0.59610915 0.4298363 0.44720182 -0.22916463 -0.2696011 0.19507703
-0.27417246 0.40634954 0.3613433 0.4061389 -0.15025823 -0.46626627 0.11235683 0.15732543
0.66131306 -0.41987118 0.5371773 -0.10561332 0.16190843 0.6511733 -0.21078062 0.12789819
-0.2766905 -0.10748772 -0.41971812 -0.49174955 0.14117053 -0.3757274 -0.1145438 -0.17918287
0.12446316 -0.41697305 0.30988556 -0.48157787 -0.2473568 0.40487143 0.29449368 0.13288713
0.74467653 -0.1649411 0.38171884 0.23477708 -0.13687646 -0.25961167 -0.047627266 0.5090091
-0.38184613 0.24967584 -0.14961173 -0.22707541 -0.55041313 -0.55515224 -0.3105349 -0.36731866
-0.44722742 -0.4669901 0.0595125 0.23769024 -0.33117878 0.49358392 -0.10531324 0.31373516
-0.28431448 0.13221088 0.24872237 -0.26517358 -0.5271574 0.28072786 -0.08117719 0.3872093
0.50091225 0.61580426 0.33211577 0.5230151 0.41221204 0.41649103 -0.22673479 -0.2253759
0.5509372 0.262042 0.048936177 -0.001939498 -0.48692304 -0.2863128 0.059940435 -0.22241156
-0.15274961 0.24681996 -0.29923508 -0.24054231 0.3346077 -0.34963945 0.03842987 0.39713392
-0.37887254 -0.66806954 0.18614897 -0.41846657 -0.08938766 -0.23486847 -0.3004121 0.60570896
0.11137127 -0.3305755 0.22060218 0.29461193 -0.19870293 0.14597747 0.36702418 0.37994108
00000000: b265 a43e 3f7f df3d 8576 963e 3d11 dfbc
00000010: 856f 013f a35d 1fbd da6b b6be 9206 abbe
00000020: b368 dd3e 9a62 193e 51f2 a13e 1712 abbe
00000030: 793b fb3e 99ea 28be 489a 0e3f beba c13e
00000040: 97b6 1bbe 4b5a 2bbe 9c9a 183f 8113 dc3e
00000050: a3f7 e43e 22aa 6abe 2809 8abe 46c2 473e
00000060: 5560 8cbe 0c0d d03e fd01 b93e 70f1 cf3e
00000070: 4bdd 19be 74ba eebe 561b e63d eb19 213e
00000080: d04b 293f 5bf9 d6be 7484 093f cc4b d8bd
00000090: 53cb 253e 4bb3 263f e0d6 57be bef7 023e
000000a0: 61aa 8dbe 8622 dcbd 4be5 d6be 99c6 fbbe
000000b0: 028f 103e 575f c0be f195 eabd b77b 37be
000000c0: 8be6 fe3d 7e7d d5be 52a9 9e3e 6091 f6be
000000d0: 1a4b 7dbe 4f4b cf3e e0c7 963e 9013 083e
000000e0: 1fa3 3e3f 52e6 28be a770 c33e 6769 703e
000000f0: 5829 0cbe d2eb 84be cf14 43bd 6c4e 023f
00000100: 5681 c3be 06ab 7f3e d133 19be 7586 68be
00000110: e0e7 0cbf 751e 0ebf 6efe 9ebe 3111 bcbe
00000120: fefa e4be 5419 efbe 61c3 733d 1265 733e
00000130: 4490 a9be 08b7 fc3e 78ae d7bd e5a1 a03e
00000140: ab91 91be 4a62 073e 14b1 7e3e d5c4 87be
00000150: caf3 06bf 90bb 8f3e 3a40 a6bd 4c40 c63e
00000160: c93b 003f 59a5 1d3f 140b aa3e 51e4 053f
00000170: 750d d33e 503e d53e 2a2d 68be f1c8 66be
00000180: 380a 0d3f 5e2a 863e 4d71 483d c136 feba
00000190: fa4d f9be 9797 92be 1a84 753d dbbf 63be
000001a0: 656a 1cbe 5fbe 7c3e 5735 99be b950 76be
000001b0: b351 ab3e f103 b3be a468 1d3d 2355 cb3e
000001c0: 95fb c1be 9b06 2bbf d69d 3e3e 4041 d6be
000001d0: e110 b7bd 5c81 70be 9dcf 99be be0f 1b3f
000001e0: 9f16 e43d 3141 a9be 8ae5 613e 60d7 963e
000001f0: c878 4bbe 1e7b 153e 98ea bb3e a387 c23e

model.2.weight f4 [128, 128]
0.032683898 -0.067621626 0.104339205 0.19219202 -0.030094491 0.015756007 -0.6016714 0.008682792
0.000119418735 -0.007020019 0.0053658593 -0.030726224 0.025360404 -0.067155235 0.041619357 -0.07776843
-0.042606324 0.16463995 0.02928142 -0.097639754 0.09351715 0.113618694 0.008462366 -0.02851669
0.057190884 0.056526423 0.11872873 0.03954881 0.012912238 -0.197092 -0.17112964 -0.021488084
-0.008378061 0.057259057 0.031770166 -0.03895933 -0.07479684 -0.051528282 -0.07581013 -0.07062481
-0.0784137 0.0033055884 -0.060748246 -0.06999795 -0.013798135 0.080775015 -0.02511362 0.03730606
-0.045746595 -0.0765199 0.018533649 -0.042752635 0.14377359 -0.047125693 0.069124654 0.0036538239
0.043699425 -0.047818236 0.0753312 -0.067980476 0.08976032 0.032646645 -0.026022445 -0.04791114
0.13198517 -0.061382506 -0.04070609 0.1475769 0.04724703 0.1223092 -0.009988671 0.16083975
0.021908453 0.17673919 0.04704107 -0.061757896 -0.0067006075 0.035284992 0.011477725 -0.036047373
0.100091524 0.032446276 -0.034946736 -0.20430447 -0.040883265 0.093945295 -0.03797369 0.07873742
-0.056304146 0.093882024 -0.0032395641 0.110350266 0.027407004 -0.069246076 0.11797898 -0.050847027
0.07130624 0.1550096 0.09671232 -0.015828377 0.03884812 0.022198496 -0.014916445 -0.036305055
-0.0020071268 0.16933966 -0.041724432 0.07771326 0.032626778 0.13937752 0.07760702 0.07404869
-0.24120189 0.16431193 0.07605193 -0.11142562 -0.17562465 0.06931024 0.14931022 -0.053090025
0.082375444 0.014016784 0.03774808 0.13812621 -0.03525686 -0.0129948 -0.046683583 -0.070463665
-0.29607478 0.065449536 -0.0016838049 -0.93568623 0.06646367 0.017442375 0.05999066 -0.19523844
-0.31027216 -0.016466146 0.081267044 -0.02592615 0.0448654 0.13107619 0.02484785 0.07335961
-0.18233214 -0.07127276 -0.05428617 0.07515201 0.020781346 -0.011219381 0.08533857 -0.022984177
-0.01579554 -0.12619956 -0.15120718 0.020308683 -0.07609012 0.14543384 0.26611274 -0.061092433
0.044653866 -0.18563084 0.0020322339 -0.031512845 0.019926297 0.008634389 -0.10916479 0.07755711
-0.02785876 -0.04162873 -0.09438074 0.08193029 -0.07071024 -0.06772118 -0.39736757 0.0668353
0.049391113 -0.071069404 -0.27138263 -0.022077601 -0.014353151 0.099133655 -0.043645944 -0.010340346
-0.0601764 0.04500694 -0.0014579785 0.12318885 0.05925799 -0.00878557 -0.02138384 0.10645894
-0.08466769 -0.074508876 -0.14180925 -0.021721318 -0.066854455 -0.09526094 0.06493264 -0.14562546
0.102975495 -0.113743156 -0.26650062 -0.049206723 0.14792468 -0.028756047 0.087052636 0.06052092
-0.14233975 -0.015933303 0.041401733 0.07947805 0.010763754 -0.034691796 0.05959801 -0.11243691
-0.022492874 0.063232325 0.027134389 0.023607178 0.14977403 0.017278548 0.02866362 -0.031516492
0.057983477 -0.23799449 -0.024843065 0.053177036 -0.055650257 0.14831242 -0.07169468 -0.2078918
-0.038043953 -0.24553163 0.07366091 -0.13897292 0.046754707 -0.12352914 0.13338281 -0.08806369
-0.049184043 -0.02137476 -0.31974268 0.08091774 0.14357226 -0.044812646 -0.19806787 -0.067206375
-0.035764996 -0.24920368 0.05448317 -0.072512366 0.027106823 -0.03722878 0.039965373 -0.03658601
00000000: 8ddf 053d 357d 8abd cbaf d53d fccd 443e
00000010: b988 f6bc be12 813c 2307 1abf 4542 0e3c
00000020: 7270 fa38 3008 e6bb 17d4 af3b 90b5 fbbc
00000030: 9fc0 cf3c af88 89bd 0f79 2a3d 0e45 9fbd
00000040: f883 2ebd 6097 283e 97df ef3c 5af7 c7bd
00000050: eb85 bf3d ebb0 e83d bca5 0a3c d59b e9bc
00000060: fd40 6a3d 4088 673d 0c28 f33d effd 213d
00000070: da8d 533c 7cd2 49be 9c3c 2fbe c707 b0bc
00000080: 2244 09bc 7988 6a3d 6f21 023d d293 1fbd
00000090: 162f 99bd 520f 53bd 5742 9bbd bea3 90bd
000000a0: 5d97 a0bd 92a2 583b 27d3 78bd 165b 8fbd
000000b0: 9311 62bc 5f6d a53d 14bb cdbc 3dce 183d
000000c0: c860 3bbd 77b6 9cbd e1d3 973c 631d 2fbd
000000d0: 6239 133e df06 41bd 3a91 8d3d fe74 6f3b
000000e0: 2bfe 323d 0edd 43bd 3f47 9a3d 5939 8bbd
000000f0: 42d4 b73d 7db8 053d 062d d5bc 793e 44bd
00000100: 1f27 073e 396c 7bbd 6ebb 26bd 661e 173e
00000110: 1a86 413d 3f7d fa3d 86a7 23bc 2db3 243e
00000120: 5b79 b33c 1efb 343e 23ae 403d d9f5 7cbd
00000130: c590 dbbb ff86 103d 110d 3c3c 69a6 13bd
00000140: c9fc cc3d 63e6 043d 4f24 0fbd 3135 51be
00000150: 3675 27bd 6466 c03d 4d8a 1bbd 1641 a13d
00000160: 2d9f 66bd 3845 c03d de4e 54bb 52ff e13d
00000170: a784 e03c e3d0 8dbd f79e f13d f944 50bd
00000180: 0209 923d d6ba 1e3e 1c11 c63d 83aa 81bc
00000190: 351f 1f3d 9fd9 b53c 1b64 74bc 9cb4 14bd
000001a0: 008a 03bb 6067 2d3e 3de7 2abd 2128 9f3d
000001b0: a8a3 053d fbb8 0e3e 6ef0 9e3d d7a6 973d
000001c0: a1fd 76be 6341 283e 1dc1 9b3d 1e33 e4bd
000001d0: f3d6 33be 87f2 8d3d c7e4 183e ed74 59bd
000001e0: 75b4 a83d a7a6 653c bb9d 1a3d f570 0d3e
000001f0: 7f69 10bd 24e8 54bc 4937 3fbd 414f 90bd
00000200: 1d97 97be 680a 863d 1eb3 dcba 2289 6fbf
00000210: 1b1e 883d 50e3 8e3c c4b8 753d 96ec 47be
00000220: fedb 9ebe 03e4 86bc 566f a63d 1463 d4bc
00000230: c8c4 373d d638 063e b88d cb3c 903d 963d
00000240: 47b5 3abe 74f7 91bd 2d5b 5ebd 4ce9 993d
00000250: a43d aa3c 7fd1 37bc fdc5 ae3d 5049 bcbc
00000260: a665 81bc 753a 01be 0ed6 1abe 655e a63c
00000270: 23d5 9bbd 9cec 143e ee3f 883e 0f3c 7abd
00000280: f9e6 363d 0316 3ebe 3a2f 053b 9d13 01bd
00000290: 793c a33c 4177 0d3c ca91 dfbd 43d6 9e3d
000002a0: 0e38 e4bc e382 2abd b04a c1bd 11cb a73d
000002b0: 88d0 90bd 67b1 8abd c373 cbbe f2e0 883d
000002c0: 564e 4a3d d68c 91bd aaf2 8abe 16dc b4bc
000002d0: 7b29 6bbc 9606 cb3d 17c6 32bd 8e6a 29bc
000002e0: 877b 76bd 3259 383d a419 bfba 704a fc3d
000002f0: 82b8 723d 5af1 0fbc 2a2d afbc 2507 da3d
00000300: 4166 adbd 1c98 98bd 7236 11be e8f0 b1bc
00000310: fdea 88bd 2b18 c3bd 67fb 843d d71e 15be
00000320: d1e4 d23d 2cf2 e8bd c572 88be fd8c 49bd
00000330: 9179 173e cd91 ebbc a748 b23d c9e4 773d
00000340: 83c1 11be 8f86 82bc dd94 293d 63c5 a23d
00000350: 755a 303c fc18 0ebd 0b1d 743d 5345 e6bd
00000360: fa42 b8bc f37f 813d f048 de3c d763 c13c
00000370: 5d5e 193e be8b 8d3c f8cf ea3c 7017 01bd
00000380: 1580 6d3d d4b4 73be af83 cbbc 2ad0 593d
00000390: 86f1 63bd 36df 173e a9d4 92bd 97e1 54be
000003a0: fad3 1bbd a56c 7bbe 88db 963d eb4e 0ebe
000003b0: dd81 3f3d d9fc fcbd 8195 083e bc5a b4bd
000003c0: 3575 49bd 1f1a afbc 50b5 a3be 33b8 a53d
000003d0: 9b04 133e 778d 37bd 4ed2 4abe 7fa3 89bd
000003e0: 517e 12bd 402f 7fbe bf29 5f3d 5d81 94bd
000003f0: 210f de3c 357d 18bd bbb2 233d 36db 15bd

model.2.bias f4 [128]
0.051620394 -0.0076635964 0.12466645 0.040142406 0.06477569 -0.00067317847 0.06706074 0.02878749
-0.043212954 0.057148963 -0.008228683 -0.05451392 -0.013618797 -0.11406397 -0.010657789 0.0071644164
-0.015230765 0.045165572 0.0887288 0.08789346 0.05641497 0.036119428 -0.088640444 0.10372794
0.09474982 0.08419003 0.036937386 0.19423124 -0.107323654 0.08913892 0.021476116 0.0401263
-0.0567547 -0.05929496 0.11531749 -0.046776433 0.051388122 -0.017130088 0.10963684 0.06674654
-0.051918644 0.046977323 -0.044741813 0.0639464 -0.011126592 0.071887754 0.021601245 -0.04621897
0.0072575696 0.019644272 -0.0437625 0.038306084 0.032083575 -0.009714318 0.1974087 -0.0106623685
-0.033100512 0.07348027 -0.034109578 0.09444857 -0.051710714 -0.0015038605 -0.08384257 0.08314904
-0.06568397 0.03677685 0.08632539 0.09213521 0.098110944 0.030398322 0.01981716 -0.0261364
0.05992488 0.19654028 0.09027976 -0.07871979 -0.053910207 -0.041906495 1.904714e-05 -0.06374871
0.02354862 -0.001489406 0.10488484 -0.07283365 -0.059948754 0.0064756507 0.025687989 0.0060138055
0.02508838 -0.08252266 0.032275267 0.09094962 0.040514797 -0.053289175 0.08162211 -0.080913335
-0.006174489 -0.077197276 -0.0064491006 -0.06394062 0.07068621 0.017787697 0.09697566 -0.06884811
-0.026350081 -0.033920385 0.15739943 0.011953558 0.09776179 0.15966895 -0.0047240695 0.108844124
0.05028675 -0.07803802 0.094717845 0.024727408 0.0521255 -0.04041931 0.060636684 0.00015972866
0.14529984 0.098438956 0.079023965 0.08346417 0.018668631 0.07882973 -0.030151315 0.0099886
00000000: e86f 533d e81e fbbb 2051 ff3d 5d6c 243d
00000010: 1ea9 843d 3e78 30ba 2457 893d bed3 eb3c
00000020: 1100 31bd 0815 6a3d 99d1 06bc fd49 5fbd
00000030: 6021 5fbc 5f9a e9bd 029e 2ebc 7bc3 ea3b
00000040: 758a 79bc 89ff 383d 72b7 b53d 7d01 b43d
00000050: 6213 673d f7f1 133d 1f89 b5bd 506f d43d
00000060: 320c c23d d36b ac3d a84b 173d 8ee4 463e
00000070: 81cc dbbd 778e b63d aeee af3c 7a5b 243d
00000080: 9e77 68bd 46df 72bd 942b ec3d a598 3fbd
00000090: 5a7c 523d 6654 8cbc 4889 e03d 69b2 883d
000000a0: a5a8 54bd 4b6b 403d 3143 37bd 55f6 823d
000000b0: 4f4c 36bc e339 933d 18f5 b03c 1a50 3dbd
000000c0: e8d0 ed3b 06ed a03c 4f40 33bd d7e6 1c3d
000000d0: 116a 033d ce28 1fbc 8225 4a3e 37b1 2ebc
000000e0: 6794 07bd d37c 963d 7cb6 0bbd 406e c13d
000000f0: 9dce 53bd 2f1d c5ba a7b5 abbd 0b4a aa3d
00000100: 5185 86bd 52a3 163d 5ecb b03d 63b1 bc3d
00000110: 64ee c83d e705 f93c 9957 a23c 011c d6bc
00000120: ca73 753d db41 493e 98e4 b83d d737 a1bd
00000130: f3d0 5cbd 25a6 2bbd 6cc7 9f37 af8e 82bd
00000140: 09e9 c03c 2c38 c3ba ddcd d63d cf29 95bd
00000150: d38c 75bd b231 d43b 9e6f d23c 750f c53b
00000160: 2586 cd3c a401 a9bd 1233 043d cb43 ba3d
00000170: d8f2 253d c045 5abd 7e29 a73d e4b5 a5bd
00000180: 5e53 cabb 9b19 9ebd fa52 d3bb 4df3 82bd
00000190: efc3 903d 81b7 913c 2d9b c63d 3d00 8dbd
000001a0: 20dc d7bc 1af0 0abd 512d 213e dbd8 433c
000001b0: 5537 c83d 4280 233e 5ecc 9abb abe9 de3d
000001c0: 7bf9 4d3d 66d2 9fbd 6efb c13d 2291 ca3c
000001d0: 8c81 553d b88e 25bd 2c5e 783d d67c 2739
000001e0: 7bc9 143e 5d9a c93d 51d7 a13d 43ef aa3d
000001f0: f5ee 983c 7b71 a13d e4ff f6bc 3aa7 233c

model.4.weight f4 [1, 128]
-0.16023104 0.14882454 0.20658387 -0.18235385 -0.23344186 -0.13971305 0.22245947 -0.20262872
-0.20729941 0.078540556 -0.23525298 -0.19106907 0.42813063 0.62885153 -0.14565799 0.15302849
-0.29255557 -0.27320296 0.65332496 -0.23419471 -0.21150175 0.57671803 -0.4322766 -0.15356626
-0.3051326 0.54108787 0.7112842 -0.6776168 -0.4810979 -0.16640969 0.35851038 -0.22745968
0.079166405 0.13067538 -0.18298264 -1.0036067 -0.27494034 -0.31365624 -0.371373 -0.1855645
-0.23004507 0.095797084 0.07799126 -0.11585311 0.065333284 0.106409185 0.16500592 0.29449734
-0.3088649 -0.24519356 -0.32711124 -0.18226643 0.37610945 -0.20297705 0.55549157 -0.3493636
0.065153286 0.32804212 -0.29545414 0.17182006 0.29190174 -0.19757548 -0.16070224 -0.39537007
-0.02674346 -0.24215108 -1.0935073 0.16640478 -0.19956398 0.19659899 -0.27880982 -0.21482684
0.0979456 0.5350018 -0.32397288 0.19550274 0.1853677 -0.22510862 0.05018827 0.22859721
-0.21466306 -0.3958689 0.19742765 0.19881499 -0.23826052 0.14287587 0.52180755 -0.13114652
0.5453951 -0.03674186 0.3938553 0.09069084 -0.23334083 -1.131564 -0.12318888 0.02857317
0.031097861 0.28142703 0.5843797 0.39138716 -0.15270716 0.37121964 -0.5806717 0.37003714
-0.31280172 -0.17276804 0.6946307 -0.25742286 -0.38848463 -0.3280152 -0.18416722 0.15418904
0.10226827 -0.37707496 0.16534342 -0.22407514 -0.7916096 -0.16547081 0.06503263 -0.21596542
0.23243675 -0.14669806 0.060193017 0.061078213 -0.24269122 -0.29371524 0.591514 -0.28801638
00000000: 9b13 24be 7665 183e b98a 533e f8ba 3abe
00000010: 620b 6fbe f010 0fbe 6acc 633e e77d 4fbe
00000020: 4c46 54be dfd9 a03d 28e6 70be 9ca7 43be
00000030: f033 db3e 6afc 203f 5e27 15be 80b3 1c3e
00000040: d8c9 95be 42e1 8bbe 4e40 273f bdd0 6fbe
00000050: ea93 58be cba3 133f 5c53 ddbe 7940 1dbe
00000060: 573a 9cbe bc84 0a3f b916 363f 4b78 2dbf
00000070: 7752 f6be 4d67 2abe ac8e b73e 31eb 68be
00000080: ff21 a23d c4cf 053e cd5f 3bbe 2f76 80bf
00000090: fbc4 8cbe 8d97 a0be 9a24 bebe 9f04 3ebe
000000a0: ef90 6bbe 4331 c43d e2b9 9f3d 6544 edbd
000000b0: 75cd 853d 0fed d93d 50f7 283e 5bc8 963e
000000c0: 8a23 9ebe 0514 7bbe 207b a7be 0da4 3abe
000000d0: 6b91 c03e 37d9 4fbe b234 0e3f c9df b2be
000000e0: 166f 853d 23f5 a73e c445 97be 99f1 2f3e
000000f0: 2574 953e 3a51 4abe 218f 24be f26d cabe
00000100: 1a15 dbbc 74f6 77be 0cf8 8bbf 0466 2a3e
00000110: 805a 4cbe 3f51 493e 29c0 8ebe 91fb 5bbe
00000120: b497 c83d e1f5 083f c6df a5be df31 483e
00000130: 08d1 3d3e e082 66be 3792 4d3d 6315 6a3e
00000140: a2d0 5bbe 54af cabe 792a 4a3e 2896 4b3e
00000150: 91fa 73be 0d4e 123e 2e95 053f 464b 06be
00000160: 039f 0b3f a27e 16bd 67a7 c93e 1ebc b93d
00000170: e6f0 6ebe 17d7 90bf 744a fcbd 4812 ea3c
00000180: f1c0 fe3c 3417 903e e899 153f e663 c83e
00000190: 445f 1cbe 8010 be3e e7a6 14bf 8275 bd3e
000001a0: 8c27 a0be 1bea 30be 51d3 313f eecc 83be
000001b0: 75e7 c6be 9cf1 a7be 5596 3cbe bbe3 1d3e
000001c0: 0772 d13d f80f c1be c94f 293e f473 65be
000001d0: eda6 4abf 2e71 29be d42f 853d 0a26 5dbe
000001e0: e603 6e3e 0438 16be f48c 763d 262d 7a3d
000001f0: 0c84 78be d861 96be 766d 173f e276 93be
