hw2/preTrained/ddpg_critic_LunarLanderContinuous-v2_04252023_191240_.pth (torch, 277399 bytes, 5 tensors)

model.0.weight f4 [256, 10]
0	0xbfbc9ff9	-1.473632
1	0xbf8855f2	-1.0651228
2	0x400ce7c6	2.2016463
3	0xbfb65027	-1.424321
4	0xc0887ed8	-4.265484
5	0xbf9ea439	-1.2393867
6	0x3f850e8e	1.0395067
7	0xc083a070	-4.1133347
8	0x3d5f6820	0.05454266
9	0x3ea23273	0.31679115
10	0xbd3abd48	-0.04559067
11	0xbf6fabbe	-0.9362143
12	0x40708867	3.7583253
13	0xbe48fad7	-0.19626938
14	0xc06087c1	-3.5082858
15	0xbf1df777	-0.61705726
16	0x3fba5c6a	1.4559453
17	0xc0c81fc0	-6.2538757
18	0x3f096ef9	0.53684956
19	0x3db30b60	0.08742404
20	0xc01f5b74	-2.4899569
21	0xc0b48ca9	-5.6421704
22	0x3ff1fbff	1.8905028
23	0xbff3f7f1	-1.9060041
24	0x3ff4a447	1.9112633
25	0xbe1314b0	-0.1436336
26	0x3e1e3713	0.15450697
27	0x3e7af8a0	0.24508905
28	0xbe072707	-0.13198482
29	0x3f66a9be	0.90102756
30	0xbf6eb9a9	-0.93252045
31	0xbf84eb95	-1.0384394
32	0x3fa2e3fc	1.2725825
33	0xbf858e8b	-1.0434126
34	0xc087c965	-4.2433343
35	0xbfd32a6f	-1.6497325
36	0x3f88616c	1.0654731
37	0xc0d4331e	-6.63124
38	0xbf55397b	-0.83290833
39	0xbe892331	-0.2678466
40	0x402ce09c	2.701209
41	0x3e3e6161	0.18591835
42	0xbf656a1a	-0.89615023
43	0xbf0f0647	-0.55868953
44	0x3f623621	0.88363844
45	0xbf8dfc24	-1.1092572
46	0x3e3ee0ca	0.18640438
47	0xc031dd18	-2.7791195
48	0xbf5322de	-0.8247508
49	0xbf0623a6	-0.52398145
50	0x3f954515	1.1661707
51	0xbf5f1999	-0.87148434
52	0x4050f4e8	3.264948
53	0x3ffd594e	1.9792879
54	0xc02c5cad	-2.6931565
55	0xbf75abb5	-0.9596513
56	0xbe7a30af	-0.24432634
57	0xc0f88820	-7.766617
58	0x3e712561	0.23549415
59	0x3ebb7909	0.3661578
60	0xbfa7d635	-1.3112246
61	0xbf95392a	-1.165807
62	0x40163a4b	2.347308
63	0xbfae1722	-1.360081
64	0xc085ae90	-4.177559
65	0xbf6b1d24	-0.9184134
66	0x3f80d6bd	1.0065533
67	0xc088edcc	-4.279028
68	0x3c42368d	0.011853826
69	0x3ea7f179	0.32801417
70	0xbf430821	-0.7618428
71	0xbf533dbd	-0.8251608
72	0x3fa7a293	1.3096489
73	0xbf6679e1	-0.9002972
74	0xc07c327b	-3.940581
75	0xbfb76946	-1.4329002
76	0x3f663d92	0.899377
77	0xc0c05c04	-6.0112324
78	0xbeb2c39a	-0.34914857
79	0xbfb87065	-1.44093
80	0x40676356	3.615438
81	0xbfa8445b	-1.314586
82	0x4007d5a2	2.122414
83	0xbf9b029f	-1.2110175
84	0x3ee23072	0.44177586
85	0x3f935931	1.1511594
86	0xc0536fef	-3.303707
87	0x4024c75f	2.5746686
88	0x3ecf09eb	0.40437254
89	0x3f801fd9	1.0009719
90	0xbfeba55a	-1.8409836
91	0x40ab3e2e	5.3513403
92	0xc0934803	-4.6025405
93	0xc053cc52	-3.3093457
94	0xbf373cdf	-0.71577257
95	0x3fd51fbc	1.665031
96	0x3f8a27e2	1.0793421
97	0x40532ad9	3.2994902
98	0xbf77af53	-0.967519
99	0x3e28cb3e	0.1648378
100	0x4078b397	3.8859613
101	0xc04b3748	-3.175249
102	0xbf797786	-0.97448003
103	0xbff3f9fc	-1.9060664
104	0x3d8b320b	0.06796654
105	0xbe15738d	-0.1459486
106	0xbf4a5942	-0.79042447
107	0x401b7ae7	2.4293764
108	0x3f5f075c	0.87120605
109	0x3ec07106	0.3758623
110	0xbe9556ed	-0.29167882
111	0xbf436dfc	-0.763397
112	0x403c036f	2.9377096
113	0xbf0a9c46	-0.54144704
114	0xc0767520	-3.8508987
115	0xbfce199f	-1.6101569
116	0x3ce58afc	0.028020374
117	0xc0f0aedb	-7.5213447
118	0x3e2c012a	0.16797319
119	0xbe67e190	-0.22644639
120	0x405267b0	3.2875786
121	0xc085255c	-4.1608105
122	0xc0338ad1	-2.8053477
123	0xc01d21be	-2.4551845
124	0x3db0b8f2	0.086290255
125	0xbf34a83c	-0.70569205
126	0xbe335e96	-0.1751655
127	0x3c9a0a76	0.018803816
128	0xbda9cfdd	-0.082916
129	0x3f5cad09	0.8620153
130	0x408ddf53	4.4335113
131	0xbef201cc	-0.47266996
132	0xc03b89a0	-2.930275
133	0xc07de048	-3.966814
134	0xc10a8f74	-8.660023
135	0xc12b2859	-10.6973505
136	0x3f25ac55	0.6471608
137	0x3ed4685c	0.4148587
138	0xbfc4c294	-1.537188
139	0x3f3272db	0.69706506
140	0x3f8e3e9b	1.1112856
141	0xbf77076d	-0.96495706
142	0x404d5d92	3.208836
143	0x401b56f6	2.4271827
144	0xc02765b9	-2.6155837
145	0xbf83de18	-1.0302153
146	0xbc468279	-0.012116068
147	0xc0f349c5	-7.602755
148	0x3ebeba6a	0.37251598
149	0x3eb90cce	0.36142582
150	0xbf347c3f	-0.70502084
151	0xbf9a6b05	-1.206391
152	0x40227e6d	2.5389664
153	0xbf966a0f	-1.1751117
154	0xc085824b	-4.172155
155	0xbfe06ff4	-1.7534165
156	0x3f88a639	1.0675727
157	0xc0f6cb95	-7.7123513
158	0x3e027b7f	0.12742423
159	0xbe0ef793	-0.1396163
160	0x40de808f	6.953193
161	0xbff602f2	-1.9219649
162	0x4022777c	2.5385427
163	0x4000f962	2.015221
164	0xbed35d97	-0.4128234
165	0x402cffa3	2.7031028
166	0x3f304ba6	0.6886543
167	0x3eff3858	0.49847674
168	0x3e211b86	0.15733156
169	0x3e89ba5d	0.26899996
170	0x3fe76049	1.8076259
171	0xbdf06703	-0.11738398
172	0x40273ca1	2.6130755
173	0x408c5da8	4.3864326
174	0xc011e4e7	-2.279596
175	0xbf9dbe5e	-1.232372
176	0xbf568f78	-0.83812666
177	0xc1018680	-8.095337
178	0xbd5beb5f	-0.053691264
179	0xbdac8768	-0.08424264
180	0x40196d7f	2.397308
181	0xbf6419ef	-0.8910207
182	0x40299259	2.6495574
183	0x404def2c	3.217723
184	0xc01c144c	-2.4387388
185	0xbf9aad72	-1.2084181
186	0xbf95f84b	-1.1716398
187	0xc10a7f74	-8.6561165
188	0xbf11b338	-0.5691409
189	0x3de14a39	0.11000485
190	0x3eef688f	0.4675946
191	0xc08bb66d	-4.366019
192	0x3fdc39cd	1.7205139
193	0x3f80cea5	1.0063063
194	0x3f8dc3f4	1.1075425
195	0x401fe8f3	2.498593
196	0x3fb6bd19	1.4276458
197	0xc0822488	-4.0669594
198	0xbf131279	-0.5745006
199	0x3c28d6d2	0.010305123
200	0x40331889	2.7983725
201	0xc0966277	-4.6995196
202	0xbf514347	-0.8174328
203	0xc022c127	-2.543039
204	0x3d1a6a29	0.0376989
205	0xbee3afd1	-0.44470075
206	0xc00d07d9	-2.203604
207	0x3fd1b852	1.6384375
208	0x3f72e73b	0.9488408
209	0x3ef811f2	0.4845119
210	0x40073ced	2.1130936
211	0xbf903ca5	-1.1268507
212	0xc08c1198	-4.3771477
213	0xc04e4286	-3.2228103
214	0x3f4c4a35	0.7980073
215	0xbf83d708	-1.0299997
216	0x3de1b13f	0.11020135
217	0x3fea10a8	1.8286333
218	0xbe872f68	-0.26403356
219	0xbd84d0c6	-0.06485133
220	0x3f254716	0.64561594
221	0x40b21f17	5.566295
222	0xc110e758	-9.05648
223	0x40ae513e	5.4474173
224	0xc0e53049	-7.162144
225	0xc0f72316	-7.723033
226	0xc01d5ad7	-2.4586694
227	0xbe9b7feb	-0.3037103
228	0x3f3c3b0e	0.7352761
229	0xbf1bb3ed	-0.6082142
230	0x400d8883	2.211457
231	0x40ce6d98	6.450878
232	0xc1837aaf	-16.434904
233	0x4113aa1e	9.2290325
234	0xc104a15f	-8.289397
235	0xc119f9e4	-9.623508
236	0xc0a6dc2d	-5.214377
237	0x3e6f72f3	0.23383693
238	0x408389f4	4.11059
239	0x3e856ef2	0.26061207
240	0x40c458a6	6.1358213
241	0x40f5d8a6	7.6826963
242	0x3d89709e	0.06710933
243	0xc0b4691d	-5.637831
244	0xc0c87d2c	-6.26528
245	0xc0f193d0	-7.5492935
246	0xbff2e171	-1.8975049
247	0xc09bb06e	-4.865287
248	0xbe8a8957	-0.27057907
249	0xbe8df024	-0.27722275
250	0x3f28fafe	0.66007984
251	0x4113cae2	9.237032
252	0xc15b9075	-13.722768
253	0x41221485	10.13001
254	0xc129aef3	-10.605212
255	0xc1378ad4	-11.471394

model.0.bias f4 [256]
0	0xbf84e567	-1.0382508
1	0xbfb2814c	-1.3945708
2	0x3fb17cd4	1.386622
3	0xbf2437fa	-0.64147913
4	0x40db81c4	6.8595905
5	0xc016cef1	-2.3563807
6	0xbf279492	-0.65461075
7	0x3eec8305	0.4619371
8	0x4058e619	3.389044
9	0xbf9a1d24	-1.2040143
10	0x40963e2f	4.695091
11	0xbfd778c6	-1.6833732
12	0x40b5bbe9	5.6791883
13	0x413b98b1	11.724778
14	0xc007eb6a	-2.1237435
15	0xbf29a8d2	-0.66273224
16	0x406e3425	3.7219326
17	0xbff94e72	-1.9477065
18	0xc0084541	-2.129227
19	0x40b67dbd	5.702849
20	0x40820102	4.062623
21	0x4096daac	4.7141933
22	0x410cd062	8.800875
23	0x416c476f	14.76744
24	0x413a63cf	11.649367
25	0x416d0206	14.812994
26	0x417d38bc	15.826351
27	0x40d4df75	6.6522775
28	0x4118ae18	9.542503
29	0xc001792d	-2.023021
30	0x418e4b53	17.78678
31	0x4078870d	3.8832428
32	0xbf06b56a	-0.52620566
33	0x40d53c93	6.6636443
34	0x4117f3d6	9.49703
35	0x4070f29d	3.764808
36	0xbf1ca12d	-0.61183435
37	0x3fb6bfb2	1.4277251
38	0x418eaaec	17.833458
39	0xc005e48f	-2.092075
40	0x3f536d80	0.8258896
41	0xc0029e53	-2.0409133
42	0xbfeeae8d	-1.8647019
43	0xbfccf4cc	-1.6012206
44	0x40c1bb51	6.054116
45	0x412cc0ce	10.797071
46	0x40f6af8f	7.7089305
47	0x40e411fa	7.1271944
48	0xbef0dc23	-0.4704295
49	0x409aae08	4.833744
50	0x408b68a1	4.356522
51	0x403d875b	2.9613864
52	0xbfb11bdd	-1.3836628
53	0x418bbda3	17.467596
54	0xbfe3b5d0	-1.778986
55	0x40de1405	6.939944
56	0xbf862f8e	-1.0483263
57	0x4096f533	4.7174315
58	0xc0072f44	-2.1122599
59	0x3f527a2d	0.82217675
60	0xbf14e5ae	-0.58162963
61	0x403aa5c1	2.9163668
62	0x40c291c2	6.0802927
63	0xbfdbc530	-1.7169552
64	0x40d81b2b	6.7533164
65	0xbefa8cd7	-0.48935577
66	0xc000cd4e	-2.0125308
67	0x409d788c	4.920965
68	0xbf7f3205	-0.996857
69	0xbfc13715	-1.5094935
70	0x407306b2	3.7972836
71	0xbfc9cf99	-1.5766479
72	0x3f9a7fa2	1.20702
73	0x41627258	14.152916
74	0x3fc52056	1.5400493
75	0xc00ce3b3	-2.2013977
76	0xbf57ed97	-0.8434691
77	0xc000191b	-2.0015323
78	0x40c826bf	6.2547297
79	0x4097d7fb	4.745115
80	0x418ea262	17.829288
81	0x405978bf	3.3979948
82	0x4191f5da	18.245045
83	0xbf86ca1c	-1.0530429
84	0xbf1633f2	-0.5867301
85	0x3feba91a	1.8410981
86	0x40b8cfb5	5.775355
87	0xc08402b9	-4.1253324
88	0xbfe11a47	-1.7586144
89	0xbfeb70b1	-1.8393766
90	0xbf022357	-0.50835174
91	0xbf7e74e3	-0.99397105
92	0xc0095bca	-2.1462274
93	0x409ab023	4.834001
94	0xbf462f3f	-0.7741584
95	0x40c3291c	6.098768
96	0x41280334	10.500782
97	0xc01350d2	-2.3018079
98	0xbfe1a9f5	-1.7629992
99	0x3fba06ce	1.4533327
100	0xc019a1a2	-2.4004903
101	0xc014704a	-2.3193536
102	0x3ec132aa	0.37733966
103	0x4114ce6b	9.300395
104	0x40cf749e	6.4829855
105	0x4015cdb7	2.3406808
106	0x3fc66501	1.5499574
107	0xbf20ab41	-0.6276131
108	0xc01d0161	-2.4532092
109	0xc0251858	-2.5796108
110	0x40da1f42	6.8163157
111	0xbdab561a	-0.08366032
112	0xbf8cc080	-1.0996246
113	0xbfa30009	-1.2734386
114	0x40e5c968	7.1808357
115	0x3f599ce1	0.85005003
116	0xc01ba757	-2.4320886
117	0x3fa0cef0	1.2563152
118	0xbf994eba	-1.197715
119	0xbfe0e4db	-1.7569841
120	0xc007f76d	-2.1244767
121	0x40664613	3.598027
122	0xbf2b7248	-0.66971254
123	0xbf3a5b91	-0.7279597
124	0x41208af1	10.033921
125	0x40c3ffe7	6.124988
126	0x40a38117	5.109508
127	0x4064ed28	3.5769749
128	0xc0002ff6	-2.0029273
129	0x3fce1ecb	1.6103147
130	0xc02355b0	-2.552105
131	0x4122e33e	10.180479
132	0x3ef48fa2	0.47765833
133	0xbf97fac7	-1.1873406
134	0xbf48c8f4	-0.7843163
135	0x40b8f722	5.7801676
136	0x4141ce73	12.112903
137	0x40a07ae3	5.015001
138	0xbf7afe43	-0.9804422
139	0x3f78687f	0.9703445
140	0x3fbe9fb3	1.4892486
141	0xbf9ed87d	-1.2409817
142	0x40e38e4b	7.1111197
143	0xbfabb7d9	-1.3415481
144	0x409dc249	4.9299664
145	0x41538cbb	13.221858
146	0x3fa147cd	1.2600037
147	0xc0169eef	-2.3534505
148	0x3fd535c0	1.6657028
149	0x3fe39593	1.7780021
150	0x3ffee6af	1.9914149
151	0x409229ee	4.5676184
152	0x411a360c	9.638195
153	0x40e0f1d7	7.0295215
154	0xbf84ba98	-1.0369444
155	0x40c9f7f6	6.3115187
156	0xc00ce636	-2.201551
157	0x402fafd4	2.7451067
158	0xc00f904c	-2.2431822
159	0xbe6668fd	-0.22500987
160	0xbfbf81ad	-1.4961449
161	0x40a7c09a	5.242261
162	0x4115a3ee	9.352522
163	0xbfd18b29	-1.6370593
164	0x40929b6d	4.581473
165	0x3ed0d48e	0.40787166
166	0x40484a83	3.1295478
167	0x403b77c3	2.9291847
168	0xbfd74b4a	-1.6819851
169	0x4161db62	14.11606
170	0x3fa20c21	1.2659951
171	0xbfc7957c	-1.5592494
172	0xbfd17fed	-1.6367165
173	0xbed83940	-0.42231178
174	0xc09502cd	-4.656592
175	0x4180c4a3	16.096014
176	0xc00042b4	-2.0040712
177	0x40b5b100	5.6778564
178	0x41063b9f	8.389556
179	0xbfcb83a0	-1.5899544
180	0x410b76a9	8.71647
181	0xc0c99d6a	-6.3004656
182	0xc09299ee	-4.5812902
183	0x401f0ba4	2.4850855
184	0xbff69232	-1.9263365
185	0x408ac941	4.337067
186	0xbfb5cea7	-1.420369
187	0x410237f8	8.138664
188	0x41291936	10.568655
189	0xbf408c1c	-0.7521379
190	0x4127af05	10.480229
191	0xc0001551	-2.001301
192	0xc01f76d1	-2.491627
193	0x404d43a6	3.207254
194	0xbeb219b8	-0.34785247
195	0x3dcaf055	0.09909121
196	0x40598b74	3.3991365
197	0x4086b4cd	4.2095704
198	0xc01ea4f4	-2.478818
199	0x40c9cc41	6.3061833
200	0x40a3c4ec	5.1177883
201	0x3eadef3e	0.3397159
202	0x407dc72a	3.965281
203	0x40b42b0f	5.630256
204	0xbf847fe2	-1.0351527
205	0x4096b146	4.70914
206	0x40053e87	2.0819414
207	0x401a65d1	2.4124644
208	0x3f5c3a45	0.8602641
209	0x3e7d1fbc	0.24719137
210	0x409f53b0	4.9789658
211	0x4081f222	4.060807
212	0xbfc16064	-1.5107541
213	0x407c8cea	3.9461007
214	0x413a09b7	11.627372
215	0x4088c571	4.2741017
216	0xbfe6d150	-1.8032627
217	0x408c38b8	4.3819237
218	0xc0220785	-2.531709
219	0x40dc6229	6.8869824
220	0x40d28454	6.5786533
221	0xbfb42bbb	-1.4075845
222	0x41206a30	10.025925
223	0x4007bcaa	2.1208901
224	0x40cf481c	6.4775524
225	0x40403236	3.0030646
226	0x40f086c7	7.5164523
227	0x407027ec	3.7524366
228	0x40832408	4.0981483
229	0x3df3bad5	0.1190087
230	0x3e153f3a	0.145749
231	0x4187f1ad	16.993006
232	0xbe803187	-0.25037786
233	0xbf6cc9eb	-0.924956
234	0x4087bdab	4.241903
235	0x411fbe3c	9.983944
236	0x408e8ce3	4.454698
237	0x413bc0a9	11.734536
238	0x418342e5	16.407663
239	0x411f2173	9.945666
240	0x406bee3a	3.6864152
241	0x403d6e58	2.9598598
242	0xbf813339	-1.0093757
243	0x40d7066f	6.7195354
244	0x409ad14b	4.8380485
245	0x3ffd0165	1.976605
246	0xbfe6cd29	-1.803136
247	0xbf8124fe	-1.0089414
248	0xc01ba38a	-2.4318566
249	0xc016ff84	-2.3593454
250	0x407b9cc8	3.9314442
251	0xbfed8023	-1.8554729
252	0x40dc3f91	6.8827596
253	0x3efb8722	0.49126536
254	0x409ced9f	4.9040065
255	0x409accc3	4.8374953

model.2.weight f4 [256, 256]
0	0x404ed625	3.2318203
1	0x409f291e	4.973769
2	0x40a26fc9	5.0761456
3	0x4072e40d	3.795169
4	0xbcbd2977	-0.023091061
5	0x40facece	7.8377447
6	0x403a9931	2.9156
7	0x4060b25d	3.5108864
8	0xbff1eb98	-1.8900023
9	0x4110b9fe	9.045408
10	0xbff3374f	-1.9001254
11	0x4086893c	4.2042522
12	0xbf442a77	-0.76627296
13	0x404557bf	3.0834806
14	0x410b8845	8.720769
15	0x404df575	3.2181065
16	0xc15251d6	-13.1449795
17	0x41214527	10.079383
18	0x41112853	9.072345
19	0xc12d69a8	-10.838295
20	0xbfec1689	-1.8444377
21	0xbfab3212	-1.3374655
22	0x40ba500e	5.8222723
23	0x411e5ad6	9.897177
24	0x404f6e88	3.2411213
25	0x410c426e	8.766218
26	0x40157f46	2.3358932
27	0xc10a2820	-8.634796
28	0x40a963ab	5.2934165
29	0x4120d431	10.051805
30	0x40306f72	2.756802
31	0xc121c932	-10.11162
32	0x4068027a	3.6251512
33	0x3f9495f8	1.1608267
34	0x40387a9d	2.8824837
35	0xc010b16b	-2.2608287
36	0x406b7a69	3.6793463
37	0x4054a48b	3.322543
38	0x4031850f	2.7737463
39	0x41325dbc	11.147884
40	0xc09f66cd	-4.981299
41	0x41141774	9.255726
42	0x4091b679	4.5535245
43	0x40905507	4.5103793
44	0xbf31ad33	-0.69404906
45	0x405c7fc6	3.4452987
46	0xc03387a4	-2.8051538
47	0x3faebf66	1.365216
48	0x4050fa3a	3.2652726
49	0xc0be4a5a	-5.946576
50	0x3e5e5cbf	0.21715067
51	0xc01c4d56	-2.4422202
52	0x414f262a	12.946817
53	0x4025b415	2.5891163
54	0x4084d923	4.151506
55	0x3ed28ef9	0.41124704
56	0x408442f8	4.133175
57	0xbfc7aa2c	-1.5598807
58	0x4129474e	10.579908
59	0xc069284c	-3.6430845
60	0x404db0d7	3.2139184
61	0x404c99a7	3.1968782
62	0xc14bd622	-12.7397785
63	0x40fd7731	7.9207997
64	0xc0e92c07	-7.2866244
65	0x4055e63f	3.342178
66	0x41364aba	11.393244
67	0xc1291c98	-10.569481
68	0x4083acb0	4.11483
69	0x4120ce22	10.050325
70	0xc0ead955	-7.33903
71	0x40c8d11c	6.275526
72	0x40953945	4.663241
73	0x403aade3	2.9168632
74	0x402e7bb8	2.7263012
75	0x40c35e29	6.105244
76	0x40dde0e1	6.933701
77	0x41009356	8.035971
78	0x3f5124da	0.81696856
79	0xc0a19579	-5.049496
80	0x403c0a2e	2.9381213
81	0x40c28572	6.0787897
82	0x40385367	2.8800905
83	0x407d9f9d	3.962867
84	0x4064e1c7	3.5762804
85	0xc0a40e43	-5.126741
86	0xc0a5d52e	-5.182273
87	0x40fd7f71	7.921807
88	0x40df8250	6.9846573
89	0x41033258	8.199791
90	0x406b2f17	3.6747491
91	0x40654b34	3.582715
92	0x4116a72e	9.415815
93	0xbf91b28e	-1.1382616
94	0x40592df0	3.3934288
95	0xc149ec5d	-12.620206
96	0x41428eb3	12.159839
97	0x40ffbeba	7.992032
98	0x411dea16	9.86965
99	0xc09ff6af	-4.9988627
100	0x410223fb	8.133784
101	0x4155b905	13.357671
102	0xc0dc1953	-6.8780913
103	0x40b4b2a9	5.646809
104	0x3f5ef59b	0.87093514
105	0x41251ed7	10.320029
106	0x40a3c401	5.1176763
107	0x405af832	3.4213986
108	0x41022268	8.1334
109	0x410e3708	8.888435
110	0xc106e0d3	-8.429889
111	0x416a6db1	14.65178
112	0x40b545e4	5.6647816
113	0x4080bddb	4.0231757
114	0x40b2196b	5.565603
115	0x40ceb3e7	6.4594607
116	0x4107ade2	8.479952
117	0x409da9de	4.9269857
118	0x40631eb8	3.54875
119	0x40cf5c38	6.480007
120	0x40ff4a40	7.9778137
121	0x40bf6206	5.9807158
122	0x408b4f56	4.3534346
123	0x414fb5c1	12.9818735
124	0x40556246	3.3341231
125	0xc0c3ba8a	-6.116521
126	0xbf924a36	-1.1428897
127	0xc07da20e	-3.963016
128	0x4121568a	10.083628
129	0x409eefa2	4.966752
130	0x40d0f639	6.5300565
131	0x405a95aa	3.4153848
132	0xc08e40d3	-4.445413
133	0x405b1d51	3.4236643
134	0x4055b368	3.339075
135	0xbf3212b0	-0.69559765
136	0x405c43de	3.4416423
137	0xbf273bd7	-0.65325683
138	0x4068d998	3.6382809
139	0x406e3e82	3.7225652
140	0xc02a4d1c	-2.6609564
141	0x406ca8b0	3.6977959
142	0x4093a2d5	4.613627
143	0x408ba3aa	4.3637285
144	0xbf86d8c4	-1.0534902
145	0x3f8f2fb7	1.1186436
146	0x4176a29e	15.414701
147	0x40f8d897	7.776439
148	0x40470188	3.1094685
149	0xc00b441b	-2.1760318
150	0x410b6c1d	8.713895
151	0xbfd4388c	-1.6579757
152	0x4043d8b5	3.0601017
153	0xc0fd00b8	-7.9063377
154	0x414deffd	12.871091
155	0xc0ea7c79	-7.3276944
156	0x4123c361	10.2352
157	0x40428e1c	3.0399237
158	0x40f80b7b	7.7514014
159	0x4159246e	13.571394
160	0x4125016f	10.31285
161	0x3e7eef05	0.24895866
162	0x409a228d	4.8167176
163	0x40d5ff34	6.6874027
164	0xc1226b65	-10.151219
165	0x40bd36e0	5.9129486
166	0xc00056bc	-2.0052938
167	0x40a608d0	5.1885757
168	0x40a4ad15	5.146128
169	0x4048da4c	3.1383238
170	0x40dedd9a	6.964551
171	0x40a63c71	5.194878
172	0x413edf81	11.929566
173	0x3ee8ae53	0.454455
174	0x40c996fb	6.29968
175	0x3fc3872c	1.5275626
176	0x411f55a3	9.958407
177	0xc05bce69	-3.4344733
178	0x3fe5a97e	1.794235
179	0x408c7fb6	4.3905897
180	0x40e27551	7.076821
181	0x40e5885a	7.1728945
182	0x40dcf6f6	6.9051466
183	0xc099fefb	-4.8123755
184	0x40d140bc	6.539152
185	0xc146ae0e	-12.417494
186	0x40a72f05	5.2244897
187	0xc0cbc547	-6.3678317
188	0x4063f45c	3.5617895
189	0x4049f997	3.1558588
190	0x405cb08c	3.4482756
191	0x410b836d	8.719586
192	0x40d6d4b6	6.7134657
193	0xc03982f5	-2.898618
194	0x4033ef65	2.8114865
195	0x4045fa60	3.0934067
196	0xc0ee9979	-7.4562345
197	0xbfedc683	-1.8576206
198	0x4105299c	8.322659
199	0xbe9158a6	-0.28387946
200	0xc0f32c4e	-7.5991583
201	0x40d0dfbe	6.5273123
202	0xc18677c0	-16.808472
203	0xbfa94811	-1.3225118
204	0x40b1f902	5.5616465
205	0x40b4b934	5.647608
206	0x403d2580	2.9554138
207	0xc0a66514	-5.1998386
208	0x40a433bf	5.1313167
209	0x40b4fb09	5.655644
210	0xc127c666	-10.485937
211	0x40bea26b	5.9573264
212	0x408c88d5	4.391703
213	0xc1265203	-10.395022
214	0x4056181a	3.345221
215	0xbfebeab5	-1.8431002
216	0x4138936d	11.535993
217	0xbfa291a2	-1.2700694
218	0x4148ebfb	12.557612
219	0x3d179282	0.037004955
220	0xbf17ec59	-0.5934501
221	0x40ac65b3	5.3874145
222	0x4010649e	2.2561412
223	0xc01e10a4	-2.4697657
224	0x3fa41a49	1.2820522
225	0xc02c0323	-2.6876915
226	0x3b0840ce	0.002079058
227	0xc05366bb	-3.3031452
228	0xc1198245	-9.594304
229	0x403c124e	2.9386172
230	0x40d2eb72	6.591241
231	0x4029a9c7	2.6509874
232	0x403a7440	2.9133453
233	0x40617263	3.5226066
234	0x40bec693	5.96174
235	0x40499f3b	3.1503437
236	0xc00690e1	-2.1025927
237	0x405faee5	3.4950497
238	0x403ec4e1	2.9807665
239	0x4053e665	3.3109372
240	0xbff290dc	-1.8950458
241	0xc01047f1	-2.254391
242	0x4065544b	3.5832698
243	0x3fa59e38	1.293891
244	0xc0ccb80b	-6.397466
245	0x40cb0bf2	6.345208
246	0x40f59c56	7.675334
247	0x405b29b2	3.4244199
248	0x411073aa	9.028238
249	0x4100816a	8.031595
250	0xbf26e8db	-0.6519906
251	0x41109fa1	9.038972
252	0xbeae089b	-0.3399094
253	0x415e6e17	13.901877
254	0xc183f69f	-16.49542
255	0x3ed31dc5	0.4123365

model.2.bias f4 [256]
0	0x3fe85511	1.815096
1	0x3fda1b99	1.7039672
2	0xbd3caeec	-0.046065256
3	0x41032dfc	8.198727
4	0x3f74eb1d	0.95671254
5	0x3d87f7b1	0.0663904
6	0x3fecd50f	1.850252
7	0x3feed7e1	1.8659631
8	0x3fbb8d11	1.4652425
9	0xbc2da7b9	-0.01059907
10	0xbd8dedd9	-0.069301315
11	0x41027b6c	8.155132
12	0xbdc89486	-0.097939536
13	0x3ff11ebf	1.8837508
14	0xbd631ac6	-0.055445455
15	0x3ffc74a0	1.9723091
16	0x3ff85a95	1.9402643
17	0x3fe8366e	1.8141611
18	0xbc5555f7	-0.013020984
19	0x3fd5bc28	1.6698046
20	0x410af844	8.685612
21	0x3f6cc6b3	0.9249069
22	0x3fb60f24	1.422337
23	0x3c40d8fe	0.011770485
24	0x3fba4a78	1.4553976
25	0x4101b106	8.105719
26	0xbd533e63	-0.05157317
27	0x3f9cf4f3	1.2262253
28	0x3fe1ddf9	1.7645866
29	0x3fe8cde2	1.818783
30	0xbccb104f	-0.02478805
31	0x41018d05	8.096929
32	0xbd9a89f7	-0.07545846
33	0x3fefe9cb	1.8743223
34	0x3fddf9ab	1.7341818
35	0xbd6133b7	-0.05498096
36	0x3fb3d69b	1.4049867
37	0x3fe7deb6	1.8114841
38	0x410307f0	8.189438
39	0x3fddd93a	1.7331917
40	0xbd7192bc	-0.058977827
41	0x3fe6401c	1.7988315
42	0xbd748048	-0.05969265
43	0xbc80858e	-0.015688684
44	0xbd220447	-0.03955486
45	0x41029da8	8.16349
46	0xbd4455f8	-0.04793355
47	0x4109bda3	8.608798
48	0x41044153	8.265948
49	0x3fd46c22	1.65955
50	0x3cf532b5	0.029931406
51	0x40002a5c	2.0025854
52	0x3ba68741	0.0050820415
53	0xbc1bdbc5	-0.009512846
54	0x3ff177ef	1.8864726
55	0xbda2a8ca	-0.0794235
56	0x41035030	8.207077
57	0x3d174e06	0.036939643
58	0x3fddb5ed	1.7321144
59	0x3fc8016f	1.5625437
60	0x3fc75a5f	1.5574454
61	0xbdbeccd0	-0.09316409
62	0x3b70ed00	0.0036762357
63	0x3c87ada6	0.016562294
64	0x3fb4df91	1.4130727
65	0x4101f2d3	8.121783
66	0x41038a7f	8.2213125
67	0x41045239	8.270074
68	0x41021556	8.130209
69	0x3fe9c6b5	1.8263766
70	0xbdcbfbf9	-0.09960169
71	0x40feb90b	7.9600883
72	0xbba60f0b	-0.005067711
73	0x3fdeb3d6	1.7398632
74	0x3ff73d94	1.9315667
75	0x4101ae30	8.105026
76	0x3fe770c2	1.8081286
77	0x4102a93c	8.166317
78	0xbc4ff359	-0.012692296
79	0x3fe3fde1	1.7811853
80	0xbb8d9dd7	-0.0043217945
81	0x3ec87a5a	0.39155847
82	0xba2a3ab3	-0.0006493732
83	0xbce9c861	-0.02853793
84	0x3ff96c3c	1.9486156
85	0x3febeaa7	1.8430985
86	0x3e5ba726	0.21450481
87	0x3fe0b844	1.7556233
88	0x41000151	8.000321
89	0x3dc0bd57	0.09411114
90	0x3ca30ec4	0.019904502
91	0x4108d5db	8.552211
92	0x3ff3b183	1.9038547
93	0x4105807f	8.343871
94	0xbdd66510	-0.10468495
95	0x3ff83f67	1.9394349
96	0x3fde10d3	1.7348884
97	0x4102882d	8.158246
98	0xbb9da0db	-0.004810435
99	0x3fcd7eff	1.6054381
100	0xbd979db9	-0.0740313
101	0xbd467b49	-0.048457418
102	0xbd0bef64	-0.034163848
103	0x4003909c	2.0557013
104	0x3fe2f615	1.7731348
105	0x3fe00799	1.7502319
106	0x3fe875a2	1.8160899
107	0xbd125442	-0.035724886
108	0xbd389935	-0.045067985
109	0x410164bb	8.087092
110	0x410193c7	8.098578
111	0x3ffc9af9	1.9734794
112	0x3fe9ed3c	1.8275523
113	0x4102aaa5	8.166661
114	0x3e9e3de8	0.30906606
115	0x3fe73cb3	1.8065399
116	0x3ff0c742	1.8810809
117	0x3ff7161e	1.9303625
118	0x3fe13d91	1.7596914
119	0x3ff01a99	1.8758117
120	0xbbf22797	-0.0073899734
121	0x3fb40d99	1.406665
122	0x41016dae	8.089277
123	0x3fded8e1	1.7409936
124	0x3fe00f9e	1.7504766
125	0x41020d9c	8.128323
126	0x4106ccc6	8.4249935
127	0xbd8b7377	-0.068091325
128	0x41037bdf	8.217742
129	0xbd058eb5	-0.0326068
130	0x3fc3229e	1.5244939
131	0xbdabc429	-0.08387024
132	0xbcc75654	-0.024333157
133	0xbd8df68c	-0.06931791
134	0x3feca877	1.8488911
135	0xbc9a0c7b	-0.01880478
136	0x3fe54765	1.7912413
137	0xbcf62eca	-0.030051608
138	0xbd865620	-0.06559396
139	0x3fe65eeb	1.7997717
140	0x3c8dfa92	0.017331395
141	0xbc567535	-0.013089468
142	0x3fbf61f2	1.4951766
143	0x41019fe1	8.101533
144	0x41025ab4	8.147144
145	0xbd9e9d0e	-0.077447996
146	0xbd50eaaa	-0.051005043
147	0x3fea4dd9	1.8305007
148	0x3ff879c9	1.9412166
149	0x41031274	8.192005
150	0x3ffa5c14	1.955935
151	0xbcdc5baf	-0.026899187
152	0xbd6fdb35	-0.05855866
153	0x3fec7b5a	1.8475144
154	0xbdb3aa54	-0.08772722
155	0x3ccf0e4f	0.025275378
156	0x3acaf14c	0.0015483289
157	0x3fc92972	1.5715773
158	0x3f7bdb37	0.9838137
159	0x3fba8a85	1.4573523
160	0xbce28a80	-0.027653933
161	0x3ffd3e29	1.9784595
162	0x3c847349	0.016168253
163	0x3ffd1141	1.977089
164	0xbbe1b17d	-0.0068876133
165	0x41009dc3	8.038516
166	0x3fec8004	1.8476567
167	0xbd844d2d	-0.064600326
168	0xbd76619e	-0.06015169
169	0xbd1feacc	-0.03904228
170	0x3fec8bd6	1.8480175
171	0x3fe8e458	1.8194685
172	0x3e8fe140	0.2810154
173	0x3fe7944a	1.8092129
174	0xbb6d99c8	-0.003625499
175	0xbc924aeb	-0.01785799
176	0x4000bf99	2.0116942
177	0x3fc51515	1.5397059
178	0x3cb950df	0.02262157
179	0x3fd9d824	1.7019086
180	0xbd7647de	-0.06012713
181	0x3d4ce294	0.05002077
182	0x3fefa2b0	1.8721523
183	0x3c1ee74c	0.0096987
184	0x3d235f41	0.039885763
185	0xbdb919a2	-0.09038092
186	0xbda60180	-0.08105755
187	0x3feac150	1.8340244
188	0x3fe4ff35	1.7890383
189	0x410331d3	8.199664
190	0x4102769d	8.153958
191	0x3ca4b326	0.020104956
192	0x3feb8ee0	1.8402977
193	0x3fb62502	1.4230044
194	0x410252e6	8.145239
195	0x3fe94f60	1.8227348
196	0x410cb656	8.794516
197	0x3ffda5a1	1.9816171
198	0x41023c2f	8.139693
199	0x4101663a	8.087458
200	0x3fc2f718	1.5231657
201	0xbccb7818	-0.024837539
202	0x3cd2ce82	0.025733236
203	0x3fe39a1f	1.7781409
204	0x4100b504	8.044193
205	0x3feb1a27	1.8367356
206	0x3e1c2e89	0.15252127
207	0xbdac491b	-0.08412381
208	0xbdc20f1f	-0.0947554
209	0x4102ea34	8.1821785
210	0x3ff75433	1.932257
211	0xbd8527a1	-0.06501699
212	0x3ff6999e	1.926563
213	0xbd65c376	-0.05609461
214	0xbd046df7	-0.032331433
215	0xbd4c9f19	-0.049956415
216	0x3fbdd322	1.4830058
217	0x3fe3e7b3	1.7805084
218	0x3fde0ab4	1.7347016
219	0xbdbb9b9c	-0.091605395
220	0x4102e8cb	8.181834
221	0x3fd1fe54	1.640574
222	0x3ff15df2	1.8856795
223	0x41008079	8.031365
224	0x41035732	8.208788
225	0x3fe4687c	1.7844386
226	0x40009bc8	2.0095081
227	0x3fdbee04	1.7182012
228	0xbd1a8a1b	-0.037729364
229	0x3fdd90f2	1.7309859
230	0x3c93ff8c	0.01806619
231	0x3fce4b55	1.611674
232	0x3f0092bd	0.50223905
233	0x3fbe8750	1.4885044
234	0xbdcb7c57	-0.09935825
235	0x410472b7	8.278007
236	0xbb3e0a3c	-0.00289978
237	0x3fc38602	1.5275271
238	0x3ce47206	0.027886402
239	0x3fbb4080	1.4629059
240	0x3fe6e93b	1.8039926
241	0xbdc6993b	-0.09697195
242	0x3d076bf2	0.03306193
243	0x41031bb5	8.194264
244	0x3fb5d9f5	1.420714
245	0x3ff272d4	1.8941293
246	0xbd15ca97	-0.036570158
247	0x3fef1ba2	1.8680308
248	0xbcdc09c4	-0.026860125
249	0xbd3a416d	-0.04547255
250	0x3fe0b5b6	1.7555454
251	0x4104fe54	8.312092
252	0xbd14e71d	-0.03635322
253	0x3fd46d42	1.6595843
254	0xbd88d423	-0.06681087
255	0x3fd57a50	1.6677952

model.4.weight f4 [1, 256]
0	0xc1176d42	-9.464174
1	0xc1134d40	-9.20636
2	0x3c30a1dc	0.010780778
3	0x417e98fa	15.912348
4	0xc11627d3	-9.384723
5	0xc1150bad	-9.315351
6	0xc1184024	-9.515659
7	0xc11157ca	-9.083933
8	0xc1180344	-9.500797
9	0xbd2318b8	-0.039818496
10	0xbb56c14f	-0.003276903
11	0x416fc34e	14.985182
12	0x3bbd7fb3	0.005783045
13	0xc114e168	-9.305031
14	0x3b636e3d	0.0034703158
15	0xc118192b	-9.506145
16	0xc1175190	-9.457413
17	0xc11972e4	-9.590549
18	0xbcec552e	-0.02884921
19	0xc115f08d	-9.371228
20	0x417b6986	15.713263
21	0xc1a3047a	-20.377186
22	0xc118acb5	-9.542165
23	0xbcd459fc	-0.025921814
24	0xc118e8f6	-9.556875
25	0x416f0227	14.938025
26	0x3a6b666c	0.00089798006
27	0xc10f08e9	-8.939675
28	0xc1194225	-9.578649
29	0xc1184de9	-9.519021
30	0xbd0d067c	-0.034430012
31	0x41711ea0	15.069977
32	0xbc9c5ef6	-0.01908825
33	0xc1185a81	-9.522096
34	0xc113a44a	-9.22761
35	0x3c6ea5f5	0.014565934
36	0xc1186dd5	-9.526814
37	0xc113cf22	-9.23807
38	0x417145e2	15.079561
39	0xc115e19d	-9.367581
40	0x3bdc352b	0.0067202053
41	0xc1192ade	-9.572966
42	0xbcdfaa52	-0.027302895
43	0x3c5ca338	0.013466649
44	0x3bb26c03	0.005445005
45	0x416c8dfc	14.784664
46	0x3ce01546	0.027353894
47	0x417f15af	15.942794
48	0x41840df9	16.506823
49	0xc115454a	-9.329416
50	0x39db3bc6	0.0004181547
51	0xc11747b0	-9.455002
52	0xbcff8cc9	-0.031195061
53	0x3b483a4d	0.0030552328
54	0xc11223ab	-9.133708
55	0xbbc1acd0	-0.0059104934
56	0x41707102	15.02759
57	0x3d07e9c1	0.03318191
58	0xc1189964	-9.537449
59	0xc1170158	-9.437828
60	0xc1165ae5	-9.397191
61	0xbc27052d	-0.010194105
62	0x3d1238b6	0.035698615
63	0xbcb10473	-0.021608567
64	0xc118a6e5	-9.540746
65	0x416c9bbb	14.78802
66	0x41828b11	16.317904
67	0x418139df	16.153257
68	0x416faefd	14.980222
69	0xc117bc30	-9.483444
70	0xbc6bbdc6	-0.014388507
71	0x41593556	13.575521
72	0x3d03eab9	0.03220627
73	0xc1176c27	-9.463904
74	0xc1133759	-9.201013
75	0x4170537d	15.020383
76	0xc1185937	-9.521781
77	0x4174ce60	15.3003845
78	0x3cdf402e	0.027252283
79	0xc117cda8	-9.487709
80	0x3cd3f058	0.02587144
81	0xc1130e10	-9.190933
82	0x3bba67f0	0.00568866
83	0xbbb4ecb8	-0.005521383
84	0xc11372e6	-9.215551
85	0xc11462b6	-9.274099
86	0xc11615a3	-9.380282
87	0xc115dfc6	-9.367132
88	0x4157eac9	13.494821
89	0xc1151711	-9.318131
90	0xbb49bdad	-0.0030783222
91	0x4168384b	14.513743
92	0xc117b730	-9.4822235
93	0x418845de	17.034115
94	0xb9ab6330	-0.00032689562
95	0xc117c1a6	-9.484777
96	0xc1143ab3	-9.264331
97	0x4170e423	15.055697
98	0x3ceb72e3	0.028741306
99	0xc1160c74	-9.37804
100	0x3c8dfd35	0.017332653
101	0x3b603d75	0.0034216319
102	0xbbbacc79	-0.0057006446
103	0xc116cc92	-9.424944
104	0xc1196d32	-9.589159
105	0xc118c8b7	-9.549003
106	0xc118673c	-9.525204
107	0x3cf78e8b	0.030219337
108	0xbd1582b5	-0.036501605
109	0x41707885	15.029424
110	0x417003bd	15.000913
111	0xc1187ad2	-9.529985
112	0xc1186a1d	-9.525907
113	0x416ff357	14.996909
114	0xc1163092	-9.386858
115	0xc11842c8	-9.516304
116	0xc117282f	-9.44731
117	0xc1176b7d	-9.463742
118	0xc11464da	-9.274622
119	0xc117c95c	-9.48666
120	0x3d0475a8	0.03233877
121	0xc11855c3	-9.520938
122	0x417147ff	15.080077
123	0xc1142c2e	-9.260786
124	0xc119cc89	-9.612435
125	0x416bcf79	14.7381525
126	0x4163a769	14.228372
127	0x3d872cf3	0.0660037
128	0x416d00f6	14.812735
129	0x3c957eaa	0.018248875
130	0xc11876b3	-9.528979
131	0x3bb95b38	0.005656626
132	0xbb72f677	-0.0037073174
133	0xbc7a7c21	-0.015288384
134	0xc11934a1	-9.575349
135	0x3abb2de8	0.0014280649
136	0xc118efc5	-9.5585375
137	0xbcb96c9c	-0.022634797
138	0xc10f7a0b	-8.967296
139	0xc114228f	-9.258437
140	0xbc73e026	-0.014884984
141	0x3bffe910	0.0078097656
142	0xc11572ab	-9.340495
143	0x417db3e9	15.856423
144	0x416eab1e	14.916777
145	0xbbfda30f	-0.0077403854
146	0x3bdabd47	0.0066753956
147	0xc1187d12	-9.530535
148	0xc1179e35	-9.476125
149	0x4174b89d	15.295072
150	0xc117de2b	-9.49174
151	0x3c0bdf4b	0.008537124
152	0x3c673df9	0.0141138965
153	0xc113df08	-9.241951
154	0xbb8f882b	-0.004380246
155	0xbc73208d	-0.014839304
156	0x3bb5d75c	0.0055493545
157	0xc118ad89	-9.542367
158	0xc115e586	-9.368536
159	0xc11869f8	-9.525871
160	0x3ac317ed	0.001488445
161	0xc1182633	-9.509326
162	0x3d507a2a	0.050897755
163	0xc117d628	-9.489784
164	0x3ce1d478	0.027567133
165	0x417e5c1a	15.897486
166	0xc114665c	-9.27499
167	0x3c0e9f4a	0.00870497
168	0x3ce35de0	0.027754724
169	0xbaf9e331	-0.0019064901
170	0xc119503c	-9.582088
171	0xc1140450	-9.251053
172	0xc115e819	-9.369164
173	0xc118a2c3	-9.539737
174	0x3cf7a100	0.030228138
175	0x3cd7ad2d	0.026327694
176	0xc118286d	-9.50987
177	0xc119e2fa	-9.617914
178	0x3cea4f96	0.028602403
179	0xc118de01	-9.5542
180	0xbcc8ec38	-0.0245267
181	0x3ce18cc0	0.027532935
182	0xc112cbb5	-9.174733
183	0x39a2ae0f	0.00031028732
184	0x3b158732	0.0022816178
185	0x3d2b7b09	0.041865382
186	0x3ba09717	0.004900824
187	0xc117daec	-9.490948
188	0xc11786c8	-9.470406
189	0x4170d284	15.051395
190	0x41701c09	15.0068445
191	0x3d004f38	0.03132555
192	0xc1183461	-9.512788
193	0xc1180d8c	-9.503307
194	0x4170abf8	15.041985
195	0xc118e2b7	-9.55535
196	0x4170c6a4	15.048496
197	0xc1173e65	-9.452733
198	0x416e7d58	14.9056015
199	0x416feeba	14.995783
200	0xc117c50d	-9.485608
201	0x3ca356e6	0.019938897
202	0x3cd1e8c8	0.025623694
203	0xc1187133	-9.527637
204	0x416813dc	14.5048485
205	0xc114a69b	-9.290675
206	0xc106ef39	-8.433404
207	0xbba1fa42	-0.004943163
208	0xbd344344	-0.044009462
209	0x416fceee	14.98802
210	0xc11814f8	-9.505119
211	0x3c9566ee	0.018237557
212	0xc11901f1	-9.562974
213	0x3bfbb4a7	0.0076814475
214	0xba95f29b	-0.00114401
215	0xbcd2832d	-0.025697315
216	0xc117209a	-9.445459
217	0xc1192586	-9.571661
218	0xc1180251	-9.500566
219	0x3c7e0a93	0.015505451
220	0x41722356	15.133627
221	0xc11560b6	-9.336111
222	0xc11880f8	-9.5314865
223	0x415cb61b	13.794459
224	0x416d19d7	14.818809
225	0xc118db15	-9.553487
226	0xc114e8f7	-9.306876
227	0xc116bbf6	-9.420889
228	0x3c00c4f0	0.007859454
229	0xc11336c0	-9.200867
230	0x3c9233e6	0.017847013
231	0xc11529dc	-9.32272
232	0xc10171da	-8.090296
233	0xc119d5db	-9.614711
234	0xbb3b52ee	-0.0028583365
235	0x416c2c26	14.760778
236	0x3caa911b	0.020821145
237	0xc117890c	-9.470959
238	0xbb8c314e	-0.0042783385
239	0xc1158bc1	-9.34662
240	0xc117339e	-9.450102
241	0x3cd808dd	0.026371414
242	0x3d5e0a4e	0.054209046
243	0x4172cc22	15.174837
244	0xc118f5ca	-9.560007
245	0xc117f3a7	-9.496985
246	0xbd37cdbe	-0.044873945
247	0xc1165aab	-9.397136
248	0xbca7315a	-0.020409275
249	0x3cde1f75	0.02711461
250	0xc1189ebb	-9.538753
251	0x41823461	16.275576
252	0xbc4dc563	-0.012559268
253	0xc115bb94	-9.358295
254	0xbbaf2059	-0.0053444323
255	0xc1185354	-9.520344
