hw2/preTrained/ddpg_actor_Pendulum-v1_04242023_162850_.pth (torch, 70551 bytes, 5 tensors)

model.0.weight f4 [128, 3]
000000 09 fa 49 be f5 0f 13 bf 68 1b a6 bd 19 54 8c 3d
       -0.19724287 -0.57446223 -0.08110696 0.06851978
000010 0e 78 35 bf 29 ac c6 bd 6a b3 74 3e d2 d5 45 3f
       -0.70886314 -0.09700806 0.23896566 0.7727939
000020 79 2e 10 3e c8 99 5a be 51 19 df be 1c e7 0d be
       0.14080228 -0.21347725 -0.43574002 -0.13857692
000030 c4 1a 41 3e dc a6 a7 3d 6f f4 80 3e 8c 79 28 3f
       0.18857867 0.08186123 0.25186488 0.65810466
000040 01 3b af be 2f cd 5e 3e 8e 6d b3 3e 2b 26 e3 bd
       -0.34224704 0.21757959 0.3504452 -0.11091264
000050 ac 79 03 be 89 81 03 be 87 33 5a bf 8c ce 1b bf
       -0.12839383 -0.12842382 -0.85234874 -0.6086204
000060 f4 31 df be a9 86 70 bf af 33 f9 be 08 f1 23 bf
       -0.435928 -0.93955475 -0.48672244 -0.6403966
000070 70 9e 41 bf ce 1a 95 3e 67 38 e8 3e 1e ee 36 3f
       -0.7563238 0.29122013 0.45355532 0.7145709
000080 3f 07 85 3e dc 4d 62 3d 77 88 bc 3e eb 83 bc be
       0.2598209 0.055250034 0.36822864 -0.36819395
000090 d1 62 46 3f 2f 09 74 be 28 79 e8 3e df 8e 58 3e
       0.7749453 -0.23831628 0.45404935 0.21148251
0000a0 63 4f 89 3f ac f4 d2 3e 2d b6 fd bd 83 25 e0 be
       1.0727352 0.41202295 -0.12388263 -0.4377862
0000b0 a1 0d ca 3c 92 83 46 bd b1 60 a6 3c 49 68 ae 3e
       0.024664702 -0.04846532 0.020309778 0.34063938
0000c0 49 88 36 bf 96 c3 10 bf 73 ae 00 bf ea 85 03 3f
       -0.71301705 -0.5654844 -0.5026619 0.5137621
0000d0 75 88 07 bf 82 a8 5e 3e 0d ce 85 be d7 58 df 3e
       -0.5294259 0.21743968 -0.26133767 0.43622467
0000e0 57 24 5a 3d 24 76 5b 3e d9 66 89 3f eb 76 cc 3e
       0.053257313 0.21431786 1.0734512 0.39934477
0000f0 b3 68 26 bf 45 44 38 bf ca b5 72 3d 17 aa 82 3e
       -0.6500351 -0.7197917 0.0592554 0.25520393
000100 75 b2 d5 3e e6 be 0e 3f 1a 7c c1 3e 07 5a d4 be
       0.41737714 0.5576004 0.37789994 -0.41474935
000110 73 28 ca be bd d7 b9 3e 0e 4b 47 3f 9e 7c a4 be
       -0.39483985 0.36297408 0.778489 -0.32126325
000120 25 8b c7 be 9b 8b bf be 30 62 05 bf c6 b5 96 be
       -0.38973346 -0.37411198 -0.5210295 -0.29435557
000130 cc ef 77 bf 42 5e 36 3e bd 9b 60 be ec f4 52 bf
       -0.96850276 0.17809394 -0.2193441 -0.8240497
000140 1f e1 af be c9 b5 ab be f2 3d 05 3f 2c 6e 80 bd
       -0.3435144 -0.3353713 0.52047646 -0.062710136
000150 ee 05 3e 3f cc 26 73 be 10 b3 35 be 6f f9 3e 3f
       0.742278 -0.23745269 -0.17744088 0.74599355
000160 4d 1d 23 bf 9d a4 86 be df 44 b2 be b5 0f 89 3f
       -0.63716584 -0.26297465 -0.3481817 1.0707918
000170 45 52 9e 3e ff b2 e2 be 48 2e d3 be 6d a5 6c 3e
       0.30922142 -0.44277188 -0.41246247 0.2310998
000180 a0 18 8b be 2e 61 77 3e dd 46 48 be 9a a5 46 be
       -0.27167225 0.24158165 -0.19558282 -0.1939911
000190 ab 33 5f 3f 2f a3 e4 3e cc 83 fb 3e a0 98 b7 3e
       0.87188214 0.4465575 0.4912399 0.3585863
0001a0 92 d4 9c be 93 9e 90 3e d4 ac 06 3f 20 44 6e 3e
       -0.30630928 0.28245983 0.52607465 0.23268175
0001b0 2f 91 66 be 44 38 19 3e 9c 1d a7 3e 6b 18 24 3e
       -0.2251632 0.1496287 0.32639778 0.1602494
0001c0 7c 5a 24 3f 3c 40 92 be 44 eb e7 3e a6 8e c7 be
       0.6420057 -0.28564632 0.4529668 -0.3897602
0001d0 0d b8 a2 3d 04 51 31 be ed 10 03 3f 07 b8 f6 3e
       0.07945261 -0.17316061 0.511977 0.48187277
0001e0 6b af 10 3f 00 fa 17 3f 2b 3a e0 be 44 ba 20 bf
       0.56517667 0.59365845 -0.4379438 -0.6278422
0001f0 14 0d e2 3c 5a 98 83 be 86 83 93 be 69 28 24 be
       0.027594127 -0.25702173 -0.28811282 -0.1603104
000200 51 48 19 bf 00 0e 64 bb 08 5d 91 bd 00 57 b5 3b
       -0.5987597 -0.0034798384 -0.070978224 0.005534053
000210 df 16 1f be 93 ee 43 be 51 0f b8 be 72 69 cd be
       -0.15536068 -0.19133978 -0.35949185 -0.4011951
000220 7b 95 91 3f da a2 0b 3f 3d e9 9a bd b7 c2 74 bf
       1.1373743 0.54545367 -0.07564018 -0.9560961
000230 ac 3a ce be 69 b5 07 3f 49 30 89 3f 0f 9b 16 bf
       -0.40279138 0.53011185 1.071786 -0.5883035
000240 6e 53 07 3e f3 c3 02 3f 89 ad 07 3f a6 2b 84 be
       0.1321542 0.51080245 0.5299917 -0.2581455
000250 9f 10 dc be c2 a5 e8 be e7 3f 44 bf e6 6a e1 be
       -0.4298143 -0.45438963 -0.7666001 -0.4402687
000260 bd ea 8d be 2a 6f fe bd e3 03 c4 be 80 3a 25 bf
       -0.27718154 -0.124235466 -0.38284215 -0.6454239
000270 ba db bf 3e 6a 94 27 3f 08 27 e7 3e 73 36 70 3e
       0.37472326 0.65460837 0.45146966 0.2345827
000280 b5 b3 44 bf 11 c6 f9 be 14 ce 1d be 6f bd 85 be
       -0.7683671 -0.48783925 -0.15410644 -0.2612109
000290 f5 4d 02 bf d0 17 f6 3e 99 20 33 bf 27 0f 06 be
       -0.50900203 0.48065042 -0.69971615 -0.13091718
0002a0 7b 87 5a bf ed c3 19 3e d3 39 49 bd 9b ed 08 3f
       -0.85362977 0.15016146 -0.04912741 0.5348756
0002b0 36 94 91 3e 4d 6d f5 be c8 c9 e2 3e 14 40 44 bf
       0.28433388 -0.47934952 0.44294572 -0.76660275
0002c0 25 a0 99 3e 74 e5 b2 be 49 cd 22 3f 32 05 55 3e
       0.30004993 -0.34940684 0.6359449 0.20802763
0002d0 2c 90 9b 3e 55 6d 5b be d7 ea 11 3f 27 0d 3f 3f
       0.30383432 -0.21428426 0.5699896 0.74629444
0002e0 fe 40 2f 3e b9 76 65 be 25 c9 3e 3e f0 55 4f 3f
       0.17114636 -0.2240857 0.18631418 0.80990505
0002f0 6e 11 01 3f a5 c1 0d 3f 30 e9 03 3f c7 a0 77 3e
       0.5041722 0.55373603 0.5152769 0.24182425
000300 c2 44 27 bf bb 2b b6 be ea 59 e3 3e ab f8 e0 be
       -0.6533929 -0.3558024 0.44404536 -0.4393972
000310 56 b4 fb 3e d5 72 02 3f af 54 dc be 3d 5f 52 bf
       0.49161023 0.5095647 -0.43033358 -0.8217657
000320 64 bf 26 bf 7d f8 be 3e 25 a1 b0 3e eb c0 b7 3e
       -0.6513579 0.37298957 0.34497944 0.35889372
000330 9a f9 71 3d 5c b8 18 be 85 e4 05 3f 21 73 5b be
       0.05907593 -0.14914078 0.5230182 -0.21430637
000340 99 f8 49 3e 5b 2d 0f 3f e9 65 2e 3f ba 50 9d be
       0.19723739 0.5592858 0.6812425 -0.30725652
000350 8d 83 12 bf 63 69 53 3e 5a cf 5c 3e 1e 01 61 3e
       -0.5723198 0.2064567 0.21563473 0.21973082
000360 56 e0 e8 3e 42 2d e6 3e de f5 c6 be 90 ec 8f 3e
       0.45483655 0.44956404 -0.38859457 0.2811017
000370 21 62 38 3f a1 ea 3b 3e 39 fe de be 1e b3 04 bf
       0.7202473 0.18351223 -0.43553331 -0.5183581
000380 ef 4b 64 be 5c 67 88 be bd 6e 31 3f 60 b5 23 3e
       -0.22294591 -0.26641357 0.693096 0.15987158
000390 1f 16 25 3f 65 b8 44 3f 40 8f 12 bc 30 87 0c bf
       0.6448688 0.76843864 -0.008945286 -0.5489378
0003a0 78 aa f7 3e 03 d5 5a 3e 6e e7 c2 3e 07 88 1b 3f
       0.48372245 0.2137032 0.38067192 0.60754436
0003b0 15 72 a7 3e 2c 40 60 3d 4c 90 8f 3c de 5f 9c 3e
       0.32704225 0.0547487 0.01752486 0.3054189
0003c0 c0 16 07 bf 15 b4 3f 3f e9 e5 3f 3e b8 16 95 bc
       -0.5276909 0.7488416 0.18740048 -0.01819931
0003d0 b3 ab 2d bf 8b 7d 4c 3e 09 87 4f 3e 38 33 62 bf
       -0.6784012 0.19969766 0.20266356 -0.88359404
0003e0 1c c2 5b be fc da ca 3e f6 c7 19 bf 0f a1 5d be
       -0.21460766 0.39620197 -0.6007074 -0.2164347
0003f0 a1 fd 16 3e ab c0 1a 3f 3e 3b f5 be 1d 36 2f 3e
       0.14745189 0.6045024 -0.4789676 0.17110486

model.0.bias f4 [128]
000000 bf 02 b4 3e 87 31 7f 3e a9 77 aa 3e b6 39 ad 3d
       0.35158345 0.24921237 0.33294418 0.08458273
000010 2a b6 01 3f 83 46 2d be 7d 7f a8 be b2 5c 89 be
       0.50668585 -0.1692143 -0.32909766 -0.26828533
000020 66 bd 11 3f fe f2 36 3e f8 53 b5 3e 5f 32 a6 be
       0.56929624 0.17866132 0.35415626 -0.32460305
000030 7e 9c e1 3e 23 ef 12 be 89 11 18 3f 0f d2 bc 3e
       0.44064707 -0.14349036 0.59401757 0.36879012
000040 5a 24 88 be 9f 86 39 be ce 3c 18 3f 52 35 ff 3e
       -0.26590234 -0.1811776 0.5946778 0.49845368
000050 1a 5a f7 3e 11 51 86 be 55 91 80 be 10 1d 86 3e
       0.4831093 -0.26233724 -0.2511088 0.26194048
000060 fe 53 f6 bc 37 f4 94 3e 1a c1 e3 3e 5b f6 c4 3e
       -0.030069347 0.2909257 0.44483262 0.38469204
000070 be 54 61 be 5e 82 d7 be 3a a2 93 3e 07 af 5b 3e
       -0.22004983 -0.4209165 0.28834707 0.21453486
000080 03 ae 1e 3f 21 11 14 be ce 63 22 3f 3e fe b5 bd
       0.6198427 -0.14459659 0.6343354 -0.088863835
000090 28 3b 2f 3e cc 7f 36 3f 87 9a 92 be 70 60 88 3d
       0.1711241 0.7128875 -0.2863352 0.06659019
0000a0 9a c9 eb bd 4e 5c 46 be c2 7c b7 be 99 c6 fb be
       -0.11513062 -0.19371149 -0.3583737 -0.49174955
0000b0 87 eb 48 3e fa 4d 9b be 54 7b 41 3e 86 51 42 be
       0.19621097 -0.3033293 0.18894702 -0.18976411
0000c0 16 67 d8 bc f7 a8 8a bc 07 ac 9e 3e 27 22 8f be
       -0.026416343 -0.016926272 0.3099062 -0.27955744
0000d0 1d 63 32 be 1e b1 b5 3e 48 e3 6b 3e 2c 32 ec 3d
       -0.17420621 0.35486692 0.2303592 0.11533007
0000e0 4a c3 0b 3f f3 1c 17 be 96 57 aa 3e 29 eb ac 3e
       0.5459486 -0.14757137 0.33269948 0.33773163
0000f0 d2 a0 a6 be 77 d5 5d be 0e 3c f4 bd 38 12 09 3f
       -0.3254457 -0.21663462 -0.11925517 0.53543425
000100 e2 19 fe bd 6f 3a 8d 3e f4 b8 a3 bd 3d d3 36 be
       -0.124072805 0.27583644 -0.079942614 -0.17854019
000110 20 16 4f be 1e 4e 29 bd 5a 2b 68 be 93 c9 19 be
       -0.20223284 -0.041334264 -0.22672787 -0.150183
000120 aa 45 9e be 7d 95 5e be 94 f5 12 3e dc 98 c6 3e
       -0.30912524 -0.21736713 0.14351493 0.38788497
000130 03 54 c3 be 1d 13 31 3f 36 02 cd bd 8b 5e 9e 3e
       -0.38150033 0.6916979 -0.10010187 0.30931506
000140 a0 d6 08 be 87 4c b2 bc ae ae 86 3e 3f eb 87 be
       -0.13363123 -0.021765007 0.26305145 -0.26546666
000150 1f 12 02 bf e6 24 6c 3e 0f 06 28 bd 1a 27 1a 3e
       -0.508089 0.2306095 -0.041021403 0.15053979
000160 e1 f7 02 3f 03 68 0a 3f 85 a2 b9 3e 4f b1 08 3f
       0.51159483 0.5406496 0.36256805 0.5339555
000170 bb 31 04 3f 80 1d d4 3e 3a 23 8c be c6 b4 4d be
       0.5163838 0.41428757 -0.27370626 -0.20088491
000180 78 91 17 3f ac 47 c4 3e 39 66 9d 3d 2e 2f 84 bd
       0.5920634 0.3833593 0.07685513 -0.06454311
000190 1c fa fa be 06 e6 5e be 6d 45 0d 3d 00 a3 25 be
       -0.49018943 -0.21767434 0.034490038 -0.16175461
0001a0 08 d3 ca bd ab 71 4a 3e b5 68 88 be 7c d6 df be
       -0.09903532 0.19769923 -0.26642385 -0.43718326
0001b0 82 5e 92 3e 6d 47 24 be 30 fc 17 3d e5 8c 8a 3e
       0.2858773 -0.16042872 0.03710574 0.2706062
0001c0 fb 50 b3 be 5d e9 fd be c1 f9 16 3e 4b 39 d4 be
       -0.3502272 -0.49592105 0.14743711 -0.4144996
0001d0 cb 3f 91 bd ff 78 32 bd 2d 68 7c be b5 09 18 3f
       -0.07092246 -0.043572422 -0.24649115 0.5938981
0001e0 0e 57 3f 3e 79 6c ee be a5 cd 9b 3e a1 2e bd 3e
       0.18685552 -0.46567133 0.30430332 0.36949638
0001f0 c3 a2 f2 bd ca 00 a1 3e d9 83 87 3e fe 1b be 3e
       -0.118474506 0.31445915 0.2646778 0.3713073

model.2.weight f4 [128, 128]
000000 9c bc e6 bb 66 c3 3a bd 15 35 08 3e 99 a1 1c 3e
       -0.007041527 -0.045596503 0.13301499 0.1529602
000010 8f fa ab bc cf 93 34 bd 4c c5 35 bf 42 48 f4 3b
       -0.0209935 -0.044086274 -0.71004176 0.007454903
000020 12 eb 80 bc 01 23 85 3d d2 dd fe 3c 8a e2 d1 bc
       -0.01573709 0.06500817 0.031111632 -0.025620718
000030 20 7a 4b 3d 29 f2 ea be 9c a6 ce 3d 75 ce 09 be
       0.049677014 -0.4588788 0.10090372 -0.13457663
000040 19 81 34 bd dc 9a ad 3d 40 ba b3 3d 56 43 5f be
       -0.04406843 0.08476803 0.08775759 -0.2180303
000050 33 85 67 3e 5e c6 6b 3e 44 3b 07 3d ad fa cb bc
       0.22609405 0.2302489 0.033015504 -0.024899805
000060 5c 7c 62 3d 8f d8 db 3d 1e e0 ba 3d b7 a9 89 3d
       0.05529438 0.10734665 0.09124778 0.06721824
000070 3b 2a 8b bd 3d 53 2b be 22 d3 21 be 6c fd ac 3c
       -0.06795164 -0.16730972 -0.15803197 0.021116935
000080 90 e2 4c bc 2a 00 34 bf 33 db d6 3c 08 fc 08 bb
       -0.012505189 -0.7031275 0.02622757 -0.0020902175
000090 f2 41 25 bd ab 68 41 bd 10 fe 41 bd 4a 7f 32 be
       -0.040346093 -0.04721896 -0.047361434 -0.1743137
0000a0 d1 7d 7a bd 67 ff 8b bc 52 5a 73 bd 16 5b 8f bd
       -0.061155144 -0.017089559 -0.059412308 -0.06999795
0000b0 01 d8 91 bc 45 96 36 bf cd df 28 bd 98 b4 47 3d
       -0.017803194 -0.71323043 -0.041229058 0.048756212
0000c0 a7 e9 b3 be 3f bc 89 bd 45 17 99 3c ea 9c 7e bc
       -0.351392 -0.06725358 0.018687854 -0.015540341
0000d0 17 47 a2 bc fe b9 6d bd b1 fa 83 3d d7 c0 22 be
       -0.019809289 -0.058038704 0.064443 -0.15893875
0000e0 1c 93 7a 3d 12 17 23 bd 8f 03 15 3d 49 7d 2b 3c
       0.06117545 -0.039816923 0.036380347 0.010466882
0000f0 5b 0f 0f be 7d b5 e7 3c 75 bf bd be 60 38 46 bd
       -0.13970701 0.028284783 -0.37060133 -0.048393607
000100 fd 8b 60 3e b9 72 56 bd cd cc 07 bd d0 27 85 3c
       0.21928401 -0.0523555 -0.033154298 0.016254336
000110 dd 9f a2 be 60 c8 9f 3d 87 81 2e 3c 0e 24 f2 3d
       -0.3176259 0.078018904 0.010650999 0.11823283
000120 e5 e6 65 3d ba d1 5f be 34 06 4d 3d 59 8d 40 3e
       0.0561284 -0.21857348 0.050054744 0.1880392
000130 35 3a 38 3d 46 49 16 3e 36 cc 05 3d 43 48 cd bd
       0.044977386 0.14676389 0.032665454 -0.100235485
000140 65 92 8f bb cc 3b 81 bd 79 2e 8f bd ac a1 da bd
       -0.0043814653 -0.063102335 -0.06991286 -0.10675368
000150 fe c2 09 bd 89 30 43 3b 4d eb ce be e4 87 4f 3d
       -0.033633225 0.0029783568 -0.40413895 0.050666705
000160 f2 da 3f 3d 8d ad ac 3d 2a 96 1d bc cb 50 c9 3d
       0.046839662 0.0843154 -0.009618321 0.09829863
000170 54 70 d2 3c 9f 5c e5 bd 6a c7 2d 3e 82 90 23 bd
       0.025688328 -0.11199307 0.16970602 -0.039932735
000180 6e 77 c7 3d f3 25 3c 3e 8f ce ce 3d ba a3 97 be
       0.09739576 0.18373851 0.10097992 -0.296171
000190 b0 f1 43 3e 3f 9f 32 be fb 71 7a bc 96 3f 5b bd
       0.19135165 -0.1744356 -0.015285964 -0.053527437
0001a0 21 c1 b3 be c9 1c c9 3b f6 d8 b3 be fa f5 8c 3d
       -0.35108283 0.0061374647 -0.35126466 0.06882854
0001b0 12 cf 99 bd ea 43 33 be cf 8b 91 3e e2 83 0a 3e
       -0.07510199 -0.17506376 0.28426978 0.13526872
0001c0 20 e9 28 be 91 96 18 be 4f 37 7f 3d d9 20 d1 3d
       -0.1649518 -0.14901187 0.062308606 0.10211343
0001d0 c2 79 29 be b1 ab 0d 3e 22 44 03 3e ac 35 bc bc
       -0.16550353 0.13835026 0.1281896 -0.022974811
0001e0 21 f8 b0 3d b7 3b d1 ba 94 54 10 3d ea 75 43 3e
       0.08641077 -0.0015963231 0.03523691 0.1908795
0001f0 17 b8 a0 bd 84 40 86 be 55 8c 6e bd 98 1b 22 3c
       -0.07847612 -0.26221097 -0.0582393 0.009894274
000200 e8 73 10 be 87 0c a5 3d 2c 2e 44 be f6 3e 58 bf
       -0.14106715 0.0805903 -0.19158238 -0.8447107
000210 8e 17 1c 3d e3 74 11 3e 05 b0 b1 3e b0 d1 53 be
       0.0381084 0.14204745 0.34704605 -0.20685458
000220 fa 92 b9 3d f0 ba 6a 3e 03 56 6d bd c7 e3 a8 3d
       0.09061237 0.22922873 -0.057943355 0.0824657
000230 66 c9 17 3d fd ff 4b be b3 dc 4b 3d eb 1c 93 3d
       0.037057303 -0.1992187 0.049771022 0.0718325
000240 fd 09 9a be b1 6e 3b 3b c3 b4 3c be 03 e7 29 bc
       -0.30085745 0.0028599913 -0.1842833 -0.010370019
000250 18 4e 24 3e 3c 75 15 bd f0 51 a5 3d 3e 6f d3 37
       0.16045415 -0.036488757 0.08072269 2.5204961e-05
000260 43 97 42 3d fa 30 23 3d e3 19 7e bd 37 3a 67 be
       0.047507536 0.03984163 -0.062036406 -0.22580801
000270 01 5d da 3c 4c 36 3b 3e a5 63 0b be 79 56 0f 3e
       0.026655676 0.18282431 -0.1361223 0.1399783
000280 61 03 27 bc d3 39 0b be 5a ab a3 39 2e df 58 be
       -0.010193677 -0.13596277 0.0003121745 -0.21178886
000290 ff 4d 43 3c b6 09 2e bd 64 1a 2c bd 04 c5 95 3d
       0.011920451 -0.04248973 -0.042017356 0.073129684
0002a0 8d 00 21 3d e3 96 52 be fe 81 86 bd 11 cb a7 3d
       0.039307166 -0.20565371 -0.06567763 0.08193029
0002b0 b8 7c 7b bd 61 b0 84 bd b3 c1 80 3c 1f 11 e8 3d
       -0.061398238 -0.06478954 0.015717363 0.113313906
0002c0 14 6f 4e 3c 4f 7d ee bc 16 7e ac be 35 5c a5 bd
       0.012599725 -0.029112486 -0.33689946 -0.08074228
0002d0 96 74 8e bd be 10 a8 3d bb 5e 91 bd 31 5f c5 3d
       -0.06955831 0.08206318 -0.070981465 0.09637297
0002e0 6f f3 4f be 5b 69 c8 3d 43 b3 94 3d a5 9a 27 be
       -0.20307706 0.0978572 0.07260754 -0.16367586
0002f0 68 9e 2c 3d 72 a6 f6 3d 25 5c c0 bd 99 08 8f 3d
       0.042143255 0.12043466 -0.09392575 0.06984062
000300 8d 6c e3 3d 83 dc b3 bd e1 b2 6f be d1 cf 8d bd
       0.11104689 -0.08782294 -0.2340808 -0.069244035
000310 c6 cf 36 bc d5 08 69 3d ae 8c cd 3d 03 48 fd bd
       -0.0111579355 0.05689319 0.10036598 -0.12367251
000320 fc 13 11 3e 75 52 60 bf 3b 3d 26 bf a2 f7 a1 be
       0.1416778 -0.8762582 -0.6493718 -0.3163424
000330 fe c5 5e 3d a9 d7 c1 bd 79 6d 9b bd 4e 45 7c 3d
       0.05438804 -0.09464962 -0.075892396 0.06158953
000340 ff 3a 8f bd eb e3 fd 3d dd de 69 3d 64 c0 7d 3b
       -0.069936745 0.123969875 0.057097305 0.003871941
000350 e2 37 0d 3e 49 b7 43 3d 86 3f c6 be 28 2c a4 bc
       0.13790849 0.047782216 -0.3872034 -0.020040587
000360 78 b6 79 bc a3 cb d3 3d 70 ff 4c 3d 71 73 dc 3b
       -0.015241258 0.10341575 0.05004829 0.006727629
000370 b8 00 03 3e 49 bb 3d bb 50 e7 b0 3d 10 96 59 3d
       0.12793243 -0.0028950742 0.08637869 0.053121626
000380 fa aa 91 bb 33 ca d9 bd 5c 6e 96 bd 1a f5 0f bd
       -0.004445431 -0.106342696 -0.07345268 -0.035145856
000390 c1 a4 2f 3e ed d3 ba be 30 e4 72 bd ba 4e a4 bc
       0.17152692 -0.36489812 -0.059299648 -0.020057071
0003a0 97 bf 41 be 14 71 1f bd 8a 2a 52 bf bd 46 21 be
       -0.18920742 -0.0389262 -0.8209616 -0.15749641
0003b0 4d 23 ed 3d 37 54 a3 bd 89 2c 8b be ba 2b 53 bc
       0.11578999 -0.07975047 -0.27182415 -0.012888843
0003c0 03 63 b9 3d d8 e6 99 3c ad 55 48 be 4b c4 c5 be
       0.09052088 0.018786833 -0.19563933 -0.38626322
0003d0 91 d9 ff 3d a7 dd 22 3e bf 77 0b bf c9 73 b6 bd
       0.124926694 0.15904866 -0.54479593 -0.08908803
0003e0 8d 4a 94 3c d3 94 24 be 77 ef 94 3d 62 1e 15 3c
       0.018101955 -0.16072397 0.07272237 0.009101482
0003f0 1e 57 80 be e1 3a 9e be b0 db 25 3c 2a 86 f8 3a
       -0.25066465 -0.30904296 0.010123178 0.0018960882

model.2.bias f4 [128]
000000 57 71 ac 3d 4c 06 28 3c db 55 f6 3d d4 d2 62 3d
       0.08420055 0.010255408 0.120280944 0.055376843
000010 6d bb 0c 3d 5b 41 11 3d 3d 96 8c 3d dc a6 c2 bc
       0.03435843 0.03546272 0.06864593 -0.023761205
000020 2a 87 86 bd fc 77 59 3d bc 10 05 bc 8d af b2 bc
       -0.06568749 0.05309294 -0.008121666 -0.021812225
000030 7f ef 1f bd ca 95 dc 3c 9c ca 2a bd a2 45 ac ba
       -0.03904676 0.026926894 -0.04169713 -0.0013143311
000040 62 9d b5 3c a2 85 19 3e 40 96 68 3e cf 8e bd 3d
       0.022169773 0.14992383 0.22713566 0.09255754
000050 6d 4f 38 bc dd 9b a0 bc 5e 0b cf 3c 01 8b c1 3d
       -0.011249405 -0.019605571 0.025273975 0.09450341
000060 27 62 85 bc ab 00 b8 bc c9 7b 0f 3d a4 fe 10 3e
       -0.016282154 -0.022461256 0.03503016 0.14159638
000070 65 4d fa bc cb a3 a8 3d ba 72 cf 3d a0 97 01 3b
       -0.030554483 0.08234366 0.10129304 0.0019774213
000080 8e 18 73 bd 85 1a 8a bd 81 50 5c 3d ac b2 13 3e
       -0.05934959 -0.067433394 0.053787712 0.14423627
000090 fc fd 70 3d 36 9a 77 bb 59 63 9c 3d 1d bb 06 3e
       0.05883597 -0.0037781126 0.076361366 0.13157316
0000a0 4a 60 ec bc 81 42 28 3d b2 6a 42 bd b6 99 c4 3d
       -0.028854508 0.041079048 -0.047465034 0.095996305
0000b0 56 e2 35 bc db 85 81 3d 36 7b 88 bb 03 c4 5c 3d
       -0.011101326 0.06324359 -0.0041650785 0.05389787
0000c0 db 10 54 bd 4f db b4 3d ae fb f9 3d 91 a0 13 3d
       -0.051773887 0.08830892 0.12206207 0.0360418
0000d0 f8 53 26 3e 4a 60 07 bb dd cf 47 3e a6 d3 11 3e
       0.16242969 -0.0020656758 0.19512887 0.14240894
0000e0 a3 db 0a bd 95 39 86 3d 35 2f 04 be 6c ab a0 3d
       -0.03390087 0.06553952 -0.12908633 0.07845196
0000f0 77 9a a0 bd c1 6b 55 bd d2 e4 8a bd 37 d0 16 3d
       -0.07841962 -0.052104715 -0.06781925 0.036819663
000100 51 85 86 bd eb 19 5b 3d 33 aa 9d 3d b3 ba e4 3d
       -0.06568397 0.053491514 0.076984785 0.111684225
000110 1c e3 40 bd 72 a8 67 3d bc c3 04 3d 29 33 37 bd
       -0.04709159 0.056557126 0.03241323 -0.044726525
000120 86 b0 34 3c 71 f7 f0 3c c7 b9 ef 3d f0 6a a2 bd
       0.011028415 0.029414864 0.11705356 -0.07930553
000130 8b 18 27 bd 8f 7c 1c bd 7f ee 0d ba 0d 0e 24 bd
       -0.04079489 -0.038204726 -0.0005414262 -0.040052462
000140 89 20 7b bd 6d f4 7d 3c 1c b9 4e 3d ed 48 05 be
       -0.061310325 0.01550017 0.050469503 -0.130161
000150 c2 ca 75 bd af 0f 1c 3c d2 fe 41 bd 46 ef 9a 3d
       -0.060007818 0.009525224 -0.047362156 0.07565169
000160 00 b4 d5 bc 62 c4 ae bd d7 95 fa 3d b0 30 ab 3d
       -0.026086807 -0.08533551 0.12235611 0.08358896
000170 75 a9 8e bd 18 7d d7 3c b8 52 98 3d 42 eb a0 bd
       -0.06965915 0.026304767 0.07437652 -0.07857372
000180 e3 98 d0 bb 2e dc f0 bd 57 cd 86 bd 9c 2c bc bd
       -0.0063658818 -0.11760746 -0.06582134 -0.09188196
000190 db da 1b 3e 26 77 f1 3b e2 02 9f 3d ff 35 c0 bc
       0.15220205 0.00736894 0.07764222 -0.023463247
0001a0 36 07 f0 bc 60 35 48 3c b2 e4 2c 3e 2e ce 18 3d
       -0.029300313 0.012219757 0.16884115 0.037306003
0001b0 4a fc 30 3e d4 b7 1d 3e 30 4d db 36 67 0a 63 3d
       0.1728374 0.15402156 6.5356944e-06 0.055429842
0001c0 c7 c6 34 3d f7 ef de bc 43 9a b6 3d 39 7d 0d 3d
       0.04413488 -0.027214034 0.08916142 0.03454325
0001d0 56 35 e8 b9 17 2b b5 bc 45 02 64 3d 2d 86 61 3c
       -0.00044290227 -0.022115273 0.055666227 0.0137649
0001e0 df 51 04 3e 1f 21 f5 3d 60 25 a3 3d 43 ef aa 3d
       0.12921856 0.11969208 0.07966113 0.08346417
0001f0 68 2e ee 3c fd f1 77 3b 48 18 9a bd b0 2a 1b 3c
       0.029074863 0.0037833445 -0.075241625 0.009470627

model.4.weight f4 [1, 128]
000000 22 94 e8 be 85 f3 0a 3f 66 6a 2e 3e 35 59 a3 be
       -0.45425516 0.5427783 0.17032775 -0.31903997
000010 49 54 a0 bd e4 46 d2 be d6 47 1c 3e 1e 75 de be
       -0.07828576 -0.4106971 0.15261778 -0.43448728
000020 9e 43 e8 bd 29 f5 81 3d 18 f4 f1 bd 2f 92 12 be
       -0.11341022 0.06345589 -0.11814135 -0.14313577
000030 bf 60 0d 3e 72 bd 9b 3e f3 07 3e be 4a e0 01 3e
       0.13806437 0.30417973 -0.1855772 0.12683216
000040 3e 02 83 be 20 39 16 bf 3b 93 01 3f a8 71 86 be
       -0.25587648 -0.58680916 0.5061528 -0.26258588
000050 e4 97 0b be 76 6f 1f 3e 77 b0 26 bf c5 cd fb bd
       -0.1363216 0.15569863 -0.65113014 -0.12295107
000060 78 5d 42 be bf a4 80 3e 8c b5 67 3f b3 91 70 be
       -0.18980968 0.2512569 0.90511394 -0.2349308
000070 d9 cd 6a be 2c 92 61 be 3b b5 3b 3e 3a 07 e0 bd
       -0.22930087 -0.22028416 0.18330853 -0.10938878
000080 d2 b7 86 3d 53 b2 fc 3d 40 20 10 bf 2f 21 5c bf
       0.0657803 0.123387 -0.5629921 -0.85988134
000090 a8 a5 b1 be 49 75 af be 83 8e cb be 91 c5 88 be
       -0.34696698 -0.3426917 -0.39757165 -0.2671323
0000a0 38 7b 34 be 0e 81 8c 3d 20 36 9c 3d 64 5c a8 be
       -0.17625129 0.06860553 0.07627511 -0.32882988
0000b0 07 d1 85 3d 2f a1 af 3d 97 27 09 3f 5a ce fd 3e
       0.065340094 0.08575665 0.53576034 0.49571496
0000c0 e5 f6 01 be f8 2f 98 be 04 15 2d bf c9 0f 5f be
       -0.12691839 -0.29724097 -0.6761019 -0.21783365
0000d0 11 e1 ac 3e b8 9a 94 be 8f 1b 5a 3f 34 d9 1a bf
       0.33765462 -0.2902429 0.851983 -0.60487676
0000e0 0a 63 83 3d a6 c7 f6 3e b0 c9 83 be 9b a4 3b 3e
       0.064153746 0.48199195 -0.25739813 0.18324511
0000f0 d2 88 01 3d da d0 74 bd ac c8 4b 3e dd 8d 77 be
       0.031624623 -0.05976949 0.19900769 -0.2417521
000100 1a 15 db bc b2 d0 52 be 34 3b 1b be c3 f6 06 3e
       -0.02674346 -0.20587423 -0.15159303 0.1318007
000110 07 40 85 be 10 fc bc 3d 27 e3 86 be 89 c4 1f be
       -0.2602541 0.092277646 -0.26345178 -0.15602316
000120 cd 31 91 3d 4f 22 c7 3a 4a 78 89 be d7 a1 49 3e
       0.07089577 0.001519272 -0.26849586 0.19690643
000130 0d 89 43 3e ad fb 41 be aa 76 4d 3d e2 64 08 3e
       0.1909525 -0.18943663 0.050161995 0.13319734
000140 e5 65 31 be 68 f0 86 be da 79 d6 3d 7b 29 39 3f
       -0.17324026 -0.2635529 0.1047246 0.7232892
000150 9f d9 54 be 85 f8 c0 3d c0 8d 5c 3d 5c ca f3 3e
       -0.20786141 0.09422401 0.05384612 0.47615325
000160 26 e2 a5 3d 01 84 13 bd 5b 28 4a 3f c2 66 84 3d
       0.08099775 -0.03601456 0.7896783 0.06464912
000170 87 30 24 be 16 50 58 be 31 c5 a8 bd d3 83 02 3d
       -0.16034137 -0.211243 -0.08240736 0.031864
000180 79 2a f5 3c a3 54 cd 3e 15 d7 9e 3c 77 93 a6 3c
       0.02992748 0.40103635 0.019389668 0.020333989
000190 ba 72 94 be 93 cb f0 3b 21 da e4 be a5 c6 11 3f
       -0.2899378 0.0073484867 -0.4469767 0.5694373
0001a0 8d ab f3 be fd 77 76 be 7f e4 13 3f b0 8e 75 be
       -0.4759182 -0.2406921 0.5777053 -0.23980212
0001b0 a3 49 2f be 5e 23 53 be 8d 9c 37 be da 18 dc 3d
       -0.17117934 -0.2061896 -0.17930813 0.107469276
0001c0 3f c4 9d 3d ac 6c 70 be 69 b2 10 3e 22 c6 a9 3d
       0.077034466 -0.23478955 0.14130558 0.08289744
0001d0 b8 d8 f6 bd 1c 87 16 be 98 2a 75 3d e9 77 23 be
       -0.120530546 -0.14699978 0.059855074 -0.15963711
0001e0 91 d7 5f 3e ea f8 d8 be 9a 00 77 3d 26 2d 7a 3d
       0.21859576 -0.42377406 0.060303308 0.061078213
0001f0 ea 36 9f be 87 fe 52 be c3 f4 27 3d b4 9c 16 be
       -0.31096584 -0.20604907 0.041004907 -0.14708215
