hw2/preTrained/ddpg_critic_LunarLanderContinuous-v2_04282023_010357_.pth (torch, 277399 bytes, 5 tensors)

model.0.weight f4 [256, 10]
00000000: 2c39 50be 0eb2 84bf 4ff0 2e3e ba92 c1be
00000010: e8e2 413d e2a7 0b3e fbd7 11bf 7b52 6fbf
00000020: 5f36 edbe 224e 9e3e 5aae d33f ddec 06bf
00000030: a66d 643f c2cb 223e 2266 853e 4d2f 883d
00000040: e615 bbbe 31a1 f1be ddeb 57bc c2e3 8bbd
00000050: 3331 f53d 0e8a e9bf bc60 433e b6cd c03e
00000060: 89e5 253f 2df6 4bbe 1aa8 babf 013f 1fbf
00000070: ddab de3e d8aa b53d 95dc 98be 6499 da3e
00000080: e92a 183f ee14 ab3b c5fe 82c0 3ae1 56bf
00000090: 8675 49bf 2ad8 d3bd f973 033c 3bef df3b
000000a0: 5221 86bf 4020 093f 661f c43e 79a4 ae3a
000000b0: d608 263f 595e 86bf be30 34bf 649b e9be
000000c0: edcc 25be c19d e63e 98e1 38bf 8115 06c0
000000d0: 8bfa 9ebd 244d 953e 3d4a 39bf 58c4 3d3e
000000e0: 7cc7 0d3f abe6 e9bf f8ab 673f 4de2 b53f
000000f0: de5a ef3e 1d34 9dbf 4a56 c33f cfd0 993f
00000100: 791f 8ebf be1f c23e c819 b2be b392 de3f
00000110: c9fc 2abf 94c8 373f 9405 d3be 1478 56c0
00000120: b320 f13f c746 12be c3fc 78bf 128d 4fbe
00000130: 04e8 b73e 4c6e 913f a90d 5d3d d3af b63e
00000140: 2f8c b0be 1327 74c0 2f73 ba3f d062 d83f
00000150: 6d53 62bf 6020 623f 0ffc 0a3d 4c5a 72be
00000160: 3643 903d a4e1 52bf 7134 fd3f 7d0e ad3d
00000170: 789b 5fbd 4823 9abe fd87 803e 108d f93e
00000180: 95f3 9d3e 1f45 c83e e4b9 28bc bea7 fbbc
00000190: 68fb d7be 9238 683e 977b 693e b573 a8bf
000001a0: 6b70 763f 9b4c 32bf efab 0fbe 7be8 61bf
000001b0: 2ee4 b83d aa6a b93f dfed 6ebf 692c cfbe
000001c0: 5347 67bf 04f5 6e3f 75fc 02c0 dcd9 6f3e
000001d0: 4eb2 c3bf 3d08 703e 14ed 4a3c 4713 ddbe
000001e0: 6f81 553f 6c3c 97bf 0292 85bf 12c5 8b3e
000001f0: a933 cf3f 4728 573e 86ce 7e3e 9171 623d
00000200: 36b6 8b3d f9ed 8d3f 36c5 dd3e 0a0a 6ec0
00000210: 4e8c f2bd 4edf 7abf 5e86 a5be 3654 1ebd
00000220: 9792 853f e81b 713b 53d1 2c3f 6e90 46bf
00000230: cd50 cabd 6be4 10c0 59f0 833f ebfc e6be
00000240: bf9c 153e 0b72 0ebf 9995 c0be fefd 89bf
00000250: 6b0c 4cbf f613 6c3f 4564 993e 2ab1 63c0
00000260: 57cb ed3e 794f babe 420f d33c ebe5 92bf
00000270: d095 953e 7d4a c83c cf0c 463e 07f9 ad3f
00000280: 4b15 93be 091c 26c0 f515 3cbf 9c6a 62bf
00000290: f672 803e c547 be3f 39c9 a6be 5208 04bf
000002a0: 5811 e43e 23ac 7fbf a401 0d3f 7169 a23f
000002b0: aa1e 473d 74f4 383f 761f b6be 8b50 c53d
000002c0: add4 b6bf bee7 99bb 5ea0 1fbd fb0f 673c
000002d0: eb76 f9be 7a93 acbf 554b e33e 55f2 6e3f
000002e0: bb32 d7bd 12bd 023e 3c52 4ebf b628 03bf
000002f0: eb8f c1be 5e5b a5bc 45d8 923e 1506 1bbf
00000300: f68b 9bbd ddd4 4640 fe13 80bf 1953 1cbf
00000310: e2e6 1b3f ee2c b53e db91 babd 4bf8 bfbe
00000320: 846b 103f 650b 9ec0 add2 45be 4061 aebe
00000330: add3 b03e fa65 59bc 5b24 613f 49f7 7e3e
00000340: f45b 20bf f400 143f 2224 073f f08d dbbf
00000350: 26e9 a23e 1486 0bbf a7c1 a73e 8efb 733e
00000360: 81a4 cebf b079 52bf 23f3 8e3e 2933 283f
00000370: cbef f6be 49e9 97c0 e575 a4bf 4b7a 11bf
00000380: 3557 073f 5642 0c3f e8d2 3fbe 91f3 5abf
00000390: 7186 acbe 9755 d1bd 1b48 febe 73b3 40bf
000003a0: c087 81be 3850 8d3f 9478 f93e 36bf 903e
000003b0: 1ae9 3dbe 8571 b2be 7142 27be 0931 e33b
000003c0: bc8d 85be 2457 14c0 a977 d83f c0fd 8abf
000003d0: abed 943f 7e02 8cbf 437d 8e3f 22ae cabf
000003e0: a8b8 abbe ff93 623f bf4a b7bf e22b bcbf
000003f0: 27c9 06bf 4600 513f d9f1 0dc0 a204 973e
-0.2033431 -1.0366838 0.17083858 -0.37807256 0.047335535 0.13638261 -0.56970185 -0.9348523
-0.46330544 0.30918986 1.6537583 -0.52705175 0.8922981 0.1589804 0.26054484 0.06649647
-0.36540145 -0.47193292 -0.013178793 -0.06830551 0.11972275 -1.8245256 0.1907987 0.37656945
0.6480337 -0.19918127 -1.458255 -0.6220551 0.43490496 0.088704765 -0.2985579 0.42695153
0.59440476 0.005221001 -4.0936 -0.8393742 -0.7869495 -0.103439644 0.0080232555 0.0068339384
-1.0478919 0.53564835 0.38305205 0.0013324163 0.6485723 -1.0497543 -0.70386875 -0.45626366
-0.16191454 0.45042232 -0.7221923 -2.0950625 -0.07762631 0.29160416 -0.72378904 0.1853193
0.55382514 -1.8273519 0.9049678 1.4209687 0.46749014 -1.2281529 1.5260708 1.2016848
-1.1103355 0.37914842 -0.34785295 1.7388519 -0.6679197 0.7179043 -0.41215193 -3.351079
1.8838104 -0.14284812 -0.97260684 -0.20268658 0.359192 1.1361785 0.053968105 0.35681018
-0.34481952 -3.814885 1.4566401 1.6905155 -0.8840855 0.8833065 0.033931788 -0.23667258
0.070440695 -0.8237555 1.9781629 0.08450029 -0.054591626 -0.30105042 0.2510375 0.48740435
0.308499 0.39115235 -0.010298226 -0.030719634 -0.42183995 0.2267783 0.22801052 -1.3160311
0.96265286 -0.6964814 -0.14030431 -0.8824536 0.09027897 1.4485676 -0.9333171 -0.4046357
-0.9034321 0.93342614 -2.0466588 0.2342295 -1.5288789 0.23440643 0.012385625 -0.4317877
0.83400625 -1.1815314 -1.0435183 0.2729879 1.618764 0.21011458 0.2488347 0.055284087
0.06821863 1.1088248 0.43314523 -3.7193627 -0.11843167 -0.97996986 -0.32329077 -0.03865453
1.0435361 0.0036790315 0.67506903 -0.7756413 -0.09878693 -2.2639415 1.0307723 -0.45114836
0.14610575 -0.55642766 -0.37614134 -1.0780637 -0.7970645 0.9221796 0.29959312 -3.5576882
0.46444198 -0.36388758 0.025764111 -1.1476415 0.2921586 0.024449581 0.19340824 1.3591622
-0.28727183 -2.5954611 -0.73471004 -0.88443923 0.25087708 1.4865652 -0.32575396 -0.51575196
0.44544482 -0.99872035 0.5508063 1.2688428 0.048613228 0.72248006 -0.35570878 0.09634503
-1.4283653 -0.0046968153 -0.038971297 0.014102931 -0.4872354 -1.3482506 0.4439341 0.9333852
-0.10507723 0.12767437 -0.8059423 -0.51233995 -0.37805113 -0.020185169 0.28680626 -0.60556155
-0.07595055 3.1067421 -1.0006101 -0.61064297 0.60899174 0.3538584 -0.09109851 -0.3749412
0.56414056 -4.938891 -0.19318648 -0.3405857 0.34536496 -0.013268942 0.879461 0.2489902
-0.6264031 0.57813954 0.5278951 -1.7152691 0.31818503 -0.5450146 0.32764933 0.23826429
-1.6143953 -0.8221693 0.27919874 0.65703064 -0.48229823 -4.747227 -1.2848479 -0.5682723
0.5286744 0.5478872 -0.18732798 -0.855279 -0.3369632 -0.10221403 -0.49664387 -0.7527382
-0.25298882 1.1040106 0.48724806 0.28270882 -0.18545952 -0.34852234 -0.16333939 0.0069333357
-0.26084697 -2.3178186 1.6911517 -1.0858688 1.163503 -1.093826 1.1131977 -1.5834391
-0.3353932 0.88507074 -1.4319686 -1.4700892 -0.52650684 0.8164104 -2.2178862 0.29495722

model.0.bias f4 [256]
00000000: a3dd b7bf c236 6c3e 4c4e f2be 9861 69be
00000010: bffe b7bf aa9f 86bf 1e76 b5be 7c33 7c3f
00000020: 78ad fabe 2965 e5bf f13d a4bf 00cb fdbf
00000030: c7f8 8e3e 4fe7 84bf ad25 36bf 079d fbbe
00000040: 5d7a 7bbf b6ac 54bf 3be6 0bbf 931e a9be
00000050: 3b44 9fbf 6a95 883e 02a6 3fbf 1d95 83bf
00000060: 8664 3fbf 8aad 97bf 06ce 82bf 28c7 bcbf
00000070: 05f8 ccbf a3de 78bf 7e92 9dbe cce8 40be
00000080: b757 dcbe a64c 8bbf 90f1 97bf 8b7a e9be
00000090: 877d 5ebe 0dae ebbf 4b83 b3bf 46d4 8bbf
000000a0: c15e 10bd 8012 38bf fb37 97bf 23ab 8fbf
000000b0: df3f 313e 5279 54be 91ac d7bf 37d1 3c3e
000000c0: 9cf5 39bf d740 febe cce3 a6bf 078d 14bf
000000d0: 9c77 a2bf 42fe 623f 0596 aabf 7a72 a4bf
000000e0: 5391 adbf 63d1 743f 42fb 7ebf e311 72bf
000000f0: cd3a 01bf dd5d 8abe edb2 82be 52c6 43be
00000100: 3059 1bbf 8d23 6bbf 8984 6bbe 6c67 c8bf
00000110: e99a dabf 7662 8abf 4158 f2be 9ce2 debe
00000120: 8cbf 223f 556e 083f 4b4e cbbd f03d 203e
00000130: fcef 94bf 81a4 39bf 1581 463d ea66 a4bf
00000140: bf6e b4be 11b1 7dbf ee12 efbe c159 78bf
00000150: 5414 5ebf 2717 d6be a8ea 343f 1094 4bbf
00000160: d335 56be 1b93 4ebf b369 ae3f 266a fdbf
00000170: d0c5 8cbf 6ec4 41bd 3483 b23f 6b53 83be
00000180: 96c7 59bf 21e5 a13d 6d84 66bf cb45 293e
00000190: 22d1 ebbf 277d 803e cfe7 c5bf f099 9fbf
000001a0: 3ca0 3f3f 8432 b6bd 1b44 5cbf 519f 61bf
000001b0: cb1c 733e c328 82bf 0535 33bf 2d43 7dbf
000001c0: 5b56 c53f 3625 703e 158a 773f ea7c 99bf
000001d0: 52f5 ecbe 18b1 32bf 96fa d7bf 9f6e 14bf
000001e0: 788d 8a3c 4245 97bf d482 aabd 7572 99bf
000001f0: 2caf 9f3e b14f 0a3e 2f5a 4ebf 7261 0fbf
00000200: e202 303c f52b 85bf 6425 11bf ea57 52bd
00000210: fb2c 00c0 9ed8 2ebf 6893 60bf aaf6 24bf
00000220: 47a0 fbbe bf16 9abf 8fa8 21bf 1796 28be
00000230: 1e1a 47bf 83d0 5c3f 62eb 75bf ccf8 083e
00000240: 67f6 873d 3c62 7ebf 829a bebf a06f 213f
00000250: 128c 80bf 434f 20bf e470 ccbf a249 c8bf
00000260: 4e22 90bf fb6c 0e3f f3dc bbbf 8dcd d7bf
00000270: 68ea 55bf 67ac e53e 9847 853e ddd9 93bf
00000280: 1feb 87bf a68e 9fbc 07d6 6b3f 652f 83bf
00000290: d392 0b3e 3626 1dbf 36b6 773e 8525 b53d
000002a0: 6a32 dcbf f57a 85bf ef12 363f 5bb8 a7bf
000002b0: 7c92 b6bf 88af 7bbf 2330 823d 3b29 8fbf
000002c0: cc2b 8dbf ac1d 13bf adf7 703f eca0 aebf
000002d0: 4bc7 bebf db7d 9abf d5fc 9cbf 0645 c23e
000002e0: 852e dbbf dc0f bbbf 9117 cd3e fa38 4dbf
000002f0: d4fb 34bf b8b9 a23e bbc0 8e3d c100 a1bf
00000300: 0a77 08bf e7d6 653f a59b 4abf 02e4 cfbe
00000310: 146f 78bf 5430 5dbf 30be 8bbf 3065 72bf
00000320: 5149 06bf 4793 04bf b9fd ccbf 0904 723b
00000330: e50d 89bf 21e3 60bf 28a5 02bf a493 febf
00000340: 4c10 973f 5b60 623e 2f4e d2bf 484c 99bf
00000350: 4d3e bdbf 49fb b3bf 4006 8e3c 8366 aebf
00000360: 0849 953f b239 c0be fa49 a4bf 91f7 bbbf
00000370: 258f 1fbf 5b70 55bf 0fc9 703c 1d28 6abe
00000380: 7f50 f3be 7dc3 b0bf b14e 81bf a7ab 0ebf
00000390: 0149 71bf 5e37 1dbf e211 1dbf 32b4 7ebe
000003a0: a8e1 083f fdab 83bf 04c8 2ebf ea99 2d3e
000003b0: bcfc 4e3f 9748 0b3f 988e 9abe 86d3 b8be
000003c0: c701 a7bf 1dd6 eebe 8c67 76bf 17a5 52bf
000003d0: b799 7dbf 69f3 a7bf b395 4bbe 135f 5bbf
000003e0: 55bd 0dbf 4272 26bf 65cd c3bf cf62 21bf
000003f0: 8460 93bf bc9d 77bc b122 4ebf 55de 60bf
-1.4364513 0.23067763 -0.4732536 -0.22791135 -1.4374617 -1.0517476 -0.3544168 0.9851606
-0.4896047 -1.7921497 -1.2831403 -1.9827576 0.27924177 -1.038309 -0.7115124 -0.4914324
-0.98233587 -0.83076036 -0.5464818 -0.3303114 -1.2442697 0.26676494 -0.7486268 -1.0279881
-0.7476276 -1.1849835 -1.0219123 -1.4748278 -1.601319 -0.97214717 -0.30775827 -0.18838805
-0.4303567 -1.0882766 -1.1870594 -0.45601305 -0.21727572 -1.8412491 -1.4024442 -1.0924156
-0.035246614 -0.7190323 -1.1813959 -1.1224102 0.17309521 -0.20749405 -1.6849538 0.18439184
-0.72640395 -0.49658844 -1.3038268 -0.5802769 -1.2692752 0.88669217 -1.3327032 -1.2847435
-1.3559974 0.95632 -0.9960214 -0.9455854 -0.5048035 -0.27024737 -0.25527135 -0.19118622
-0.60682964 -0.9185112 -0.22999777 -1.5656562 -1.7078525 -1.0811298 -0.47332957 -0.43532264
0.6357353 0.53293353 -0.099270426 0.15648627 -1.1635737 -0.7251664 0.048462946 -1.2843907
-0.35240743 -0.99098307 -0.4669413 -0.97011954 -0.8674977 -0.4181454 0.7067056 -0.795228
-0.2091897 -0.80693215 1.3626007 -1.9798019 -1.0997868 -0.04730647 1.394629 -0.2564958
-0.8507017 0.07905031 -0.90045816 0.1653053 -1.8423197 0.25095484 -1.5461367 -1.2468853
0.74853873 -0.08896354 -0.8604142 -0.8813372 0.23741452 -1.016869 -0.70002776 -0.9893063
1.5416979 0.23451695 0.9669507 -1.1991246 -0.46280915 -0.69801474 -1.6873348 -0.57981294
0.01691316 -1.1818011 -0.08325735 -1.1988055 0.31188333 0.13506962 -0.8060636 -0.56008065
0.010742875 -1.040404 -0.5669768 -0.051353373 -2.0027454 -0.6829928 -0.87724924 -0.6443888
-0.4914572 -1.2038192 -0.63147825 -0.16463505 -0.77774227 0.86255664 -0.9606229 0.13376158
0.066387944 -0.99368644 -1.4890902 0.6306095 -1.0042746 -0.62620944 -1.5971951 -1.5647471
-1.1260469 0.5563504 -1.4676803 -1.6859604 -0.835608 0.44858095 0.26031184 -1.1550862
-1.0618628 -0.0194772 0.92123455 -1.0248839 0.13630228 -0.6138643 0.24190602 0.08845047
-1.7202885 -1.0428149 0.7112264 -1.3103136 -1.4263453 -0.98314714 0.063568376 -1.1184458
-1.1028991 -0.5746715 0.94127923 -1.364286 -1.4904569 -1.2069658 -1.2264658 0.37943286
-1.7123572 -1.4614215 0.40057042 -0.80165064 -0.7069676 0.31782317 0.06970354 -1.2578355
-0.5330664 0.8978104 -0.79143745 -0.40603644 -0.9704449 -0.8640187 -1.0917416 -0.9468565
-0.5245562 -0.5178723 -1.601493 0.0036928675 -1.0707365 -0.8784657 -0.5103326 -1.9888806
1.1801848 0.22107069 -1.643011 -1.1976404 -1.4784638 -1.4061061 0.017336965 -1.3625034
1.1662912 -0.37544018 -1.2835076 -1.4684926 -0.62327796 -0.83374566 0.014696374 -0.22866865
-0.4752235 -1.3809658 -1.010214 -0.5573067 -0.9425202 -0.6141261 -0.6135541 -0.24873427
0.53469324 -1.0286862 -0.6827395 0.16953245 0.8085439 0.5440764 -0.30186915 -0.3609888
-1.3047417 -0.4664773 -0.9625175 -0.8228316 -0.99062675 -1.3121158 -0.19881324 -0.85691947
-0.5536702 -0.65018094 -1.5297056 -0.63041395 -1.1513829 -0.01511329 -0.80521685 -0.8783925

model.2.weight f4 [256, 256]
00000000: 6ed8 033d edba 04ba bc9c 06bd 4e2e e93b
00000010: c63b 8dbd 1a2d cabb b020 853c 7ce0 483d
00000020: 0856 c7bc bf77 4a3d 7d5c 70bc bcbb c3bc
00000030: 321b 0a3b 61bc dc3c 2acd a1bd a6ac 9fbc
00000040: 8a8e 033d 9af1 2e3c c67f 4c3d 2c04 02bd
00000050: 1c15 073c 4925 2cbd fe7c 6d3c 0535 3abc
00000060: 2e96 22bc 4b6d 4cbd 611f 1bbd e76b 66bd
00000070: 1baf 5dbd 4f3e 183d e743 36bc 81df 9abd
00000080: f8d0 0bbd 2e92 96bd 1421 18bd 3dc7 4dbd
00000090: 9e6c d0bb 9b79 6fb9 76f9 083d 9b05 45bc
000000a0: b066 6e3c b044 3c3c d3a9 94bb 80c6 36ba
000000b0: 6efe 64bd f641 20bc e415 2ebc c078 023d
000000c0: 2f3c 1ebd 6d3d a3bd 225c b8bd 232a 47bd
000000d0: 3fd3 88bd 7d6f 98bd cae9 82bd b000 7cbd
000000e0: b92a 2f3d c0c7 e33c ed5a 443d 9b0d a33c
000000f0: e6d1 40bd 868d 2d3d bfef 9cbd 80a4 19bd
00000100: 8050 54bd 7fa1 4bbd 0968 c13b 7e37 39bd
00000110: 3b2a aa3d 9e5c 7cbb ba64 983c 58b8 063c
00000120: 34d9 c1bc 9858 67bd 66d5 91bc 3527 d93b
00000130: 8c68 0cbd da7d 81bd a721 88bd b8ab 1dbd
00000140: aba4 97bd cb16 38bd 47c1 8cbd 3a1a 543c
00000150: d8dc f1bc 4184 7a3d e568 3c3c ae26 e93c
00000160: bff1 c23b 8005 63bd 2826 afbb 1c46 87bd
00000170: fc1a 6d3d 70d8 533d 6f29 a5bc 5c92 a33c
00000180: 025f e33d 917b 27bb 68f0 36bd 5c2d 98bd
00000190: f665 59bd 7270 6bbd f5a1 95bd 7f94 dd3c
000001a0: d03c d4bd 2885 62bc 7b24 003d d72f 51bd
000001b0: 90af d0bc 54b6 ad3c 17e2 2b3d 1da3 543c
000001c0: 7986 32bd 6c3a 38bd 1219 5d3d 2b8b a03d
000001d0: 24d8 703a 6993 993c 06b1 443d 5d73 1fbb
000001e0: e8c2 73bd aeb8 1b3c 7c0b a839 08f8 aabc
000001f0: 89fb 4e3c f871 b4bd 9cca cfbc 973d 7fbd
00000200: 9a66 cabc a7fd 31bd 6cc6 1bbd 5a00 08bd
00000210: 9f3f 83bd 3182 62bd 4f9c 93bd e92a 2dbd
00000220: bbc8 a33c 5d92 79bd b1ec 0bbb 9263 bc3a
00000230: 9d5f 11bb 917e b6bd 0298 d1bc 0a7f 01bd
00000240: 260e 3fbc 9797 7abd ae6f 223d b8d4 7cbd
00000250: 0126 f83c 82c3 063d 8b44 d83a 83be 1e39
00000260: d4ac e1bd 6e96 63bd e4bc 1cbd ed8d e6bc
00000270: 8272 24bc 3297 44ba 4489 41bd 0c05 7cbd
00000280: fa25 30bd 6f46 b9bd e707 aebb 7443 20bd
00000290: 837d b53b 4c7d b0bc 7cbf bd3c aeeb 9bbd
000002a0: f808 4fbc b4df fc3c 7e4a 813c 972a abbc
000002b0: 0adb 00bd c2c7 59bd 7816 87bd 9f13 dc39
000002c0: c822 bebb 31fd 83bc 0f3e b0bd 32e4 95bc
000002d0: 21cf 96bd 5254 a2bc 4762 f73a 5977 a7bd
000002e0: 1ccd 11bd 403b a4bd 99a4 57bd 6021 20bd
000002f0: e537 d43c 795d b6bd 8286 89bd 7dea 053c
00000300: e46e cfbb 37a9 11bc b8c4 3bbc 01f3 2bbd
00000310: 6e90 6abb b3c1 91bc 89ae abbb fbad c2ba
00000320: 504d 4ebc 067a 03bc deda de3d 7bc3 ffbb
00000330: 8c95 d2bc a45f 07bd 1b04 e6bc c079 5e3b
00000340: 3531 d13c 2dc5 fbbc eb86 bdbd 56f3 28bd
00000350: e859 d6bc 6ce4 25bd 2a0f bdbc 1089 d63c
00000360: 151a 343c 6cbd 40bc da13 4bbd 4efd 1bbd
00000370: 334b d1bc 3b6a 4fbd 6a6a 913b 5aef f1bc
00000380: 29a3 a23c 5e1a 1c3d 6dc3 33bd c6fc 8a3d
00000390: ebf2 473b afea 0f3d 5c1a 8cbd 9599 b43b
000003a0: 0f5c 7fbd aa91 1bbd 0e67 1cbd 4259 cebc
000003b0: a2d4 8fbd de22 9bbd b440 84bd bb7b c93c
000003c0: f073 81bd 424b 073c fb8d 7dbd bd2a 193c
000003d0: 3c67 6abd 7137 89bc 4f48 a43a 380b 153d
000003e0: faf5 493b eee8 54bd 4855 39bd 2ce4 c6bc
000003f0: d2a7 b7bd 4c29 cc3a 8e16 71bd 5df1 67bd
0.032188825 -0.00050632545 -0.032864317 0.0071161157 -0.068961665 -0.0061699273 0.016250938 0.04904221
-0.024333015 0.049430605 -0.014670488 -0.02389323 0.0021073339 0.026945295 -0.0790046 -0.019491505
0.032118358 0.0106777195 0.04992654 -0.03174226 0.008244779 -0.042027745 0.0144951325 -0.01136518
-0.009923501 -0.049908917 -0.037871722 -0.056255247 -0.05412207 0.037168797 -0.011124588 -0.07562161
-0.034134835 -0.073521 -0.03714092 -0.050238837 -0.0063606044 -0.00022838118 0.03344103 -0.012025262
0.01455085 0.011490986 -0.004536846 -0.0006972328 -0.055906706 -0.009781351 -0.010625336 0.031853437
-0.038631614 -0.079707004 -0.09001948 -0.04862417 -0.06680917 -0.0744314 -0.06392248 -0.061524093
0.042765353 0.02780521 0.047938276 0.019903949 -0.047075175 0.042371295 -0.076629154 -0.037510395
-0.051834583 -0.04971456 0.0059022945 -0.045218937 0.08308836 -0.0038507353 0.018602718 0.008222662
-0.02366314 -0.056480974 -0.017801952 0.0066269883 -0.03427939 -0.063228324 -0.06647044 -0.038493842
-0.07404455 -0.044943612 -0.06872802 0.012945706 -0.029524252 0.061161283 0.011499618 0.028460827
0.0059492285 -0.055425167 -0.0053451248 -0.06605169 0.057887062 0.051720083 -0.020161359 0.01996725
0.11102106 -0.002555583 -0.044662863 -0.074305266 -0.053075753 -0.057480283 -0.073062815 0.027048348
-0.103631616 -0.013825692 0.03128479 -0.051071014 -0.02547434 0.021205105 0.041963663 0.012978342
-0.043585274 -0.04497759 0.053978987 0.07839044 0.0009187481 0.018747048 0.048020385 -0.0024330236
-0.05951205 0.00950448 0.00032052014 -0.020870224 0.012633213 -0.088108 -0.025365166 -0.062314596
-0.024707127 -0.043454792 -0.038031027 -0.03320346 -0.06408619 -0.05529994 -0.07207548 -0.04227725
0.019993177 -0.0609306 -0.0021350796 0.0014372936 -0.0022182234 -0.089108594 -0.025585178 -0.031615295
-0.011661088 -0.061179724 0.039657287 -0.061726302 0.03029156 0.032901295 0.001649992 0.00015139025
-0.110192925 -0.055563383 -0.038266078 -0.028143847 -0.010037066 -0.00074993365 -0.047250047 -0.06152825
-0.043004967 -0.09046637 -0.0053110006 -0.03912683 0.005538644 -0.021544121 0.023162596 -0.07613312
-0.012636416 0.030868389 0.015782591 -0.020894332 -0.031458892 -0.05316902 -0.065960824 0.0004197629
-0.005802486 -0.016111942 -0.08605587 -0.018297289 -0.073637255 -0.019815598 0.0018873893 -0.08177061
-0.035596 -0.080191135 -0.052647207 -0.03909433 0.025905559 -0.08904547 -0.067151085 0.008173582
-0.006330358 -0.008890442 -0.011460476 -0.041979793 -0.0035791653 -0.017792558 -0.005239312 -0.0014852876
-0.012591675 -0.008024698 0.10881589 -0.0078052855 -0.025706075 -0.033050194 -0.02807813 0.003394708
0.025536159 -0.03073367 -0.09254249 -0.04124769 -0.026165918 -0.040501043 -0.02307852 0.026188403
0.010992547 -0.011763912 -0.04957948 -0.038083367 -0.025548553 -0.05063842 0.0044377344 -0.029533077
0.019853191 0.038111083 -0.043887544 0.06786494 0.003050978 0.03513592 -0.06840965 0.0055114725
-0.062343653 -0.037980713 -0.038184218 -0.025189046 -0.07022978 -0.0757501 -0.06457654 0.024595132
-0.063209414 0.008257689 -0.06190298 0.0093485685 -0.05722736 -0.01675007 0.0012533757 0.036387652
0.003081678 -0.05197995 -0.045247346 -0.024278723 -0.08967556 0.0015576272 -0.0588594 -0.056626666

model.2.bias f4 [256]
00000000: 8ce5 f83a 3bb1 e7be 47b3 a5bd e9a1 443c
00000010: e104 ddbc f2e6 51bd 5329 38bf 7a8b 10bf
00000020: 0d29 1abf d2f6 06bd 7ce4 90bd 1160 343e
00000030: 23b3 493e 82ad bfbe 14df 3fbd 1a2d 48be
00000040: 8d6e ddbe 9871 84bf b6a7 5bbc 66d3 8dbe
00000050: 0b5a c63e ec1f a5bd eb6a 70bd 495f 07bd
00000060: cee5 a3bf 3c10 1dbe 042f f83e 3a55 bbbd
00000070: d28d 9fbd 8da7 e03d ad4d 1fbf 4e81 16be
00000080: 9b54 bbbd 68c2 1a3e 1b65 55bf 9a93 c1bd
00000090: 6b10 e2bd 3ddb 83bd 753a b43f 1ff4 e9be
000000a0: fb1b 80bd a2eb 4abe 2d95 e2be cadd c4bb
000000b0: 7b52 30bd 9cc8 183f 565d f5be 17b1 d73e
000000c0: 9259 953e 032d 93bd 6340 843f 16b5 9cbf
000000d0: 27c9 773f 56d3 2abd d2fa afbd 5025 d4bd
000000e0: c4a1 b7bc d7d0 79ba 85ca fcbd 5eb8 e63d
000000f0: 2977 c9bd d7b4 b8bd 8ffa 7abc a718 6b3f
00000100: 79fb 3ebf 631c 33bd 1202 e1bd 8579 bc3e
00000110: cb54 15bd 111d 2fbb a787 2abe 4406 9dbd
00000120: 889d 1bbd 9fea 3cbf 55ca 20bf 5885 3cbe
00000130: d173 7f3e 1cf3 b3bd dfc8 d1bb 7008 1fbf
00000140: 80a0 fe3e ab46 7fbd 70a3 753f 5343 87bc
00000150: 3fd4 8cbc c9f1 7abf 3c07 cbbc aaed abbd
00000160: a505 afbd ad91 663f 21af 9e3f 5b88 3dbf
00000170: bc97 93be 0a65 8b3f dad2 dcbe dd1b 90bd
00000180: 7acf d3be 89c5 a8bd 18fe 12bf bf3b 13bf
00000190: 41ae ffbd f9a4 27be 0b1c 993f ec63 6cbf
000001a0: 1966 96be 10dc 87bf cf81 db3e c2c5 32bd
000001b0: 4c68 0cbd 910b bdbd e95b aabd 0386 c9be
000001c0: 63cc 2fbe 5de6 46bf e01c 77bd 5b14 4cbf
000001d0: f4e7 96be 990c a8be 1474 f2bd 0d53 96bd
000001e0: 6528 1fbc 4c90 b1bf a19d a3be 0776 43bf
000001f0: 6f74 a8bd ba26 873e 1798 103f 9433 883f
00000200: e191 44bc e334 8cbc f34a 37bf ec6f 69be
00000210: 0981 c63b c594 a4bd 0dd6 bbbc bfff cc3e
00000220: 5592 6ebe af2f cdbc 4cd6 8dbe f8c3 1fbf
00000230: eb30 24bc 0ac7 033f 847e adbf 6783 a33e
00000240: a20c 62bf 6b8b 9dbd cb15 80bf 7126 61bf
00000250: 28d8 25bf a2fd 043e e27e 41be cd0e 7dbc
00000260: c9e1 83bd c2ff 33bf e5b5 b9bd b3b8 6c3f
00000270: 2f18 38bf 298b efbe eced aabc fea0 60bf
00000280: 282c 183f 7ad0 4fbf 7ace 8fbc fafc c9be
00000290: 6135 c6bd cba6 263f b026 46bb 638c bcbd
000002a0: 056a f43e 3e9c 0bbd 4419 6dbd 415a 423c
000002b0: bc30 b4bf 3e5a 9abf 4331 63bf 6c4c 08bd
000002c0: e53f c9be dfc8 98bf f01e 233c 0984 4abf
000002d0: 37eb a2bd b0f8 943c 24f0 45bf ed12 44bd
000002e0: 9b55 133f f921 92bf 44b5 b9be 1b9d b9be
000002f0: af38 a7be 1249 393f 851e d3be 1f8d d93e
00000300: b78e 2cbf 06b9 60bf db5b 21bf 6cf5 68bd
00000310: 3927 96bd e178 28be 1873 64bd 2180 aebd
00000320: 5722 f4be 5e46 a93e e1e4 8fbb 82d3 bfbf
00000330: 94a5 1d3f 7fd7 cfbe c883 6abf 05ef 39bf
00000340: 1380 e0bd 0bf9 533f cc18 e1be afdc 89bf
00000350: 7615 ddbe da53 9cbd c348 1a3d 2b91 f33c
00000360: 698f 5cbf 22c9 20bf e3d1 2dbf 1e39 66bf
00000370: cc60 5abb a980 b4be ca46 eebe 13de dcbe
00000380: bc32 2ebd 2f79 cfbd 661f 1b3c 20d2 6fbf
00000390: 2231 98bd dcff 29bf 599e 543f aa76 6ebf
000003a0: fe9c e63e cba7 85bc 4f86 dfbd 4a37 303f
000003b0: a97e 0abd d8ee 3fbf 407d 883c 1256 ebbe
000003c0: cab9 6bbf 954d abbd 01e4 1ebc 363f 303f
000003d0: fc04 2dbd 56a6 d7be 003c 123e 433f 82bf
000003e0: 9c77 0a3f b589 66bd a89d 7dbf 8746 02bd
000003f0: f828 79bd fa6f 2ebf df2c 84bd cb45 88bf
0.0018989309 -0.45252404 -0.08090835 0.012001493 -0.026979866 -0.051245637 -0.71938056 -0.56462824
-0.6021889 -0.03295023 -0.0707483 0.17614771 0.19697241 -0.37437063 -0.046843603 -0.19548455
-0.43248406 -1.0347166 -0.013406685 -0.27700347 0.38740572 -0.08062729 -0.058695715 -0.033049855
-1.2804506 -0.15338224 0.4847337 -0.09147115 -0.07790722 0.10969458 -0.622279 -0.14697763
-0.091469966 0.15113223 -0.833574 -0.09451981 -0.11038288 -0.06438301 1.408034 -0.45694062
-0.06255337 -0.1981645 -0.44254437 -0.0060078846 -0.04304741 0.59681106 -0.47922772 0.42127296
0.291699 -0.0718632 1.0332149 -1.2242763 0.9679131 -0.041705452 -0.08592762 -0.10358679
-0.022416003 -0.0009529716 -0.12343315 0.11265634 -0.09837181 -0.090188675 -0.015318527 0.9183449
-0.74602467 -0.043728244 -0.10986723 0.36811462 -0.036457818 -0.0026720206 -0.1665331 -0.07667211
-0.03799203 -0.73795503 -0.62808734 -0.18410242 0.24946524 -0.08786604 -0.0064021195 -0.6212225
0.49731827 -0.062323254 0.9595251 -0.016511595 -0.01719105 -0.98025185 -0.024783723 -0.0839494
-0.085459985 0.90066034 1.2397195 -0.74036187 -0.28826702 1.089021 -0.43129617 -0.070365645
-0.4136923 -0.08240802 -0.57418966 -0.5751304 -0.12484408 -0.16371526 1.1961683 -0.9233997
-0.2937477 -1.0614033 0.42872474 -0.043645628 -0.034279153 -0.09230722 -0.08318312 -0.39360055
-0.17167811 -0.77695256 -0.06033027 -0.7971856 -0.2947384 -0.3282211 -0.118385464 -0.073400594
-0.009714221 -1.3872161 -0.319562 -0.7635197 -0.08225333 0.26396734 0.5648207 1.064074
-0.011997671 -0.017115062 -0.7159874 -0.22796601 0.0060578627 -0.08036188 -0.022929216 0.4003887
-0.23298009 -0.025047151 -0.27702558 -0.624084 -0.010021429 0.51475585 -1.3554235 0.3193619
-0.88300526 -0.076926075 -1.0006651 -0.8794928 -0.64782953 0.12987378 -0.18896058 -0.015445423
-0.064395495 -0.7031213 -0.09067897 0.9246933 -0.719119 -0.46785858 -0.020865403 -0.87745655
0.5944238 -0.81177485 -0.01755451 -0.39450818 -0.0967815 0.65098256 -0.0030235462 -0.09206464
0.47737136 -0.03408455 -0.057885423 0.0118623385 -1.4077373 -1.205879 -0.8874704 -0.033276007
-0.3930656 -1.1936301 0.009956107 -0.7910772 -0.0795502 0.01818499 -0.7731955 -0.04786961
0.575525 -1.1416618 -0.36271107 -0.36252674 -0.32660434 0.7237712 -0.41234222 0.4249048
-0.67405266 -0.87782323 -0.63030785 -0.056874678 -0.073317 -0.16452362 -0.055773824 -0.085205324
-0.4768245 0.33061498 -0.004391298 -1.4986422 0.6158078 -0.40594098 -0.9160733 -0.7263034
-0.10961928 0.82801884 -0.4396423 -1.0770472 -0.43180436 -0.07633181 0.037667047 0.029732307
-0.86156327 -0.62806904 -0.67898387 -0.89930904 -0.0033321856 -0.3525441 -0.46538383 -0.4313818
-0.042528853 -0.10130536 0.009467935 -0.9368 -0.07431246 -0.66406035 0.8305412 -0.93149817
0.4504165 -0.016315361 -0.10914289 0.68834364 -0.0338122 -0.7497382 0.016661286 -0.45964104
-0.92080367 -0.08364407 -0.009697915 0.6884645 -0.04224108 -0.42119092 0.142807 -1.0175556
0.5408876 -0.05628367 -0.9906869 -0.03180554 -0.060830086 -0.6813961 -0.06453871 -1.0646299

model.4.weight f4 [1, 256]
00000000: 8955 453c 940c cebe 3da6 ad3b b5f5 91bf
00000010: 8f31 78bc 91ca 08bc 83b8 0bc0 e4c3 9bc0
00000020: 2305 abbe 6d62 d63c dd2d d9bb 8743 3f40
00000030: 89bc 5ec0 3d05 debe e094 a13c e7aa 02bf
00000040: 6e07 b5be 58c7 02c0 2bd4 ec3c ce96 12c0
00000050: ae30 e9bf 1667 18bc 72b2 a8bc ecea 9f3b
00000060: 3506 263f a63b 08c0 5a37 3d3f 3280 27bd
00000070: 0180 10c0 9010 54c0 b148 5cc0 65de 673d
00000080: bc7d 2c3c 293d 2cc0 12f2 4dbf 0f1e 83bb
00000090: 6da3 cfbb 9f66 af3c 1ba8 1c40 98a4 cbbf
000000a0: 39a1 093c 818e 20c0 f717 2340 d333 b8bb
000000b0: 9d60 0f3c 06cb 1940 ddcd 0f40 8e6e f73f
000000c0: 80b4 5f3f 85b8 c33c bb76 0440 eb71 3d3d
000000d0: 3820 b73f b062 c3bc 8105 363c a3fa f23c
000000e0: 88c8 c33c 0814 b3bc 9d34 82bf ff35 06c0
000000f0: 0667 53c0 6888 f8bc 02c3 08ba 729b 363f
00000100: cd83 87bf 0682 d13b 95dd e13c 9966 80bf
00000110: e1aa b3bf da6b 6db8 a9e2 1840 6574 a83c
00000120: d0cb 54ba 139c 03bf 22ec a5bf ab3f 0fc0
00000130: 9ee6 fcbf 92f8 57c0 0667 493d 7baa 1fc0
00000140: 471e 5f3f ceb9 813c fbc5 993f c339 b53c
00000150: 1975 db3c 575a 2dc0 e990 3db9 eb64 c1bc
00000160: 12eb 61bb e1e5 2140 09f5 d33f c3fb a43f
00000170: 81e8 d8bf 3c0a 9c3f 7b24 00c0 176e 9dbf
00000180: 5e6d cebe 59c0 61c0 1d08 a73f 052e afbe
00000190: de12 e2bc b614 f13c 6e48 033f 983e 243c
000001a0: edc1 dabf a069 12c0 596d 56c0 6078 bd3c
000001b0: f7ad 913b 045b a33b 1efa 9c3b c88f cbbe
000001c0: 6bb1 a7be 2076 c63f 0b06 b6bc 310c 55bf
000001d0: 0318 19c0 2115 49c0 51d3 083c d6ad 92bb
000001e0: 6de5 d73c 5143 d8bb 40f6 d2bf 8a48 b2bf
000001f0: 0536 64bc f849 0540 01e9 2040 0dd5 0740
00000200: fa2a 583f f839 7b3c a01c 31c0 7b0a d83f
00000210: 5c3e 9dbf f842 c5bc 6a79 aabc 2815 d53f
00000220: 31ad 31c0 f1a4 3739 5e80 033f 61c3 b3be
00000230: 11ae 64bb c0c9 4c40 7391 753c 4082 dc3f
00000240: d8ab 793f 05f9 a13a f0b3 3cc0 7ac5 29c0
00000250: 3920 18bf 1e86 0440 cc6b 11c0 2cf3 c73c
00000260: 3867 093c 45c2 afbe ed26 efbb 8189 0940
00000270: 9cda e23f d215 dbbe da0a f3bb cdf5 81bf
00000280: 118a ed3f fcaa 00c0 2898 9e3c 33fc 22bf
00000290: 8650 f73c aefc 4ebf 176f f6bb 1e0f 91bc
000002a0: 0916 4e40 de5f 003d 0576 fabc 22f4 e6bc
000002b0: 0b17 94c0 0d7e 463b 72aa 0dc0 7a17 313c
000002c0: 3daa 1ac0 8caf 36c0 7227 403c a798 733a
000002d0: e96c 42bb 36e1 4abb ea84 d8bf 4402 a5bc
000002e0: 862c cb3f 634f 5640 e4c4 e43b 55dc fabf
000002f0: 0885 d0be 2053 7e3f abce 5dc0 21c1 7740
00000300: 4f84 0ac0 7eec 16c0 b39a 1240 c18c 3cc0
00000310: 1633 7cbc 46f2 33c0 3381 293c 4785 a73c
00000320: 4adc 953f 6dcb 9f3f 549b cfbb 017c cbc0
00000330: fb35 763e 7c2a 9dbe 546f 74c0 34df 92c0
00000340: 789b c4bc e5f5 223f 4603 c0be f716 edbf
00000350: 0af2 5ac0 9a32 96bc 8c5c cb3f 1590 c3bf
00000360: 1cd6 f6bc 3f15 3abf b37b 69c0 2ac3 eabf
00000370: a027 9abf d7d5 4cc0 a0b9 d9be 83e0 36c0
00000380: 1b20 063d 820e 1bc0 8fa4 30bc 74e4 cebf
00000390: cea7 a7bb 7076 c4bf c154 f13f 9b0d babb
000003a0: f126 f33e 7667 bcbc 2cbb cbbc cd4c 5c40
000003b0: 4454 24bc 8592 6ebf 06fc 9cbb 156b 77bf
000003c0: 2577 85bf ab79 8e3c e360 a63c 8613 7840
000003d0: a63c b23c 1b0e a1be 6fa3 d63f 0827 e4bf
000003e0: 12ce 91bf 991e a03c d6f3 cfbf b38d b8bc
000003f0: 125d 36bc e04d 04c0 f8be cabc 5fdf 85bf
0.012044319 -0.4024397 0.005299358 -1.1403109 -0.015148534 -0.008349077 -2.1831367 -4.8676624
-0.33402357 0.02616998 -0.006627782 2.9884965 -3.4802573 -0.43363371 0.01972431 -0.51042026
-0.3535723 -2.043417 0.028909763 -2.2904544 -1.8217981 -0.009301921 -0.020592902 0.0048803
0.6485322 -2.1286407 0.73912585 -0.04089374 -2.2578127 -3.313511 -3.4419367 0.056608576
0.010528024 -2.691233 -0.80447495 -0.004001386 -0.0063366205 0.021411238 2.4477603 -1.5909605
0.008400255 -2.5086977 2.5483377 -0.0056214123 0.008751062 2.4030166 2.24694 1.9330614
0.87384796 0.023891697 2.0697467 0.04625122 1.4306707 -0.023850769 0.011109711 0.029660529
0.023899332 -0.021860138 -1.0172306 -2.0970457 -3.303163 -0.030338481 -0.0005217047 0.7133094
-1.0587097 0.006393674 0.027571479 -1.003131 -1.4036523 -5.6605648e-05 2.3888342 0.020563314
-0.00081175286 -0.51410025 -1.2962687 -2.238261 -1.9757879 -3.3745465 0.049170516 -2.4947803
0.87155575 0.015835669 1.2013544 0.02212227 0.026789235 -2.708639 -0.00018078428 -0.023607692
-0.0034472388 2.5296557 1.6559154 1.2889332 -1.6945955 1.2190623 -2.0022266 -1.2299222
-0.40317816 -3.527365 1.3049351 -0.34214798 -0.027596887 0.029428821 0.51282394 0.010024689
-1.7090431 -2.2876968 -3.350424 0.023128688 0.004445787 0.004985215 0.0047905585 -0.39758134
-0.32752547 1.5504799 -0.022219678 -0.8322173 -2.3920906 -3.1419146 0.008351163 -0.0044762893
0.026354516 -0.0065998216 -1.64814 -1.3928387 -0.013928895 2.0826397 2.5142214 2.1223786
0.8444058 0.015333645 -2.7673721 1.6878198 -1.2284656 -0.024079785 -0.020809848 1.6647081
-2.7761958 0.00017513685 0.5136775 -0.3511 -0.003489379 3.1998138 0.014988291 1.7227249
0.9752784 0.0012357539 -2.9484825 -2.652678 -0.5942417 2.0706859 -2.2722044 0.024407946
0.008386426 -0.34327903 -0.0072983415 2.1490176 1.7722964 -0.42790085 -0.007417065 -1.0153137
1.855776 -2.010436 0.019359663 -0.63666075 0.030189764 -0.8085431 -0.007520567 -0.017707404
3.220095 0.031341426 -0.030573854 -0.028192583 -4.627813 0.0030287534 -2.2135282 0.01080882
-2.4166405 -2.8544645 0.0117281545 0.00092924613 -0.0029666966 -0.003095699 -1.6915562 -0.020142682
1.5872962 3.3485954 0.006981479 -1.959849 -0.40726495 0.9934559 -3.465739 3.8711627
-2.1643255 -2.3581843 2.290692 -2.946091 -0.015393039 -2.8116622 0.010345745 0.020449294
1.1707852 1.2483956 -0.006335655 -6.358887 0.2404403 -0.30696476 -3.819295 -4.5897465
-0.023999915 0.63656455 -0.37502497 -1.8522633 -3.421023 -0.018334676 1.5887618 -1.5278345
-0.030131392 -0.7268867 -3.648175 -1.8340809 -1.2043343 -3.2005517 -0.42524433 -2.857453
0.032745462 -2.4227605 -0.010781421 -1.6163468 -0.0051164394 -1.5348644 1.885399 -0.0056778914
0.47490647 -0.022998553 -0.024869524 3.4421875 -0.010029856 -0.9319232 -0.0047907857 -0.9664777
-1.0426985 0.017392 0.020309871 3.8761916 0.021757435 -0.31456074 1.6768626 -1.7824411
-1.1391013 0.01954584 -1.6246288 -0.022528505 -0.011130588 -2.067253 -0.024749264 -1.0458792
