hw2/preTrained/ddpg_actor_LunarLanderContinuous-v2_04282023_190713_.pth (torch, 276375 bytes, 6 tensors)

model.0.weight f4 [256, 8]
000000 79 fc 58 be 39 af 18 be 41 d8 92 be 0e 87 d5 3c
       -0.2119006 -0.14910592 -0.28680614 0.026065376
000010 8d d2 42 be 69 5c 83 be f3 e5 3e 3d 1a 23 0f 3f
       -0.19025631 -0.2565644 0.046606015 0.55912936
000020 76 db 01 3e 49 fe 8b 3d 2d a5 96 3d 0b e5 78 3d
       0.12681374 0.068356104 0.073557235 0.060765307
000030 57 1a b2 3e bc c1 6c 3e 46 a3 dd 3e 45 25 02 3f
       0.3478572 0.23120779 0.4328863 0.5083812
000040 10 7f c0 bd b8 f6 a0 bd 28 70 af 3d c8 74 32 be
       -0.09399235 -0.07859558 0.08566314 -0.17427361
000050 39 ae ad bd 80 75 cd be fe ed 0a bf 34 0c ad be
       -0.08480496 -0.40128708 -0.542694 -0.33798373
000060 b1 3e 25 bf 67 6f 91 be 22 05 c5 be 15 34 b0 be
       -0.64548784 -0.28405306 -0.3848048 -0.34414735
000070 8d 21 2a bf 3a 70 d4 3d 6d 00 8e 3e 26 d9 ba 3e
       -0.66457444 0.10372968 0.277347 0.36493796
000080 ed e2 00 3e 94 92 55 3e a9 30 22 3e c8 35 c5 bd
       0.12586565 0.20856696 0.15838875 -0.096293986
000090 0b fc af 3e 27 9a c0 bd 93 24 f3 3e 8a 55 43 3e
       0.3437198 -0.09404402 0.4748884 0.190756
0000a0 ea 15 b8 3e 3c ad 0f 3f 50 71 3e be 40 36 46 3e
       0.3595422 0.5612371 -0.18597913 0.19356632
0000b0 92 fb 23 3d 1d 5d a9 3d ae a1 ae be c7 e6 e0 3d
       0.040034838 0.08269713 -0.34107727 0.10981517
0000c0 be 9b 0a bf a3 1d a0 3d e0 a2 e6 be a0 6c 3c 3e
       -0.54143894 0.07818153 -0.4504614 0.18400812
0000d0 61 b1 c8 3b c8 64 ac bd cf ce 8f be 27 f9 d9 3e
       0.006124661 -0.0841766 -0.2808747 0.425729
0000e0 96 9b 27 be 38 98 7b 3e 54 0e 8c 3e 0c d0 f7 3e
       -0.16367945 0.24569786 0.27354681 0.48400915
0000f0 d0 05 b4 be ae ea e6 be ad e5 60 be 69 81 bd 3e
       -0.35160685 -0.4510092 -0.21962614 0.37012795
000100 39 7d 69 be 7c 86 8c 3e 8f 2a 48 3e 1c 10 05 bf
       -0.22801675 0.27446353 0.19547485 -0.51977706
000110 c6 22 ee be d3 ee ca 3d d5 a1 c5 3e 24 5a 97 be
       -0.46510905 0.09908833 0.3860003 -0.2956096
000120 62 14 33 bd b8 1d 89 3e ce 7c 80 be 58 53 8f 3d
       -0.04372061 0.26780486 -0.25095218 0.069983184
000130 4e 88 b8 be 62 4c 60 3e f4 7c e3 be 9b 46 97 bd
       -0.36041492 0.21904138 -0.4443127 -0.07386514
000140 06 17 5d be 6d 5c 65 bd 0a 5e 82 3e 30 bb 30 3e
       -0.21590814 -0.055996347 0.2546237 0.17258906
000150 b5 01 b7 3e f6 11 b2 bd f3 34 8a be 2f c5 05 3f
       0.3574349 -0.08694832 -0.26993522 0.52254003
000160 2d 3f 6e be 04 ce ce bb cd e4 aa be c3 57 9d 3e
       -0.23266287 -0.00631118 -0.33377686 0.3073102
000170 4f 23 dc 3e b5 7c c1 bc ed 08 b9 bd 26 c3 c6 3c
       0.42995688 -0.023619035 -0.090349056 0.024262976
000180 49 3f 83 be f2 b3 ed 3a d0 03 ba be 28 ba a9 be
       -0.2563422 0.0018135293 -0.36331034 -0.33149838
000190 b9 1d 3c be 35 30 eb 3e f6 22 ec 3e f1 45 84 3e
       -0.18370713 0.45935217 0.46120423 0.2583461
0001a0 02 3e 6c be ce 33 66 3e 2f a6 06 3e 57 9c e1 3e
       -0.23070529 0.224807 0.13149332 0.4406459
0001b0 b5 ed 71 be 31 ff 3e be 47 22 bd 3d f6 d8 23 3e
       -0.23625834 -0.18652035 0.092350535 0.16000733
0001c0 04 51 9c 3e 10 f0 23 bf ac 36 f5 3e be 7a 44 be
       0.3053056 -0.6403818 0.47893274 -0.19187447
0001d0 82 67 02 be 18 4f a1 be be 26 42 bd 75 1a 97 3d
       -0.12734798 -0.31505656 -0.04740023 0.07378093
0001e0 d7 84 ad 3e 3d db 4e 3e c0 80 7d be 9d 01 91 be
       0.3389041 0.2020082 -0.24756145 -0.28321543
0001f0 a6 73 44 3f 46 3f e9 3e eb e4 cd be 31 27 1f 3d
       0.76738966 0.45556086 -0.40213713 0.038855735
000200 04 a3 95 be f4 4e 67 bd 79 1e e1 bd 23 ab 81 3d
       -0.29225934 -0.05647178 -0.1099214 0.0633147
000210 bf 79 67 3b 92 83 3a be 1e ea 87 be ae 14 2b be
       0.003532037 -0.18214253 -0.26545805 -0.16707107
000220 34 6a 3e 3e 70 ea 9a 3e 90 a8 b3 be 4c e8 7b be
       0.18595201 0.30256987 -0.3508954 -0.24600333
000230 91 c7 81 3c ae 1a 50 3f a4 e3 b3 3e a6 7f 7a be
       0.015842231 0.8129071 0.35134614 -0.24462757
000240 cf eb 0e 3e d8 34 b3 3d 24 ab 02 3f 2e 6e 37 be
       0.13957141 0.087503135 0.5104239 -0.17913124
000250 7f 60 5a 3d 73 34 e1 be 92 82 c7 be 72 a8 b7 3d
       0.053314682 -0.43985328 -0.38966805 0.08967675
000260 88 c2 61 be 19 0c b9 3c 28 a4 fd bd b1 15 48 be
       -0.22046864 0.022588776 -0.12384826 -0.19539525
000270 2f 69 3a 3f 5a bf 2f 3f d3 19 9b 3e ea fe 05 3e
       0.7281675 0.68651354 0.3029314 0.13085523
000280 0b b3 90 be 31 7f 33 bf a6 db 04 be 52 63 2b be
       -0.282616 -0.70115954 -0.12974414 -0.16737106
000290 d2 95 f4 be b5 fe fa bb fb ed 6c be 98 66 89 3d
       -0.47770554 -0.007659758 -0.23137657 0.06709021
0002a0 cc 76 02 bf 4f d8 17 3e ed b7 59 be 48 26 39 3e
       -0.5096252 0.14828609 -0.21261568 0.1808101
0002b0 2d c7 aa 3d 01 ba bb be 56 8f 89 3e c0 0e 0a bf
       0.08338771 -0.36665347 0.2686717 -0.53928757
0002c0 7b 7a 40 3d de 9a ae 3c 68 c2 df bc 88 a6 8f 3e
       0.046991806 0.02131408 -0.02731438 0.2805674
0002d0 0f a2 ae bc c4 88 5a be 03 15 00 3f 0c 23 00 3f
       -0.02131751 -0.21341234 0.5003206 0.5005348
0002e0 68 cd 22 3e 9f 12 e7 bd df 5b 4f 3e 75 38 62 3b
       0.15898669 -0.112828486 0.2024989 0.0034518514
0002f0 60 e6 df 3e 8b 71 bc 3e c7 08 a5 3e d8 1b f5 bd
       0.4373045 0.36805376 0.3223326 -0.119682014
000300 0d 08 14 bf 35 a4 71 bf 00 a5 99 3e 1d 6d 9e be
       -0.57824785 -0.94391185 0.30008698 -0.30942622
000310 b2 4e 33 be f7 89 cf 3e 81 52 29 be f0 48 c4 be
       -0.17510489 0.40534946 -0.16535379 -0.38336897
000320 87 45 91 be 84 2a ea 3d 6f a2 b2 3d a9 0b d5 bc
       -0.28373358 0.114338905 0.08722388 -0.026006537
000330 57 63 8c bd 02 12 88 be 69 04 47 3e 2c 2a d7 be
       -0.06854885 -0.2657624 0.19435276 -0.42024362
000340 4c aa d3 be ea c7 50 3e 99 55 0e 3e 5f b3 93 be
       -0.41340864 0.20388761 0.1389984 -0.28847787
000350 24 31 12 bf 96 8b a9 be e1 9b 88 bc 85 9a bf bd
       -0.5710623 -0.33114308 -0.016675891 -0.09355644
000360 cb 3c a1 3e 55 dc 20 3e 14 d2 40 be 2c 85 33 be
       0.31491694 0.1570905 -0.18830138 -0.1753127
000370 76 a0 0d 3f b7 4a 0e 3f e7 af f4 be 24 f8 82 bd
       0.5532297 0.55582756 -0.47790453 -0.06394985
000380 30 44 42 be 57 63 11 3e e3 3b b6 3e f2 3c 54 3e
       -0.18971324 0.14198051 0.35592565 0.20726374
000390 fe c0 9b 3e b9 65 1b 3f 08 ea 62 3d e0 21 c9 be
       0.3042068 0.6070209 0.05539897 -0.39283657
0003a0 d7 b4 b7 bd 8b 83 00 3f 78 cb 06 3e a7 32 2e 3e
       -0.08970039 0.5020072 0.13163555 0.1701151
0003b0 e2 0e 5d 3e 03 fa 1f be 26 14 d3 be 16 88 3f 3e
       0.21587709 -0.15622716 -0.4122631 0.18704256
0003c0 b0 9a 27 bf 1c 58 92 3e a8 03 b6 bd 4c 9d 46 3e
       -0.6547041 0.28582847 -0.08887416 0.19395941
0003d0 54 e6 56 bd 82 55 10 3e c7 7c 69 3e 1c 1f 80 be
       -0.05246575 0.14095119 0.22801505 -0.25023735
0003e0 61 fa 32 bd 3b 13 2a 3e 08 08 5a be c9 2e a2 3d
       -0.04369581 0.16608898 -0.21292126 0.0791908
0003f0 a4 2a ed 3e a1 ec 22 3f 5a 3c 04 bf 6b 52 ab 3e
       0.46321595 0.6364232 -0.5165459 0.33461317

model.0.bias f4 [256]
000000 fa a2 85 3e 4d 5f df 3e 36 13 d8 3e 1e e8 b1 bd
       0.26100904 0.43627396 0.42202157 -0.08686851
000010 2a c8 f5 3e 24 3a 5e bb ea f5 9a 3e df d0 85 be
       0.48004276 -0.0033909166 0.30265743 -0.26135918
000020 d8 a4 72 be 9f 2c 0a bf 8b 62 0c 3f 8d 15 97 3e
       -0.23695695 -0.53974336 0.54837865 0.2950863
000030 27 e6 3c 3e f9 e0 6d be 36 a2 5b be 9d 42 91 be
       0.18447171 -0.23230352 -0.21448597 -0.28371134
000040 bd fc 91 3d 07 af c0 3b 45 39 08 3e ce 62 ab 3d
       0.07128284 0.00588024 0.13303097 0.08368455
000050 7f 38 a8 be 1e 1c 9c be c7 87 2d be 23 59 31 bf
       -0.32855603 -0.30490202 -0.16946326 -0.69276637
000060 e5 72 17 3e b8 9c d7 be 8e b7 3c 3e 08 75 87 3d
       0.14789923 -0.42111754 0.18429396 0.06614119
000070 90 52 87 3e 5e 70 5e 3e 9f 1f aa 3e 32 82 21 be
       0.26430178 0.21722552 0.3322725 -0.15772322
000080 17 17 31 be fa aa 8a 3e 25 e1 a7 3e 28 d5 bb 3e
       -0.17293964 0.2708357 0.3278896 0.36686063
000090 ed 10 71 be 15 36 da bd e8 e0 ad be 9d 4f 4b 3e
       -0.23541613 -0.106548466 -0.33960652 0.19854589
0000a0 bd 21 6a 3e 1f 69 2b be 0d a2 57 be c8 1a 70 be
       0.22864433 -0.1673932 -0.21057911 -0.23447716
0000b0 d0 39 53 3d 2e 82 ec 3d c9 82 9d be 90 f4 ba 3e
       0.051568806 0.11548267 -0.30763844 0.3651471
0000c0 69 67 90 3c 7d 89 c1 be c2 bf fc 3e 85 8e 0e 3f
       0.017627435 -0.37800208 0.4936505 0.5568622
0000d0 bc fd 9e 3b 0a d5 34 3e 6c b7 db 3e 6c 83 28 be
       0.004852025 0.17659393 0.42913377 -0.16456383
0000e0 4f 7a da be f2 74 1e 3f 89 77 dd 3e ae 50 66 be
       -0.4267144 0.61897194 0.4325526 -0.22491714
0000f0 7c c6 ca 3c e3 b8 74 bd f0 58 04 3f 4f d4 e1 bd
       0.024752848 -0.059746634 0.5169821 -0.11026823
000100 1d a6 d2 3e 64 86 24 3f 71 7a c4 bc c9 ad ce 3e
       0.4114236 0.64267564 -0.023984166 0.40366963
000110 7c 98 b1 be 9f 73 c6 3e 45 ab 6f bb 07 1a 1a 3d
       -0.3468665 0.38760087 -0.003657059 0.037622478
000120 9a 9a a0 3e 96 11 f0 bd 27 48 11 be 4c 8b c7 bd
       0.31367952 -0.11722104 -0.1418768 -0.09743366
000130 4d 45 19 be 03 e3 cc bd 70 80 55 3e 12 70 d9 3e
       -0.14967842 -0.100042365 0.20849776 0.42468315
000140 ce 74 2e be 0a 18 82 3c 6f c1 e2 3d 3a 56 2f bb
       -0.17036745 0.015880603 0.11072051 -0.0026754276
000150 52 c0 5b be 5c af e2 bc cb 3f f4 3e 59 08 3b be
       -0.21460083 -0.027671508 0.4770492 -0.18264903
000160 ab 79 eb 3c 89 d4 0d 3f 2a 77 b1 be 00 e1 bb be
       0.02874454 0.5540243 -0.34661227 -0.366951
000170 2a 7d 97 3e 97 59 19 be 17 06 9a be e3 99 f5 3d
       0.2958768 -0.14975582 -0.3008277 0.11992242
000180 aa 88 cd 3e ad ab 2f bc a7 49 a3 3e 82 1e 9b 3d
       0.4014333 -0.010722083 0.3189213 0.07574178
000190 d6 34 dc bc 23 e5 bf 3e c8 25 80 bd 49 74 02 3e
       -0.026880663 0.37479505 -0.06257206 0.12739672
0001a0 a5 f9 09 be 45 d0 4c be a3 84 91 bd 2a 5c 94 be
       -0.13474138 -0.20001324 -0.071053766 -0.28976566
0001b0 e5 00 45 3d f7 3e 83 3e dc 25 38 3e d2 b5 75 be
       0.048096556 0.25633976 0.17983192 -0.2399514
0001c0 93 bd 46 bb 61 4a 09 3e 56 b3 3b be c0 e8 d6 3e
       -0.0030325397 0.1340728 -0.1833013 0.4197445
0001d0 e4 23 15 3e 96 b9 a8 be 03 31 97 be 09 6e 02 3e
       0.14564472 -0.3295409 -0.2952958 0.12737288
0001e0 2b 90 ae 3e 93 89 a7 3d b1 51 92 3e 7d eb e4 3d
       0.34094366 0.08180537 0.2857795 0.11177728
0001f0 9f 4a 91 be 77 27 4e 3d 40 ed 0a be b8 22 94 bb
       -0.28377244 0.050330605 -0.13567066 -0.0045207404
000200 dd e5 57 3e c8 99 4a 3d e1 d7 4a 3d b7 0f 01 bd
       0.2108378 0.049463063 0.049522284 -0.031509127
000210 52 0c c5 be 7c 76 20 3d 64 0e a4 3e a6 df 56 be
       -0.38485962 0.039175496 0.3204223 -0.20983753
000220 bd 1f 74 be 4f ce ad 3e 6c 80 94 be d1 1c ea 3e
       -0.23840232 0.33946463 -0.29004228 0.4572511
000230 94 c8 b0 3e aa 41 a0 3e 8f 04 f5 3e af ed 43 bd
       0.3452803 0.31300098 0.4785504 -0.047834095
000240 d4 ee 69 3d b6 55 e8 be 49 5f 39 be d0 b2 2c be
       0.05711253 -0.45377892 -0.18102755 -0.16865087
000250 bd 2f 87 3e 81 3a 81 be 5b e9 f7 be 4b 99 43 3e
       0.2640361 -0.25239947 -0.48420224 0.19101445
000260 7b 32 ab be da 77 45 3d 69 88 6e 3e 6b d9 6c 3e
       -0.3343695 0.048210002 0.23294224 0.23129813
000270 79 b9 20 be 72 78 0d be 8f c8 eb bc c8 74 e4 bd
       -0.15695752 -0.13815477 -0.028782157 -0.11155087
000280 e6 1f e7 3e d5 4f f3 3e 7a f5 f1 3e 5e 54 34 ba
       0.45141524 0.47521845 0.47257596 -0.0006879027
000290 c9 8e 97 bc a1 81 99 3e f0 6b a6 3e af fd 93 3e
       -0.018500702 0.29981712 0.32504225 0.28904483
0002a0 2d ad ae 3e 7d b0 5d 3d 2b c0 a3 3e 2e 40 e1 3d
       0.34116498 0.05412339 0.3198255 0.109985694
0002b0 66 81 b6 be cb c0 06 3f 07 c2 48 3d c1 05 3e be
       -0.35645598 0.5263793 0.049013164 -0.18556882
0002c0 c9 f7 6e be 98 25 a4 be 28 ec 8b bd 85 fa de bd
       -0.2333671 -0.32059932 -0.068321526 -0.108876266
0002d0 a4 da ab 3e a5 32 a0 3d 59 3b 03 3f 5a 05 91 be
       0.33565247 0.0782216 0.5126243 -0.28324395
0002e0 81 53 e1 3e 6e a3 b9 bd 0c ef e3 bd 4d 4e 4f bd
       0.4400902 -0.09064375 -0.11129579 -0.050611783
0002f0 08 a5 7d bb 85 4c 64 3e a7 51 d6 3e 2a 33 cc bd
       -0.0038703103 0.22294815 0.4185917 -0.09970696
000300 46 c9 9b be bb af 95 be 3b 46 d1 be 8f 6d 77 be
       -0.30426997 -0.29235634 -0.40873894 -0.24162887
000310 c5 2e 8e be cc d6 9b be 6c 0f 03 3f ae 39 02 3f
       -0.27770057 -0.30437315 0.51195407 0.5086926
000320 01 ba 63 bd 0d 68 a0 3d b6 f3 82 bd b5 9c 98 3e
       -0.05559731 0.07832346 -0.063941404 0.29807058
000330 e8 2a f1 bd 56 4b 4c 3e ad 98 c4 3e be 92 9f bb
       -0.11775762 0.19950613 0.38397732 -0.004869788
000340 ad a5 08 3e d7 fd 7b 3e 37 d0 df 3e 9c 10 98 be
       0.1334445 0.24608551 0.43713543 -0.29700172
000350 70 98 d1 3e fa 83 84 3e a0 5a 19 3e 88 b0 ef 3e
       0.40936613 0.2588194 0.14975977 0.4681437
000360 fc 09 7f bd fb 72 14 bc 8d 4a 1a bd 7d 04 95 3d
       -0.06226538 -0.009060617 -0.037668753 0.07276247
000370 85 81 5a be 20 b9 a8 3e e6 8c 31 be be a8 de be
       -0.2133847 0.3295374 -0.17338905 -0.43488115
000380 11 ef 81 bd ca 45 e0 bd 2f 04 85 3d 1a f1 56 be
       -0.063444264 -0.10950811 0.064949386 -0.2099041
000390 e2 b2 30 be 42 b3 4e 3e 10 fc d7 3d 8a cb 01 3f
       -0.17255738 0.20185569 0.10546124 0.507012
0003a0 2f d9 cd bc 31 7d 52 3d 86 a8 9e 3e 4d 2a e3 bd
       -0.025127975 0.051388923 0.30987948 -0.110920526
0003b0 48 28 7c be d4 20 27 3e f7 67 9b 3e 50 f1 9e 3b
       -0.24624741 0.16321117 0.30352756 0.004850544
0003c0 84 ec 5e 3e dc 42 06 3f 33 8a 43 bd a3 68 8a 3e
       0.21769911 0.5244577 -0.04773922 0.27032956
0003d0 9f 5f 73 be 0e fe 9e 3e 0e f3 aa be 9f 4f 50 be
       -0.23766945 0.31053203 -0.3338856 -0.20342873
0003e0 66 fb f3 3e a2 6a 68 3e 19 f5 93 3e b8 d6 5f 3e
       0.4765274 0.22696927 0.28897932 0.21859252
0003f0 cb af 2f be 18 7c 63 3e 39 4a 72 be 83 a5 19 3e
       -0.17156903 0.22215307 -0.23661126 0.15004544

model.2.weight f4 [256, 256]
000000 5d 44 2d 3d f5 ea 6b be 5a 38 85 bd 4e 77 9a be
       0.042301524 -0.23038848 -0.06504889 -0.30169147
000010 3a 7f 65 bd 78 a9 70 3d 0e 58 6b 3d 31 92 c0 bd
       -0.056029536 0.058755368 0.057457022 -0.09402884
000020 2a 05 b9 3d b9 d6 8d 3c 39 52 52 be 60 c4 3f 3d
       0.09034188 0.017314302 -0.20539178 0.046818137
000030 81 24 7d bd 97 da 7d 3c 8a f7 e8 bd 62 5f 0e 3e
       -0.06180239 0.01549401 -0.11375339 0.13903573
000040 eb e5 47 bc 5a d0 fd 3c 10 4c 0c be 25 27 09 bc
       -0.012200813 0.030983139 -0.1370089 -0.008371149
000050 4e 20 33 3c f4 b8 9d 3d 6d 4b 81 bd c2 70 88 be
       0.010932995 0.07701293 -0.063132145 -0.26648527
000060 fd 64 7d be 78 88 09 3d 61 78 25 3c 7e 4d 2b 3e
       -0.24745555 0.033577412 0.010099501 0.1672878
000070 65 e7 82 bd c6 ee 08 be df 14 ae 3c 8b 46 84 3d
       -0.06391791 -0.13372335 0.021250186 0.064587675
000080 f6 a2 39 bd a3 06 a3 bc ee 9f 8c bd 45 86 e3 3c
       -0.045321427 -0.019900626 -0.06866442 0.027773986
000090 77 38 66 bc 2a 5b 90 bd c8 b4 8d bd f8 e5 11 3c
       -0.014051548 -0.07048638 -0.06919247 0.0089049265
0000a0 46 8c 89 3d de 84 36 be 83 67 96 bd 31 b7 48 bc
       0.06716208 -0.17824122 -0.07343962 -0.0122507075
0000b0 4f 50 e8 3b f1 55 00 3d 8d 00 e6 bc f3 b0 e8 3c
       0.0070896517 0.03133196 -0.028076435 0.028404688
0000c0 6f 84 da bb a0 f4 98 bb d6 f6 40 be 17 44 94 bc
       -0.0066686193 -0.0046678334 -0.1884416 -0.018098874
0000d0 cc 47 a9 3c d6 21 44 bc b0 b2 47 be e6 a1 d5 bd
       0.020664118 -0.011970958 -0.19501758 -0.1043127
0000e0 12 04 11 bc c1 81 d2 bd 19 1d 20 bc d4 17 00 be
       -0.008851068 -0.10278655 -0.009772562 -0.1250909
0000f0 31 c3 8d 3c 55 74 5b bd 22 ad 74 be 69 ed 85 bc
       0.017304989 -0.05357774 -0.2389417 -0.016348558
000100 6d 4d 05 be 5f bd 1f be 58 b0 14 bd bc 2a c1 be
       -0.13017817 -0.15599583 -0.036300987 -0.37727916
000110 6c 84 47 be 85 43 40 bc d8 4c 63 3d db 11 f8 bd
       -0.19484109 -0.011734848 0.055493206 -0.12112781
000120 2b 12 ee bc e9 3e 44 bc 70 d5 46 bd 5d 85 c7 bb
       -0.029061398 -0.01197789 -0.048543394 -0.006088896
000130 39 ea 86 3d 44 89 76 bd 4e da b6 bd 02 05 1a be
       0.06587643 -0.0601895 -0.08928357 -0.15040973
000140 bf ca 6e 3d 65 5b c9 3c 30 6b 20 be e8 df 43 bd
       0.058298822 0.024579713 -0.15665889 -0.047820956
000150 ec 08 1c bd 5e d8 82 3d b6 74 ba bc 8a 72 fe bc
       -0.038094446 0.06388925 -0.02276073 -0.031060476
000160 67 0f 33 3c 24 dc 5d be 08 4e a5 3d 94 ca 9e bd
       0.010928965 -0.21666008 0.08071524 -0.077534825
000170 97 35 27 3e 03 64 53 bd da e4 2c bd 01 50 51 bd
       0.16329037 -0.05160905 -0.042210437 -0.05110169
000180 8b 2e 78 bd 66 26 76 3d 87 cb 03 be 70 4f d0 bd
       -0.06059126 0.060095213 -0.12870608 -0.101714015
000190 13 9d 63 bc c1 12 16 be bf 15 69 bc cb d7 20 be
       -0.01389243 -0.14655592 -0.014226376 -0.15707318
0001a0 e5 f8 71 bd be b6 d9 bd da bf 8f bd 3c ab 25 3d
       -0.059075255 -0.106305584 -0.07019015 0.040446505
0001b0 5c 29 90 3d e2 c4 85 be d6 19 65 bd dd 8e c7 bd
       0.07039139 -0.26126772 -0.055932842 -0.09744046
0001c0 a0 b4 95 bd 4d eb af bc 4b 57 71 bd 83 83 7b 3d
       -0.07309842 -0.021474505 -0.05892114 0.061404716
0001d0 62 5b 5a be 96 07 39 3e 2b 3c 05 bd 79 e4 c0 bd
       -0.21323922 0.180693 -0.032528084 -0.09418578
0001e0 52 a8 a4 bd 5e ab bf bd 4f a5 e6 bd 01 ff f8 b9
       -0.08039917 -0.093588576 -0.11261999 -0.0004749224
0001f0 e2 60 68 3d 8f 2d b3 3d 99 21 38 bd 78 c5 15 3d
       0.05673302 0.08748924 -0.044953916 0.036565274
000200 72 32 36 3c 6a 3b d6 3c 29 5f 87 3c c6 8e 50 3e
       0.011120426 0.026151378 0.016524868 0.20366964
000210 e4 a8 2b 3e 00 30 91 3d 1f 3a 8d bd f9 c9 ae be
       0.16763645 0.070892334 -0.06895851 -0.34138468
000220 54 58 40 bd 2f 96 95 ba 49 e2 88 3d 65 3e 84 be
       -0.046959236 -0.0011412556 0.066837855 -0.25828853
000230 24 be 63 3c 81 27 e3 3c b3 9d 07 bd b4 2a be bd
       0.0139003135 0.027728798 -0.033109378 -0.09285489
000240 a2 8a 49 b9 50 64 06 be 1b e3 a3 bd a5 ec 24 bd
       -0.00019220499 -0.13124204 -0.08002301 -0.040264744
000250 e5 80 0b 3c 1e 84 cb bb 70 00 30 bd ad e1 fc bd
       0.008514618 -0.006210818 -0.042969167 -0.12347732
000260 26 25 5c 3e 7a 09 31 bb 7a 72 26 3d 1d fb e7 bd
       0.21498546 -0.0027013705 0.040636517 -0.11327193
000270 af e6 af bd c5 1f 9c 3d 65 ce b8 3d bf b3 f5 3b
       -0.08588921 0.07623247 0.09023742 0.007498234
000280 59 2c 5a be 5c fa 1c be 69 fc 89 be 7e 8e 87 bd
       -0.2130598 -0.1532988 -0.26950386 -0.06618975
000290 f4 52 3e bc d7 5f c7 bc f3 0d ce bd 48 ab ea bd
       -0.011616457 -0.024337692 -0.10061254 -0.114584506
0002a0 b0 ac 45 bb d0 b7 14 3c 47 6e 75 bd 43 ea 85 3d
       -0.0030162744 0.009077027 -0.05991962 0.065388225
0002b0 3d 0c ed 3b df cb 31 be d1 39 79 3d fe 26 20 3d
       0.007234125 -0.17362927 0.060846154 0.039099686
0002c0 15 a5 e9 3b ae c8 bf 3c 3b a4 f3 3d ec 55 45 3d
       0.007130275 0.023411121 0.11896559 0.048177645
0002d0 43 17 7f be e3 6e d1 bc a4 f7 81 3b 81 db c8 3d
       -0.24911217 -0.02556557 0.0039662886 0.09807492
0002e0 4a f3 f6 bd d3 3b 3a bd 0b 9c 34 be fe 47 8e 3c
       -0.120581225 -0.04546721 -0.1763765 0.017368313
0002f0 42 a9 80 3d 28 10 2a be ea 8e e0 bd e7 ee ee bc
       0.06282283 -0.16607726 -0.10964759 -0.029166652
000300 6c 0a c9 3d 73 5f 89 3c bc 8b 1a 3c a5 a0 00 be
       0.09816441 0.016769147 0.009432729 -0.12561281
000310 45 b0 4e bb b9 0c 0a 3d c7 4c da bd b0 1a 18 3c
       -0.003153817 0.03370354 -0.10659175 0.009283707
000320 7d 47 8d 3d 46 71 63 bd 56 61 8a bd 3e cf 90 bd
       0.06898401 -0.055527948 -0.067568466 -0.07070778
000330 e0 cd 2e 3d 79 b6 60 be 0f 6b b6 be 81 83 d6 bd
       0.042676806 -0.21944608 -0.35628554 -0.10474301
000340 29 8c c4 3d e5 68 c1 3d a1 fa 1a bd 87 06 cf bc
       0.09597046 0.09443835 -0.037836675 -0.025271667
000350 38 24 65 3d c1 11 57 bd 50 99 6d be 8d 7b 5b be
       0.055942744 -0.052507166 -0.23203015 -0.2143385
000360 b1 a6 65 3e ec 9e a3 3c 82 6d a3 bc ea 3d 31 3d
       0.22426869 0.01997324 -0.019949678 0.043271936
000370 36 b8 1f be 4c 6d d2 3d 0f e5 0b 3c 49 52 58 3d
       -0.15597615 0.10274753 0.008538499 0.05281285
000380 a3 d4 dd bd c9 2a 84 3d 25 17 ea bd 17 a5 c1 bd
       -0.10831573 0.06453473 -0.11430196 -0.094553165
000390 16 bc 7b bd ab 1d 60 bd 9e 05 9e bd 06 e1 76 ba
       -0.06145867 -0.054715794 -0.07715915 -0.00094176864
0003a0 e5 d8 49 be 55 f9 8e bd b2 d9 45 bd 22 1c ea 3d
       -0.19711645 -0.0698115 -0.048303314 0.11431147
0003b0 4e 4b c5 bc 88 45 11 3c 48 12 14 bd bf 89 0c 3d
       -0.02408376 0.008866675 -0.036150247 0.034311052
0003c0 21 fe 3d be 1b c9 45 bd e0 68 d3 3d e0 f3 85 bd
       -0.18553974 -0.048287492 0.10322738 -0.06540656
0003d0 ba 2e 9b 3d 98 dd 15 bd 14 84 c8 bc 50 10 34 bc
       0.07577272 -0.03658828 -0.024477042 -0.010990217
0003e0 ec ef 81 be 2b 1d 3d bc 7f 3e aa 3c bd c2 35 be
       -0.25378358 -0.011542599 0.020781754 -0.17750068
0003f0 20 60 60 3d 7c 53 96 ba a3 a7 17 3c d4 f2 62 bd
       0.054779172 -0.0011468972 0.009256276 -0.05540736

model.2.bias f4 [256]
000000 a0 b0 87 bd cf 4c a4 3b da 98 52 bd 9e c5 a7 bb
       -0.066254854 0.005014039 -0.0514153 -0.0051199934
000010 43 dc 6e bc 5b a2 06 3d 12 77 f6 3b dc cf f2 bd
       -0.014578882 0.032869678 0.0075215185 -0.11856052
000020 a3 a2 47 bd cc 29 d3 bd 28 3e 16 bd 94 ef 83 3d
       -0.048739087 -0.103107065 -0.03668037 0.0644218
000030 eb 79 d0 bc c0 70 98 bd 94 df 0d 3d aa 61 1e bc
       -0.02544876 -0.0744338 0.03463705 -0.00966684
000040 43 83 07 be ae 91 78 3d 9b 7f a5 3c 24 f4 5b bd
       -0.13233666 0.060685806 0.020202449 -0.053699628
000050 83 f6 34 bd 44 da 08 be 65 99 f8 bd f6 a9 27 bd
       -0.044180404 -0.13364512 -0.12138633 -0.04093357
000060 c9 58 43 3c 79 88 80 bd bf ff ab 3d d2 b0 13 be
       0.0119230235 -0.0627603 0.08398389 -0.1442292
000070 b0 80 d3 bd 0b 7f 7e bd 8e 15 bf 3d 7e 31 ee 3d
       -0.103272796 -0.062132876 0.09330283 0.11630534
000080 97 5d 04 3e 75 f4 21 be 4e 57 dc bd 6d 3f ef bc
       0.12926327 -0.15815909 -0.107588395 -0.029205048
000090 08 25 13 bc 56 3e a5 3c bd 9e 37 3d c3 ad 78 bd
       -0.008980997 0.020171326 0.04482912 -0.060712587
0000a0 fd 91 1e bd 43 37 b1 bd 9c 1f a0 bd e1 3c 93 bd
       -0.038713444 -0.086531185 -0.07818529 -0.07189346
0000b0 3e e3 0e 3d 95 89 8d 3d 1a 4f 83 3d 42 d3 29 bd
       0.034884684 0.06911007 0.06411572 -0.041461237
0000c0 45 98 10 bd 93 e3 89 bd 73 29 23 be b2 58 21 3d
       -0.035301466 -0.067328595 -0.1593378 0.039391227
0000d0 2b 5c fb bd a4 28 17 3e fd 68 ab 3d dd 52 15 be
       -0.12273439 0.14761597 0.08369634 -0.14582391
0000e0 6a 04 7a 3c 0d 13 11 bd 33 c3 24 bd f0 d1 25 be
       0.015259841 -0.03541856 -0.04022522 -0.16193366
0000f0 55 54 9c be 5f 07 9d 3c 12 20 e1 ba e1 4a ea 3c
       -0.3053309 0.019168554 -0.0017175695 0.028600158
000100 43 90 18 3d 58 90 bf 3d 6f 64 f3 bd 44 fb 6c 3d
       0.037246954 0.09353703 -0.118843906 0.057856813
000110 4c ca b1 3c 29 7e 0d 3e 5b f4 54 bd ea 6d a9 be
       0.021702908 0.13817658 -0.051990848 -0.3309167
000120 5c 10 44 3c 16 c9 e7 3d f2 29 59 3d d0 1f ef 3d
       0.011966791 0.11317651 0.053018518 0.1167599
000130 f4 04 6a bd a4 59 44 3d 0a a2 b0 3d 39 e9 8d bc
       -0.05713363 0.04793705 0.086246565 -0.017323123
000140 c4 b1 bb bb f7 c2 ee 3c da 94 64 bd 2d 42 b4 bd
       -0.0057279784 0.0291457 -0.05580602 -0.088016845
000150 b6 43 40 bd 51 b0 5a 3c 7e 03 b8 3d 1f 93 e7 3d
       -0.046939574 0.013347701 0.08985041 0.11307358
000160 04 b0 2c be a1 d9 c6 bd a3 05 97 bc 6c 8a 50 3d
       -0.1686402 -0.09709478 -0.018435305 0.05091326
000170 dd c3 80 be 61 a3 9d 3d c2 7e 8e 3d a0 0b 80 bd
       -0.25149432 0.07697178 0.06957771 -0.06252217
000180 98 eb 41 bd 87 a1 2c be 43 8d 42 bc 85 5d a6 bd
       -0.04734382 -0.16858493 -0.0118745 -0.08123306
000190 77 3b 93 3d 1b 43 0f 3e 3a 75 cf 3d be 6e 11 bd
       0.071890764 0.13990442 0.10129781 -0.035506003
0001a0 bc 60 bd 3d dd 8a 32 be 58 df bd bc 7e f4 41 be
       0.09246966 -0.17435785 -0.023177788 -0.18940923
0001b0 73 a2 80 bd 1b 45 be 3d 45 72 b8 3d 59 23 72 bd
       -0.06280985 0.092905246 0.0900617 -0.05911574
0001c0 2d 28 00 be da b6 9c 3c f7 98 b4 ba 38 21 f1 3d
       -0.12515326 0.01913016 -0.0013778497 0.11773914
0001d0 c8 bc 15 be 90 ff 8d 3d 4c 0b 4c bd a7 f4 30 3e
       -0.14622796 0.0693351 -0.04981546 0.17280827
0001e0 c5 4a 6a 3c 75 fd 04 3e 27 63 fa 3c 65 8a 16 3e
       0.014300053 0.12987311 0.030564858 0.14701231
0001f0 b0 f5 1a bd 25 2c 02 3d 4e c0 d4 bc 44 be 27 3e
       -0.037831962 0.03178038 -0.025970604 0.16381174
000200 fa 6b 0b 3e 60 e6 86 bd f6 65 aa 3c f9 98 2d 3d
       0.13615409 -0.06586909 0.020800572 0.042382214
000210 49 64 0c bd 85 eb 31 bd 3a 59 6f be 6d c6 ad 3c
       -0.034275327 -0.0434375 -0.23373881 0.02121278
000220 96 fc 26 3d 9f 49 5f be 15 34 30 3d 42 05 44 3e
       0.04076823 -0.21805428 0.04301842 0.1914263
000230 17 59 dd bc ce 25 8a 3d 8b b3 c2 3c 1a 8a 8b ba
       -0.02702002 0.06745492 0.023767253 -0.0010646016
000240 a2 ed 65 bd 7e 64 25 be bb b2 60 3c 99 24 27 3d
       -0.056134827 -0.16151616 0.013714488 0.040806387
000250 99 a2 40 be f8 3b 6f 3d 1c 9b 86 3d af f6 ec 3b
       -0.18812026 0.0584068 0.065725535 0.0072315554
000260 db e4 90 bd d9 6b 1a bc 93 b1 62 bd 3f 71 ac bb
       -0.07074901 -0.009425127 -0.05534513 -0.0052625234
000270 29 b3 77 bd a1 c7 78 3d ee 7f 8e 3c 9d 56 1c 3e
       -0.060473595 0.060737256 0.017394986 0.15267415
000280 d3 15 cd bc 18 ba 4d bd 9b cc 83 3b 54 8a 98 bd
       -0.02503482 -0.0502263 0.0040221936 -0.07448259
000290 51 3e bf 3c c9 74 a9 3d 67 a4 60 3d c2 54 a2 3d
       0.023345144 0.08274228 0.054844286 0.079263225
0002a0 e5 03 97 3d a5 99 5a bd 6e ba 8d 3c 36 73 26 bb
       0.0737379 -0.053369183 0.01730081 -0.002539826
0002b0 59 ab 63 3c 53 f8 50 3c 16 77 f5 3b 1d 74 64 bd
       0.013895833 0.012754518 0.007491003 -0.055774797
0002c0 fe 89 39 3d 5f 20 69 3d e7 14 22 3d d1 a6 02 3d
       0.045297615 0.056915637 0.039570715 0.03189737
0002d0 19 07 5c 3c 53 41 4c 3d 27 87 1b 3d 8d c6 46 3d
       0.013429427 0.049866986 0.03797069 0.048529197
0002e0 a1 18 90 bd 38 aa b3 3d a3 17 5c be b1 0d 5e 3d
       -0.070359476 0.08772701 -0.21493392 0.054212276
0002f0 e7 39 c2 3c 67 6c 98 3d df ab 7c 3c ba cf 62 bc
       0.02370925 0.07442551 0.015421837 -0.013843471
000300 ed ad 05 bd e1 72 03 bc 42 6f b1 bd 4c 72 1c bd
       -0.03263657 -0.008022995 -0.08663799 -0.03819494
000310 83 2b 5b bd 22 bd 0b be de 40 bf 3d 75 7c 39 3e
       -0.053508293 -0.13646367 0.09338544 0.18113883
000320 07 e5 20 bd f1 07 6d 3c 77 a8 76 3d 5e 6a 94 3d
       -0.039280917 0.014467225 0.060219254 0.072468504
000330 90 31 d9 bc 1b 2c db bd f8 25 7e bd 77 03 89 bd
       -0.026512891 -0.10701772 -0.06204793 -0.06690114
000340 31 d5 06 3e 55 5c 45 3e fb 9d eb 3d 20 ac 01 be
       0.13167264 0.19273503 0.11504742 -0.12663317
000350 38 e5 83 3c 88 49 ea 3c c8 0a 1a bc 9b be 2c be
       0.016100511 0.028599516 -0.0094019845 -0.16869585
000360 fd 2d ba 3c 38 0e 32 bd 01 33 3b 3c 73 86 e6 bc
       0.022727007 -0.04347059 0.0114257345 -0.028140282
000370 0f d6 bf bc 7b 84 16 bd 89 f2 b3 3c a4 27 d0 bc
       -0.0234175 -0.036747437 0.021966236 -0.025409527
000380 7a 45 91 be 87 3b 82 3d 07 f3 4c bd 04 a6 9e 3d
       -0.2837332 0.0635901 -0.050036456 0.07746509
000390 c8 65 29 bd 76 a8 d5 3b 74 cd 41 3c 16 4e ea bc
       -0.04135683 0.0065203262 0.011828769 -0.028601687
0003a0 8f a4 fb bd e1 3c ea bc 88 cc d3 bc 78 7f 2c 3e
       -0.122872464 -0.028593482 -0.025854364 0.168455
0003b0 1a 08 c4 bd 7c 05 64 3d 4b 58 8a bd 04 eb 3d 3e
       -0.09571858 0.055669293 -0.06755122 0.18546683
0003c0 c7 db d3 39 8c 35 a1 bd cd 52 83 bd 33 c0 4b bd
       0.00040408803 -0.078715414 -0.06412277 -0.049743842
0003d0 a8 e0 e5 bd 7a af 2b bb 14 eb 96 3d 86 2f da bd
       -0.112244904 -0.0026197121 0.07369056 -0.106535956
0003e0 8a 2c 4c be f9 02 a7 bd 5f f4 28 3d b0 02 3b bd
       -0.19938865 -0.08154864 0.041248675 -0.04565686
0003f0 4a cc 99 bd de 9d 09 3e cf 03 93 3d a4 9a 1b bd
       -0.07509668 0.13439128 0.07178461 -0.037989274

model.4.weight f4 [2, 256]
000000 d9 f4 18 bd b1 9c ac bd 3e 6c eb be bc 19 c0 3c
       -0.03734288 -0.08428324 -0.4598102 0.023449771
000010 6a 3b bc be 12 b7 01 be 34 97 4d bd e8 f0 74 3e
       -0.3676408 -0.12667492 -0.050193027 0.23920023
000020 3c 0e cc 3e df 0c bf 3e 65 a6 c0 3e 39 ee be 3e
       0.3985461 0.37314507 0.3762695 0.37291124
000030 b8 61 99 bd a9 fe 8e 3e e3 8d 80 3e e4 0f 5d bd
       -0.074893415 0.27928665 0.2510825 -0.053970233
000040 69 e4 67 be 37 79 b4 be 09 db 43 3d 7c 4f e0 bc
       -0.22645725 -0.3524873 0.04781631 -0.027381651
000050 bc ec 1d be f9 62 13 be 9a 70 6b be 6d c0 24 bd
       -0.15422338 -0.14393224 -0.22992173 -0.040222574
000060 14 c8 2b bd b1 65 ea bd a6 e6 b7 be a8 06 ef be
       -0.041938856 -0.11445177 -0.35918158 -0.46684766
000070 7d c6 58 be 57 31 3c 3f 28 56 5b bf eb 09 3f bf
       -0.21169467 0.73512787 -0.8567834 -0.7462451
000080 5f 0a 56 bd df bb f3 be 59 42 4d be 00 43 b8 bc
       -0.052255984 -0.47604272 -0.20044841 -0.022492886
000090 20 dc dd be 79 a4 44 3e cd 90 63 bd f0 1c 02 bf
       -0.43332005 0.19203366 -0.055558015 -0.50825405
0000a0 7e c4 9e 3e 2f b6 5b be 91 8f bd 3e 0f 0a 12 bf
       0.31009287 -0.21456216 0.37023595 -0.570466
0000b0 fb b0 29 be 6d 9a 90 be 32 b5 92 be 00 b8 df 3a
       -0.16571419 -0.28242818 -0.28653866 0.0017068386
0000c0 d0 f9 16 3d b0 51 3c 3e 8e 11 f0 be a6 dd 83 be
       0.036859334 0.18390536 -0.46888393 -0.25755042
0000d0 7a b7 b5 3e e3 5c 51 be 84 1c a7 3d 27 c9 01 3e
       0.35491544 -0.2044559 0.08159736 0.1267439
0000e0 40 b4 b2 be 06 04 96 bd d3 aa 42 3d 93 85 ff 3e
       -0.34903145 -0.07324986 0.047526192 0.49906597
0000f0 76 6a 37 3f 1e 7f 60 bd b4 00 13 bd a7 04 19 3e
       0.7164682 -0.05480873 -0.035889342 0.14943181
000100 15 69 df bd 06 fe 52 be c0 fa 3e bf fa 2c fe 3d
       -0.10908715 -0.20604715 -0.74601364 0.12410922
000110 02 d8 da bd 09 55 0b bf 2a 80 09 3e a7 1f 62 be
       -0.106857315 -0.5442663 0.13427797 -0.22082387
000120 87 a9 8f 3e 4a 0a ed be c2 07 3d 3e c3 fc 78 be
       0.28059027 -0.46296912 0.1845999 -0.24315171
000130 fb cb 5b 3e 64 ec 19 bc e1 a4 73 bf 2d 4d 5b 3e
       0.21464531 -0.009394739 -0.9517346 0.21416159
000140 2c f8 6c 3e 1b 8b 53 bd ec 34 d3 bc 3c 0e 91 3e
       0.23141545 -0.051646333 -0.025782071 0.28331172
000150 9b ee 84 3d d7 62 24 3e 69 af fe 3e 94 54 d5 3e
       0.06490823 0.1605333 0.49743202 0.4166609
000160 c2 9b bd bd 07 f4 c5 be 92 c3 55 bd 93 b0 c2 be
       -0.09258224 -0.3866274 -0.052188464 -0.3802534
000170 95 7d 32 3f 90 f7 a5 3e d3 a5 1b 3e 99 3f 09 bf
       0.6972287 0.32415438 0.15199976 -0.5361267
000180 b8 c9 c6 bd a1 fa 3b 3f 82 60 0b 3e 78 4a 09 bf
       -0.097064435 0.73429304 0.13611034 -0.53629255
000190 24 6d a4 3e 80 b2 09 bf 2d 51 12 be e0 3a 79 ba
       0.32114518 -0.53787994 -0.14288779 -0.0009507369
0001a0 97 12 8d 3e b3 5c 16 bf b9 38 b0 3e a0 52 21 3f
       0.27553245 -0.587352 0.34418276 0.630167
0001b0 9c 1d f8 bc e4 db f1 be 73 06 c7 be 1c 4a db be
       -0.030287556 -0.47238076 -0.38872108 -0.42829978
0001c0 fb a9 c9 3e 22 e3 d9 3c 6e b6 a0 3e b7 2a 04 3f
       0.39387497 0.026597563 0.31389183 0.5162768
0001d0 66 e0 9e 3e 5a 97 7d be 91 06 94 be ac 86 52 be
       0.31030577 -0.24764767 -0.2891126 -0.20559186
0001e0 bc 1f a0 be 1e f3 28 be be 52 06 3f 62 9b 88 bd
       -0.3127421 -0.16498992 0.52470005 -0.06670262
0001f0 c0 7d 15 3f 5e 83 91 be 98 8b c6 3d 7c d1 8e be
       0.58395004 -0.28420538 0.09694594 -0.278942
000200 7b bb 8a bd 8e d1 8e be c0 69 04 bd d1 a2 35 bb
       -0.0677404 -0.27894253 -0.032327414 -0.0027715454
000210 cb b7 d5 be 43 1f 13 be f0 24 bb 3e 71 9f 4f 3e
       -0.41741785 -0.14367394 0.3655162 0.20275666
000220 6e af f3 bd 69 42 2d bf 6b 37 a2 3e a4 27 ba be
       -0.11898695 -0.6767946 0.31682906 -0.36358368
000230 59 f6 e9 bd d3 00 1c 3e 33 27 0c 3e 69 c6 a7 3d
       -0.1142394 0.1523469 0.13686828 0.081921406
000240 b6 b5 09 bf be 2b c5 be fe 44 1e 3e ed 69 56 3e
       -0.53792894 -0.38509935 0.15456006 0.20938845
000250 7d 87 e7 3e 0b bd 08 bf 5b ec 3f 3e 6e 61 f6 3d
       0.45220557 -0.53413457 0.18742506 0.12030302
000260 17 06 c8 3e ca 22 84 3d 2b e0 23 3d 72 3b 0f 3e
       0.39067146 0.06451948 0.040008705 0.1398752
000270 c0 0a c9 bd 8b 0d bd 3e d6 ba 63 be ba 8c 34 be
       -0.098165035 0.36924395 -0.22239241 -0.17631808
000280 c5 5f 8a 3c 6f 6c b0 3d 9c c0 06 3e 84 ba d8 be
       0.01689137 0.08614432 0.13159412 -0.423298
000290 08 35 b7 be ef 2e 44 bf 88 22 9f 3e 30 44 e3 be
       -0.35782647 -0.76634115 0.31081033 -0.4438796
0002a0 12 da b8 bc f3 23 f8 3c f0 38 36 bf a0 a8 4e be
       -0.022564922 0.03029058 -0.7118063 -0.20181513
0002b0 cd 39 96 be 0e c5 a1 be 3c c9 d6 be 49 33 11 3d
       -0.29340973 -0.31595653 -0.41950405 0.0354493
0002c0 c7 f5 76 3e c1 d2 4a bf b9 c4 a6 be 11 38 11 bd
       0.24117194 -0.79227835 -0.32571962 -0.03545386
0002d0 8f 37 25 3e 84 6c b4 be 62 94 46 bd 4e ee 47 3e
       0.16134475 -0.3523904 -0.048481353 0.195245
0002e0 93 b5 5e 3e a0 5e 4b bd 0f 08 11 bf b5 14 5e 3e
       0.21748953 -0.04965079 -0.5665292 0.21687587
0002f0 9b b3 62 be 9d a6 94 3e ab a7 d5 3c 31 10 4f bd
       -0.22138827 0.29033366 0.026080927 -0.05055255
000300 82 a8 19 be aa a0 14 3e 97 b2 43 3f e3 a6 9c bb
       -0.15005687 0.14514413 0.7644438 -0.0047806366
000310 a8 bf 42 be b4 a7 11 3b 95 51 31 bf d1 4e 09 bf
       -0.19018424 0.0022225203 -0.6926511 -0.5363589
000320 3c 7f e9 3d 33 6c 39 be a7 fe f0 be b1 df c6 be
       0.11401221 -0.18107681 -0.47069284 -0.38842538
000330 36 3b 25 3d 54 c3 a7 bd 65 de 13 3e df 3b ed 3d
       0.04033967 -0.08191553 0.14440306 0.11583685
000340 28 9e 10 3e 29 7c d6 3d b7 62 51 3f 22 75 38 be
       0.14122832 0.104729004 0.8179125 -0.18013433
000350 8c e2 c1 3e 18 eb e2 3d 82 25 ae 3d 2d 88 3b 3d
       0.37868154 0.11079997 0.08503248 0.045784164
000360 7d e4 05 3d 1a f6 2d bf 52 09 c3 3e dc 6b ca be
       0.032688607 -0.67953646 0.38093048 -0.39535415
000370 a8 6b 48 3d e8 47 8d 3e f3 6b 72 3e ce 2f c1 3e
       0.048930794 0.27593923 0.23673992 0.37731785
000380 7c 3b 02 be eb 79 63 3e 65 93 06 bf a5 97 19 3e
       -0.12718004 0.22214477 -0.52568656 0.14999254
000390 71 ab 80 bd 74 8e 09 bf f0 37 01 3d ec d3 fc bd
       -0.062827 -0.5373299 0.031547487 -0.123451084
0003a0 f5 68 aa be e0 bd 3c be 74 6e 91 3e 62 4a f5 bc
       -0.332832 -0.18431807 0.28404582 -0.029942695
0003b0 a4 1c 19 bf 98 62 0a 3e 2c 5c 3d 3e 79 1c 1e 3f
       -0.5980933 0.13514173 0.18492192 0.61762196
0003c0 18 67 5c bd 87 8c 0b 3f 53 12 9d 3e 46 86 97 be
       -0.053809255 0.545113 0.30678043 -0.2959463
0003d0 19 ac de be f0 54 a7 3e 82 50 50 be ba 3e ff 3e
       -0.43490675 0.3268199 -0.20343211 0.49852544
0003e0 dc e4 04 3f e7 41 b1 bd 96 f2 33 bf 46 32 85 3e
       0.5191171 -0.08655148 -0.7029203 0.26014918
0003f0 11 58 20 bf 5a b6 ff 3e aa c3 e9 be ac a8 d2 be
       -0.6263438 0.4994381 -0.45657092 -0.4114431

model.4.bias f4 [2]
000000 0e 38 98 3c c0 eb 79 3d
       0.018581416 0.061015844
