hw2/preTrained/ddpg_critic_LunarLanderContinuous-v2_04292023_180839_.pth (torch, 277399 bytes, 5 tensors)

model.0.weight f4 [256, 10]
00000000: 5b74 51bf 7502 a3be 61e5 8fbe 00a2 3e3f
00000010: bd6e 68bf ab63 02c0 7c3c 37bf e7fe 243e
00000020: 09e6 0c3e 992e 11be 229c 223f 3ff7 773f
00000030: de07 b93e 522d 20be 1c17 df3e 087c 8d3f
00000040: c8af 893f 371c 063f 3cd9 7ebd 0684 a73e
00000050: e78d 07c0 92dd 50c0 6155 813f c46e 113e
00000060: 45b3 98be 5c55 9bbd 6523 febd 2f79 d93e
00000070: 0a0f 053e 6c23 9d3d d7af 7abf 6f0b 31bf
00000080: 7033 7cbf 8b67 03bf 80a7 cfbe 3bf6 99be
00000090: 26ae c33d 7f0f 92bf c1f9 29bf df10 55bf
000000a0: 2059 10c0 c847 bebd aea5 21be 6b1a 04bf
000000b0: 65e7 863f 81ed e93e 4c3d b4be 569e f23e
000000c0: b063 b03c e115 0fbf 4cbd cc3f 9381 a2bd
000000d0: 072d 2d3f 9f0c ae3d e890 84be 170b a73e
000000e0: c441 293e ba2c bfbf bba4 27be 097e 5c3e
000000f0: bdf9 803f 20fb 89be ea40 c33f c458 2fbe
00000100: 9188 cebf 318d 27bf 4b68 1fbe aaa9 893d
00000110: 1ba9 f6bd 19e6 bf3e 0313 6fbf 5f50 80c0
00000120: dd9a 393f e957 23bf 6861 6cbe 91c9 803e
00000130: e897 23bf 6cfb 253e 8937 653f 2914 56be
00000140: a1ea 00bf 7ff6 f33e 632a cb3f 841c 833c
00000150: 3afd a4be 5b0d f33f 0929 743f d9ed a5be
00000160: 8020 6ebe 4f4f 0e3f 10f9 5fbe c06a 74c0
00000170: 3404 26bf 9578 dcbe 4974 653f 3105 1fbf
00000180: ad8f fbbe f313 13c0 67b3 6bbe 654a 6b3f
00000190: e9a7 64bf 56fc cfbd 955b 88bf 3ffb 62bf
000001a0: 309b ecbe 1c8b 103f f026 ca3f 4bcf 24bf
000001b0: 04e9 a43e 63d8 0c3f bbf9 583e 85a5 8b3f
000001c0: d833 6ebd 10d5 da3d 7bea b2bf a737 51bf
000001d0: 5704 5abf 2ed9 5ebf 4b9f 99be fe01 62bd
000001e0: bbb8 163f 3643 b33e f895 fabe 0e63 be3d
000001f0: 6662 9ebe e4ba 0740 4075 343e a972 633d
00000200: 9a72 42be de8c 4bbe dadd cb3f 328f ad3f
00000210: 9c43 cabe 6456 84bf 50bc 8a3f 764b 84bf
00000220: f1d5 eabe 550d a13f e58b 46bd 6200 d93e
00000230: 9e87 183c 6a2d dcbf cd4d 223f 26b4 61bf
00000240: 63ee 9cbe 79c7 c2be 97b5 85bf be76 543f
00000250: 1252 7b3f 6adf 3b3f 66e6 dcbd 99ce 18bf
00000260: 65cd dc3e 7842 1bbf 8b99 b83c d29e 47bf
00000270: 427b bbbf 8f53 16bf 548f 3a3f ed62 84bf
00000280: 0aa5 b83f 0bd5 753d 5714 4f3f 55d5 adbc
00000290: be6a ce3e 18f9 aa3f d26c d73f 989d 963d
000002a0: 8bff 1dbd ee9d 1abf edcd 833f a853 803f
000002b0: 108e 4b3f a923 1b3f c1ac 2ebf 2aad a03f
000002c0: 0859 75be 1f38 b2bf bfbe 293f c7d3 f63b
000002d0: 4f85 37bf 9f09 70c0 bdae da3f c0c9 3a3f
000002e0: ba35 babf 1836 263b 5b41 193f 8c3e ca3f
000002f0: 7ef5 9bbe 6e9e f9be c7ab 7fbe 45f4 acbf
00000300: c336 963d 2d55 933f 5270 653f 8c27 b7be
00000310: ea5b 5e3c 4487 1d3f 231e 3ebe c91c 853e
00000320: 6537 c33d 5144 3140 ac99 cfbe 5544 c3be
00000330: 5c9b 8d3f 829d 053f 3b10 2c3f 6309 78bf
00000340: b31c 913e 97ac f93e 5800 e4be e53d 01c0
00000350: dc59 e53f 5ce2 033e 3b18 143f 0921 4bbf
00000360: b68a 593e 3078 5f3e 4ef4 edbd 6a82 ee3e
00000370: 7fa2 373e affa 0f3f 0168 83be 09c3 a33d
00000380: 7df6 2740 7398 df3e 1475 563f 6dad bdbf
00000390: da90 b13d 8fa6 ce3e 768d 05c0 e01e 6abf
000003a0: 3756 8bbf df36 023f 9bb2 333f b6be 19be
000003b0: 96be bc3f 989e 513f c4d7 d83e e99c a4be
000003c0: 9b47 693d effd dbbe 9ffc ff3e 0932 88be
000003d0: 793b d43e e9fe 97bf d38f 69bf 0a5c 2abf
000003e0: b375 dabe 80c1 243f 4562 7b3e 39a1 0a3f
000003f0: 68cd 6fbe 079f 3cbf 9397 b1be a883 92bd
-0.8181817 -0.31837812 -0.2810469 0.7446594 -0.90793973 -2.0373333 -0.71576667 0.16112863
0.13759626 -0.14177932 0.6351949 0.9686164 0.36138815 -0.15642288 0.4357232 1.1053476
1.0756769 0.523868 -0.06221889 0.32717913 -2.118036 -3.2635236 1.010418 0.1420241
-0.29824272 -0.075846404 -0.12409095 0.42475268 0.12994018 0.07672772 -0.9792456 -0.6915807
-0.9851599 -0.5132987 -0.4055748 -0.3007067 0.095547006 -1.1410979 -0.6639672 -0.8322887
-2.2554398 -0.09291035 -0.15785858 -0.5160281 1.0539366 0.45689014 -0.35203016 0.47386426
0.02153191 -0.5589276 1.5995269 -0.079348706 0.6764683 0.08498501 -0.25891805 0.32625648
0.16528994 -1.4935524 -0.16371433 0.21532454 1.0076214 -0.26949406 1.5254185 -0.17123705
-1.6135427 -0.65449816 -0.15567128 0.06721814 -0.12043973 0.37480238 -0.93388385 -4.009811
0.7250193 -0.63806015 -0.23084033 0.25153783 -0.63903666 0.16209191 0.89537865 -0.20906128
-0.50358015 0.47649 1.587231 0.016004808 -0.32224447 1.8988451 0.95375115 -0.32408026
-0.23254585 0.55589765 -0.21872354 -3.8190155 -0.64850163 -0.43060747 0.8963056 -0.62117296
-0.49133053 -2.2980926 -0.23017655 0.9191039 -0.8931871 -0.10155551 -1.0652949 -0.8866462
-0.4621215 0.56462264 1.5793133 -0.64378804 0.32209027 0.5501768 0.21189015 1.0909888
-0.05815491 0.1068517 -1.3977808 -0.81725544 -0.8516287 -0.8705014 -0.30004343 -0.05517768
0.58875626 0.35012215 -0.48942542 0.09296237 -0.30934447 2.120782 0.17622852 0.05552927
-0.1898903 -0.19877955 1.5927079 1.3559325 -0.39504707 -1.0338864 1.0838718 -1.0335529
-0.4586635 1.2582194 -0.048473258 0.42383105 0.009309677 -1.7201359 0.63399965 -0.8816551
-0.30650625 -0.3804281 -1.0446042 0.82993686 0.98172104 0.7338778 -0.107861325 -0.59690243
0.43125454 -0.606483 0.022534152 -0.77976716 -1.464699 -0.5872125 0.7287495 -1.034269
1.4425366 0.060017627 0.8089041 -0.021219889 0.40315813 1.3357267 1.6830084 0.07354277
-0.038573783 -0.6039723 1.0297219 1.002553 0.79513645 0.6060129 -0.6823235 1.2552845
-0.23959744 -1.3923377 0.6630668 0.00753257 -0.7168779 -3.7505872 1.7084576 0.72964096
-1.4547646 0.0025361832 0.5986535 1.5800338 -0.30460733 -0.48753685 -0.24967872 -1.3512045
0.07334664 1.1510369 0.8962451 -0.3577236 0.013571719 0.61534524 -0.18566184 0.25998524
0.0953205 2.7697947 -0.4054693 -0.3813807 1.1063037 0.5219346 0.67212266 -0.96889323
0.28342208 0.48764488 -0.44531512 -2.0194027 1.7918048 0.12879318 0.5784947 -0.7934728
0.2124432 0.21823192 -0.11618863 0.46583873 0.17933081 0.5624189 -0.25665286 0.079961844
2.6244195 0.43670997 0.837724 -1.481855 0.08670206 0.4036145 -2.086759 -0.9145336
-1.0885686 0.50864977 0.70194405 -0.15014157 1.4745662 0.8188262 0.42352116 -0.32150963
0.056953054 -0.42967173 0.49997422 -0.26600674 0.41451624 -1.1874667 -0.91235083 -0.6654669
-0.42667922 0.6435776 0.24549206 0.54152256 -0.234182 -0.73680156 -0.34685954 -0.07154018

model.0.bias f4 [256]
00000000: 2137 95bf f9af f63f 6fac b93e 8f6e 8ebf
00000010: b4e8 c1bf 7966 c9bf cb34 23bf 450b 5f3f
00000020: 8f48 16bf c89e 84bf 64b6 8fbf ad83 05bf
00000030: 797c c9bc cda3 0cbe 5ad1 8dbf 8e50 22bf
00000040: b4fb 0ebf f2eb cc3f d5e3 8c3f 0515 643f
00000050: 129d 63be 6c10 e43e dc20 2d3e 54a5 bdbf
00000060: ea2e 96bf dd85 ab3f 55c3 a6be 468c e53f
00000070: d792 17bf 0562 b0bf 0155 013f 434e 853f
00000080: 60e0 e63c 5ce1 8abf 14ae a0be 7a64 2cbf
00000090: d5d1 413f d71c 973e b8cf 92be 5d1f 98bf
000000a0: 556c 95bf 38d2 0bbf 95e0 dcbf 6322 45bf
000000b0: 79b0 8dbe 6a2c 65bf cd0a e1be d83b 8c3e
000000c0: 8310 3abf b49f 8c3f a7ab 1a3e 7ca8 93be
000000d0: fdd8 3bbf 705b 103d e976 abbf c4ae 36bf
000000e0: e9ba 5fbf cd84 5f3f 0c62 4c3e f46b 3ebf
000000f0: be1f 1e3f 3619 0740 fe80 d33f ade1 f53d
00000100: a974 e9bd f4ac 3b3d 2263 753e 4445 703f
00000110: f4eb b13e 2678 9f3d bc54 a6bf 655e dfbd
00000120: 4899 c4be 5932 a93f 856c bcbe dfc0 7abf
00000130: 14ee 6fbf df5f e2be e31d 743f d63a ff3d
00000140: 1d0f 16bd 85d3 01be 4f87 c6bf 5a12 1bbf
00000150: 9dda 133e 08df a53f 6f0b a53f 3dd0 2fbd
00000160: c540 ca3e 5c7d 9d3f 4025 0f3f ef03 b4bf
00000170: 06db d1be c6db e13e 1335 71be 45ca e93f
00000180: 7bb4 8cbf 8320 2bbf 8c7e 383d e230 3f3f
00000190: 262d f9be 37c2 70bf bdcb 94bf c0fd 9b3d
000001a0: a6e6 d2bd de4b cfbb bb86 87be 84a8 023b
000001b0: 11b6 6abf ace8 7f3d 9af4 a73f d6cb aabe
000001c0: 4a6a 823e 1394 45bf e911 b8be 256d 0ebf
000001d0: 55ec a23f 517f d5be 6fdf b9bd e5d0 853e
000001e0: 9c88 d43e a8a2 183e ce07 103f a77f 29bf
000001f0: cd1b 8fbe 4ae6 693f 59a0 5d3f 1ae1 893f
00000200: 43da 8d3f a86d c5bf db4f 0b3f 88e2 89bf
00000210: 2204 e2bf 4748 b6bf 0466 08bf 18a9 a9be
00000220: 96e8 23be 4c06 473f cca5 cd3c 8f08 263f
00000230: bfcd 3a3f afe7 94be ff0f cdbe 00a9 533f
00000240: a34d d53f e3b1 ad3e bbe0 a4bf 24a2 a13f
00000250: 09b1 193f 0253 153e 4018 26bf fb4c 6abf
00000260: bcd4 81bf 0ad3 243f 164b e5be 7732 d8be
00000270: a979 8cbf 00b5 4fbd 4500 e43f 01c8 12be
00000280: 4763 1c3f 57c4 15be b254 f13e 1024 8c3f
00000290: 472a 8c3e 7be8 253b 68cc b23f effc 3c3e
000002a0: 1f47 23bd 4fae 5abe f571 9a3f b674 18bf
000002b0: f872 63be b14b c1be 32fa 74bf cb46 3bbf
000002c0: f8d1 4fbe 9d7f 4abe d54b 7c3f 6183 96bd
000002d0: 48f4 5cbf 3b01 efbf 7943 cebe 584b 8e3f
000002e0: ae23 89bf afd1 513e 1c1d 83bf adf6 b03f
000002f0: e948 f4bd b116 9bbf fada 373f 8b79 19bf
00000300: 092c 28be 5b6d ad3f 87ba 22bf da86 00bf
00000310: 0b77 41bf f3b2 5dbf d581 e0be 1fc7 babe
00000320: d3e5 8abf 5ce8 9c3e 020c 203e b55f 363f
00000330: a3a9 c0be 40e9 de3e d7b5 16bd 982d a1bf
00000340: d09b f13e 1092 953f ae48 cebe 23fa a9bc
00000350: 0ce4 66bf 5771 19be 3678 d2bf eb82 dc3e
00000360: 0d6b 853f b73a a03f 57ff bb3e 176a 4e3f
00000370: be17 44bf d690 c0bf f8d8 803d 9718 9abe
00000380: 3864 9e3f cbb2 a1be 0c08 523e 5cd3 7cbf
00000390: 1b4e 25bf bafa a1be 8a04 d73e 6b37 ee3e
000003a0: e40b a73f cba4 9abf ec2c 53bf ab1c 2cbf
000003b0: a396 27bf dcd2 20bf a0df 1c3f 0ffb 28be
000003c0: e972 70bf 2656 563f acc0 86bf b90d 7cbe
000003d0: a7a3 a93f 3030 18bf 3102 153f e0f3 d1bb
000003e0: 8b02 833f 6564 6abf 25a5 4f3e cbf0 463f
000003f0: 32a4 323e d2b9 bf3f b847 09bf 9a1c f1be
-1.1657449 1.9272453 0.3626437 -1.112749 -1.514914 -1.5734397 -0.6375243 0.8712657
-0.58704466 -1.0360956 -1.1227536 -0.52154046 -0.024595486 -0.1373436 -1.1079514 -0.63404167
-0.5585282 1.6009505 1.1007029 0.89094573 -0.22227886 0.4454378 0.16907066 -1.4816079
-1.1733067 1.3400227 -0.32570902 1.7933433 -0.59208435 -1.3779913 0.5052033 1.0414509
0.028183162 -1.0850024 -0.3138281 -0.67340815 0.75710803 0.2951419 -0.28674102 -1.1884571
-1.1673685 -0.54617643 -1.7256037 -0.77005595 -0.276737 -0.89520895 -0.43953553 0.27389407
-0.72681445 1.0986238 0.15104543 -0.2883948 -0.7337797 0.03524345 -1.3395663 -0.7136042
-0.8739458 0.8731201 0.19959277 -0.74383473 0.61767185 2.1109138 1.652374 0.12005935
-0.11399204 0.045819238 0.23963597 0.9385569 0.3475033 0.07786588 -1.2994609 -0.10906676
-0.38398194 1.321849 -0.36801544 -0.9795055 -0.93722653 -0.4421377 0.95358104 0.12462394
-0.036635507 -0.12678345 -1.5510043 -0.6057488 0.14438863 1.2958689 1.2894114 -0.0429232
0.3950254 1.2303882 0.55916214 -1.40637 -0.40987414 0.44112986 -0.23555402 1.8264853
-1.0992578 -0.66846484 0.04504256 0.74683964 -0.48667258 -0.9404635 -1.1624676 0.07616758
-0.10297899 -0.0063261827 -0.2646998 0.001993687 -0.9168406 0.062477753 1.3121521 -0.3335864
0.25471717 -0.7717907 -0.35951164 -0.5563529 1.2728373 -0.41698697 -0.0907582 0.26135936
0.41510475 0.14905798 0.5626191 -0.66210407 -0.27950898 0.9136702 0.86572796 1.077182
1.1082233 -1.542409 0.54418725 -1.0772257 -1.7657511 -1.4240807 -0.53280663 -0.3313682
-0.16006693 0.77743983 0.025103472 0.6485681 0.72970194 -0.2908301 -0.40051267 0.8267975
1.6664318 0.3392478 -1.2881082 1.2627606 0.6003576 0.14582446 -0.6488075 -0.9152371
-1.0143046 0.6438452 -0.4478385 -0.42226002 -1.0974628 -0.050709724 1.7812582 -0.14334108
0.61088985 -0.14625679 0.4713493 1.0948505 0.27376005 0.002531557 1.396863 0.18455862
-0.03986275 -0.21355556 1.2066027 -0.59553087 -0.22211826 -0.3775306 -0.9569427 -0.73154896
-0.2029494 -0.19775243 0.9855321 -0.07349277 -0.86310244 -1.867225 -0.40285853 1.1116743
-1.0714014 0.20490144 -1.0243258 1.382528 -0.11927969 -1.21163 0.71818507 -0.59951085
-0.16423048 1.3548998 -0.6356587 -0.5020577 -0.7557227 -0.8660118 -0.43849054 -0.36480042
-1.0851387 0.30646026 0.1562958 0.7123979 -0.37629423 0.4353733 -0.03679451 -1.2592039
0.47189188 1.16852 -0.40289825 -0.020749157 -0.9019172 -0.14984642 -1.6442935 0.43068632
1.0423294 1.2517918 0.36718246 0.8063063 -0.7659873 -1.50442 0.062913835 -0.30096886
1.2374334 -0.3158172 0.20510882 -0.9876001 -0.64572304 -0.31636602 0.4199565 0.46526656
1.3050504 -1.2081541 -0.8249042 -0.67231244 -0.6546423 -0.62821746 0.61278725 -0.16502021
-0.9392534 0.837252 -1.0527549 -0.2461461 1.3253068 -0.5944853 0.5820647 -0.006407246
1.0235151 -0.9155944 0.20277841 0.7771117 0.17445448 1.4978583 -0.5362506 -0.47092134

model.2.weight f4 [256, 256]
00000000: f64a e4be e8ca 843e 414d c5bf ec09 1dbf
00000010: a9d4 503e fca1 0940 85b6 cdbd dfd9 08bf
00000020: e7af 3d3f e55f c33f 33c3 c53f 3eb3 923f
00000030: 9941 e73e 9855 d3be f5e1 153f 8ff1 14bf
00000040: 89e5 083f cdf9 e23e 93d2 0bbf 3dd7 5bbf
00000050: 770b a23f c916 be3e e286 e23e 9fc6 b83c
00000060: 093f 143f 63b6 793e 2abd 143f a8ab 05bf
00000070: be32 e8bd b990 b03f 6454 df3e 5824 5e3e
00000080: 7743 313c 9acf 223f 20bc b9be c9d3 023f
00000090: 06d0 73bd 0ddd 8ebd 0df0 ca3e 8812 1a3f
000000a0: 4654 05bf c1b2 bf3f 2329 533f 92ce f0be
000000b0: d3f5 eb3e 78fb 63be f1c6 413f 67cf ee3e
000000c0: 87eb 2dbe 5bc3 98be eaee 123f d54b 613f
000000d0: d33c ca3e c3b6 a13e 22cb 863f ffa5 d93e
000000e0: 4b4e 59bf 1563 093f 4556 853f 02c0 df3f
000000f0: 3dbb 92bd 9f5c 3bbd b4df 243e abeb 923f
00000100: 9f8a de3e 584f c63b 6948 083f 373a 37bf
00000110: 5adc 6fbf 672c ae3e 17bb 993e b5d4 5f3f
00000120: e713 5d3e 7b5d bc3d 355b d0be f19d 17bd
00000130: 5deb 543f 7ad7 0b3f dd53 5c3f dbce 0e3f
00000140: 3f7e f4be 8f52 563e c94a a93e 398a 8c3f
00000150: 5a3e 4ebf 43db 68bf c9f9 173f 37f2 50be
00000160: a27f f43e 372f 133f c05c 4cbe 3ad8 163f
00000170: 5989 03bf 255f 583f ca77 8abf 3293 3c3e
00000180: 9639 c6bd 4df3 9f3f f893 1a3d bf59 353f
00000190: 462c 503f b435 b63f 0334 6c3f 4c14 573f
000001a0: 1fd6 5e3f 85a6 00bf bf9f 573f 60f4 2bbe
000001b0: 1763 1a3f 9fb5 003e 8a67 15bf d564 823e
000001c0: ca70 2bbe c4ba c7bf a916 90bf d5ae 633f
000001d0: 6250 b1be d770 bdbd 4ea9 1f3f e899 63be
000001e0: 32fe de3e 79c1 313f 5922 debe 1c29 203e
000001f0: eac4 5bbc a1eb bfbd 3232 2e3f 2a8b 883f
00000200: 5046 693e 29f1 923e 2937 dd3e 78f5 a23e
00000210: afd3 be3f fc17 2c3f e680 c83e 175d 443f
00000220: f198 9a3e 0cf0 cb3e 94f9 1a3f 751f fbbe
00000230: 11e1 9f3f 1e7b 83be cc22 a23f 47de 84be
00000240: 7855 0b3f 700e 083e 0378 8d3f 5797 583f
00000250: ba19 b9be 9d3d 823e 2e45 4d3f 0424 123e
00000260: c4b4 56bf 90f6 41bf 8ea8 7c3f f8f8 123f
00000270: 4688 cf3f c9c1 53be 07f6 aa3e 5c1f 2a3f
00000280: ef8a 0f3f 4ec6 703f 3011 41bf be70 b93d
00000290: 3947 9f3e 91d4 91bf d74a 4b3f 9bdb 40bf
000002a0: 7730 abbf 6a68 eb3e 45c2 abbf d66e 603f
000002b0: 31ea 84be 00c9 67bd cba3 b63e 410d c43e
000002c0: 39ec 2f3f c58b 8d3f 2eb9 763f 461e 3c3f
000002d0: eef4 08bf 8791 d240 b20c 293f 8b11 4cbe
000002e0: 6d76 1f3e 4923 0e3d c96d 0c3f 8081 d73d
000002f0: 870d e9be 3853 cc3e 88d2 c4be efd7 3e3f
00000300: 8623 2d3f 2c69 6bbe c716 193f 3ee2 09bf
00000310: b6fc b73e 6fb4 f83f b13b 7e3e 04d2 5cbf
00000320: 6e72 a2bd aafe 83bf 5d5c 6ebf c2b0 cc3e
00000330: 8f56 4c3f 3c13 b53e ea74 973f cda1 e03f
00000340: b435 f63d 6340 e13d 705d ca3f d531 ae3f
00000350: e92c b93e a3c5 5f3f 62dd 033f 5a81 213f
00000360: 8415 89be 3aa7 6ebe f8fe bb3e 0a27 e23d
00000370: b67e 633f 503c 0040 9c12 913e 95c3 d03e
00000380: 22b2 cb3e 790d d13f be89 443e 6ceb eb3e
00000390: b9ed 983f e40b f1be 0ab9 113e 0c3c 67bd
000003a0: 0b04 a33f 7823 44bf 7a79 cd3e ff89 333f
000003b0: f701 b43f 666a 913c 90c0 44be 0124 53be
000003c0: 602e d63f 5020 523f abe9 b1bf 40bc 76bf
000003d0: 0597 913e 5f0a 27bd ccc3 943f b45a 883f
000003e0: 5ad1 44bd a742 a8bc 3318 6a3f 5dab 74be
000003f0: 64fa 1bbd 7e59 8dbe 621f 143f 6688 9b3f
-0.4458844 0.25936055 -1.5414201 -0.61343265 0.20393623 2.1505117 -0.100445785 -0.53457445
0.7409653 1.526364 1.5450195 1.146095 0.45167235 -0.4127624 0.5854791 -0.5818109
0.5347524 0.44331208 -0.54618186 -0.858753 1.2659749 0.3712676 0.44243532 0.022555647
0.57908684 0.24385981 0.5810114 -0.5221505 -0.11337803 1.3794166 0.43619072 0.21693552
0.0108193075 0.63598025 -0.3627634 0.5110441 -0.05952456 -0.06975756 0.3963627 0.60184526
-0.52081716 1.4976426 0.82484645 -0.470326 0.46085986 -0.22263896 0.75694185 0.4664261
-0.16984378 -0.29836544 0.57395804 0.88006335 0.3949953 0.3158475 1.0530741 0.42509457
-0.8488509 0.5366681 1.0416952 1.7480471 -0.07164619 -0.045742627 0.16100961 1.147817
0.43465135 0.006051939 0.5323549 -0.71573204 -0.93695605 0.3401825 0.3002555 0.8743394
0.21589623 0.091975175 -0.40694585 -0.03701586 0.83171636 0.54625666 0.86065465 0.55784386
-0.47752568 0.20929931 0.3306487 1.0979682 -0.8056389 -0.90959567 0.59365517 -0.20404898
0.47753626 0.5749392 -0.19957256 0.58923686 -0.5138145 0.8452018 -1.0817807 0.18415526
-0.096789524 1.2496125 0.03773877 0.70840067 0.81317556 1.4235139 0.92266864 0.84015346
0.8704547 -0.5025409 0.8422813 -0.1679244 0.6030745 0.12569283 -0.58361113 0.25467554
-0.16742244 -1.5603871 -1.1256915 0.8893865 -0.3463164 -0.09250038 0.62367713 -0.2222668
0.4355331 0.6943584 -0.4338558 0.15640682 -0.013413647 -0.093711145 0.6804534 1.066747
0.22780728 0.28699616 0.43206146 0.31827903 1.4908351 0.672241 0.39160842 0.76704544
0.3019481 0.3983158 0.60537076 -0.49047437 1.249056 -0.25679868 1.2666869 -0.25950834
0.5442729 0.13286757 1.105225 0.84605926 -0.3615244 0.25437632 0.80183685 0.14271551
-0.83869576 -0.7576685 0.98694694 0.57411146 1.6213462 -0.20679392 0.3339083 0.664541
0.5607137 0.9405259 -0.7541685 0.09054707 0.31109026 -1.1392995 0.7941107 -0.7533509
-1.3374165 0.459781 -1.3418661 0.8766912 -0.25959924 -0.056588173 0.3567184 0.38291362
0.6871982 1.1058279 0.9637631 0.73483694 -0.53498733 6.5802646 0.66034997 -0.19928567
0.1557252 0.03470162 0.5485502 0.10522747 -0.45518133 0.3990724 -0.38441873 0.7454824
0.6763233 -0.22989339 0.5980038 -0.53860843 0.3593499 1.9430064 0.24827458 -0.8625796
-0.07931982 -1.0312092 -0.93109685 0.39978606 0.7981958 0.35366237 1.1832554 1.7549378
0.12021962 0.10998609 1.5809765 1.3608958 0.36167076 0.87410945 0.5150968 0.63088
-0.26774228 -0.2330598 0.36717963 0.11042602 0.8886522 2.0036812 0.2833451 0.40774217
0.39784342 1.6332237 0.1919317 0.4607805 1.1947547 -0.47079384 0.14230743 -0.05645375
1.2735609 -0.7661662 0.40131742 0.7013244 1.40631 0.01775093 -0.19214082 -0.20619203
1.6732903 0.82080555 -1.3899435 -0.96380997 0.2843553 -0.040781375 1.1622252 1.065268
-0.048051216 -0.020539595 0.91443175 -0.23893495 -0.038080588 -0.2760734 0.57860386 1.2151

model.2.bias f4 [256]
00000000: 758b 98be 2955 4abf eadc a9bf 727a 203f
00000010: 8b10 05be 9b53 b23c 0c58 653f 741d 1f3d
00000020: 3bc5 12bf 120c 36bc 4da3 8fbd 5065 d53b
00000030: 5a80 04be 0fb9 85bf 789c 62bd ecd6 d8be
00000040: ec52 7abd a2bc febe 3338 1abf af30 c53c
00000050: 61a9 0ebd 9d5a a5bd 0bed dbbe 8710 a93d
00000060: 54e7 a63e 45d3 e73e 2d46 95bd ea58 acbd
00000070: 15bd 67bf 43ba 553e 105a a5bc 26e7 c4bd
00000080: 68cb c6bd 0003 8b3f a92e c9bd e1ee 673c
00000090: 5aba 89bd ab3c f7be 4f49 9abe 890c 1bbf
000000a0: 8402 63bf e047 fd3d 0eb2 613d c12b 80bc
000000b0: 7400 22bd 16a7 b73e e5eb 46bd 2d92 ffbe
000000c0: 5618 883f 6012 3a3f 4ffc ea3c 2d88 2fbf
000000d0: bc35 c73b f99b 933c 0287 22bf 4a61 b2bd
000000e0: 5992 9a3d 4b76 d43b 33e5 87bf feab f0bc
000000f0: b94f c9be 60a8 b8bd 7727 62bf ac75 5ebc
00000100: 49da 68be deb2 e9be d820 2ebe a74d 4d3f
00000110: f4d6 ff3e 94cb 15be 7882 99bd 4a94 4e3e
00000120: bfe4 16bd fa69 b0be 7144 f7be dd9c b73e
00000130: d1b0 d23d be92 833f 1cae 653d 7440 b1bc
00000140: 2215 46bd 11f6 54bd b1d5 7e3b e348 043b
00000150: 2613 b03e f6f0 45bf 8f7c 6d3e 0718 a9be
00000160: 8cdf cebd 33a0 bfbf 7c19 523f d31d b1bd
00000170: eebb d73d 733f 853f 6244 a6bd bef3 9b3d
00000180: 12fa 80bf 70b8 1fbf 462e 8c3c 82e6 b03d
00000190: 8cae 06bf 9b1b 623e 4c90 d7bc aac9 563f
000001a0: afc2 a53d 5ab4 a8bd cb6f 543f f26c 68bd
000001b0: 4ffd 59bd 865e cebc 0d73 b8be 422a 033e
000001c0: 18d7 ea3e 7528 fdbd 9132 963e 857e 4abf
000001d0: bec3 363f d51e 84be 815f 7dbd 2e66 ac3f
000001e0: fde0 9bba 3b9c 33bf ac53 87be 4658 2dbe
000001f0: ca3d a6be 02fe bdbd b6ea 9b3e 0729 f93e
00000200: 5ff5 373f 2ede cfbc c170 58bf d68e 9ebe
00000210: fb56 353d 18ed 0c3f 5bd9 043c d53a 2ebd
00000220: 7eff d8bd be1a ddbc f401 95bd 639a 8bbd
00000230: e2b4 feb8 d549 edbc e3e9 d3be b2f7 e93e
00000240: 7a10 983d 1a2e 91bd 1563 40bf e4e7 e7bd
00000250: 768e b8bd f16c 233c b783 523f 5c5c aabf
00000260: 2009 043f d0c5 70bc 63c7 b0bd c851 263c
00000270: 3332 ae3e a5f4 b3be 1037 3dbb 0dca 17be
00000280: f0ba e7bc 4ad7 4e3e 68f9 7d3c 8978 7e3f
00000290: 3af5 f43e 7a30 38bf 1561 87bf e174 8cbd
000002a0: 1401 b1be 7023 743e f800 fe3d 4f25 7ebf
000002b0: 37a4 44bf 6dc7 e5be 5115 96bf 0265 12bf
000002c0: 8fa1 1a3d e3f9 f83e de7e b83c 737c 7c3c
000002d0: 99e8 7abd 45ff 953c 7370 d4bd f2ce 4a3c
000002e0: 6f94 843c 4e86 2c3d 7536 a6bd c465 213e
000002f0: e6c3 4a3d ab50 553e 8563 eb3e 1744 b83c
00000300: e5bf 4b3c 1021 efbe e5a6 15be 641d 583f
00000310: d146 4dbe 60a1 d03b 7e9e 2fbe 328f 193f
00000320: cbed 683f 98a1 02bd 092d 953c c121 88be
00000330: e9af d7bd 5e18 5abf 655f 873d 4e5f cd3e
00000340: 6528 51be 2269 453d 0a4f 4b3e 1047 5fbf
00000350: 417f 1a3f 352a 4fbd eebd 83bd ac95 dfbe
00000360: d1c2 49be a06e 72bd 0285 d6be b9d2 75bd
00000370: 7b5e 79be d1ba 153f 40fc 643e e911 aabd
00000380: 59e6 2dbd b740 58be 0060 193c 4e6a a8be
00000390: f788 0cbd 7cfa 61bf 1956 1d3d 100e d7bc
000003a0: 25a7 97bd c8d1 d9bd d7e4 fdbe 4a63 43be
000003b0: 1469 3bbb ae9a 73bf 0690 6ebb c47c 1b3e
000003c0: 8f6f 35bf b449 c2bd 7fe6 813c f688 9fbd
000003d0: cac4 1dbd 56dd ccbc 13e3 28bd ca84 f3bd
000003e0: dc00 f03a acb4 4cbd 4d86 b93e a755 653f
000003f0: cad5 06bd 1634 793c 6b36 16be ec16 da3e
-0.29793897 -0.79036194 -1.3270543 0.62686837 -0.12994592 0.021768382 0.89587474 0.038846448
-0.573322 -0.011111276 -0.07013569 0.0065123215 -0.12939587 -1.04471 -0.055325 -0.42351472
-0.061114237 -0.4975329 -0.60242003 0.024071066 -0.0348295 -0.08073924 -0.42954287 0.082551055
0.32598364 0.45278373 -0.072887756 -0.084153965 -0.9052289 0.20871834 -0.020184547 -0.096144006
-0.097067654 1.086029 -0.09823353 0.014156074 -0.06724997 -0.48288473 -0.30134055 -0.60566
-0.88675714 0.12367225 0.055101447 -0.015645863 -0.039551213 0.35869664 -0.04856481 -0.4991621
1.0632427 0.7268429 0.028684763 -0.6856716 0.0060794037 0.01801871 -0.63487256 -0.08709963
0.07547445 0.006483828 -1.0616821 -0.029378887 -0.39318636 -0.0901649 -0.8834147 -0.01357786
-0.22739519 -0.45644277 -0.17004716 0.80196613 0.49968684 -0.1462844 -0.07495588 0.20173755
-0.036839243 -0.34455854 -0.48294404 0.35861865 0.10287631 1.0279157 0.056074247 -0.021637179
-0.048359998 -0.05199248 0.0038884694 0.0020185045 0.3438961 -0.773208 0.23192047 -0.33026144
-0.10101232 -1.4970764 0.82070136 -0.08648267 0.105338916 1.0409988 -0.08118512 0.076148495
-1.0076315 -0.62390804 0.017111909 0.08637716 -0.5261009 0.22080843 -0.026313923 0.83901465
0.080937736 -0.08237524 0.8298308 -0.056744523 -0.05322009 -0.025191557 -0.36025277 0.12809089
0.45867229 -0.12361232 0.29335454 -0.79099303 0.7139243 -0.25804773 -0.061858658 1.3468683
-0.0011892613 -0.70160264 -0.26431024 -0.16928205 -0.32469016 -0.09276964 0.30452508 0.48664114
0.7185878 -0.025374498 -0.8454705 -0.3096835 0.044272404 0.55049276 0.008108462 -0.042536575
-0.10595606 -0.02699029 -0.07275763 -0.06816556 -0.00012145356 -0.02896587 -0.4138938 0.4569679
0.07425018 -0.07088871 -0.7515119 -0.113235265 -0.09011547 0.009974704 0.8223223 -1.3309436
0.51576424 -0.0146956 -0.0863178 0.010151334 0.34022674 -0.35147586 -0.002887193 -0.1482317
-0.028287381 0.20199314 0.015501358 0.9940267 0.47843343 -0.7194897 -1.0576502 -0.068582304
-0.34571135 0.23841643 0.124025285 -0.9927568 -0.7681307 -0.44878712 -1.1725255 -0.57185376
0.03775173 0.48628148 0.022521432 0.01541053 -0.06125698 0.018310199 -0.103730105 0.012378441
0.01618406 0.04212027 -0.081158556 0.15761477 0.04950323 0.20831554 0.45974365 0.022493405
0.012435888 -0.46704912 -0.14614446 0.84419847 -0.20046546 0.0063668936 -0.17150304 0.59984124
0.90987843 -0.03189239 0.018209951 -0.26588252 -0.10531599 -0.8519343 0.06609992 0.40111774
-0.20425566 0.048195966 0.1985437 -0.8721781 0.60350424 -0.05057736 -0.064327106 -0.43668878
-0.19703223 -0.05918753 -0.41898352 -0.060015414 -0.24352448 0.58488184 0.2236185 -0.08304197
-0.042456005 -0.21118437 0.009361267 -0.32893604 -0.034310307 -0.88272834 0.038412187 -0.026251823
-0.07404927 -0.10635716 -0.49588653 -0.19080845 -0.0028596567 -0.951579 -0.0036401763 0.15184313
-0.7087335 -0.09486714 0.01585698 -0.07789795 -0.03851775 -0.025007885 -0.04123218 -0.11890562
0.0018310803 -0.04997699 0.36235276 0.8958382 -0.03291873 0.015210172 -0.14669196 0.42595613

model.4.weight f4 [1, 256]
00000000: a16a 5ebf b1cb 83c0 fdb8 9cc0 f923 6f3f
00000010: e075 febe fa04 32bc 11a0 91c0 e538 d93c
00000020: 18b1 8fc0 fc62 063b e76e c6bb 51c3 d83e
00000030: 00e2 5b3c f202 12c0 0de3 543b 332d 0bc0
00000040: 126b d9bf 48f9 02c0 bf58 4d40 252a 52bf
00000050: e618 203c 194d 15bc 914b 39c0 4a3f 58bf
00000060: 5206 b5c0 5bad c83f 91cc 84bc 4dba 9fbe
00000070: 1b42 69c0 c328 6ac0 2b54 ffbc b2f7 dd3b
00000080: 9486 1d3c 6be8 86c0 85f9 1fbf e552 8e3f
00000090: c7d6 b13a 610c 2cc0 1fa1 ae3f 2e93 47bf
000000a0: d609 bdbf 29ae e9bf ed66 1e40 7934 5f3c
000000b0: f024 b13b e781 b73f 0f99 243d 465d aa3f
000000c0: ca23 583f bdb6 9ac0 ca8b 8eba c676 99c0
000000d0: 3e56 e9bc 263a 0440 0ecc 91c0 7333 5ab7
000000e0: 7b42 c33f c1b1 d63a f5b6 8bc0 4f9f d8be
000000f0: 98b3 38c0 1145 91ba a1e9 5940 beea df3b
00000100: 7490 20bf 82d4 1a40 b279 bb3f b290 d13e
00000110: ab70 a83f 8e4f b4bf 4903 733b 47c9 e53f
00000120: 8101 093a 7018 97bf 42ac 86c0 a414 2240
00000130: 0fe2 17bf 2b4c b23f c77b 6040 ba4e b3bc
00000140: 2419 a83c 92bb d93b 83b8 b83a 6588 ce3c
00000150: 9a4d 53c0 caab 15c0 423a 59c0 b551 cdc0
00000160: 5986 94bc cdf9 17c0 7699 7d3f a310 4abc
00000170: d41b 4ec0 0100 453f b9ce c2b9 5171 85c0
00000180: ddf5 78c0 f613 4f40 b936 a03d 3b76 1dc0
00000190: aa42 2e40 11d8 b7bf bc14 893c 3d9a 8ac0
000001a0: 3d58 2cc0 502c aec0 2038 27c0 8289 ab3c
000001b0: 02fb 143c c492 fe3f c09f e53f 3a3e 9ec0
000001c0: e0a6 65c0 9811 3640 3f62 adc0 9f7f a4bf
000001d0: c842 8ac0 ad6e 12c0 29f2 42bc 6ade d6c0
000001e0: 9f70 0d3d 03b9 62c0 d49a 373f ed27 42bf
000001f0: ccbb 06c0 d96c 8ebc dc42 d13f 89e7 b93f
00000200: 9bab 883f 2637 953c 9f1c 92c0 9445 d73f
00000210: da41 88bb f1d5 0440 0d66 63c0 bc3d cabc
00000220: 9a7a acc0 6ef6 4f3b 6f31 e03c 0b48 cec0
00000230: 6445 b8bc 4623 a63a edb4 30c0 332f ca3f
00000240: 16a5 983f 3dd6 6dba 4ab3 27c0 4524 0cc0
00000250: 382d 28bf 3f17 453d f1a2 87c0 6cf5 36c0
00000260: 55a0 0fc0 3454 14c0 e080 47bb f1e8 0e3c
00000270: ec77 e63f e791 04c0 6bb2 c7bc 1312 7cc0
00000280: 015e 5f3a b1be bebf 2ff8 4f3d c525 6dc0
00000290: be4a ff3f a60f 5240 f39a f7c0 5408 863c
000002a0: 90c7 fa3f 9f77 d63f 87eb 88c0 e6cb 55c0
000002b0: 56e5 99c0 4c21 0dc0 1336 f9bf 3d48 4d40
000002c0: 4747 d3be ff4c 73c0 1eab e93c 3425 edbf
000002d0: b2bd d1bc 0933 76bb afe8 09c0 d6c8 453b
000002e0: 279c fcbd b75c ec3f 40a5 9a3b 0abf a1c0
000002f0: 3d9a b1bf be27 4a40 b49e d23f e0ee 3c3d
00000300: d788 b1c0 7153 98c0 33f7 913e 7393 43c0
00000310: f167 7a3e a1fc cebe 86eb 823e c702 1e40
00000320: 21dc 6dc0 095f d33c 8213 dc3c c414 2ec0
00000330: a80b cbbc b06e f6c0 5d7e dcbe 536d a23f
00000340: 6d0f 13bf 4d8d bb3f 763b 55c0 886d 28c0
00000350: 9ecf 35c0 4bff 853b c111 fb3c fff1 3540
00000360: 8a02 91bf adca 86bf 4e57 5ac0 e0b5 83bc
00000370: 6db7 893f b53b 89c0 2d52 74c0 a7a4 e03c
00000380: a63d bd3c 7f9c 44c0 f087 abbe 01cf 01c0
00000390: 5bb0 b33b 054c 22c0 239b 493d d76d 45bf
000003a0: 53f5 adbc 86d3 88be ea27 3f40 df0a e03f
000003b0: 9070 aa3c 7aff d1bf 513f 133c d079 1ac0
000003c0: 6132 67c0 d971 343c 666a 3d3d f828 523f
000003d0: 23f5 c43c ac2a d1be d76b c03c 8169 81c0
000003e0: 4337 053c 5e48 c23c 76e6 6ec0 b27c a23e
000003f0: dd78 ccbc 1d2b 49c0 6a44 0dbf 302e b2c0
-0.8688145 -4.1186147 -4.8975816 0.93414265 -0.49699306 -0.010865444 -4.5507894 0.026516387
-4.490368 0.0020505777 -0.006055701 0.42336515 0.013420582 -2.2814298 0.0032483966 -2.1746337
-1.69858 -2.046465 3.2085416 -0.8209556 0.009771561 -0.00911262 -2.8952372 -0.8447157
-5.6570215 1.5677904 -0.016210826 -0.31196824 -3.6446598 -3.658738 -0.031168064 0.0067739123
0.009614605 -4.2158713 -0.6249011 1.1119047 0.0013568037 -2.6882555 1.364292 -0.77958953
-1.4768627 -1.8256274 2.475032 0.01362335 0.0054060146 1.4336518 0.04018503 1.3309715
0.8442961 -4.834807 -0.0010875401 -4.7957487 -0.028483506 2.066049 -4.556159 -1.30057915e-05
1.5254663 0.0016379879 -4.3660836 -0.42309043 -2.8859615 -0.0011083205 3.4048846 0.0068334034
-0.6272042 2.4192204 1.4646513 0.40930706 1.3159384 -1.4086778 0.0037080816 1.795205
0.00052263594 -1.1804333 -4.2085276 2.5325098 -0.59329313 1.3929495 3.5075548 -0.021888126
0.0205198 0.0066446746 0.0014093075 0.025211522 -3.3016114 -2.3386102 -3.3941808 -6.416224
-0.018130468 -2.3746216 0.9906229 -0.012333068 -3.2204485 0.7695313 -0.00037156584 -4.1700826
-3.8900063 3.2355933 0.078229375 -2.4603412 2.7228189 -1.4362813 0.01673352 -4.331328
-2.6928856 -5.4429092 -2.6128006 0.020939592 0.009093048 1.9888539 1.7939377 -4.945096
-3.5883102 2.8448238 -5.418243 -1.2851447 -4.320652 -2.288005 -0.011898556 -6.71465
0.034531232 -3.5425422 0.71720624 -0.7584217 -2.1052122 -0.017385887 1.6348529 1.4523784
1.067737 0.018214773 -4.565994 1.6818109 -0.0041582407 2.075558 -3.5531037 -0.02468764
-5.389966 0.0031732577 0.027367322 -6.4462943 -0.022494026 0.0012675307 -2.7610428 1.5795654
1.192538 -0.00090727565 -2.620318 -2.1897137 -0.65694 0.048117872 -4.2386403 -2.8587294
-2.244161 -2.3176394 -0.0030441806 0.00872253 1.8005347 -2.0714052 -0.024377069 -3.9386032
0.00085207826 -1.4901944 0.050773796 -3.7054303 1.9944685 3.282205 -7.7376647 0.016361393
1.9592152 1.6755255 -4.278751 -3.34057 -4.809245 -2.2051573 -1.9469627 3.207534
-0.41265318 -3.8015745 0.028523978 -1.8526978 -0.02560315 -0.003756704 -2.1548269 0.0030179522
-0.12334471 1.8465794 0.0047194064 -5.05457 -1.3875195 3.1586757 1.6454682 0.046126246
-5.547954 -4.7601857 0.2850891 -3.0558746 0.24453713 -0.40427116 0.25570315 2.4689195
-3.7165606 0.025802152 0.02686477 -2.7200174 -0.024785832 -7.7010117 -0.43065158 1.2689613
-0.5744541 1.4652497 -3.3317542 -2.6316853 -2.840797 0.004089271 0.030648114 2.8428953
-1.13289 -1.0530602 -3.4115787 -0.016077936 1.0759102 -4.2885385 -3.8175156 0.027422262
0.023100685 -3.0720518 -0.3350215 -2.0282595 0.0054836697 -2.5358899 0.049220216 -0.7712073
-0.021235144 -0.2672388 2.9868112 1.7503318 0.020805627 -1.640609 0.008987264 -2.4136848
-3.61245 0.0110134715 0.046244048 0.82093763 0.024042672 -0.4085287 0.023488922 -4.044129
0.008130851 0.023716148 -3.7328162 0.3173576 -0.024959976 -3.1432564 -0.55182517 -5.568138
