hw2/preTrained/ddpg_actor_LunarLanderContinuous-v2_04262023_002640_.pth (torch, 276375 bytes, 6 tensors)

model.0.weight f4 [256, 8]
00000000: 72c7 0b3e 33c8 f8be 949f 713d 4106 1c3c
00000010: e848 18bf 7713 8ebd 14f5 763d 29aa da3e
00000020: 3504 4a3e 6f1a dbbe c230 083e f4c0 12be
00000030: 2546 c13d f05e 18bd 2205 103d 35d3 6e3e
00000040: f312 f7bd 0a43 96be 65ec 333e e6d2 16bf
00000050: cc60 cdbc 52f5 a7be cffa 3abf 219e 46bf
00000060: 8aed 63bf 9195 11bf 1e78 1cbe dbb1 24bf
00000070: 577a a5be da54 0a3e 2218 b1bc a908 043e
00000080: 785c 8a3d cc8e c4bd 3a5e cfbd b47f d2be
00000090: 0568 dc3e 1f83 44be 29ca 093e 6ae0 993c
000000a0: 897b cf3e 008f 013e a4f3 bbbd 5132 0cbe
000000b0: 4c91 913d 601f f63d e28a 58bc 406e d33e
000000c0: c224 c2be 7135 5ebe 6b38 953e ed7d af3e
000000d0: 969d 22bf 39a2 95bd 1907 c1bd 8b7f 8a3e
000000e0: 0824 ab3e f1fc bf3e 8bf4 663f 9c99 4e3f
000000f0: 723e 0cbe 5f8c 19be 23bf 14be e784 5e3c
00000100: b121 c3bd 07ec 973e 0250 41bd c997 c7be
00000110: 2e2f 81be 90e9 563e 18a9 153f f203 4dbd
00000120: e135 a23d ea3c e93e e29f 03bf f667 8ebe
00000130: bfdf bfbe fb21 363e 3a9e 9bbd 389a a4be
00000140: 649c eabd 47e8 d1be 2ed5 4a3d 37ee a63e
00000150: 10a0 153f d310 b0be f6eb 2bbf 0f6f 853e
00000160: 26cc fcbe 2bd7 1ebe 09ca 9bbd c48e 983f
00000170: 71f4 c03e 5aec 9dbe 7ca5 e3be a1be 273d
00000180: 2129 98be 7c5b 56be dc39 9cbd 16a4 e7be
00000190: 3322 853e 2374 643e ea4b 6f3e c5b3 f23d
000001a0: 773f 08bf 98f5 b63e 9816 d03e 656a 113e
000001b0: 040d 51bd e222 b4bd ac2c b53e e008 ab3e
000001c0: c29f c93e 7ea9 4bbe c132 933d ade7 85be
000001d0: 4268 c03c a4cd 40be ce84 39bd 3362 af3e
000001e0: 88ed 7c3e cc5e d83e f39d 5bbf d5b6 80bd
000001f0: f73c 763f b7b2 87be 0cfd 40bf d0fe 833e
00000200: fa35 4fbf 325b acbd ed46 053e 27c5 96bd
00000210: 1d27 8cbc 21fb d53d aa5c 32be 7e36 85be
00000220: ad48 393a 79ba aabd 4824 58be 0e5d 83be
00000230: 0e70 20be 6cd5 463f 4072 073f acf3 9abe
00000240: b5a4 503f 44df 9abc bb25 983e feda 16be
00000250: f656 223d 6196 b9bd f427 bdbe 28c5 d4bd
00000260: 877b 18be c74e 59be f45e 0abe 3ab1 7cbf
00000270: 1ba4 9e3e 6bce 0e3f a666 8f3e c576 63bc
00000280: 5947 7a3d cbb3 75bf bc07 6c3d 9781 c43d
00000290: 7449 bdbe aef3 f43d 4555 97be ec55 0c3c
000002a0: dd03 1cbf 30f0 353f 3ce7 ab3e 394b 913e
000002b0: f8a7 61bd f6af c4be 524d 383f 40a0 b6be
000002c0: db25 143f 1bb3 f0be 5ae3 823e b04c 8dbd
000002d0: c021 11be 1957 67be a5b3 ea3e d947 123f
000002e0: b15e 5fbe 55b6 eb3d b7ef 95be 65f2 683f
000002f0: 166d 303f 706e 293f 6d2f d93e 607f df3d
00000300: aa9c 4cbe 287e 23bf 1d57 c13e ab86 a4be
00000310: 77fb 49bd ea9f 653e 3bbe e7be 3162 d8be
00000320: f154 41bf 0b24 8f3e 21cb df3e c280 033f
00000330: 1570 b3be 61ad 9cbe 356d 523f 25bd 9cbe
00000340: 138b f6be c631 603e 5c3c 603e b088 1cbf
00000350: 5b2f d4be 3a87 243d 0e08 aabd d315 02bf
00000360: ce09 883e 7954 6fbe 85b7 d9be 5179 22be
00000370: 822b 613e 9c2e dd3e 7477 0bbf 94e0 c6bd
00000380: 4298 863e 4a2b 6ebf e172 d3bd 8ec0 473e
00000390: d016 2c3f 8e6d c93c bdab 54be 474a 97be
000003a0: 3df4 093e e631 353e 2f18 4ebe 3fef e33e
000003b0: b5eb f13e 5ef4 2fbe b7fc 9bbe d4d5 ae3e
000003c0: ac1a 37bf 5a6f 623d 5a80 3d3e ab16 0d3d
000003d0: 5220 45bd 36e1 09be d25a 9b3e c0c4 8bbe
000003e0: d6e3 b5be 7de9 c53e c97f e8be caf5 8bbd
000003f0: eb88 db3e 4dad 7e3e 28a9 1ebf 6cac 163f
0.13650301 -0.4859024 0.058990076 0.009522975 -0.59486246 -0.069373064 0.06029232 0.42707947
0.19728167 -0.42793605 0.1329985 -0.14331418 0.09437207 -0.037199914 0.035161145 0.23322757
-0.12064161 -0.29348022 0.17570646 -0.58915555 -0.02507057 -0.32804352 -0.73038954 -0.77585036
-0.8903433 -0.56868845 -0.15280196 -0.64333886 -0.323199 0.13508931 -0.021617953 0.12893929
0.06755918 -0.09597549 -0.10125394 -0.41113055 0.4304811 -0.19190644 0.13456024 0.018783767
0.40523937 0.12652206 -0.0917733 -0.13691069 0.07107791 0.12017703 -0.013216706 0.41295052
-0.3791867 -0.21700074 0.29144606 0.3427576 -0.6352171 -0.07306332 -0.09425182 0.27050433
0.33425927 0.37497666 0.9021689 0.8070314 -0.13695696 -0.14994954 -0.14526038 0.013581491
-0.095279105 0.29672262 -0.047195442 -0.3898299 -0.25231308 0.20987535 0.5846114 -0.05005259
0.07920433 0.45554286 -0.51415837 -0.2781369 -0.37475392 0.177864 -0.07598539 -0.3214891
-0.114556104 -0.40997526 0.04951971 0.32603619 0.5844736 -0.34387836 -0.6715692 0.26061293
-0.49374503 -0.15511768 -0.076068945 1.1918569 0.37686494 -0.30844384 -0.44462192 0.040953282
-0.2971888 -0.20933336 -0.07628223 -0.45242375 0.26002654 0.22309928 0.23368803 0.118506946
-0.5322184 0.35734248 0.40642238 0.14200743 -0.051037803 -0.08795716 0.35385644 0.3340521
0.39379698 -0.19888875 0.07187415 -0.26153317 0.023487214 -0.18828446 -0.045292668 0.34254608
0.24699986 0.42259824 -0.85787886 -0.062848724 0.96186775 -0.26503536 -0.7538612 0.25780344
-0.80941737 -0.084158316 0.13015337 -0.073618226 -0.017108494 0.1044829 -0.17418161 -0.26018137
0.00070680195 -0.08336348 -0.2110759 -0.25656933 -0.15667745 0.77669406 0.52908707 -0.30264032
0.81501323 -0.01890529 0.29716286 -0.14731976 0.039633714 -0.090618856 -0.36944544 -0.10389167
-0.14890872 -0.21221457 -0.13512784 -0.98707926 0.30984578 0.5578372 0.28008002 -0.013883297
0.0611032 -0.9597747 0.057624564 0.0959503 -0.36970103 0.11960541 -0.29557243 0.008565407
-0.60943395 0.7106962 0.33574855 0.28377703 -0.055091828 -0.38415498 0.7199298 -0.35669136
0.5787026 -0.47011647 0.2556408 -0.068993926 -0.14173031 -0.22591819 0.45840183 0.5714088
-0.21813466 0.115093865 -0.2928445 0.90994865 0.6891645 0.6618414 0.42418995 0.10912967
-0.19981638 -0.63864374 0.37761775 -0.32133994 -0.04931208 0.22424284 -0.45262322 -0.42262414
-0.75520235 0.27957186 0.43709663 0.51368344 -0.3504645 -0.30601028 0.82197887 -0.30613056
-0.4815298 0.21893987 0.21898025 -0.6114607 -0.4144238 0.040168025 -0.083023176 -0.5081455
0.2656998 -0.23372068 -0.42522827 -0.15866591 0.21989253 0.43199623 -0.54479146 -0.09710804
0.26288038 -0.93034804 -0.10324646 0.19507048 0.6722231 0.024588373 -0.20768638 -0.29548857
0.13472076 0.17694816 -0.20126413 0.44518468 0.47250143 -0.17183062 -0.30466244 0.34147513
-0.71525073 0.055281974 0.18505993 0.034445446 -0.048126526 -0.13464817 0.30342728 -0.27298546
-0.35525388 0.386547 -0.45409992 -0.0683399 0.42877898 0.24870797 -0.6197686 0.58856845

model.0.bias f4 [256]
00000000: 72ac d93d 839e c03e bce7 863e 8131 a3bd
00000010: 23ed 813e b976 563d 1026 943e 2362 fabd
00000020: 3ae5 8abd 6684 90be eb69 213f a792 223e
00000030: 376c 393e 5141 babc 37f8 803e de9c 94be
00000040: bbf8 173d 9299 763e 26c0 923d 8782 94be
00000050: ef38 dfbe afba d0bd 5ab1 df3d 2ed1 323b
00000060: 19fe a43e ef39 5bbe f6d2 e9bd b2be ed3d
00000070: fbb5 983e 51fa 7b3e 271a a63e 4592 41be
00000080: 35e8 78bd d57a 893e aaee 44be 2995 e63d
00000090: 7c1e f73b 7932 243d d376 b2bc 96c0 68be
000000a0: 766f 2c3e 0aec 80be 491a 6b3d 1a6b 99be
000000b0: 7bfa 49be 1141 33bd 0458 0bbe 9f79 31bc
000000c0: cf2e 23bc fe74 5bbe dc38 f13e 007d 873e
000000d0: e2c7 8b3d c8db 413e 91d9 383e 250e 8a3e
000000e0: 59f3 52be afa8 983e 7afd 913e 3f09 933e
000000f0: 16e5 8fbe c558 b7ba aa70 aa3e 2c00 503e
00000100: 3409 803e dfdf b23e 7506 adbe 169c b93e
00000110: 0d54 91be 3ed2 b33d 6b66 a43d 6f67 8fbc
00000120: 8ce9 92bd 840c 96be 66f7 d8bd 4ebb 93bd
00000130: d350 173c 8287 593d cd9e 843d ee03 b53e
00000140: 14a8 7abd 89ed 99be 979c 553e 301f 323c
00000150: 1c34 a03d e15d 51bb f6a4 603e 96f0 40be
00000160: 31e1 12be 6fb8 563e aab4 14be be31 f4bd
00000170: 72f6 0a3e 1845 afbe 111f ebbc 12d7 8b3e
00000180: 03d0 e73c bbb2 043e fcc9 bbbd 1cbc bd3d
00000190: 3406 c2bc 0efd 8e3e 3fbc 2ebe 7823 c33d
000001a0: d60d 503d a006 0dbe f33d aabd 3621 af3d
000001b0: 762e e3bd 11b4 913e bc50 0fbe 026f babd
000001c0: d176 8fbc 57c0 083d 88f8 26be a168 8c3e
000001d0: b9d8 df3e 37af f9bd a925 84bd 0e20 f53d
000001e0: e363 013f e3f2 113d 95f8 b5be f00a 77be
000001f0: 020a d5be ebd5 983d 41d9 e4bc da11 03be
00000200: 2e00 b53e 00cf 8e3d a79b 96be 8d0f 59be
00000210: d3e7 8abe e794 3a3d 41ec 1e3e 7842 4cbe
00000220: 40ad 44be e628 7b3e e6d0 4abe 9a07 b43e
00000230: adce 6fbe a83d 8a3e 51a6 bf3e f36e d73d
00000240: b7a0 f73d 3aeb 4abe 242c 2ebe ef4e c8be
00000250: 145c 283e 677c b4be 3c15 15be e523 393e
00000260: a0b7 3dbe 7306 0f3b dc0f 5d3e 3576 83bd
00000270: d655 853d b064 6dbe 9bae 063d ade0 18be
00000280: 6959 8f3e 28c4 083e bbf5 b93e 3c1b 0bbf
00000290: 225c 5bbc 89c2 6f3e 8678 1c3e 0b8c 613e
000002a0: 4b17 4b3d d2ec f83b 1d9b 0c3e e19f 8c3c
000002b0: 9c64 d5be 1bdb 883e acd6 84bd f57f 7a3e
000002c0: 7a6d ce3b 4aa7 3e3e 72cf 683e 5ced 6d3e
000002d0: 678e 053e 9202 b13d dcc9 d03e 5bf7 833d
000002e0: 93ed d83e 0f97 c9bd 3381 363e a301 35bd
000002f0: e1b7 b93d fc1a 4e3e 9c00 c43e 1fbb 54be
00000300: 3ef4 293d d608 d5be 006c 93bd 4948 33be
00000310: 59c7 85bc e14b dbbe 4cb4 b93e e2a8 d63e
00000320: f5c1 2a3e 6e19 2a3e edc8 ab3d ba92 ecbc
00000330: 4eb4 903e 902b 423e 99bd 223e 3732 273e
00000340: 046f ad3d 811b c63e ce7b e13e 2fc8 be3d
00000350: 496a 513e 0998 6ebd 0f2b e03d e455 813e
00000360: acd1 af3d 2f4f 88bd 774f 45be 8ce3 b23d
00000370: 9c1f 123e e05e d53d 5720 183e 319f aabd
00000380: 5d3b bebd 355f 44bd fb21 3e3e 45fb 143d
00000390: 0786 22be 5c3c 333e 1369 e6be 57b2 733d
000003a0: fc51 60be 9bc7 e73e 7b0e 5a3c 3d51 6d3e
000003b0: 03dc 83be 45b5 f4bd 31e4 943e 5d4c cbbe
000003c0: 081d 2f3e 20c0 123d 0f2b 6f3d f537 993d
000003d0: dc5a 333c d221 413e d0e0 8dbe 2812 16be
000003e0: 62ca 713d 4e54 a03e 6495 843e 8e1b b83e
000003f0: 4226 793e e1a0 683e 54db 8f3d 682a b43b
0.106285945 0.37620935 0.26348674 -0.079684265 0.25376233 0.052359316 0.2893529 -0.12225749
-0.06782003 -0.28226012 0.63052243 0.15876256 0.18107687 -0.022736223 0.25189373 -0.2902593
0.037102442 0.2408202 0.07165556 -0.29005834 -0.43598124 -0.10191857 0.10922499 0.0027285325
0.3222511 -0.21408819 -0.11417191 0.11608638 0.2982634 0.24607207 0.32441828 -0.18903454
-0.060768325 0.26851526 -0.19231668 0.11258919 0.007541476 0.040087197 -0.021785175 -0.22729716
0.16839394 -0.25180084 0.057398114 -0.29964525 -0.19724457 -0.043763224 -0.13607794 -0.010832219
-0.0099598905 -0.21431348 0.47113693 0.26462555 0.06825234 0.18931496 0.18051745 0.26963916
-0.20600642 0.29816195 0.285137 0.28717992 -0.28104466 -0.0013988247 0.3328908 0.20312566
0.2500702 0.34936425 -0.3379399 0.36251897 -0.28384438 0.08780335 0.08027347 -0.017505376
-0.07173452 -0.29306424 -0.105940625 -0.0721346 0.009235579 0.053107746 0.06475601 0.3535456
-0.061195448 -0.30064037 0.20860516 0.0108716935 0.07822439 -0.0031946825 0.21937928 -0.18841776
-0.14343716 0.20968793 -0.14522043 -0.1192355 0.13570574 -0.34232402 -0.028701337 0.27312523
0.02829743 0.12958805 -0.09169385 0.09264395 -0.023684599 0.2792744 -0.17063998 0.095282495
0.050794445 -0.13772058 -0.08312597 0.08551256 -0.11092846 0.28457692 -0.13995641 -0.09103204
-0.01751271 0.033386555 -0.16305745 0.27423576 0.43720034 -0.12191623 -0.064524956 0.119690046
0.5054304 0.035632025 -0.35541216 -0.24125266 -0.41609198 0.074626766 -0.027935626 -0.12799779
0.353517 0.06973076 -0.29415628 -0.21197338 -0.27129993 0.04555216 0.15519811 -0.19947231
-0.19206715 0.2452732 -0.19806251 0.3516205 -0.23418684 0.27000165 0.37431577 0.10519209
0.12091201 -0.19816294 -0.17009026 -0.39122722 0.16441375 -0.3525116 -0.14558882 0.18080099
-0.18527079 0.0021823912 0.21588081 -0.064190306 0.065105125 -0.2318294 0.03288136 -0.14929457
0.27997902 0.13356078 0.3632029 -0.5433843 -0.013388665 0.23414053 0.15280351 0.22026078
0.04958276 0.0075965906 0.13731046 0.01716608 -0.4167832 0.26729664 -0.06486258 0.24462874
0.0062996717 0.18618503 0.22735384 0.23235077 0.13042603 0.086430684 0.40779006 0.06443664
0.42368755 -0.09843265 0.17822723 -0.044191014 0.09068275 0.20127481 0.38281715 -0.20774506
0.041492693 -0.41608304 -0.07198334 -0.17508043 -0.016330408 -0.4283133 0.36270368 0.41925722
0.16675551 0.16611263 0.08387933 -0.028878558 0.28262562 0.1896193 0.15892638 0.16327749
0.0846844 0.3869286 0.44039768 0.09315526 0.20450701 -0.05825046 0.10945713 0.25260842
0.085849136 -0.06655728 -0.19268595 0.08734807 0.1426987 0.104184866 0.14856087 -0.083311446
-0.092886664 -0.04794236 0.1856765 0.03637244 -0.1587144 0.17503494 -0.4500204 0.05949625
-0.21906275 0.45269474 0.0133091165 0.23175521 -0.25753793 -0.11948637 0.29080346 -0.39706698
0.17100918 0.035827756 0.058390673 0.07481376 0.0109469555 0.18860558 -0.2771058 -0.14655364
0.059030898 0.3131432 0.25895226 0.35958523 0.24331 0.2271762 0.070242554 0.0054982193

model.2.weight f4 [256, 256]
00000000: e0f2 913d 83b4 acbc f496 0cbe 8c64 64be
00000010: 0fe5 553d 2d71 1b3e 8fb3 733d e836 6a3d
00000020: 4f1c 323e c41a 7b3c 9f83 98be 6742 123e
00000030: f4cf a7be 326e 563e 55aa 25be 2c57 eabc
00000040: d722 8a3e cb57 a6bc ea57 1ebd f76e 823d
00000050: 184d 96bd da8d 173e 7f85 563c 6947 59be
00000060: bbf8 833d 5d69 c03e cfb0 b33c 0cf3 a03e
00000070: 6dd4 46be 5168 563d 021c 9abe 9289 9abd
00000080: 8589 273e c272 9abe d0ce 8d3e e4eb 053d
00000090: a51d 01bd ffaf c03d 4a6a dbbc 1d46 e03d
000000a0: 65ba c1bd 97a8 503c aad6 8a3a 5cdb ad3b
000000b0: f1ce 853b e063 1a3e 011f c6bc c9fa 113e
000000c0: 606e ccba 790d 763e 6462 5bbe 92b0 893c
000000d0: c2a9 95be 1883 383d 3b40 9abb 25c5 febc
000000e0: e0a0 61bc 8c4f bdbe a3f3 efbc 2a61 a33d
000000f0: f631 5f3e 9d55 a2bd e1ac 00be d938 a6be
00000100: f312 72be f3b3 c93d 3a58 7fbe 2d85 a0bd
00000110: 1864 213e 358b e03c 590b f7bd bff8 3bbe
00000120: 25ea 25bf ecd6 a43e f3b3 2b3d 4cce 583d
00000130: f678 063e c612 59bd 9afb bc3c 1623 193d
00000140: ef91 dbbd 7128 2b3e 148f 833b 543f 8dbd
00000150: 0f60 a9bd 81e7 adbd 4f29 b23d 609e 853e
00000160: cab9 b5be 69a6 00bd eb1d aa3d 510f 4bbe
00000170: 1bd1 66be 39f4 273e 0fea 223a 8f96 423d
00000180: 8ae1 89bd 3c26 85bd 5990 ae3d 7d21 b6bc
00000190: 855a 323e dd14 4ebd cb99 08be 8723 5b3d
000001a0: af49 efbd cc0b 543d b6ac 9d3d 1a4d 2e3c
000001b0: 316c 3b3e 8b2c aabe 37a4 e13c bd4b d43d
000001c0: ddeb cdba 2e77 883d 7708 283e 09c6 c8bd
000001d0: e92c 1dbe dc68 c13c fcbe 053e c140 143e
000001e0: 7ab8 13bf 7714 20be 5523 623d 51d0 363c
000001f0: 78af cc3e 37cd 7fbd fb48 edbd 0e53 b1bd
00000200: eca1 e63d 73ca f63c 0147 95be fd45 9c3e
00000210: 112e 923e 1bf8 f93d 35a7 5dbd 81ee 113d
00000220: 9fad 68bd 3bed 013d 8bd6 bebc d08b 41bd
00000230: d86c 1b3e c46d 173e 00c5 68bc 1f3d df3d
00000240: aa48 093e 3c64 a5bc 3c04 17be 56f2 f2bc
00000250: 94e9 a63b 37d1 33bd cd36 2d3e 573d 3c3e
00000260: f144 74bc ee8e a33d 6fc6 f5bc de8a f93d
00000270: 71d2 813d 797b 603e b6a7 cc3d f632 a43d
00000280: f88c 1dbe 5e63 3fbe 4dcf 7bbe 1d7f 1d3e
00000290: ce96 ff3d 811d c3be 596a d6bd a22b 133d
000002a0: 4518 f83c 3a65 103e 2fa7 b6bb d76b f1bb
000002b0: f2c5 b33a a2a9 a43c 9f4c c03e 2250 6a3d
000002c0: 0ef4 f83c 3369 78bc 97ed 443e 53f5 eabd
000002d0: e594 f43d 55bd bebc d321 673d 210a c1bc
000002e0: c5fd c93d e73c f73d b7d3 01be 73a8 503b
000002f0: db07 013e 7ccf 8ebd 077c 9abe b556 cb3d
00000300: 51b4 5d3d 305d 923d 5fef 4e3e 7fe7 6ebe
00000310: 3e08 86bd 8f6c b4bd be3b 213d de98 f63c
00000320: b084 c2bd 01ed 0bbe b1ac 183e 1d58 253d
00000330: 0b07 b83d 64f2 4abe 4544 8ebd 5641 a63d
00000340: 188a 7a3e 49d1 c4bd 428b 8bbd dab7 fabd
00000350: 145f 0b3e 8275 1c3c aaea 23be c11d 01be
00000360: 36ea e03c 2a5b 403c fd37 38bd c32c bc3d
00000370: d87b 193d e4b8 d3bd 9369 173d 6853 103e
00000380: 764f a93d b792 b03e 1512 723e ac02 83be
00000390: b4fa 283e 4613 02bd 0ebb b4be 94ca 2b3d
000003a0: a265 143e 22bd 1fbe 4440 f0bd e16a af3d
000003b0: 35c0 6d3e 0dff 43be 1c59 63bd 5567 8e3c
000003c0: 4566 f4bd 672d 7b3d 250b 1e3e 6053 47be
000003d0: 5745 2ebd b450 dbbd 8c28 473d 9b5d 963c
000003e0: 13b9 15be 7777 b4bc a031 69be 89ab 37bd
000003f0: a26f 233c 746d b7bc 0bb4 393e 5008 16be
0.07126403 -0.021082168 -0.13729459 -0.2230398 0.0522204 0.15179892 0.059497412 0.05718127
0.17393611 0.015326206 -0.2978792 0.14283143 -0.32775843 0.20940474 -0.16178258 -0.02860602
0.26979706 -0.020305535 -0.03865806 0.06368821 -0.07338923 0.14800206 0.013093351 -0.21218647
0.06443926 0.37580386 0.021934895 0.3143543 -0.19416972 0.052345578 -0.30099493 -0.07545771
0.16361053 -0.30165678 0.27696848 0.032695666 -0.03152241 0.094085686 -0.026784081 0.10950873
-0.0945938 0.012735507 0.0010592539 0.0053056907 0.004083507 0.15077162 -0.024184706 0.14255823
-0.0015596859 0.24028577 -0.21424252 0.016807828 -0.29231077 0.045046896 -0.004707364 -0.031099865
-0.013771266 -0.36974752 -0.02929098 0.07977517 0.21796402 -0.07926486 -0.12565948 -0.32465246
-0.23640041 0.09848776 -0.24936 -0.07837901 0.15760839 0.02741013 -0.12062711 -0.18356608
-0.648104 0.32195222 0.04191966 0.052931115 0.1313208 -0.05299642 0.023069192 0.037386976
-0.10721194 0.16714646 0.004014859 -0.068968445 -0.08270275 -0.084914215 0.08699285 0.26097393
-0.35493308 -0.0314087 0.08306488 -0.19830061 -0.22540705 0.16401757 0.0006214687 0.047506865
-0.06732471 -0.06501433 0.08523626 -0.022232765 0.17417343 -0.050312866 -0.13339917 0.05350068
-0.11683976 0.051769063 0.076989576 0.0106385 0.1830299 -0.3323711 0.027544124 0.103660084
-0.0015710552 0.06663357 0.16409479 -0.09803397 -0.15349163 0.023609571 0.13061136 0.14477827
-0.57703364 -0.15632807 0.055209477 0.011158065 0.39977622 -0.062451568 -0.115861855 -0.086584195
0.11261353 0.030125832 -0.29155734 0.30522147 0.2855077 0.122055255 -0.05411454 0.035627846
-0.056806203 0.03172038 -0.023295661 -0.047252476 0.1517824 0.14787966 -0.014207125 0.1090033
0.13406625 -0.020189397 -0.14747709 -0.02965657 0.0050937627 -0.043900695 0.16915436 0.18382774
-0.014909015 0.07986246 -0.030001847 0.1218469 0.06338967 0.21922101 0.09992926 0.080175325
-0.15385807 -0.1869025 -0.24590798 0.15380521 0.124799356 -0.38108447 -0.10469503 0.035930283
0.03028501 0.14101115 -0.005574129 -0.007367592 0.0013715609 0.020100418 0.37558457 0.057205327
0.030389812 -0.0151618 0.19231258 -0.11472573 0.11942462 -0.02328364 0.05642874 -0.0235644
0.09862856 0.12072163 -0.12678419 0.0031838685 0.12600653 -0.06973168 -0.3017275 0.099286474
0.05412704 0.0714668 0.202085 -0.23330496 -0.06544541 -0.088097684 0.039363615 0.03010219
-0.094979644 -0.13664629 0.14909627 0.040367234 0.08985718 -0.19819027 -0.06946615 0.081179306
0.24466741 -0.096102305 -0.06813671 -0.12242098 0.13610488 0.0095495 -0.16007486 -0.12609006
0.02745543 0.011740485 -0.04497527 0.09188225 0.037471622 -0.103379995 0.036965918 0.14094317
0.08267109 0.34486935 0.2363971 -0.25587976 0.16501886 -0.03175666 -0.3529896 0.04194124
0.14491895 -0.15599492 -0.11731008 0.085653074 0.23217852 -0.19140263 -0.055504903 0.017383257
-0.11933569 0.061322596 0.15433939 -0.19465399 -0.042546596 -0.10708752 0.048622653 0.018355181
-0.14621381 -0.022029622 -0.22772837 -0.044841323 0.009975346 -0.022391059 0.18135087 -0.14651608

model.2.bias f4 [256]
00000000: 7125 f9bc 6c0f 993d 66d8 4b3e 45d4 e73c
00000010: c931 63bd dea3 4dbb 7b48 d63b 185a 8bbd
00000020: 13ac 203e facf d6bd 39a8 ce3d efac e13c
00000030: 0b8b 213d 5144 6a3d 5334 293e 979a 8e3a
00000040: 802a 74bd a439 e23c 9240 aabc 9942 a13d
00000050: b440 30be 7635 8ebd fd5f 22be a0b5 0ebc
00000060: c7b4 8d3d dabe f63b 8150 493e e690 063d
00000070: 027f 91bd c1cd d2bd 367e 323e 30ff 233e
00000080: 395c 243d c5ce 973d 5bb0 f8bc 7740 753d
00000090: 5aef b13d e7bb 9fbe b786 0c3d 3bce 2abe
000000a0: 8048 0d3e 7100 9b3d 63b2 3cbe 6c50 483d
000000b0: 665b 3f3d 7bdb da3c b347 0bbe 3795 34bd
000000c0: 804a 3bbe 9205 fabd b37e fe3c 8b35 31bd
000000d0: 0e21 183e 9cba 723e 54f5 163d b945 a33d
000000e0: 0f85 0d3e 19b3 983c b4bc 08be 2cb1 8a3d
000000f0: c03a f03c f9ed 98bd e9f1 f53c d6f1 b33c
00000100: bdf9 7fbc b6b1 1b3e ea48 a83c ccb8 843d
00000110: 2cf3 84bd cecd 45bd 8697 8e3b 14f4 8dbd
00000120: d085 ce3d 4ccd ea3d 13fa de3d d55e 113e
00000130: 2e8a 853d f654 aa3b 446c acbd 6b01 b9bc
00000140: 85e8 80bc b728 8f3d 28aa 6cbd 6e4b f7bc
00000150: 77db f23c 7f13 433d d36b b13c 5ebb 9f3c
00000160: 9e95 0dbb 839c 723d 44f4 cd3c 574b a23d
00000170: 8f4d fc3d 4f6e 543d aae9 9f3c 47f9 ce3d
00000180: ab07 4a3e f869 cfbd 00b8 d53b a707 133e
00000190: c8ee f43d 6c5b ad3d 8c64 dd3c 3090 2c3e
000001a0: d147 953d db8b 7d3d 247e b43b 58e0 8abd
000001b0: cfc7 823d a514 013e 84fc d63d 9b97 eb3d
000001c0: 2e43 213c 32cc 923d 5ddd 083e b1be aebd
000001d0: d629 02be 5f16 e53c d1a6 82bd 28d3 f63c
000001e0: 2dc4 283d af5f e33d 52b1 ed3c a5fb 1f3d
000001f0: c27b c7bd ea94 6ebd a1a0 523c 127d 1b3d
00000200: 1ce2 1d3e 353a 18bd 4ba5 a3bc 0297 1f3e
00000210: cd88 613d c88b f7bb 81f7 f13c b5d8 59bd
00000220: 35ca 823b 6fe7 a03c 7232 2dbc 40e6 313b
00000230: 5bd6 a43d 107b 063e 190b f13d 0763 25bd
00000240: ac5f 09bd d056 6bbc 30ce e63d a13a 4dbd
00000250: 2d24 883c 0c75 b53d c2ff 5bbd 4628 163c
00000260: bf73 dc3d 3795 5c3d 0273 31bc 87ad a8bd
00000270: ec89 2c3d 8d76 50bd e4ef 0a3e 92f0 343e
00000280: 1526 98bd 35d6 393d c753 1e3e 71f8 6e3d
00000290: 0740 3c3e 882e aa3c 550b 153d 5402 05bd
000002a0: 87bc c33d 2375 623d b9d4 c63c 6da4 023d
000002b0: 0962 60bd 92a5 cc3d 9595 83bd 76a0 adbd
000002c0: 3939 d63d b490 b0bc 3b98 423e 663f c43c
000002d0: 9c74 e23d 9b49 bbbc c827 f73c ac92 1c3d
000002e0: 4e76 763d c8f4 ca3d 1a06 debc 0828 153e
000002f0: 1b74 063e 4950 e43d 83c5 9dbd bedb 06be
00000300: e21a 3bbd 8595 79bd 1976 28bd 89c4 a0be
00000310: ca90 d3bb 5787 a23d 12a7 a8bd ce35 213e
00000320: 7548 ca3c 88fa 083e d85b 7f3d de23 26bd
00000330: 7403 ba3d 9247 1cbd d38f 9b3d 0b0c 25be
00000340: 53e8 ebbc 359b 363d 08e9 a53d 6ca6 d4bd
00000350: 5af6 6f3e 5fac 3bb9 eb32 3d3a 3786 f03c
00000360: b8ed 99bd 5fcc 063d d8ec 1d3d 31bd 2d3e
00000370: d78b 17be eb2a 4d3c 2881 c33d 9fdf dbbd
00000380: d0f7 433d ff52 d13c 60fa af3d 5ac8 29bd
00000390: 1c59 5c3e 97b6 3b3e 2724 5b3c 896e c53d
000003a0: f7b3 36bc 6830 eabd 45fc 5f3d 1932 203d
000003b0: c421 2bbd bec1 583e 9d9e 24be c06b 29bc
000003c0: 8b01 8d3d d258 a43d db7a fc3c 13a6 63bd
000003d0: 8039 aabd 3c54 e7bb d58d 203e 6678 f4bc
000003e0: 62ff a9bc 0579 f1bd befd f83d 2ba3 86bd
000003f0: 6305 febd 20e2 fa3d 27f1 ab3d a68e 9abc
-0.030413361 0.074736446 0.19906768 0.02829946 -0.0554674 -0.003137819 0.006539402 -0.068042934
0.15690641 -0.10488887 0.1009068 0.027548281 0.039439242 0.057194058 0.16523866 0.0010879812
-0.059610844 0.027615376 -0.020782743 0.078740306 -0.17212182 -0.069437906 -0.15856929 -0.008710295
0.06919246 0.0075300755 0.19659616 0.03285303 -0.07104303 -0.10293151 0.17430958 0.16015315
0.040127013 0.07412485 -0.03035753 0.05987593 0.08688231 -0.31198046 0.03430816 -0.16680233
0.13797188 0.075684436 -0.18427424 0.04890482 0.046718024 0.026715985 -0.1360157 -0.044087615
-0.18290138 -0.12208094 0.031066274 -0.043263953 0.1485636 0.23703998 0.036855057 0.07972283
0.13820289 0.018640088 -0.13353235 0.06772074 0.02932489 -0.07467265 0.030022578 0.021965902
-0.015623507 0.1520451 0.02054258 0.0648056 -0.06491694 -0.048291974 0.004351559 -0.0693132
0.100841165 0.114649385 0.108875416 0.14196332 0.06520496 0.0051981164 -0.084190875 -0.022583684
-0.015735874 0.069901876 -0.05777946 -0.030187335 0.029645665 0.047626015 0.02165786 0.019498523
-0.0021604071 0.059231292 0.025140889 0.07924526 0.12319481 0.05186301 0.0195206 0.1010614
0.19729488 -0.10127634 0.0065221786 0.14358388 0.119596064 0.08464703 0.027025484 0.16851878
0.072890885 0.061900955 0.005508201 -0.067810714 0.06385767 0.12605532 0.10497382 0.11503526
0.009842677 0.071678534 0.13365693 -0.08532465 -0.12711272 0.027964769 -0.06379474 0.030129984
0.041202713 0.111022346 0.029015217 0.039058346 -0.09740402 -0.058247484 0.01285568 0.037961073
0.15418285 -0.037164886 -0.019976279 0.15584949 0.055062104 -0.007554505 0.029536964 -0.053185184
0.00399139 0.019641606 -0.010571109 0.0027145296 0.080486976 0.13132882 0.11769695 -0.040377643
-0.033538505 -0.014363959 0.11269796 -0.05010474 0.016618812 0.088602155 -0.053710707 0.009164875
0.10764264 0.05385324 -0.010830643 -0.08236223 0.04212372 -0.05089431 0.13568074 0.17669895
-0.074291386 0.0453703 0.15461646 0.0583424 0.183838 0.020774141 0.03638776 -0.032472923
0.09557443 0.05528749 0.024271356 0.03189509 -0.054780994 0.099925175 -0.06425015 -0.08477871
0.10460133 -0.021553375 0.19003384 0.023956012 0.11057398 -0.022862246 0.030170336 0.038225815
0.060171418 0.099099696 -0.027102519 0.14566052 0.13130228 0.11148126 -0.07703688 -0.13169762
-0.045679934 -0.06093361 -0.04112825 -0.31399944 -0.006456469 0.0793597 -0.08234991 0.15743181
0.024692753 0.1337682 0.06234345 -0.04056155 0.0908269 -0.038154192 0.07595792 -0.16117875
-0.028797304 0.04458161 0.08101088 -0.10383305 0.2343382 -0.00017897923 0.0007217365 0.029360874
-0.075160444 0.032909747 0.03855595 0.16966702 -0.14799438 0.0125224395 0.09546119 -0.10736012
0.047843754 0.025552271 0.08592677 -0.041450836 0.21518368 0.18331371 0.013375319 0.096402235
-0.011151305 -0.11435014 0.054683942 0.039110277 -0.04178025 0.21167657 -0.16076131 -0.010340631
0.0688506 0.08024754 0.0308203 -0.055578303 -0.083117485 -0.007059602 0.15679105 -0.029842567
-0.020751659 -0.11790661 0.121577725 -0.065740906 -0.12403371 0.12250161 0.083956055 -0.018866848

model.4.weight f4 [2, 256]
00000000: 2bb6 a43d 80b0 ca3e 24ee 9cbf 304c bf3e
00000010: 3e8f cd3e 6709 aebe ded8 48bd 41aa f33e
00000020: a26c 29bf 9bed 953e 848e e53e d586 cb3e
00000030: c191 4cbf a5a0 9d3e 17a4 853f bbbb f0be
00000040: 592c 10bd 10e4 9fbe ab67 7f3f 96e1 54bf
00000050: bae7 4ebe 68de ed3e e38c 20bf 04b8 9fbe
00000060: 2427 16bf 39c4 13be 8d52 913f f85e 873e
00000070: 8cdf 993e 9bae 9bbe da65 ddbe 7679 1fbd
00000080: 124a b5bc 3f79 8c3d faf3 02bd 7e59 26bf
00000090: fe82 47bf a767 b53e 788f 3bbd 74ee 96be
000000a0: 5ee0 85bf 3838 863e 11cc 7c3e 71c4 a1be
000000b0: 2cdb 6ebf 2720 eebe b45d 2f3e 33ac ed3a
000000c0: 455f 893f 5d2d 803e 5dbe a2bd 895f 763e
000000d0: 202e 9b3f 50c1 9cbf c387 203b 3a4d 0640
000000e0: 1758 1bbf 7e26 d13e 80a3 bfbd ca67 733e
000000f0: cf07 803e e840 33bf 85aa aebe 8113 c63e
00000100: c075 06be 79cd 9ebd 8b73 3dbc cc62 6e3f
00000110: 0289 163d 1f32 87be 3ee3 7c3e 153b 85bd
00000120: 5677 903e 079f eabd d02f f9bd cff0 c2be
00000130: f9e2 8d3e dcec 9b3e d75d 20bf c427 8f3e
00000140: 14f6 733e 2439 59be 026e 71bc 21ab cd3e
00000150: e50f f83d 03ce cbbe 821a 5dbf fe76 853f
00000160: 2bde 923e 6485 5bbf 6b2d 44bf 1405 9dbf
00000170: 1db6 5b3e 31c2 e63f 4da1 6d3f 469b c43e
00000180: cc61 653e 8438 963f 8265 a53f a04f 37bf
00000190: 2eb1 e93f fdfa 01be 0873 acbe 40da 2a3e
000001a0: 2f16 92bd 994c d5be a603 263e f073 483d
000001b0: facb 47bf 2c29 12bd 4d36 cb3e bb5d dfbd
000001c0: 59d8 fa3e 7974 b43e 3267 293d 67e9 a53d
000001d0: 7228 04bf d118 e13a 9830 4fbc 5651 44be
000001e0: 0d07 323e 7ad5 4c3e 82ae 2b3e 7a84 e2bd
000001f0: 2b67 da3e 29ec 8d3d 6fce 97be 1302 8dbd
00000200: 87e7 913e c56d cdbe 539a 093d 3140 dabf
00000210: 9a01 1abf afe6 15bf bc29 af3f 964d 6d3f
00000220: 3715 683f bf73 3cbf 7157 c63d 29bf 2ebd
00000230: c559 debe 162e ac3e 413a 8c3f 0297 9d3e
00000240: 991a 89be c2f3 39be 18a9 993e ab47 4cbd
00000250: 3787 713f 4dc1 22be 7979 14be 3ad1 79be
00000260: 0619 5b3e ccd9 223f eeeb f3bd 46bb 463e
00000270: 7e5b 7b3d eaaf 303f 2034 af3e 2a33 863e
00000280: dd1f 923e 283e a13f ebf4 a340 597d 14bf
00000290: 9dea 0dbf b439 94bc 7bdc aabe 2b0b 30bd
000002a0: 646e 4d40 129a 7e3e 25be c4bd 0532 703e
000002b0: ae0c b6be c3b4 ea3e b00d 75be cdf8 d53e
000002c0: 0e43 3f3f 3dc8 93be 6797 fcbe 7f36 0bbd
000002d0: 2ad9 813e 15f9 05bf a548 3abe 4c4a 3b3e
000002e0: 8f2f 9e3e 726d dcbe 3c8d 5fbe f5b9 be3e
000002f0: c67a 923e 0e6e b03e 7075 103f a0f5 90be
00000300: 7df5 3cbe c292 0d3f 76f2 ea3e f3fc 1bbe
00000310: ebce 8dbe cc5a 51be 6b20 7dbe 7254 dfbd
00000320: 73cd 4c3f 56e8 ea3e 75c9 24be 9f1d 39be
00000330: 2605 483e da04 18be 7b6a 7840 f9b5 853d
00000340: 4e62 743e 375f 4dbc 9976 183f 2dd2 c0be
00000350: 0be3 11bf 97ac 8b3e cab3 6fbe 219d 613e
00000360: 4b56 e63d 0609 00bf 845a 2a3e 36cf 273f
00000370: bb1d e23e 4e60 8a3e 62cf f93e 5807 163f
00000380: 587c 563e 5ea1 f73d accd 09bf dc7a 03bc
00000390: bae1 063f c561 d9be c57c 2d3d c108 a7be
000003a0: aeb9 603f 5ddc 4dbe b281 3f3e 7395 97bc
000003b0: de8d 26be 9fc6 793f 2f26 753e eb08 b53e
000003c0: 1aa5 883e 1fd6 7e3e 25f6 113f 241d 67ba
000003d0: 0f72 6bbe 34d2 5e3e 3411 69be 5628 fb3e
000003e0: a70e 0c3e 2d7d 8abe 788c 91bf 2c1a 6bba
000003f0: fa4e 0c3c ebbe 983f 34a6 bfbe e6ec 743e
0.08042558 0.39587784 -1.2260175 0.37362814 0.40148348 -0.33991548 -0.049034946 0.4759083
-0.66181386 0.2928284 0.44835293 0.39751306 -0.799099 0.30786625 1.0440701 -0.47018227
-0.035198543 -0.31228685 0.9976756 -0.83156717 -0.20205584 0.46458745 -0.62714976 -0.3119508
-0.58653474 -0.14430322 1.1353317 0.26439643 0.30053365 -0.3040665 -0.4324177 -0.038934194
-0.022130046 0.06859063 -0.031970955 -0.64980304 -0.77934253 0.35430643 -0.04579112 -0.294788
-1.0459096 0.26214767 0.2468722 -0.31595185 -0.9330318 -0.46508905 0.17125589 0.0018132984
1.0732199 0.2503461 -0.07946465 0.24059881 1.2123451 -1.2246494 0.0024494983 2.0984635
-0.6068129 0.4084968 -0.09357357 0.23770061 0.25005957 -0.70020914 -0.3411447 0.38686755
-0.13130856 -0.077540345 -0.011563192 0.931195 0.036751755 -0.26405427 0.24696061 -0.0650541
0.28216046 -0.11456113 -0.12167323 -0.38074347 0.2771223 0.30454147 -0.6264319 0.27960026
0.2382434 -0.21213204 -0.014735701 0.40169623 0.12112407 -0.39805612 -0.8636857 1.0426939
0.28685126 -0.8575041 -0.766318 -1.2267175 0.2145619 1.8028013 0.9282425 0.38399714
0.22400588 1.1735997 1.2921603 -0.71605873 1.8257196 -0.126934 -0.33681512 0.16684818
-0.071331374 -0.41660002 0.1621233 0.04893869 -0.7804562 -0.035683796 0.39689866 -0.109065495
0.48993185 0.35245112 0.04135818 0.081011586 -0.51624215 0.0017173534 -0.012645863 -0.19171652
0.17385502 0.2000331 0.16765788 -0.11060424 0.42656836 0.069298096 -0.29649684 -0.06885161
0.28496954 -0.4012281 0.03359444 -1.705084 -0.60158694 -0.5855512 1.3684611 0.9269651
0.9065737 -0.73614115 0.09684647 -0.042662773 -0.43427864 0.3362891 1.0955278 0.30779272
-0.26778105 -0.18159392 0.3001182 -0.049873035 0.94346946 -0.15894051 -0.14499463 -0.2439622
0.21396264 0.6361358 -0.119102344 0.19407377 0.06136655 0.69018424 0.34219456 0.2621091
0.28539935 1.2597094 5.123647 -0.58003765 -0.55436116 -0.018093921 -0.33371338 -0.0429794
3.2098627 0.2486346 -0.0960658 0.23456581 -0.3555655 0.45841035 -0.23931003 0.41791382
0.7471169 -0.28863707 -0.4933426 -0.03398752 0.25360996 -0.52333194 -0.18191774 0.18290061
0.3089566 -0.4305225 -0.2183122 0.3725125 0.28609294 0.34458965 0.56429195 -0.28312397
-0.18453021 0.5530206 0.45888108 -0.15233211 -0.27696928 -0.20444793 -0.24719398 -0.109047785
0.8000099 0.45880383 -0.16092475 -0.18077706 0.19533214 -0.148456 3.881499 0.06528849
0.23865625 -0.012534908 0.59555966 -0.3766035 -0.56987065 0.27280113 -0.23408428 0.22032596
0.11246928 -0.5001377 0.16636091 0.65550554 0.44163308 0.270266 0.48791033 0.58604956
0.20945871 0.12091325 -0.53829455 -0.008024897 0.5268818 -0.42457405 0.042355318 -0.32623866
0.87783325 -0.20103593 0.18701819 -0.01850388 -0.16265056 0.97568697 0.23940347 0.35358366
0.26688462 0.24886368 0.5701621 -0.0008816293 -0.22992729 0.21759874 -0.22760469 0.4905421
0.13677464 -0.27048627 -1.1370993 -0.00089684385 0.008563751 1.1933264 -0.3743149 0.23918495

model.4.bias f4 [2]
00000000: 5e90 4dbb 1ba9 973d
-0.0031366567 0.07405301
