hw2/preTrained/ddpg_actor_LunarLanderContinuous-v2_04282023_064336_.pth (torch, 276375 bytes, 6 tensors)

model.0.weight f4 [256, 8]
00000000: c2d4 71bd fd77 64be b626 e3bd 776f c93e
00000010: 4e1d 39bf 5661 c93e aab5 a03d c800 4e3f
00000020: 7303 fa3e c1f7 fcbe 1ed3 02be 84b3 ba3b
00000030: af07 343d eb41 c2bd 5d57 533e 7712 9d3e
00000040: ad4b b7be 045a c1be 279b aebd eed8 12be
00000050: 69ee 19bf 8a9e e7be a440 05bf 5a47 b6be
00000060: 8df4 a6be 1f33 d8be c926 a3be f30a 1abf
00000070: f58d d1be 7f02 963e d487 b73e a6ae ab3e
00000080: c1d9 0b3e 21f1 14be 6d74 d23e 50a3 3ebf
00000090: 68ab a23f d7ca 583e 71cd 063f ea02 0c3e
000000a0: 296b e93e 9d90 0cbe 9da6 adbd b9b7 05bd
000000b0: 9ec3 c03e c8f6 003e 27c4 eabd 6b2f 6b3e
000000c0: 99bf c9be 0e53 e53c 0c29 4cbf d84b 153f
000000d0: 5e6d 6ebd 7010 593e 416f 44be 0782 a93e
000000e0: f9d0 cf3d f609 ba3e d120 433f 85d8 1740
000000f0: 5834 78be 41b6 19bf 0ec1 f93d 92b0 a23d
00000100: bfbc 783e 6568 823e bd57 3cbe 7c10 5d3d
00000110: 0d7b 30bf d799 263f 192b 013f 74a3 b2be
00000120: 97e2 95be 30cc 9d3e 3aea cdbe 6b6b e7bd
00000130: 7286 08bf 286f 393e d4d1 64bd 40b9 2ebe
00000140: 41b4 23bf a1d7 f8bd ef5c 933e c37f 403e
00000150: ffe3 7bbe c3dd a4be 99df d2bd 7950 d83e
00000160: 44db b3be 041a 0dbf c4e2 c1be 2e15 d13e
00000170: 45f4 9b3e c060 353d 6c2c 64bd e4c9 2c3e
00000180: 8bc0 f23e ca63 a53d b2dc 25bf 5d62 a0be
00000190: 09d9 04bf cc3a 483e 87a9 843e 0383 163d
000001a0: cfae 4ebe 38e3 553e 68ce 103e 76d8 3a3e
000001b0: 0797 4dbe 7c57 c53e 4636 533d de97 6f3e
000001c0: 02b5 1c3f 4e57 c0be a268 143e 90d0 35be
000001d0: 5538 bc3c 89da a0bd 02b6 a93e 5479 c13e
000001e0: 48f9 5abd 9aa6 b73e 6d11 e6bd f471 4ebe
000001f0: 14e2 9c3f fd7b 8d3d afef 0ebe 756f 2a3e
00000200: f0a4 20bf 15b5 29be 817a 68be 9692 fb3d
00000210: 4ff8 d5be 46f1 0d3e f5da c3bd f7ac f2bd
00000220: 0e44 2f3e 1a92 d1bd d71f 35bf ec9b a0bf
00000230: 917a 9fbe 0d9f e33e db0c cb3e 9e82 bdbe
00000240: b8d9 2dbc f116 213e ed8b 493f 9ace dcbe
00000250: 49f7 1c3d c59c 0f3e 87b3 16bf 5c86 8abd
00000260: dc4b 2a3e 5ed7 99be 3701 fcbb ea71 cbbf
00000270: 6b39 2a3f 8c34 1a3f 3c51 613e c3e0 55bd
00000280: b824 c6be 9920 cdbe 3568 f23d 1cee b3be
00000290: 1998 e4be 9793 8c3e 0d7c a3bd c5a8 9b3c
000002a0: 39db fbbe 0504 043e d6ae 19be bca8 873e
000002b0: d7da 4f3e d996 1abf af66 923e 469c 0dbf
000002c0: e1dd 193e 3983 0fbf 6bcc fd3d 628d 25be
000002d0: 3b42 783e 453a 123d a961 653f d39e b93e
000002e0: feea 893d e96f a4be b6cf 16bd 5f7a 073e
000002f0: abeb f13e 9623 f03e 99d6 9c3d 76b2 5e3d
00000300: dc7a e3be 1373 08bf c731 4e3e 92eb 02bf
00000310: 2768 aebe cabb fc3c 2cd2 ebbe af88 55be
00000320: 0045 41be 140e f43e aa94 873e 6a0a 56bc
00000330: 43b8 2b3e 91cd 573d 71be a53e 19ee b4be
00000340: ebf5 653e 9450 363e c209 3a3f 8d17 b6be
00000350: 0b4f adbf a994 f03d 357c 7dbe 996b a2bd
00000360: 4f6e 893e 5d51 f73d eee5 a2bd efb0 353f
00000370: 55f6 0940 375f a8be df10 9abe da90 223e
00000380: ff74 013e c006 85be 39b6 583f 2155 083d
00000390: c11d f53f cf8a a93f febe cf3c 5ab1 9fbe
000003a0: 2eec e33d 8302 813e 62c7 973f 3fcb 833e
000003b0: 6dcb 133d 2b13 9a3f 4b28 2e3e 043f ba3e
000003c0: 6cde 32bf fff4 0fbe d365 1e3d 37d5 f73d
000003d0: c830 9ebe 876b 163f 1e77 f9bd 46bb 14bf
000003e0: cc32 a9be ca80 9abe 44da 27bf b522 5cbe
000003f0: 6746 e13d 9875 5e3e 1b93 e3be 1d9d c03e
-0.059040792 -0.22311397 -0.11091368 0.39342853 -0.7231034 0.39332074 0.0784715 0.8046994
0.48830757 -0.4940777 -0.12775847 0.0056976695 0.04395264 -0.09485229 0.20638795 0.3067815
-0.35799924 -0.3776399 -0.08525687 -0.14340565 -0.6012941 -0.45238143 -0.5205176 -0.35601312
-0.32608452 -0.42226502 -0.31865528 -0.6017296 -0.40928617 0.2929878 0.35845816 0.33531684
0.13657285 -0.14545108 0.4110445 -0.74467945 1.2708559 0.21171127 0.5265723 0.13672987
0.4558957 -0.1372704 -0.084790446 -0.032645915 0.37649244 0.1259414 -0.11463194 0.22967307
-0.3940399 0.027993705 -0.7975013 0.58318853 -0.05820977 0.21197677 -0.19183065 0.33107015
0.1014728 0.36335725 0.7622195 2.3725903 -0.24238718 -0.6004372 0.121950254 0.07943834
0.24290751 0.25470272 -0.18392844 0.0539708 -0.6893776 0.6507849 0.50456387 -0.3489033
-0.29274437 0.30819845 -0.40217763 -0.11299785 -0.5333015 0.18108809 -0.05586417 -0.17062855
-0.6394692 -0.12150503 0.2878184 0.18798737 -0.24598692 -0.3220044 -0.10296554 0.42248896
-0.35128224 -0.5511782 -0.3786832 0.4083647 0.304598 0.04428172 -0.055706427 0.1687389
0.47412524 0.08075674 -0.6478988 -0.31325045 -0.5189367 0.19553679 0.2591059 0.036746036
-0.20183872 0.20887458 0.14141238 0.18246636 -0.20077144 0.38543308 0.05156543 0.23397776
0.61213696 -0.37566608 0.14493039 -0.17755342 0.02297608 -0.07854182 0.33146673 0.3778788
-0.05346039 0.35869294 -0.112337925 -0.20160657 1.2256494 0.069084145 -0.1395862 0.1664408
-0.62751675 -0.16572984 -0.22702982 0.122838184 -0.41791007 0.1386157 -0.09563247 -0.11849397
0.17115805 -0.10232945 -0.7075171 -1.2547584 -0.31148198 0.44457284 0.39658245 -0.37013716
-0.01061099 0.15731408 0.78729135 -0.43126374 0.038321767 0.14024647 -0.58867687 -0.06763908
0.166305 -0.30047125 -0.0076905745 -1.5894139 0.6649386 0.6023643 0.22003645 -0.052216303
-0.3869989 -0.40063933 0.11836282 -0.351426 -0.4464729 0.27456352 -0.07982645 0.019001374
-0.4919069 0.12892158 -0.15008101 0.26495922 0.20298325 -0.60386425 0.28593966 -0.5531658
0.15026046 -0.56059605 0.12392505 -0.16167215 0.24244015 0.0357001 0.8960214 0.36253986
0.06734274 -0.3211663 -0.036819182 0.13230275 0.47250113 0.4690215 0.07658119 0.054369412
-0.44429672 -0.5330059 0.20136176 -0.511407 -0.34063837 0.030851264 -0.46058786 -0.20852922
-0.18873978 0.4766699 0.2648061 -0.013064006 0.16769509 0.052686278 0.32371858 -0.35337904
0.22457092 0.17804176 0.7267114 -0.35564843 -1.3539747 0.11747105 -0.24754412 -0.07930679
0.2684197 0.12076066 -0.07954012 0.70973104 2.15566 -0.32885143 -0.30090997 0.15875569
0.12642287 -0.25981712 0.8465305 0.03328431 1.9149705 1.3245486 0.025359627 -0.31189996
0.11129032 0.2519723 1.1857722 0.25741002 0.036082674 1.20371 0.17007558 0.36376202
-0.6987064 -0.14058302 0.038671326 0.121012144 -0.30896592 0.58757824 -0.12180923 -0.58098257
-0.33046567 -0.30176383 -0.6556742 -0.21497615 0.10999756 0.21724546 -0.4444817 0.37619868

model.0.bias f4 [256]
00000000: afc5 d63c 839a d63e db2e 20bc b98f 25be
00000010: c0ed 5ebd bcd8 4dbe c8de 273e c398 a13c
00000020: 9ae7 43be 91d6 71be 19f0 cd3e 42bd e8bc
00000030: 9c3b 4e3e 7449 1bbe 710c 64bd 147f c6bd
00000040: 7ea7 cabd 7db1 c5bd f958 923d 916b b9bb
00000050: 010e 08bd 3b5f e3be d971 553b 53de 88be
00000060: 7db8 403d 440a 483d 4802 63be 7b2a ce3b
00000070: 0a92 0dbe 0ed9 b93d b8ba d13d b3cf cdbe
00000080: d947 87bd b136 ac3d ef49 b0bb e0e0 46bd
00000090: 391c babc 6d1c a03c 82f3 5e3e d01d 1fbe
000000a0: 1369 c23e 6158 e9bd 7900 46be b397 85bd
000000b0: 49d8 9dbe 9376 cd3c cfae c4be fe2a 77be
000000c0: dd47 39bd 7d15 a63d 953f c03e 8654 0a3d
000000d0: c2c0 f03b 68eb 733d 10d8 e43d b7b3 85bd
000000e0: 6f50 cfbe 329a 533e 358a 4fbd d56a b0b8
000000f0: bf6d 0e3e 3d46 c53d 7424 4f3e 4874 1dbe
00000100: db41 f03d 129c 9b3e 903f 87bd 4eb4 e5bc
00000110: adb2 cbbd a7ed ae3e a9b0 b13e f507 6abe
00000120: 7ded 93be 3c80 93bd 7d2f fdbd 6949 7cbe
00000130: 209c 68bd 763e 8fbe 67fe 07be fcf5 a73e
00000140: 28d5 debe 0a7d 343d 0067 1c3e e71d e4bd
00000150: 8d43 84be a1b7 95bc d3e7 c83d 39e7 3dbe
00000160: 8c5f 743d 38ce 763e 02c3 66be 647a 8abe
00000170: 44c8 993e 6b28 b0be 7f44 6bbd 90e5 6bbe
00000180: 1725 873e 5c48 953e 92f2 ec3e aca3 583e
00000190: 2f99 79be 5324 ad3e bc63 84be 4b46 8cbe
000001a0: 109e a1be 7758 00bf 9c7c ec3c cd95 f43d
000001b0: b390 f03d b29e 3a3e 3a57 e3bc 7a69 a5bd
000001c0: 8a67 adbd 50c7 ddbd 069c 3bbe 74f4 ca3e
000001d0: 945b 103e 42cc 7abe f787 4ebe 8451 05be
000001e0: c562 c83d 164a e33d 0d15 d93c 8496 44be
000001f0: 72a5 d3bd 28bc 2d3e 2903 bf3d 36d5 16be
00000200: 2ce0 2a3e 2557 04be 5c3c 3bbd f0f6 91bd
00000210: 3892 a8be 7209 603d 0257 adbe b4f6 19be
00000220: 63de 0cbc bd4e 4dbe 4eb9 09bf cbfd 443e
00000230: a59f c83d 1d99 053f d4ac 43be dc62 033e
00000240: 59d7 1b3d 01cd 57be 1a5c a4be 90b3 2ebe
00000250: ce7b 2f3e 2c8e 9abd 6b25 69bd bd50 953e
00000260: b7e0 a7be 79cf 0abe 979e 0fbd 0b50 843d
00000270: 82d8 8b3c 0906 6bbe d540 1c3e ee05 e93b
00000280: 37c0 8a3e 105d 0a3f 2b70 3d3e 743e c8be
00000290: 8c58 083d 558c 1fbe 5198 7a3e 49d1 823e
000002a0: 9b79 413e 643b 813d e2bf 253d 5211 1a3e
000002b0: 14e5 09be a896 b13e 642f 22be de9b 17be
000002c0: e20b 37be 47f5 073e cec2 ec3d 6c4c 0c3d
000002d0: b489 e63d 9dd9 15bd 76f7 02be 6461 4bbe
000002e0: 6984 de3e 3257 e7bc c52d a93e 1d75 da3b
000002f0: 0a5e 9b3e b884 a83e 9482 6d3e 7ddc 9abc
00000300: fa8b 573d c9fc 38be 08f3 64bc c491 05bd
00000310: a7e5 b7be 547a 43be 8d8a a43d 14ea 823d
00000320: 24ea 2b3d 4979 aabd 1f11 b2bd 9403 993e
00000330: 9473 01be 977f 3f3e 8183 073f 4ba7 7ebd
00000340: b563 4f3d c9a2 74be bf13 8f3e f096 bebe
00000350: a119 a1bd 2436 6cbd 9065 84be 1186 023f
00000360: c825 24be e93b 00be ed46 97bd 5e4f 8c3e
00000370: 3de4 80be 07b1 76bd 008f 68be c00d 10be
00000380: a80e 11be 3451 45be 8df3 803d 9184 b1be
00000390: cf0d a6bd 449a 4b3e 6350 febd 7f2d ba3e
000003a0: 72bb 013d 4aa4 1c3f 6a33 ca3e 686f 4dbe
000003b0: e337 20be 4956 57be e0a6 113e 26de 42bd
000003c0: eeb6 54bd efb5 b83e c5b8 45be 0737 2ebe
000003d0: a1e5 1abe ce61 db3c 1e03 3e3d 31b9 343d
000003e0: 66a3 d03d caea 173f 3ade 303e 631a 4d3e
000003f0: 1b19 29be c1d6 923e 5b5e 0abe 45ff 053e
0.02621731 0.41914758 -0.009776796 -0.16168107 -0.054425955 -0.20102209 0.16393578 0.019726163
-0.19131318 -0.23617007 0.40222242 -0.028410558 0.20139927 -0.15164739 -0.055675928 -0.09692207
-0.09895228 -0.09652994 0.071458764 -0.005658575 -0.03321648 -0.44408593 0.003256908 -0.2673212
0.04705094 0.048837915 -0.22168839 0.006291685 -0.1382524 0.09074603 0.10240692 -0.40197524
-0.06605501 0.08408869 -0.0053799073 -0.0485543 -0.022718536 0.019544804 0.21772578 -0.15538716
0.3797079 -0.1139381 -0.19336118 -0.06523075 -0.30829075 0.025080955 -0.38414618 -0.24137494
-0.04523455 0.08109567 0.3754851 0.033772014 0.0073471973 0.059550673 0.11174023 -0.065284185
-0.40491053 0.2066429 -0.050668914 -8.412233e-05 0.13909052 0.096325375 0.2022875 -0.15376389
0.11731311 0.3039251 -0.066039205 -0.028040078 -0.09946189 0.3416569 0.34705094 -0.22854598
-0.28892127 -0.07202193 -0.12362573 -0.24637379 -0.056789517 -0.2797734 -0.1328064 0.3280486
-0.43522 0.04406456 0.15273666 -0.11138516 -0.25832787 -0.018276038 0.09809842 -0.18545236
0.059661433 0.24102104 -0.22535327 -0.27046502 0.30035603 -0.34405836 -0.05743837 -0.2303679
0.26395485 0.29156768 0.46278816 0.21156186 -0.24374841 0.33816776 -0.2585734 -0.2739738
-0.31565905 -0.50134987 0.028868012 0.11942635 0.11746349 0.182246 -0.027751554 -0.08076759
-0.08467014 -0.108290315 -0.18321237 0.39639628 0.14097434 -0.2449198 -0.20169054 -0.13019377
0.09784464 0.11098115 0.026499296 -0.19198042 -0.103342906 0.16966307 0.093267746 -0.14729771
0.16687077 -0.12923868 -0.04571186 -0.07127178 -0.32924056 0.054696508 -0.33855444 -0.15035516
-0.008597943 -0.20049568 -0.5379838 0.1923744 0.09796075 0.5218676 -0.19108897 0.1283068
0.03804717 -0.21074297 -0.32101518 -0.17060685 0.17137071 -0.075466484 -0.05692045 0.2916316
-0.3278863 -0.13555707 -0.035063352 0.064605795 0.017071012 -0.22951521 0.15259106 0.0071113026
0.27099773 0.5404825 0.1849982 -0.39110148 0.03328757 -0.15580876 0.24472167 0.25550297
0.18894045 0.06310156 0.040466197 0.1504567 -0.13466293 0.34685254 -0.1583839 -0.14805552
-0.17875627 0.1327716 0.115605935 0.03425257 0.112567335 -0.036584485 -0.12789711 -0.1986137
0.43460396 -0.02823982 0.33042732 0.006666793 0.30345184 0.32913756 0.23194343 -0.018903965
0.052623726 -0.1806518 -0.013973959 -0.032609716 -0.35917398 -0.19089633 0.08034239 0.06392303
0.04197134 -0.083239146 -0.08694672 0.29885542 -0.12641746 0.18701015 0.52935034 -0.06217126
0.050632197 -0.23890223 0.27944753 -0.3722453 -0.078662165 -0.05766882 -0.25858736 0.5098582
-0.16030037 -0.12522854 -0.07386575 0.27404302 -0.25174132 -0.06022742 -0.227108 -0.14067745
-0.14165747 -0.19269258 0.062964536 -0.34671453 -0.081081025 0.19883066 -0.12417676 0.36362836
0.031672902 0.61188185 0.3949235 -0.2006203 -0.15646319 -0.21029009 0.14223814 -0.04757514
-0.051932268 0.36076304 -0.19308765 -0.17013179 -0.15126659 0.026780035 0.04638969 0.044121925
0.10187416 0.59342635 0.17272273 0.20029597 -0.16513483 0.2867947 -0.13512556 0.13085659

model.2.weight f4 [256, 256]
00000000: d6d9 f1be df46 bcbe 5ef4 333e 19a7 30bf
00000010: e884 1d3d 515f a2bc 35df 38bc f8ec 51bf
00000020: 7e13 863e 762f 05bf 241e d53c fe94 edbe
00000030: ed01 603e d305 c93d 09a6 81bc fb2e efbd
00000040: 35d7 d2bd 9ef1 9b3e 75ce 95bd 3fdd 833d
00000050: 3610 9cbe 7199 41be fcba 82be 8735 77be
00000060: b0e5 bbbe 6b39 d53d 2fe0 2ebd 4ddd 05be
00000070: ad4f 1abe 90d8 dabe 4265 053e bb09 123e
00000080: 65d1 813d 74e5 5b3e e009 9e3e c93c cc3d
00000090: 419b 36be 6d0d 9ebe 325b d43c 8a92 85bd
000000a0: 568b 33bf 3f1e 86be f9cf 66be a871 9c3e
000000b0: 3b5e 0cbe e891 9abd 7706 86be d41b 1a3e
000000c0: 86f4 743d 1b18 c8be 59c9 8dbe 3bed e63e
000000d0: 4fc1 803c 69f1 163e 3ae8 73be d7ff 9fbd
000000e0: fd48 9dbc 56f4 8abe 0c75 2e3e 678d b4bd
000000f0: fb7c fe3d 2106 8e3e 6a16 373c b52f 74be
00000100: 9289 a5bf 9098 923e 288e 073e ab0b b4be
00000110: baee efbe 5461 763e e4f2 8bbe c83c 823e
00000120: 7d3a afbe cf80 903d 50d2 77be 8081 24bd
00000130: f443 3d3d 0d5f e4bc 5f3e aebe 9161 ae3e
00000140: e261 92be c2b4 a2bd fabd 43bf 9feb 92bc
00000150: 973f adbe 8266 6dbf 16ec 9e3e f712 9abd
00000160: 0b81 33be f0eb 12ba 3e7a 80be 1b55 1cbe
00000170: bf16 2abf 0bc2 843e 79c5 fd3c 413d ab3e
00000180: e4f2 a33e 294c a2be bf7c 1bbd 1efd dbbe
00000190: b40c dfbd 9c0f 30be 1851 9abd f8de 23bf
000001a0: 39b8 ac3e 2803 adbe 44be ccbe baf3 29be
000001b0: e1ca a4be e141 a1be 58dd 793e a73c 93be
000001c0: 99e6 30be 537a df3d dd2a 13be fb83 08bf
000001d0: e480 d2be 3d2e 08bf c0fb 20bf cbf2 8f3e
000001e0: f028 40be 2586 8cbf 7d8f 633d 8064 54bc
000001f0: 745b f1be 7ddc 27bf 61ce 183e 85fe 1d3e
00000200: b4d4 dd3e 9919 7dbe bc36 1bbf 3584 17be
00000210: b2f7 90be f82c 4a3e fbf4 5b3e 4145 0a3d
00000220: 03e6 34be 4751 43be bf63 1b3e 29f4 9b3c
00000230: 0ec5 f13d e1a0 db3e 382a 4c3e 293f dcbd
00000240: b2bf 93bf 3679 74be 6c0f b33d 107d cebe
00000250: 03a9 b8be 1893 fdbe e3bf 0e3d 9187 49bf
00000260: abff 89be f19b c63e 403a a23e 12d0 c33d
00000270: 2e67 abbf d5de 95be 4a38 0bbf f6dd febd
00000280: 74c0 e0be f079 0bbe 8267 5e3b 2718 cb3b
00000290: 2845 d43b df30 00be 901c 5d3d 9489 b83d
000002a0: 9eb6 873e e9b7 d63d 8ab9 6c3e 64db d33e
000002b0: 47ce 4fbe 5fa5 2ebe 2e15 25be 6768 333e
000002c0: 78c2 17be 2518 dbbe 6b18 f73c 80fa 39be
000002d0: a935 a63e aac2 a8be e940 5e3e 3a30 b0be
000002e0: 2a94 053c 6efa 9abe f21b babe 3a64 b43d
000002f0: 24a3 703e 85b7 e5bd 6730 c73c 9658 09bf
00000300: 9e04 e3be 84c8 abbe 0975 4b3d 564a 05be
00000310: c59d 84be e57b c0be 1443 2f3d f90b 97bd
00000320: 87d1 5bbe 358e 08be 931c ebbe 67ca 9d3e
00000330: d3d9 48be d3ac 15bf 5d2a 33bf 8be5 76be
00000340: 0eba 263e b70b 213e a374 163e f4cd e23c
00000350: 8da9 613e 464f e0bd 7a7c 963e 3281 d6be
00000360: d228 a6be 114d 0a3d aa3a 96bd 3c67 00be
00000370: ba60 95be 3196 d6be 5873 753e 1e64 b0be
00000380: 562b 7b3e ffe1 07bf caa2 abbe fa85 a2be
00000390: 6935 073d 8317 5d3d 5bca 30be 9c24 453e
000003a0: abcc 233e 1146 aabc 0ae2 d33e 05b2 2e3e
000003b0: 661d a83d aece ddbe 7ddd 353e 412b 543e
000003c0: fda3 52be 98a6 703e edb8 a0be 85e0 e93d
000003d0: bb6d edbe 7557 14bf 155d 59bf 8be2 e6be
000003e0: 008c a4be b34a 2b3f 8df8 ce3e dbfc 543e
000003f0: ca84 d03c d0e1 a63e ca39 22c0 764c 393e
-0.47236508 -0.3677282 0.17573687 -0.6900497 0.038456827 -0.019820841 -0.011283685 -0.8200221
0.26186746 -0.52025545 0.026015349 -0.46402735 0.21875735 0.09815564 -0.015826242 -0.11678883
-0.10294954 0.30457777 -0.07314769 0.06438684 -0.30481118 -0.1890619 -0.25533283 -0.24141513
-0.36698675 0.10411342 -0.042694267 -0.13072701 -0.15069456 -0.4274335 0.13026908 0.14261524
0.06338767 0.21474248 0.3086691 0.09972531 -0.17832662 -0.30869618 0.025922392 -0.06522091
-0.70134485 -0.2619495 -0.22540273 0.30555463 -0.13707821 -0.07547361 -0.26176807 0.15049678
0.05980351 -0.3908089 -0.2769268 0.45102867 0.015717177 0.14740528 -0.23819056 -0.078124695
-0.019199843 -0.2713954 0.17036837 -0.08816033 0.12426182 0.2773905 0.0111747775 -0.23846324
-1.2932608 0.2863202 0.13237822 -0.35165152 -0.4686182 0.24060565 -0.27333748 0.25436997
-0.3422431 0.07055818 -0.24201322 -0.040162563 0.046207383 -0.027877355 -0.3403196 0.34058812
-0.28590304 -0.07944633 -0.76461756 -0.017934619 -0.33837578 -0.9273454 0.31039494 -0.075231485
-0.17529695 -0.00056046154 -0.25093263 -0.1526684 -0.6644096 0.25929293 0.030977951 0.3344517
0.32021248 -0.3169873 -0.037960764 -0.4296655 -0.10891095 -0.17193455 -0.07534999 -0.640121
0.337343 -0.3379147 -0.3998891 -0.1659688 -0.32186034 -0.31495574 0.24400842 -0.28757212
-0.17275466 0.10912003 -0.1437182 -0.53326386 -0.4111396 -0.53195554 -0.6288414 0.28114924
-0.18765616 -1.0978438 0.055556763 -0.012963414 -0.47140086 -0.65570813 0.14922477 0.15429123
0.43326342 -0.24716796 -0.60630393 -0.14796527 -0.28313977 0.19743717 0.21480171 0.033757452
-0.17665868 -0.19073974 0.15174769 0.019037323 0.11805163 0.42896178 0.1993798 -0.10754234
-1.1542876 -0.23874363 0.08743176 -0.4032979 -0.36066446 -0.49526286 0.034850966 -0.7872248
-0.26952872 0.3879085 0.31685066 0.09561171 -1.3390863 -0.2927157 -0.54382765 -0.124446794
-0.4389683 -0.13620734 0.0033936207 0.0061979475 0.0064779706 -0.12518643 0.053982317 0.09010616
0.26506513 0.10484297 0.23117653 0.4137832 -0.20293532 -0.17055272 -0.1612136 0.17520295
-0.14820278 -0.42791858 0.03016301 -0.18161964 0.32462814 -0.32961017 0.21704449 -0.34411794
0.008153001 -0.30269188 -0.36349446 0.08808179 0.23499733 -0.11216644 0.024315072 -0.53650796
-0.4433946 -0.3355142 0.04967216 -0.13016638 -0.2590162 -0.37594524 0.04278858 -0.073753305
-0.21466647 -0.13335498 -0.45920238 0.30818483 -0.19614343 -0.58466834 -0.69986516 -0.24111001
0.16281912 0.15727125 0.14692931 0.027686097 0.22037335 -0.1095262 0.29391843 -0.41895443
-0.32453018 0.033764903 -0.07335408 -0.12539381 -0.2917536 -0.41911462 0.23969781 -0.34451383
0.2452825 -0.5307922 -0.33522636 -0.3174284 0.03300992 0.0539775 -0.17264692 0.19252247
0.15996043 -0.020785363 0.41383392 0.17060097 0.08208732 -0.43321747 0.17760272 0.20719625
-0.20570369 0.2350105 -0.31391087 0.11419777 -0.4637278 -0.5794595 -0.84907657 -0.45094714
-0.32138062 0.66910857 0.40424004 0.20799582 0.025453944 0.32594156 -2.5347772 0.18095574

model.2.bias f4 [256]
00000000: 588e 563e 7411 db3d 8694 1d3e a2f6 3e3c
00000010: de8b c83d ce1c 5ebd ea04 e03a 841e 67bd
00000020: 48a6 773e 8e9c 28bd b76d 27bd 9e88 96bd
00000030: 20c5 86bd f634 143e c63b 4cbd 2a27 1bbe
00000040: 1fb5 4abd 57bb 8bbd b186 3a3e 7061 51bc
00000050: 06af ae3d b9a3 e73c 51db 8fbb 55f4 95bb
00000060: 42fb ec3d 843f 8bbd d32a e13d a9c2 1f3d
00000070: 01b5 98bd 36f2 38be fe15 8fbd 82ce c0bd
00000080: f120 1b3e 28aa 8ebd fe3d f7bc 499a dbbc
00000090: a677 b7bb cce7 bd3d f03e ec3d fae5 a3be
000000a0: 0f76 fd3b 8652 0e3e 4739 673d 2f86 fe3d
000000b0: 43fd d83c 32c7 413d 6ebb 533d 5a85 36bd
000000c0: bda4 343d 0e67 07be 453d 3c3e 187d a4bd
000000d0: 826d c33d de39 b6bd efc4 bfbd 997d 9a3d
000000e0: 5447 9f3d 96f0 9c3c de11 493d 4de6 c1bd
000000f0: 4f98 5fbd 02a0 72bc 95cf cfbb 8fd5 13be
00000100: d1fd 10bd 3b8e 1c3d 43db c7bc 502f a43c
00000110: 650b 82bd d84d 34bd cb81 8c3d 29d0 493b
00000120: 1572 85be 7f09 2a3e 27c1 ca3d 290f 493e
00000130: 84a6 3fbe 0124 b53d 4fe3 f6bd cd53 0e3e
00000140: 60f7 633e 9d86 443e 46fa 033e 88d3 1ebe
00000150: 7858 d03b b7c4 2bbd 9d71 853d ef31 35be
00000160: 0d0a 983c 4a1f 06be fd15 8e3b e655 1f3e
00000170: 2a94 b8bc f10d fabc 2052 343d 159f d03d
00000180: e4e7 cb3c adff d8bd 7c6e c6bd f8ba b6bd
00000190: 87db 163c e223 40bb 40d2 843c cd63 c1bd
000001a0: a6c4 fd3c 096a 68bd 70f3 e4bd d80f 8bbd
000001b0: de28 163e 3723 0bbe f753 edbc 8039 883d
000001c0: 115d 95bd 42f9 423d d41e afbd 8c5e 84bd
000001d0: 6285 e7bd 63d8 8abd 40a2 89bc 81e1 363e
000001e0: fa3c d93d 0ef8 5a3d b126 bf3d e364 99bc
000001f0: fd8c 5dbd 48e3 3ebd 1798 bd3d 122d e83c
00000200: d61e 773e 9266 2abd 37dd 0d3d fce6 983d
00000210: 292a f4bc 6ae2 3abd 502a 4e3d 99d7 3ebd
00000220: bdbc 10bd cac0 133e 83a6 813e fba2 31bc
00000230: 4855 053e 1f98 c53c 7a71 eebd f900 913d
00000240: ccd5 623e a2a1 42bd 9d8d 1f3e afaf 91bd
00000250: 5787 12bc 8a8e c33d e34b ef3c aa23 ac3d
00000260: 5248 9f3d 00dc 8b3e 2dcc 473d b076 33bd
00000270: b7be b73c 8daf b63d 5034 10be 2f05 373c
00000280: df06 8e3d 4a2c 87bc b074 4f3d c351 6f3d
00000290: 3b25 a33c ad8a 8d3d 2907 203e d5da 56bd
000002a0: 33e0 c6bd 9afc 723d b6cb a1bb 5b50 35be
000002b0: 201d babc 3580 863e d266 4dbe fa77 c63d
000002c0: c195 6e3d 61b6 203d 7c14 663c 4e4a c73c
000002d0: 9dd9 4e3c 40ad bbbc 1488 a539 4f3a 0b3e
000002e0: fdbd db3d 0778 503d 157c dc3a 9de0 28bd
000002f0: 21e3 19be 17b1 0f3c 38cc e63d 77e6 9c3c
00000300: 5343 3dbc 1363 0a3e 5454 bb3d 212a 42bd
00000310: 725a cabc ccdd fa3c cfbe 0c3d ed81 d63d
00000320: ffea 75bd 3d30 0bbe 0585 083c 3e8b fd3d
00000330: 4f6f 53be efd3 863d c363 01be 2722 74be
00000340: d9b6 063d 180c 4e3d 9421 0bbd 88b9 87bd
00000350: b3b5 a73d 9699 993c d39c c6bb 65bd 60bd
00000360: e560 48bd 8005 6ebd 280a 24bd 13a9 6e3c
00000370: 0f2e 2fbd 6f31 e73c 4a71 cd3d d1a4 913d
00000380: 8857 44bd fc48 18bc 4ff3 f53c 527d 293e
00000390: 3804 053d 0394 89bd 8186 053c dc9f 1ebd
000003a0: 4422 87bd bcfc ccbd 9b9c f73c 60e7 293d
000003b0: 861a fcbc 793f 913e d2ca 023e 6e9e 4bbd
000003c0: 4abf 7dbc e092 23bd 2b75 733d 9481 aabd
000003d0: f2ac bcbd af02 95bd 906e ccbc d506 913d
000003e0: 2864 22be 6e21 fbbc 0d39 003e f4a4 8fbd
000003f0: 45ff 813d 54a9 163e e5b8 e53d df3a 5a3e
0.20952737 0.10696688 0.15388688 0.0116554815 0.097923025 -0.05422669 0.0017091308 -0.056425586
0.24184525 -0.041164927 -0.040876117 -0.073502764 -0.06580567 0.14473328 -0.049861692 -0.15151659
-0.049489137 -0.068228416 0.18215443 -0.012779579 0.08529477 0.028276311 -0.004390158 -0.004576246
0.11571361 -0.06799224 0.10994496 0.039004 -0.07456399 -0.18061146 -0.069866166 -0.09414388
0.15149285 -0.069660485 -0.030180927 -0.026806967 -0.00559898 0.09272727 0.11535442 -0.32011396
0.007735021 0.13898668 0.05645111 0.12427937 0.026487952 0.047309108 0.05169242 -0.044560768
0.04410242 -0.13222906 0.18382747 -0.08031672 0.09542371 -0.08897756 -0.09363734 0.07543487
0.07777277 0.019157689 0.049089305 -0.094677545 -0.054588612 -0.014808657 -0.0063418844 -0.14436935
-0.03539831 0.03822158 -0.024396544 0.020042092 -0.063498296 -0.04401955 0.068606935 0.003079424
-0.260636 0.16605185 0.09900122 0.1963469 -0.18715864 0.08844758 -0.120550744 0.13899155
0.22262335 0.19191976 0.1288844 -0.1551038 0.0063582025 -0.04193565 0.06515811 -0.1769483
0.01855948 -0.13097873 0.0043361173 0.15560111 -0.022531588 -0.030524226 0.044023633 0.101865925
0.024890848 -0.10595641 -0.09689042 -0.0892238 0.009207613 -0.0029318263 0.016213536 -0.094428636
0.030977558 -0.056741748 -0.111792445 -0.06790131 0.14664027 -0.13587652 -0.028970702 0.06651592
-0.07293142 0.047600992 -0.08550802 -0.06463346 -0.11304738 -0.06779554 -0.016801 0.1785946
0.106073335 0.05345922 0.09333552 -0.018724864 -0.054089535 -0.04660347 0.092575245 0.028341804
0.24132857 -0.041601725 0.034634795 0.07465932 -0.02980526 -0.04562608 0.05033332 -0.04659233
-0.035336245 0.14429012 0.2532235 -0.01084208 0.13020813 0.024120389 -0.11642738 0.07080264
0.2215187 -0.047517426 0.15581365 -0.07113587 -0.0089434 0.095486715 0.02921099 0.0840524
0.07777466 0.27316284 0.0487787 -0.04381436 0.022429807 0.089202024 -0.14082456 0.011170669
0.06934904 -0.01650061 0.05064839 0.058427583 0.019915214 0.06911216 0.15627731 -0.05245479
-0.09710731 0.05932293 -0.0049376143 -0.17706434 -0.022718966 0.2626969 -0.20058754 0.096908525
0.058248285 0.03923643 0.01404297 0.024327423 0.012625125 -0.02290976 0.0003157264 0.13596462
0.10729597 0.050895717 0.0016821647 -0.041229833 -0.15028049 0.008770249 0.112694204 0.019152863
-0.011551696 0.13514356 0.09146944 -0.04740346 -0.02470133 0.03062334 0.034361657 0.10474
-0.060038563 -0.1359262 0.008332496 0.12380074 -0.2064793 0.06583392 -0.12635712 -0.23841153
0.03288922 0.050304502 -0.03396757 -0.06627184 0.08188953 0.018749993 -0.0060611754 -0.05486812
-0.04892053 -0.058110714 -0.04004875 0.014566678 -0.042768534 0.028221814 0.10031374 0.07111514
-0.04793504 -0.009294745 0.030023245 0.16551712 0.032474726 -0.06717684 0.008149744 -0.038726673
-0.065983325 -0.10009143 0.030226042 0.041480422 -0.030774366 0.28368738 0.12772682 -0.049711637
-0.015487501 -0.039934993 0.059437912 -0.08325496 -0.09212674 -0.072759025 -0.024955064 0.07081381
-0.15858519 -0.030655589 0.12521763 -0.07013884 0.06347517 0.14713031 0.112169065 0.2131152

model.4.weight f4 [2, 256]
00000000: fe38 3940 564a 84be abe1 f8bf 424b 2abf
00000010: f81d a43d c885 3ebf 2a8b 64be 706b aa3f
00000020: 17b7 593f d8d1 c7bd 3bc6 353d cbac f63e
00000030: aa3f 1abe 9d9b 563f 4833 c63e 6b3e cf3e
00000040: 6458 adbd f5c5 0cbe abe2 c8be 0ec6 b1be
00000050: ccdc 1dbe 1b2c c13e 68c3 72be 62ed f5be
00000060: a9f4 16bf 5f03 dabc 3625 e63e 579c 97bf
00000070: 0f77 f13e 81bf e2be 506f 2e3e bb6b 87be
00000080: dd3f 0fbf 3e19 39be d21b f1bc 39b4 84be
00000090: f0c7 213f b2b8 1fbf c558 8dbf 3826 0b3e
000000a0: c6d4 583b 81ff 173f 4b91 b53f bd14 89be
000000b0: 9b60 d13e 1f86 0ebf e0b8 133f 97ac bfba
000000c0: 6530 783e 792a 363e 6810 0dbc 90fe 713b
000000d0: 64b2 a43d b8f1 91bf a4a3 f4be b7c1 e43f
000000e0: df8e 2ec0 163c d13f fbd7 01bd 7bc5 d03e
000000f0: fbc5 3b3d 5f05 31bf f9f8 ebbc 8e68 fa3e
00000100: b3c1 893e 2e43 fabe c731 0a3c 4f68 de3e
00000110: 6fc9 363e 23cd 49bf db45 cabc d1d6 20bf
00000120: 1ba8 033d baec 45be 29e8 aa3f 87df e3c0
00000130: 21e5 c8bd bcaf 48be 43b4 38be 012c a13d
00000140: 929b 473f d453 36bf bb26 51be d08b 523f
00000150: 2159 48be 8fd1 c73e 6e9e 0abf 197e 9c3e
00000160: 4482 09be 04df 43bf e49e 40bf c7fa 91bf
00000170: f4db 823e bea3 483d 9bed ca3e 0ea0 6ec0
00000180: 4d06 a63c 5ec5 98be 5ee2 893e 32f4 bd3e
00000190: aa4d 75bd a0a2 273e 1a50 0bbe 9875 6cbf
000001a0: a87a de3c 8079 20bd 4e5d 403f f0ab 3c3d
000001b0: a970 f7be b4b5 313e ce8c 5fbe e7f2 6a3f
000001c0: 6768 203f 5e63 b83f bab1 533e 471e e03c
000001d0: acdc 93bd d4f2 003f e4ff 18bd 6978 a3bf
000001e0: e2c8 083e 63e1 d33e e5ed 3b3f 62b4 c23b
000001f0: 10ee 543f be21 57bf 14bb abbe ca50 f3bd
00000200: f513 123f de56 f2bf 91f6 46bd 3f16 e4be
00000210: d8b5 11bf 40d2 3cbf 4154 833e acd2 c8be
00000220: a257 8e3e a187 b1be 2f37 0240 9df4 e3be
00000230: 3a59 93be a96e 8f3f 0d3a 353f 7d5c d03e
00000240: 22cb cc3e b365 b8be 3d12 0140 a3ff e2bb
00000250: d2c6 0c3e 3929 01c0 6f96 633e 3298 d73d
00000260: 4851 aebe 8fc5 7840 8def 7b3c ca45 bd3d
00000270: e0be 92be d3cc 743f 35b8 45bf 0247 23bc
00000280: a540 c13e a15d 1c3d ebb5 fb3e 7ad9 aebf
00000290: 3de6 11bf e963 913d e95f 533e 7909 afbc
000002a0: 420d 673d b709 66bd 176c 4bbd e1bc e13d
000002b0: 80aa 46bf 4531 8bbe 999f cfbe 825e cfbe
000002c0: 38f1 cb3e aee4 4fbf f1f8 7fbf 5506 01bd
000002d0: 3cda 26bf 0d61 68be 5fd2 e2be 81bb 12be
000002e0: bd5e 4abd 0b86 cf3e 60e8 08bf 10b7 9dbe
000002f0: cc44 823e 08d9 8b3f 8972 953d 28cd 9fbe
00000300: 9d12 8abe 7a7b cf3e d550 2040 1ff9 a83b
00000310: 776b 4fbd ebfc 74bd eb6e 91bf 9298 39bf
00000320: 22e4 893e 4e61 de3d be76 86bf 9acd 0fbe
00000330: f760 a43e 7263 32be 2144 b6be 45b6 45bf
00000340: 6253 7dbd df1c bdbe bc55 bbbd bddf 1fba
00000350: 6018 56be d1d2 1140 6df7 0b3f daa7 6bbf
00000360: 0b6a e6be df95 04bf c4dd dc3e 44bc a2bf
00000370: 2125 b1be e665 0c3f 84d9 9a3e 1e46 5240
00000380: 0594 69bf b3ef b8bc ed73 68bf 5ffe 7dbc
00000390: 5f8d be3e 9ca4 aabe faa8 0c3d 7efe 73be
000003a0: d247 9f3d d068 c8be e650 da3e e143 5ebe
000003b0: 495d 20bd 283a 663f d60f 003f 66bd fd3e
000003c0: 3418 fb3e b144 7bbf 4705 89ba 2850 8dbd
000003d0: c056 bdbf 2a0b 69bf f32c 87bc 5945 a53f
000003e0: 3ab7 dbbe 60fe 3cbf 65c1 10c0 2fec 173c
000003f0: 0829 8cbf c179 253f dadf 07bf 2b4a a4be
2.8941035 -0.25837964 -1.9443868 -0.66521084 0.080135286 -0.74422884 -0.22318712 1.3314037
0.85045 -0.097568214 0.0443785 0.48178706 -0.15063348 0.838312 0.38711 0.4047731
-0.08464125 -0.1374739 -0.39235434 -0.34721416 -0.15416259 0.37728962 -0.23707354 -0.4803267
-0.5896707 -0.026612936 0.44950265 -1.1844586 0.47161147 -0.4428673 0.1703465 -0.2644938
-0.5595682 -0.18076035 -0.029432211 -0.2591875 0.63195705 -0.623912 -1.1042715 0.13588798
0.0033085807 0.59374243 1.4184965 -0.26773635 0.40894017 -0.556734 0.5770397 -0.0014623579
0.24237211 0.1778964 -0.008609869 0.0036925413 0.08041838 -1.1401892 -0.47781098 1.7871617
-2.7274702 1.6346462 -0.031700116 0.40775666 0.045843106 -0.6914882 -0.028805243 0.48907894
0.26905593 -0.4887938 0.008434719 0.43438956 0.17850278 -0.7882864 -0.024691513 -0.62827784
0.03214274 -0.19328585 1.33521 -7.121036 -0.09809328 -0.19598287 -0.18037514 0.07869721
0.77971756 -0.7122166 -0.20424931 0.82244587 -0.1956525 0.39027068 -0.54147995 0.30564955
-0.13428599 -0.7651217 -0.7524245 -1.1404656 0.25558436 0.04898428 0.39634404 -3.728519
0.020266676 -0.2983808 0.26930517 0.3710037 -0.05988852 0.1637063 -0.13604775 -0.92366934
0.027158096 -0.03917837 0.7514237 0.04606241 -0.4832814 0.1735447 -0.21831056 0.9177689
0.62659305 1.4405324 0.20673266 0.027358187 -0.07219824 0.50370526 -0.03735341 -1.2771121
0.1335788 0.41382894 0.73409873 0.0059419135 0.83175755 -0.8403586 -0.33541167 -0.11880644
0.570617 -1.893276 -0.048574988 -0.44548222 -0.56918097 -0.73758316 0.25650218 -0.3922323
0.27801234 -0.3467379 2.0346181 -0.44522563 -0.28779012 1.1205646 0.70791703 0.40695563
0.39998728 -0.3601509 2.0167382 -0.006927447 0.13747719 -2.018141 0.22225355 0.10527076
-0.34046388 3.887058 0.015376938 0.09241827 -0.2866125 0.95625037 -0.772342 -0.00996566
0.37744632 0.03817523 0.4916223 -1.3660119 -0.5699194 0.070991345 0.20642056 -0.021366822
0.056409128 -0.05616161 -0.04966363 0.11022354 -0.7760391 -0.27186027 -0.4055145 -0.4050179
0.39832473 -0.8120831 -0.9998923 -0.03150018 -0.6517675 -0.22693272 -0.44301125 -0.1432934
-0.049406756 0.40531954 -0.53479576 -0.30803728 0.25443113 1.0925608 0.072972365 -0.3121121
-0.26967326 0.40523893 2.5049336 0.0051566507 -0.050639596 -0.059811514 -1.1361974 -0.7249843
0.26931864 0.10858403 -1.0504987 -0.14043275 0.32105228 -0.17420748 -0.35598853 -0.77231246
-0.0618471 -0.3693609 -0.09147212 -0.0006098708 -0.20907736 2.2784922 0.54674417 -0.92052996
-0.4500278 -0.51791185 0.43137944 -1.2713704 -0.3459864 0.54842985 0.30244076 3.2855296
-0.91241485 -0.022575235 -0.9080189 -0.015502541 0.37217233 -0.33328712 0.034340836 -0.2382755
0.077773705 -0.39142466 0.42639846 -0.21705581 -0.039151464 0.8993249 0.50024164 0.49558562
0.49041903 -0.9815169 -0.0010453843 -0.06900054 -1.4792099 -0.9103266 -0.016500926 1.2911788
-0.42913228 -0.73825645 -2.2618039 0.009272619 -1.0950022 0.64638907 -0.53075945 -0.32087836

model.4.bias f4 [2]
00000000: 61d1 20bd 9de3 1a3e
-0.03926218 0.1512589
