hw2/preTrained/ddpg_actor_LunarLanderContinuous-v2_04252023_023455_.pth (torch, 276375 bytes, 6 tensors)

model.0.weight f4 [256, 8]
0.12418009 0.039976567 -0.16720161 0.18749478 -0.37066075 -0.15422998 0.18251173 0.47371542
0.09640839 -1.0417219 -0.3576085 -0.1349685 0.35593078 -0.23499072 0.25425985 0.25136572
0.14292853 -0.6335448 0.2751524 0.24995232 0.13490194 -0.37851393 -0.688666 -0.3154334
-0.5386737 0.2299241 -0.4963755 -0.89818406 -0.5155751 0.26108882 0.2965377 0.4297303
0.35039523 -0.042505972 0.30726534 -0.15231293 0.7398578 -0.100892946 0.3315773 -0.13302165
0.31841013 0.61612 -0.1247515 -0.10265168 0.10408539 -0.13686368 0.07958276 0.105144314
-0.39761782 0.23226397 -0.187245 0.5953404 -0.30193883 0.25371683 -0.49607247 0.000821757
0.5949482 0.14615816 0.7115553 0.6133326 -0.21923006 -0.18846345 -0.11181493 0.12043833
-0.22084594 0.8146445 0.1798921 -0.3203513 -0.18617228 0.3202913 0.50257754 -0.70566845
-0.259633 0.4240651 0.41500276 -0.029635705 -0.6889301 0.37047347 -0.37730464 -0.41899315
-0.15754962 -0.8296154 0.10199042 0.11222515 0.34592384 -0.360969 0.01222874 0.5950548
-0.5366521 0.19126183 -0.26277947 0.36360472 0.18114173 -0.16575818 -0.048884947 0.08513059
-0.03379435 0.026472708 -0.23248854 -0.48864648 -0.16887993 0.12657987 0.60799503 -0.23382938
-0.40916732 0.42988032 0.252463 0.072091304 -0.2572351 -0.14304483 0.09611428 0.14867027
0.33902037 -0.6641781 0.11963632 -0.19541606 0.086038604 -0.13520461 0.07244304 0.036629982
0.43450382 0.43251365 -0.63504195 -0.416979 0.9579257 -0.0045143655 -0.6565589 0.0044403095
-0.44389406 0.17419024 0.1090362 -0.009664574 -0.550435 -0.084002346 -0.16095217 -0.34086114
-0.051201135 0.43018475 -0.48739114 -0.4917337 -0.21207185 0.28566122 0.49304557 -1.1054727
0.24602813 0.028386386 0.5829477 0.09302954 0.056109127 -0.2771507 -0.31717446 0.25158414
-0.44703922 0.033577528 0.18132874 -0.62712824 0.040669482 0.18228646 0.18135452 -0.100647725
-0.64425606 -0.45502728 -0.5015073 -0.029275091 -0.08224094 0.43188903 -0.25876623 0.10771998
-0.5876575 0.35755026 -0.18542936 0.2895787 -0.10975604 -0.5605322 0.30039743 -0.540991
0.30449867 -0.2931694 0.06816669 -0.008336114 0.09013078 -0.12957005 0.55157524 0.28133208
0.07518925 -0.18823911 0.03318184 0.23553337 0.7011057 0.34439602 0.25646162 0.16142628
-0.34722015 -0.08456307 0.4433007 -0.6439527 -0.19395202 0.24226731 -0.29498217 -0.14353019
-0.2893826 0.63931966 0.40011334 0.20529602 -0.1488913 -0.034735754 0.1889127 -0.036194555
-0.39585227 0.40844426 0.6124349 -0.47024685 -0.58398604 -0.17655875 0.37631872 0.34379202
0.12643419 0.24833061 -0.6548577 0.27818668 0.30514202 0.016126858 -0.30272514 -0.36330682
-0.22946866 0.050728973 0.3183875 -0.06045666 0.20377824 0.66954213 -0.36913678 -0.18607013
0.19051453 0.19566944 0.11256453 0.6708213 0.52802795 -0.045892578 -0.031102167 0.340341
-0.73350227 0.37102434 0.3246818 0.09225744 -0.10805127 0.23536561 0.08359113 -0.84083056
-0.39076206 0.32698002 -0.5048322 -0.27921674 0.11201254 -0.0023143676 -0.72974974 0.06414698
00000000: 2252 fe3d 78be 233d e636 2bbe a2fe 3f3e
00000010: 3fc7 bdbe 77ee 1dbe 5be4 3a3e d48a f23e
00000020: c371 c53d 2557 85bf 7618 b7be 2f35 0abe
00000030: 8f3c b63e 68a1 70be 592e 823e 02b3 803e
00000040: db5b 123e fe2f 22bf c6e0 8c3e 80f3 7f3e
00000050: bc23 0a3e 94cc c1be 6a4c 30bf 7d80 a1be
00000060: 85e6 09bf 3971 6b3e ee24 febe 64ef 65bf
00000070: bbfc 03bf 6fad 853e cad3 973e 9c05 dc3e
00000080: 0167 b33e be1a 2ebd e251 9d3e ecf7 1bbe
00000090: 5267 3d3f f6a0 cebd 80c4 a93e d436 08be
000000a0: a706 a33e 0aba 1d3f b77d ffbd 0b3b d2bd
000000b0: b92a d53d fe25 0cbe 49fc a23d e755 d73d
000000c0: 9094 cbbe 9bd6 6d3e 27bd 3fbe 3a68 183f
000000d0: ba97 9abe 2ce7 813e 36fd fdbe 2e6b 573a
000000e0: 864e 183f 7caa 153e 7d28 363f 5e03 1d3f
000000f0: d87d 60be 90fc 40be 3aff e4bd 5fa8 f63d
00000100: 7025 62be 8b8c 503f a235 383e 1605 a4be
00000110: f2a3 3ebe 39fd a33e eca8 003f b0a6 34bf
00000120: 9eee 84be 101f d93e 3e7b d43e 94c6 f2bc
00000130: b95d 30bf b3ae bd3e 132e c1be 4586 d6be
00000140: b054 21be ad61 54bf 5ae0 d03d 4dd6 e53d
00000150: ee1c b13e eed0 b8be 0e5b 483c 8355 183f
00000160: 0862 09bf 24da 433e 088b 86be 662a ba3e
00000170: 387d 393e 83bc 29be 953b 48bd f258 ae3d
00000180: f26b 0abd 4bdd d83c 7a11 6ebe df2f fabe
00000190: dcee 2cbe 279e 013e 90a5 1b3f f870 6fbe
000001a0: 617e d1be 4619 dc3e d542 813e 9ba4 933d
000001b0: 52b4 83be 587a 12be 90d7 c43d 053d 183e
000001c0: 1494 ad3e 9307 2abf e303 f53d 261b 48be
000001d0: 0235 b03d 1473 0abe 045d 943d 5209 163d
000001e0: 4977 de3e 6e72 dd3e 1c92 22bf 467e d5be
000001f0: 9e3a 753f 3eed 93bb 3e14 28bf 0480 913b
00000200: 1546 e3be ed5e 323e 5f4e df3d 2958 1ebc
00000210: 4fe9 0cbf 6c09 acbd a5d0 24be 5a85 aebe
00000220: 48b8 51bd 2d41 dc3e 558b f9be 85c4 fbbe
00000230: 5d29 59be 3042 923e 7870 fc3e 2180 8dbf
00000240: ccee 7b3e 918a e83c 0f3c 153f 4586 be3d
00000250: afd2 653d b2e6 8dbe b164 a2be a3cf 803e
00000260: 53e2 e4be 9788 093d 3eae 393e 7a8b 20bf
00000270: 0b95 263d 4da9 3a3e 00b5 393e 6520 cebd
00000280: f7ed 24bf 56f9 e8be c862 00bf 51d2 efbc
00000290: f06d a8bd 8f20 dd3e 027d 84be 4b9c dc3d
000002a0: b970 16bf d410 b73e 32e1 3dbe a943 943e
000002b0: c6c7 e0bd 0a7f 0fbf b1cd 993e 637e 0abf
000002c0: 40e7 9b3e 4d1a 96be fa9a 8b3d 3294 08bc
000002d0: 7d96 b83d 03ae 04be 0934 0d3f c20a 903e
000002e0: d2fc 993d c1c1 40be aee9 073d a92f 713e
000002f0: aa7b 333f ad54 b03e f04e 833e ee4c 253e
00000300: d7c6 b1be 672f adbd 4ff8 e23e 16da 24bf
00000310: 5c9b 46be ec14 783e e707 97be 94f9 12be
00000320: f529 94be 74aa 233f a8db cc3e 1f39 523e
00000330: f676 18be 1447 0ebd 5572 413e be40 14bd
00000340: 26ad cabe 9b1f d13e 89c8 1c3f 32c4 f0be
00000350: 1c80 15bf d1cb 34be d9ac c03e 8205 b03e
00000360: f777 013e 614a 7e3e c1a4 27bf 7c6e 8e3e
00000370: 933b 9c3e 791c 843c cafe 9abe 5a03 babe
00000380: d5f9 6abe 2fc9 4f3d b003 a33e 67a1 77bd
00000390: 3eab 503e 1d67 2b3f 7fff bcbe 2b89 3ebe
000003a0: 3e16 433e 925d 483e 3b88 e63d f2ba 2b3f
000003b0: d72c 073f dbf9 3bbd f9c9 febc 2d41 ae3e
000003c0: cec6 3bbf e7f6 bd3e b13c a63e 78f1 bc3d
000003d0: fc49 ddbd af03 713e d431 ab3d ac40 57bf
000003e0: f711 c8be ed69 a73e af3c 01bf 7ff5 8ebe
000003f0: d566 e53d a5ac 17bb e1d0 3abf 7e5f 833d

model.0.bias f4 [256]
0.07872946 0.21518391 0.15756916 0.00892749 0.26288304 0.27329573 0.18614304 -0.23627213
0.0924532 -0.2238489 0.13738221 0.24969558 0.17546809 -0.20164238 -0.25303045 -0.17887408
-0.12422007 0.06426707 0.13191254 0.150637 -0.21977784 -0.33785152 -0.25260943 -0.2747569
0.184667 -0.22298966 -0.1455809 0.07085944 0.39180967 -0.13186337 0.21992265 0.04716203
-0.107843645 -0.03467189 0.17982084 0.22470759 0.0031108488 -0.09917589 -0.27474463 -0.058421355
0.11070135 -0.021326125 -0.07599441 0.05841708 -0.06566421 -0.06744195 -0.3483031 0.16424406
0.08760812 -0.04738289 0.3694254 0.40812814 -0.026132869 0.15040278 0.316056 0.24641342
-0.35779133 0.4248063 0.12710379 -0.015262461 -0.119818166 0.03241876 0.2867966 -0.003780527
0.228443 0.3907894 0.03883068 0.2728372 0.030158255 0.20977741 0.07086414 0.015503329
0.14112438 -0.22050965 0.0015718855 0.010574366 0.1143579 0.21888763 -0.061795644 0.58408266
-0.071062654 0.34459716 0.25884148 0.14216441 -0.16809015 0.17340845 0.3194012 -0.07803404
-0.0016674538 0.24170518 -0.21009947 -0.31159073 -0.18246767 -0.1325442 0.021762995 -0.01872109
0.25867218 -0.10376436 0.3131357 0.09746003 0.33867112 0.17918445 0.15004107 0.35559142
-0.2815375 -0.30120873 -0.00020129269 -0.06487809 -0.032014236 0.01021061 -0.14110322 -0.3151158
-0.18530673 0.14288543 -0.61506695 0.29326788 -0.04466058 -0.39062545 -0.085531436 0.019556118
0.06076723 0.243508 0.13661508 -0.21479058 -0.16084301 0.051663544 -0.17504032 -0.021728512
0.38553208 0.015492672 0.041859556 0.02765659 -0.16388057 0.2906565 0.052702412 -0.09025167
-0.18246476 0.33420178 -0.3431975 0.041197736 -0.019471042 0.42522672 0.5496158 -0.10802842
0.08234227 0.0569244 -0.062103964 -0.103371486 0.427867 -0.32750008 -0.17253082 0.03917678
-0.17157006 0.037189998 0.18904367 0.057002097 -0.15589926 -0.17009212 0.025128448 -0.10466758
0.1149732 0.30934602 0.24143967 -0.29412687 -0.09655918 -0.2118677 0.017767463 0.16213891
0.03969991 -0.213299 0.07667404 -0.037141018 -0.271139 0.28325123 0.20674853 0.13344043
-0.022364357 0.26081082 -0.012767124 0.10743619 0.19440031 0.06718855 0.3602872 -0.0032434082
0.2525566 -0.16501981 0.2999806 0.0848333 0.17099905 0.18835832 0.072715685 -0.26475
-0.24418597 -0.2718763 -0.10204816 -0.08534979 -0.16797288 -0.0020896606 0.44160667 0.47503194
0.24689114 0.056095414 -0.058545094 0.12095871 0.26843408 0.42483288 0.2596218 0.025654398
0.122870594 0.33848372 0.26243538 0.26347545 0.15916911 -0.08178397 0.018445479 0.26895842
-0.12785354 0.19424091 -0.17397217 0.14645475 -0.062949315 0.34120774 0.3072298 -0.15845731
0.14102687 -0.08433256 0.111972414 -0.2044048 -0.013365392 0.31888917 -0.26922852 0.43684772
-0.047187272 0.27907592 0.3434425 -0.24202536 -0.029829195 0.09711093 0.15243906 0.05787819
0.17245297 0.32952708 -0.031784363 -0.03839628 -0.1453868 0.31864455 -0.021260105 0.07126235
0.27173004 0.21424866 0.3656554 0.17584923 -0.08263384 0.27073717 -0.19945404 0.17081577
00000000: e93c a13d 2c59 5c3e cf59 213e 9b44 123c
00000010: 9b98 863e 6bed 8b3e 489c 3e3e 52f1 71be
00000020: 1a58 bd3d a538 65be ecad 0c3e 33b0 7f3e
00000030: e8ad 333e 577b 4ebe 358d 81be c42a 37be
00000040: 1867 febd 749e 833d 1514 073e 9640 1a3e
00000050: 710d 61be e0fa acbe 0656 81be f0ac 8cbe
00000060: 5919 3d3e 6757 64be 2913 15be c11e 913d
00000070: 479b c83e 3107 07be 6733 613e f92c 413d
00000080: 21dd dcbd 1d04 0ebd f422 383e bf19 663e
00000090: 62df 4b3b bb1c cbbd 54ab 8cbe 3b4b 6fbd
000000a0: 64b7 e23d 20b4 aebc f5a2 9bbd c046 6f3d
000000b0: f57a 86bd 011f 8abd c954 b2be 982f 283e
000000c0: e36b b33d 9014 42bd 5325 bd3e 2cf6 d03e
000000d0: 9914 d6bc 3003 1a3e 18d2 a13e cd53 7c3e
000000e0: 6d30 b7be 3680 d93e 7f27 023e 670f 7abc
000000f0: 3a63 f5bd 89c9 043d 01d7 923e b8c2 77bb
00000100: f6ec 693e 8c15 c83e eb0c 1f3d 51b1 8b3e
00000110: 720e f73c e4cf 563e 3821 913d ad01 7e3c
00000120: e982 103e 48cd 61be ba07 ce3a 1b40 2d3c
00000130: 7a34 ea3d 1424 603e 6e1d 7dbd 7186 153f
00000140: 4c89 91bd 0a6f b03e df86 843e 8c93 113e
00000150: d31f 2cbe fc91 313e 8e88 a33e 50d0 9fbd
00000160: 778e daba 9081 773e 5124 57be d288 9fbe
00000170: ced8 3abe abb9 07be 4f48 b23c f95c 99bc
00000180: ae70 843e 6982 d4bd 5353 a03e 2099 c73d
00000190: 4d66 ad3e 217c 373e 5ea4 193e 1410 b63e
000001a0: af25 90be 0838 9abe 1812 53b9 cede 84bd
000001b0: 5c21 03bd 674a 273c 5d7d 10be dc56 a1be
000001c0: 0cc1 3dbe 8f50 123e 0775 1dbf 3527 963e
000001d0: 03ee 36bd 0f00 c8be 1b2b afbd 2734 a03c
000001e0: 0fe7 783d 295a 793e d3e4 0b3e 10f2 5bbe
000001f0: 08b4 24be 279d 533d c53d 33be feff b1bc
00000200: 7664 c53e fad4 7d3c ed74 2b3d 1390 e23c
00000210: 4fd0 27be eed0 943e 7cde 573d ded5 b8bd
00000220: 0bd8 3abe 7f1c ab3e 95b7 afbe f5be 283d
00000230: bc81 9fbc 51b7 d93e 9fb3 0c3f 013e ddbd
00000240: 10a3 a83d 8f29 693d ba60 7ebd 6eb4 d3bd
00000250: 6211 db3e 17ae a7be ebab 30be d577 203d
00000260: 10b0 2fbe 8a54 183d aa94 413e 087b 693d
00000270: 0ea4 1fbe a12c 2ebe 2dda cd3c f55b d6bd
00000280: 1277 eb3d 9a62 9e3e f63b 773e cc97 96be
00000290: d2c0 c5bd d9f3 58be 128d 913c be07 263e
000002a0: 5f9c 223d 0e6b 5abe 4707 9d3d 2e21 18bd
000002b0: bbd2 8abe 4e06 913e e3b5 533e 9ca4 083e
000002c0: 7535 b7bc ff88 853e 332d 51bc 8107 dc3d
000002d0: e010 473e 279a 893d 9077 b83e 5c8f 54bb
000002e0: 194f 813e f4fa 28be 0f97 993e 15bd ad3d
000002f0: 601a 2f3e 01e1 403e f6eb 943d 508d 87be
00000300: e30b 7abe 5f33 8bbe a0fe d0bd dfcb aebd
00000310: 1501 2cbe b0f2 08bb 451a e23e 6337 f33e
00000320: 08d1 7c3e 4ec4 653d fbcc 6fbd 33b9 f73d
00000330: 3170 893e b283 d93e 26ed 843e 2c29 d23c
00000340: 94a3 fb3d bd4d ad3e ee5d 863e 41e6 863e
00000350: 3afd 223e 5b7e a7bd f91a 973c ebb4 893e
00000360: 0aec 02be 17e7 463e c325 32be 3cf8 153e
00000370: 92eb 80bd c8b2 ae3e 394d 9d3e a242 22be
00000380: 5969 103e 8db6 acbd cb51 e53d 7e4f 51be
00000390: 84fa 5abc 7145 a33e 52d8 89be 81aa df3e
000003a0: 7147 41bd 0ae3 8e3e b2d7 af3e 7fd5 77be
000003b0: 5b5c f4bc 18e2 c63d fc18 1c3e ae11 6d3d
000003c0: 8397 303e c6b7 a83e 5230 02bd 6b45 1dbd
000003d0: 47e0 14be 6125 a33e ac29 aebc fff1 913d
000003e0: 3320 8b3e 0064 5b3e 2f37 bb3e d211 343e
000003f0: ee3b a9bd 109e 8a3e ae3d 4cbe 54ea 2e3e

model.2.weight f4 [256, 256]
0.051703744 0.07229583 0.030127991 -0.07161685 0.07457082 0.06600947 0.10329762 0.022902278
-0.04522758 0.02485674 0.02502453 -0.016043326 -0.1452266 -0.04096133 -0.11979761 0.0490145
-0.14280798 -0.12338626 -0.048462737 -0.0599623 -0.25417835 0.14270009 -0.16713375 0.14712538
-0.25799826 0.21083665 -0.083435334 -0.0074030724 0.05707261 -0.12105382 -0.056389123 -0.14626765
-0.012497021 0.118254304 -0.07195474 0.06717425 -0.07359234 0.3060314 -0.20036934 0.019096818
-0.05234223 -0.068499364 0.03238499 0.10142303 -0.25829363 -0.031677123 -0.039505463 -0.03332481
0.13499379 0.056255393 -0.07188217 0.06658472 -0.20296179 -0.080210954 -0.14306875 -0.110738
0.29956555 -0.13571653 -0.2380248 0.09192364 -0.1759358 0.05913736 0.107465394 0.06415226
-0.17037503 0.1842555 -0.048098855 0.18291049 -0.35478267 -0.06560106 -0.1323354 0.1201499
0.17811099 0.19821526 0.06282212 0.08509522 -0.0055244872 0.0071341516 -0.25959817 0.101777464
0.0064244466 0.034509066 0.08068869 0.04199367 0.13565488 0.06092061 -0.13491426 -0.013660376
0.23510142 -0.05820372 0.08550777 0.040863223 -0.12900479 0.07285275 -0.042787008 -0.03881865
-0.040150147 -0.25814134 0.05458714 0.004762901 0.0883527 0.08870347 -0.020075986 0.10401176
-0.3869123 0.27066305 -0.0016862216 0.027780315 0.046889547 -0.081327476 -0.24480861 0.079610154
-0.2216794 -0.06772248 -0.11298089 -0.13623099 -0.1718454 0.028430827 0.09245764 -0.069067545
0.08071961 -0.03142267 -0.1006814 -0.06025192 0.23943105 0.100246415 0.40177244 -0.019199437
0.072651714 0.12520508 -0.04848679 0.019537505 0.37792665 0.025593275 -0.15851443 0.052430112
0.20375818 -0.031270858 0.26644507 0.061206963 -0.010118062 -0.0058016386 0.0063044988 -0.21199365
0.08301071 -0.04798192 0.13946536 -0.07508512 0.021427577 0.29426032 0.12687707 -0.12311427
0.009470564 0.082977206 0.05518706 -0.120346785 0.015666693 -0.1032084 0.21602248 -0.0169486
0.30095333 0.07606961 -0.17735071 0.026570233 0.1660943 -0.16625877 0.17092612 -0.052504107
-0.14609523 0.40211135 0.045516253 -0.19144942 -0.28495294 0.17522587 0.037861604 -0.041445356
-0.044908315 -0.055473283 0.3043133 -0.14222346 -0.06920502 0.3922567 -0.068439394 -0.2251749
0.1363287 0.11641216 -0.089587584 -0.35471052 0.02694256 -0.057385854 0.16001555 -0.1494095
-0.016027717 -0.10045057 -0.120473236 0.0035906318 -0.11982816 0.21155229 0.06309779 0.049881164
0.07947473 0.18629935 0.2501541 -0.1866248 0.16096263 0.11093722 -0.002217392 0.23038271
0.04781847 -0.016096253 -0.038202506 0.04722006 0.09867792 -0.01830386 0.08742259 -0.20798409
0.08568298 0.034274813 0.04016634 0.24429502 0.32968208 -0.012643342 -0.048296593 -0.0939998
0.14981256 -0.16541749 0.0791798 -0.012300866 0.07246725 -0.030691948 -0.030854627 0.014576738
-0.060453117 -0.046803184 0.056476712 0.13219072 -0.12369785 -0.06829866 0.19940463 -0.09496379
0.049899492 -0.03052039 0.33185953 -0.27405378 -0.14891006 -0.008964092 -0.20924228 -0.001592167
-0.00849615 0.053824555 -0.020028679 -0.025999505 -0.043637227 -0.0014841477 -0.36056858 -0.13977514
00000000: 4ec7 533d d60f 943d face f63c dbab 92bd
00000010: 96b8 983d f92f 873d b48d d33d 8f9d bb3c
00000020: 8e40 39bd 5da0 cb3c 3e00 cd3c 4b6d 83bc
00000030: 48b6 14be 11c7 27bd 7358 f5bd 6ec3 483d
00000040: 413c 12be efb1 fcbd dd80 46bd 079b 75bd
00000050: aa23 82be f91f 123e 1c25 2bbe 09a8 163e
00000060: 5918 84be 90e5 573e 25e0 aabd 7995 f2bb
00000070: f8c4 693d 11eb f7bd 48f8 66bd 30c7 15be
00000080: 4ec0 4cbc 502f f23d 025d 93bd a792 893d
00000090: 95b7 96bd 26b0 9c3e 9f2d 4dbe ee70 9c3c
000000a0: ce64 56bd 6549 8cbd 20a6 043d e1b6 cf3d
000000b0: 103f 84be dfbf 01bd 7bd0 21bd 997f 08bd
000000c0: d03b 0a3e 0e6c 663d f636 93bd 925d 883d
000000d0: 37d5 4fbe a445 a4bd 9d80 12be 9bca e2bd
000000e0: a860 993e 46f9 0abe c6bc 73be 7642 bc3d
000000f0: 8428 34be 043a 723d d116 dc3d 4362 833d
00000100: cb76 2ebe 79ad 3c3e 4e03 45bd e34c 3b3e
00000110: 13a6 b5be d959 86bd ee82 07be 2711 f63d
00000120: ba62 363e f1f8 4a3e e2a8 803d 6746 ae3d
00000130: c206 b5bb 9ac5 e93b 0dea 84be b470 d03d
00000140: 2a84 d23b 6159 0d3d 1d40 a53d 8e01 2c3d
00000150: 1de9 0a3e e487 793d f726 0abe c5cf 5fbc
00000160: 6dbe 703e 0667 6ebd b31e af3d 3260 273d
00000170: d519 04be d333 953d 6e41 2fbd 4e00 1fbd
00000180: 7b74 24bd 1a2b 84be c496 5f3d 1c12 9c3b
00000190: 43f2 b43d 2aaa b53d 6576 a4bc 1e04 d53d
000001a0: 5e19 c6be 5994 8a3e 3504 ddba 8b93 e33c
000001b0: 410f 403d 058f a6bd 1caf 7abe a60a a33d
000001c0: edff 62be 15b2 8abd 8662 e7bd 2380 0bbe
000001d0: 3ef8 2fbe c4e7 e83c 6e5a bd3d 4973 8dbd
000001e0: 5350 a53d 0fb5 00bd 0d32 cebd b8ca 76bd
000001f0: 6a2d 753e fe4d cd3d 1eb5 cd3e 2348 9dbc
00000200: 6cca 943d c335 003e 169a 46bd 1e0d a03c
00000210: 9a7f c13e fda8 d13c 9b51 22be f5c0 563d
00000220: fca5 503e df15 00bd 7d6b 883e 27b4 7a3d
00000230: 3ac6 25bc ac1b bebb f895 ce3b dd14 59be
00000240: 8501 aa3d b188 44bd 02d0 0e3e 3ac6 99bd
00000250: e388 af3c 4aa9 963e 10ec 013e 5623 fcbd
00000260: 6d2a 1b3c f4ef a93d d40b 623d 6078 f6bd
00000270: 7057 803c ed5e d3bd ff34 5d3e cad7 8abc
00000280: 8e16 9a3e 62ca 9b3d 6d9b 35be d1a9 d93c
00000290: a014 2a3e bd3f 2abe 4207 2f3e 8c0e 57bd
000002a0: fd99 15be 8ae1 cd3e 406f 3a3d 510b 44be
000002b0: 5ae5 91be 696e 333e c514 1b3d 9bc2 29bd
000002c0: c8f1 37bd f437 63bd f4ce 9b3e 07a3 11be
000002d0: 5dbb 8dbd dfd5 c83e f429 8cbd 4094 66be
000002e0: c099 0b3e 8069 ee3d b279 b7bd 9e9c b5be
000002f0: a5b6 dc3c 6e0d 6bbd 1edb 233e cefe 18be
00000300: 8f4c 83bc 07b9 cdbd acba f6bd ce50 6b3b
00000310: 7768 f5bd 2aa1 583e 6a39 813d 3150 4c3d
00000320: a6c3 a23d 42c5 3e3e 3314 803e 921a 3fbe
00000330: 63d3 243e 0e33 e33d aa51 11bb 72e9 6b3e
00000340: 4ddd 433d 4adc 83bc 3b7a 1cbd d269 413d
00000350: a617 ca3d faf1 95bc 9d0a b33d c8f9 54be
00000360: 8f7a af3d bf63 0c3d 7685 243d 7928 7a3e
00000370: 17cc a83e 0526 4fbc a6d2 45bd f882 c0bd
00000380: 7768 193e 3463 29be 0529 a23d 9289 49bc
00000390: b669 943d ae6d fbbc d8c2 fcbc 45d3 6e3c
000003a0: b09d 77bd b2b4 3fbd 2054 673d 015d 073e
000003b0: 4c55 fdbd 2be0 8bbd ba30 4c3e 607c c2bd
000003c0: 6963 4c3d e605 fabc 7ee9 a93e c750 8cbe
000003d0: e17b 18be 20de 12bc 9c43 56be 42b0 d0ba
000003e0: 7033 0bbc 2377 5c3d 2f13 a4bc eafc d4bc
000003f0: f3bc 32bd bc87 c2ba 729c b8be 3721 0fbe

model.2.bias f4 [256]
-0.02282817 -0.08275645 0.12660448 0.065915115 -0.09632091 0.028054485 0.009162853 -0.060575914
0.05101887 0.042476524 -0.032878246 0.043903068 -0.13801828 0.029646272 0.045418978 -0.00013830357
-0.027181953 -0.017684167 0.049968418 0.14974089 0.07491421 0.13513948 0.071019 -0.04228695
0.06485117 -0.04345098 0.08791304 -0.04782838 -0.033195887 0.012384393 0.057028525 0.11674849
0.04530716 -0.07732631 0.025481913 -0.013236307 -0.10817776 0.00832163 0.037160214 -0.0547883
0.09249685 -0.047291107 -0.21074717 0.08331296 0.037439585 0.050923012 0.04871618 -0.044632826
0.034462627 -0.027040796 0.048643652 0.09943522 0.11602435 0.11421138 0.053870898 0.05036052
0.041832767 -0.04019135 0.09225535 0.058500577 -0.029963076 0.1072565 0.16619726 -0.064727694
-0.048757352 -0.09216173 -0.073525995 0.01614792 -0.067460574 0.032987054 -0.05722294 -0.031360216
0.16082151 -0.07400253 -0.042679485 -0.011002599 0.003052151 0.15751593 0.029302815 -0.092276074
-0.07205776 0.09016217 -0.03014868 0.035857048 0.2021626 -0.0047740247 0.021247039 0.07209782
0.036915984 -0.03178089 0.0068276557 0.06264378 0.00482471 -0.09172484 0.03385847 0.08694164
0.06226949 0.09653156 -0.025998993 -0.052771084 0.007641554 0.1271853 0.11083401 0.070640534
0.08769779 0.068106286 0.121785566 0.019061735 -0.0065868595 0.077092536 0.14654751 0.043932524
0.00026787285 0.087444775 0.0040302626 -0.15371042 -0.10440933 0.05226477 -0.054129973 0.06412347
0.03857588 0.09714641 -0.051741228 0.10834874 0.03138115 0.09095122 0.08728765 0.04227281
0.07530601 -0.053041175 0.020480605 0.042309713 0.063793994 0.12683259 0.013502342 0.016380692
0.105018206 0.0042454028 0.12564251 0.038850833 0.05494836 0.014954533 0.029924182 -0.022721771
0.0045011174 -0.055558827 0.11068799 -0.068874575 -0.06518085 -0.07172108 0.046564903 -0.0034642667
-0.017087538 0.028483389 -0.05850606 -0.05487137 0.052200366 0.016739719 0.0659715 0.09347127
0.0051354785 -0.101459466 -0.041623734 -0.121026814 0.012857578 0.019199437 -0.016735667 -0.007138404
-0.16805534 0.03191383 -0.09711006 -0.031182194 -0.010180775 0.0014753228 -0.020395923 0.0008192082
-0.20598069 0.004654403 0.17836714 0.0592775 0.16166764 0.081195965 0.07366604 -0.031170953
0.026049001 -0.06583936 -0.004706345 0.014635163 0.020433215 0.083409846 -0.03698347 -0.071275555
0.021040201 -0.13705917 0.006189254 -0.018152902 0.032008644 -0.012904136 0.042272534 0.06414389
-0.03708457 0.0016346804 0.060988206 -0.11606533 -0.037506085 0.028310256 0.020557825 0.1040033
0.048860002 0.022073485 -0.045101 -0.07732575 -0.10778693 0.033829812 -0.0038181664 0.04159177
0.13968228 -0.031529468 -0.00048738386 0.13491836 0.04531676 0.032562934 -0.019518586 0.030652247
-0.09237117 -0.00932533 0.010169254 0.014314561 0.07141536 -0.06856199 0.19800113 0.13323928
-0.022905162 0.017770091 -0.04796184 0.05475866 0.019604292 0.032738853 0.04676639 -0.06189075
-0.020031257 -0.013296347 -0.04459564 0.025206476 -0.087144114 -0.06300592 -0.07566325 0.0468073
0.037885055 -0.004724881 0.07172071 -0.031487893 -0.011633434 0.052986696 -0.017809607 -0.006968449
00000000: 2402 bbbc 377c a9bd 9ba4 013e 81fe 863d
00000010: e643 c5bd 85d2 e53c ca1f 163c 731e 78bd
00000020: 2af9 503d ddfb 2d3d 57ab 06bd b4d3 333d
00000030: aa54 0dbe bddc f23c 4009 3a3d 9505 11b9
00000040: b0ac debc 63de 90bc afab 4c3d ad55 193e
00000050: 9f6c 993d 0162 0a3e 6972 913d 1535 2dbd
00000060: b1d0 843d a8f9 31bd c00b b43d b1e7 43bd
00000070: 69f8 07bd e9e7 4a3c be96 693d d519 ef3d
00000080: 0094 393d 425d 9ebd 72bf d03c 18dd 58bc
00000090: 4d8c ddbd 7257 083c 4f35 183d b269 60bd
000000a0: fd6e bd3d 52b4 41bd 1bce 57be fc9f aa3d
000000b0: 405a 193d a694 503d 9e8a 473d e9d0 36bd
000000c0: af28 0d3d a984 ddbc 913e 473d b1a4 cb3d
000000d0: 2d9e ed3d a8e7 e93d bba7 5c3d d546 4e3d
000000e0: d658 2b3d af9f 24bd 5ff0 bc3d 4d9e 6f3d
000000f0: 2075 f5bc 4ca9 db3d 9d2f 2a3e f48f 84bd
00000100: cab5 47bd 4abf bcbd cc94 96bd a548 843c
00000110: c528 8abd 6f1d 073d 9a62 6abd 9273 00bd
00000120: 65ae 243e a38e 97bd afd0 2ebd 3f44 34bc
00000130: 9906 483b db4b 213e 750c f03c 3dfb bcbd
00000140: 0593 93bd f2a6 b83d 5dfa f6bc d7de 123d
00000150: b603 4f3e 6c6f 9cbb 450e ae3c 06a8 933d
00000160: 3735 173d ae2c 02bd 87ba df3b 624b 803d
00000170: 9a18 9e3b 3cda bbbd 2eaf 0a3d 750e b23d
00000180: 4b0e 7f3d 57b2 c53d d7fb d4bc 7e26 58bd
00000190: 0066 fa3b dd3c 023e f1fc e23d fcab 903d
000001a0: e69a b33d 4f7b 8b3d b66a f93d 5b27 9c3c
000001b0: 95d6 d7bb b1e2 9d3d 8d10 163e 97f2 333d
000001c0: 4971 8c39 3f16 b33d 4b10 843b 4466 1dbe
000001d0: 8fd4 d5bd 9513 563d 64b7 5dbd 2a53 833d
000001e0: be01 1e3d b2f4 c63d 9cee 53bd f2e5 dd3d
000001f0: 8589 003d a244 ba3d dec3 b23d 4126 2d3d
00000200: 0a3a 9a3d b441 59bd f1c6 a73c f34c 2d3d
00000210: 6da6 823d 67e0 013e ed38 5d3c cd30 863c
00000220: c913 d73d 051d 8b3b 6ea8 003e 0d22 1f3d
00000230: 8811 613d dc03 753c 8f23 f53c 0223 babc
00000240: 1c7e 933b a791 63bd 63b0 e23d 1d0e 8dbd
00000250: 8a7d 85bd 80e2 92bd d7ba 3e3d c008 63bb
00000260: 2afb 8bbc ff55 e93c 0da4 6fbd cdc0 60bd
00000270: 0dd0 553d bc21 893c 111c 873d dd6d bf3d
00000280: 8447 a83b fbc9 cfbd a67d 2abd e8dc f7bd
00000290: 97a8 523c 2348 9d3c 3d19 89bc 46e9 e9bb
000002a0: b316 2cbe 14b8 023d a4e1 c6bd cd71 ffbc
000002b0: 44cd 26bc 9e5f c13a 5a15 a7bc 22c0 563a
000002c0: 9aec 52be f683 983b e0a5 363e f7cc 723d
000002d0: 348c 253e 124a a63d 39de 963d 3a5a ffbc
000002e0: b764 d53c c9d6 86bd af37 9abb 53c8 6f3c
000002f0: 8f63 a73c c8d2 aa3d fb7b 17bd ebf8 91bd
00000300: 805c ac3c 3d59 0cbe 3acf ca3b 65b5 94bc
00000310: 7f1b 033d df6b 53bc f725 2d3d df5d 833d
00000320: fde5 17bd c642 d63a c5ce 793d a9b3 edbd
00000330: fb9f 19bd e9ea e73c e268 a83c afff d43d
00000340: 6d21 483d 74d3 b43c d4bb 38bd f65c 9ebd
00000350: 65bf dcbd 2191 0a3d 343a 7abb 225c 2a3d
00000360: df08 0f3e 0b25 01bd 8e87 ffb9 0a28 0a3e
00000370: 119e 393d b660 053d 71e5 9fbc 6c1a fb3c
00000380: 192d bdbd 45c9 18bc f19c 263c 9f87 6a3c
00000390: 3742 923d 3b6a 8cbd cfc0 4a3e e16f 083e
000003a0: 9ba3 bbbc 9592 913c a273 44bd 9e4a 603d
000003b0: 2e99 a03c 2d19 063d 1d8e 3f3d 2881 7dbd
000003c0: 9718 a4bc ecd8 59bc eba9 36bd d07d ce3c
000003d0: 9d78 b2bd 3f09 81bd 56f5 9abd 03b9 3f3d
000003e0: 5c2d 1b3d 2dd3 9abb 4fe2 923d 73f9 00bd
000003f0: 299a 3ebc 9408 593d 74e5 91bc 9657 e4bb

model.4.weight f4 [2, 256]
-0.0035066786 0.37457457 -0.177541 -0.41711545 0.42392454 0.40385473 -0.047670286 0.17732167
-0.047271777 0.28407174 0.14013574 0.27164242 -1.1200494 0.096846566 2.2158043 0.044235468
-0.79922974 -0.39623883 0.13900195 0.002768218 -0.7975761 0.20287402 -0.6447723 -0.040862374
-0.28219137 -0.099319406 -0.08288886 -0.013671164 0.36254323 -0.20241116 -0.3425957 -2.2294319
-0.022715362 -0.115290746 -0.1398995 -0.014711899 -0.88238186 0.039636414 -0.043238543 -0.34802398
-0.37574482 0.15188947 0.55023026 -0.41230038 -0.23073685 -0.93943495 0.27501303 0.004821949
0.5726122 0.37623924 -0.25936624 0.25845826 -0.5936507 -0.5122126 0.21998756 0.94001395
-3.028289 0.26399913 0.22514127 0.14682367 -0.017122252 -0.24911633 0.56910247 0.23242521
-0.81999403 -0.40079683 -0.29383463 0.6945185 0.18273166 -0.7883161 0.21143517 -0.20170207
-0.07186943 -0.40647355 0.15066077 -1.4250761 0.018605396 -3.3336077 -1.8624614 0.114533864
0.3664959 -0.040962808 -2.0660956 1.3157762 -0.33688346 0.035708435 -0.545364 0.7500337
0.03056358 -0.07726878 -0.33751464 -0.35085988 0.16669823 0.61830294 -0.043381017 -0.16387697
0.44695258 0.23988014 0.23339044 -0.33258653 0.42736056 -0.6921869 -0.34347337 -0.9664051
0.66012955 -0.5248789 0.44408113 0.66188896 0.098148555 -0.07005031 0.42485473 0.056714546
0.33752263 0.68876994 0.16492715 0.24062249 0.1708723 -0.3355837 -0.2905718 -0.6561661
0.30628285 0.10690733 -0.026919939 0.8081783 0.13503839 -0.117186256 0.42710224 -0.6833787
-0.024555342 -0.19602649 -0.032222502 -0.0028553032 -0.39617562 -3.298382 0.40585917 0.14840871
2.5620646 -1.3564503 0.3725539 -0.42100438 -0.97762895 1.3512036 -0.04194656 0.023540003
0.17474823 -0.31266716 0.3180854 -0.07407302 0.2974314 0.6820974 0.06414096 0.0015140136
0.030520046 0.2936688 -0.011875939 -0.00869463 0.3152894 0.17150892 -0.2648738 0.15985756
0.051120933 0.115771994 0.22617134 -0.13951842 0.1281987 -0.550495 0.008482233 -0.93828964
-0.23232304 0.0265513 -0.16960415 -0.45513737 -0.052140336 0.026850477 -0.38832316 0.10646811
0.5358138 -1.8223196 -0.23605041 -0.3470332 0.27826637 -0.22978349 -0.34935397 -0.20256096
0.04154195 -0.17128868 -0.13172427 0.27643225 0.29587698 0.060794357 0.2554564 -1.2325951
-0.42009142 0.23989913 0.7088525 0.0045721536 -0.053906158 -0.08353 -0.27542442 -0.20171374
0.12508973 0.12647744 -0.13342993 -0.5532539 0.37558985 -0.74139297 0.20375969 0.31039742
0.11461546 -0.15924028 0.05178536 -0.70836246 0.15315695 0.13413604 0.002855527 -0.0470093
-0.3647571 -0.051392384 0.19877009 -0.061590604 0.07575545 0.34620658 0.3387403 0.37556842
-0.37756327 -0.012997142 -1.312197 -0.27923754 0.37586516 -0.34446582 0.35482526 -0.6526991
0.58738923 -0.3005391 0.11383836 -0.021255605 -0.7570013 0.24038965 0.2446907 0.96466243
0.31705672 0.007529248 0.40598118 -0.783154 -0.31817576 0.39346012 -0.80473405 0.9275068
0.3640493 -0.29314667 -4.5232463 -0.032198723 -0.37617773 0.15309043 -0.012958131 -0.02591805
00000000: 4ed0 65bb 3dc8 bf3e 4fcd 35be 2890 d5be
00000010: a30c d93e 0cc6 ce3e eb41 43bd d093 353e
00000020: 0da0 41bd da71 913e be7f 0f3e b714 8b3e
00000030: c75d 8fbf 7e57 c63d bdcf 0d40 4030 353d
00000040: 529a 4cbf d1df cabe 8756 0e3e fe6a 353b
00000050: f32d 4cbf 35be 4f3e cc0f 25bf 4e5f 27bd
00000060: 637b 90be f967 cbbd a2c1 a9bd 05fd 5fbc
00000070: 449f b93e df44 4fbe b468 afbe 03af 0ec0
00000080: 9115 babc 8e1d ecbd d141 0fbe 2d0a 71bc
00000090: c7e3 61bf cb59 223d e61a 31bd 3330 b2be
000000a0: a061 c0be ea88 1b3e e4db 0c3f 0919 d3be
000000b0: 4846 6cbe cf7e 70bf 82ce 8c3e 7101 9e3b
000000c0: b796 123f 6ea2 c03e a7cb 84be a454 843e
000000d0: 7ef9 17bf 5d20 03bf 6b44 613e c1a4 703f
000000e0: 7dcf 41c0 e52a 873e 6f8b 663e f258 163e
000000f0: f743 8cbc 5a18 7fbe b3b0 113f e000 6e3e
00000100: 21eb 51bf 3e35 cdbe 7e71 96be f7cb 313f
00000110: 021e 3b3e 15cf 49bf 7682 583e fd8a 4ebe
00000120: 4830 93bd 4d1d d0be d146 1a3e e568 b6bf
00000130: 586a 983c d459 55c0 2365 eebf bb90 ea3d
00000140: 5aa5 bb3e 9ec8 27bd e93a 04c0 5b6b a83f
00000150: fd7b acbe 0243 123d fa9c 0bbf 3502 403f
00000160: 7960 fa3c 183f 9ebd b8ce acbe e8a3 b3be
00000170: f1b2 2a3e 1a49 1e3f 4bb0 31bd 5dcf 27be
00000180: f8d6 e43e 24a3 753e e7fd 6e3e c848 aabe
00000190: 01cf da3e 2933 31bf bedb afbe 5366 77bf
000001a0: 40fe 283f 775e 06bf 9a5e e33e 8e71 293f
000001b0: 1c02 c93d 8976 8fbd 8f86 d93e 834d 683d
000001c0: c4cf ac3e 3a53 303f aae2 283e be65 763e
000001d0: 26f9 2e3e a0d1 abbe d4c5 94be 80fa 27bf
000001e0: 1bd1 9c3e 3bf2 da3d 3487 dcbc c6e4 4e3f
000001f0: 8147 0a3e 59ff efbd 25ad da3e e8f1 2ebf
00000200: 4928 c9bc 2bbb 48be befb 03bd 0a20 3bbb
00000210: 88d7 cabe b118 53c0 c6cc cf3e 74f8 173e
00000220: def8 2340 2aa0 adbf 63bf be3e e38d d7be
00000230: e445 7abf 3df4 ac3f 28d0 2bbd f7d6 c03c
00000240: 33f1 323e e915 a0be 17dc a23e 98b3 97bd
00000250: ee48 983e ef9d 2e3f 565c 833d de71 c63a
00000260: 2d05 fa3c c25b 963e 4c93 42bc ec73 0ebc
00000270: 9d6d a13e 09a0 2f3e 8a9d 87be b3b1 233e
00000280: 2f64 513d de19 ed3d 7699 673e ebdd 0ebe
00000290: 8546 033e 3eed 0cbf 10f9 0a3c c033 70bf
000002a0: 17e6 6dbe 1d82 d93c b6ac 2dbe c407 e9be
000002b0: 1b91 55bd 88f5 db3c 4bd2 c6be f40b da3d
000002c0: 182b 093f c541 e9bf 33b7 71be 56ae b1be
000002d0: ee78 8e3e 5d4c 6bbe 86de b2be 246c 4fbe
000002e0: e427 2a3d 4d66 2fbe bae2 06be 8788 8d3e
000002f0: 307d 973e 8103 793d 2ecb 823e adc5 9dbf
00000300: 3916 d7be 1ea8 753e 5c77 353f 01d2 953b
00000310: b4cc 5cbd c711 abbd 6e04 8dbe 0c8e 4ebe
00000320: 8617 003e 4d83 013e dba1 08be 0ca2 0dbf
00000330: 504d c03e eecb 3dbf 61a6 503e 69ec 9e3e
00000340: 83bb ea3d e20f 23be e31c 543d 3e57 35bf
00000350: 2dd5 1c3e f55a 093e cb23 3b3b d38c 40bd
00000360: 71c1 babe d280 52bd 638a 4b3e 6e46 7cbd
00000370: ac25 9b3d fd41 b13e 5e6f ad3e 814a c03e
00000380: f94f c1be f7f1 54bc 12f6 a7bf 39f8 8ebe
00000390: 6671 c03e d35d b0be a8ab b53e 4a17 27bf
000003a0: 245f 163f 43e0 99be 1624 e93d 3c20 aebc
000003b0: d6ca 41bf b428 763e 3390 7a3e 1ef4 763f
000003c0: 4255 a23e e9b7 f63b c4dc cf3e c87c 48bf
000003d0: efe7 a2be 9b73 c93e 0d03 4ebf 1671 6d3f
000003e0: ab64 ba3e 5217 96be 6fbe 90c0 cfe2 03bd
000003f0: 5e9a c0be bdc3 1c3e 574e 54bc 1752 d4bc

model.4.bias f4 [2]
-0.05578958 0.014254443
00000000: 9d83 64bd 788b 693c
