hw2/preTrained/ddpg_actor_LunarLanderContinuous-v2_04242023_185937_.pth (torch, 73623 bytes, 6 tensors)

model.0.weight f4 [128, 8]
00000000: fb75 413e 81f1 aa3e 26f5 fabd e3ef 673a
00000010: 895d 26be 056c 75be 6673 0a3e 4c17 803e
00000020: 804d 8fbd ebda 81bd c002 893d 3092 6bbd
00000030: b4c5 fd3d 3c00 febc 52ce 173e 7805 9a3e
00000040: 27ac 8fbe 2ad8 ae3c e2db 3a3e 8fac 5c3e
00000050: 8c45 98bd dc9c 15bf f020 ccbe cd9d 58be
00000060: 7522 e2be 8285 f1be 6641 cbbe 88ee 4bbe
00000070: 8222 03bf 8675 db3d 176e a93d 5803 023f
00000080: 7ca1 703e a7b7 793e d70f 0b3f 80f5 9abe
00000090: b047 7d3e a368 3abe 924a da3e a401 4bbb
000000a0: a6bf d83e 48aa e23e 9f6d c43b 42c3 02be
000000b0: 1559 413c 9f86 273d 7ada babd 326a a53d
000000c0: af70 d53c fa93 b03c eb0a dcbe e63b 413f
000000d0: 1c39 93be 60f9 c03c cdef 41be a693 033e
000000e0: 859d e3bd fde2 a53e 6fff f13c 1a61 6a3e
000000f0: 089d c3bd 97bf f0be c13c f9bd 27c6 83bd
00000100: d21d 8e3c 7ce3 e23e 94c9 7b3d 2ddd a8be
00000110: 93ce 80be 859d ab3e dafa c13e 9bb5 b9bb
00000120: 6d47 e9be 0c7e 02be 653d f5be 04d2 50be
00000130: a191 dfbe 605b d0bd 3939 6bbe 6d5e 8bbd
00000140: 8014 f8be 40a1 03bf 0902 923e 235d a13c
00000150: 6a23 ac3e 2e26 40be bf24 5bbd 9e6b ae3e
00000160: 5ab5 26bf 793d 483e 2fce 70be 026f 273f
00000170: 5c57 333e b948 9bbd 3d59 78be 9e8c 9f3e
00000180: 2133 abbe 9f0b 0d3e a489 85be ce71 1abe
00000190: 1596 0d3e 8e7a cb3e bd12 e43d 3385 a43d
000001a0: 87be 44bd 062e dc3d 1041 c93e ccc0 c13e
000001b0: 4e84 f33d f438 aebd 7688 3f3d a7bd 123f
000001c0: e366 d93d 9c69 00be 6e02 c63d a21d 9cbe
000001d0: b9f8 b43d 540f abbe 5631 b6bd d695 9e3e
000001e0: e5c7 073e d73b 693e 929e 07bf cbb3 05be
000001f0: 0176 923e 7f8b 9dbd ced2 88be 691a dd3d
00000200: e078 0ebf 67d1 183c 925f 0ebe 61e4 e4bc
00000210: 47e8 3fbd c81f b1be 1c70 d5be 7ea9 d53d
00000220: d117 c7bb ece2 903e 78e4 b0be b08c a9be
00000230: d204 61be ce5e d93e fcbe 8d3e 61e7 44be
00000240: 72ff 113d e6d0 f23d 459a 323f 7591 2cbd
00000250: 27cb 9cbd 3f1e ecbe 8cef 23bf 02e5 f63d
00000260: b6a4 0fbf 8f74 133c d561 06be b502 83be
00000270: 43cd 9b3e e914 323e adbd c03e 2a15 853d
00000280: b333 fcbe 162f 19bf 0531 01bd f086 70be
00000290: 8c79 8ebe c688 a73d 72b3 4fbe 9602 123d
000002a0: 67ef 97be 08d3 c33e 4ca6 9d3e 09fb 8a3c
000002b0: 7aa7 913b a656 8fbe 899e 0f3f e9e2 38be
000002c0: 1d40 d0be 7f15 e8be 99a5 b03d 5cde 85bd
000002d0: 076a a93e b98b b5bd 31a8 5a3e 5c9d c83e
000002e0: 9eb1 8f3e ffa6 11bd 1553 143e 2264 023f
000002f0: 01ba cb3e a0d0 d53e c79c 353e f760 7b3d
00000300: dad3 07bf a697 84be d96d f2bc e4a7 c8be
00000310: 357b 1abe bc84 c63e d30b c3be a949 17be
00000320: c5a3 30bd dc4e a83d 0c06 a63e 4dc1 1b3f
00000330: 00af 47be 5df6 95be 1a07 c63e 2498 89be
00000340: cb81 eebe 5f25 793e 03c3 6d3e 78c8 7f3d
00000350: 4200 1bbf 3626 a5be 78f2 c13e 9111 2b3e
00000360: 9cda b23e 7546 f6bd 306b 79be c78c 0abd
00000370: 125f 963e fc1f 2d3e 0d55 c7be e033 cdbe
00000380: 9f83 c7be 954c 5dbe 11de c33e 8a3f 4a3d
00000390: fb4a f03e 4a24 e03e ef94 3abd 65ac a4be
000003a0: 3141 8e3e 9e54 913d 8e07 383e d5c7 d73e
000003b0: ac12 e93e 0944 503e 7d05 19bd b748 4fbd
000003c0: 4599 93be 2ec7 a33e e091 53bc 6f87 673e
000003d0: d6cc d13d 7955 b73e 5fa1 cabc 99d6 91be
000003e0: 0f14 3bbe c980 273e 5d37 f1be f37f 343d
000003f0: e6bb 3f3e 960b 6c3e 7551 bfbe 83c9 e23e
0.18892662 0.33387378 -0.122537896 0.00088476966 -0.16246618 -0.23966987 0.13520584 0.25017774
-0.06997204 -0.063405834 0.06689978 -0.057512462 0.123912245 -0.031005971 0.14824799 0.30082297
-0.2806103 0.02134331 0.18247941 0.21550201 -0.0743514 -0.58442473 -0.3986888 -0.21153946
-0.44166914 -0.4717217 -0.39698333 -0.19915211 -0.5122453 0.10715775 0.08272951 0.5078635
0.23499101 0.24386464 0.54321045 -0.30265427 0.24734378 -0.18203978 0.42635018 -0.003097632
0.42333716 0.4427054 0.005994513 -0.12769797 0.011801024 0.04089987 -0.09123702 0.08076896
0.026054708 0.021554936 -0.4297708 0.7548202 -0.28754508 0.023556411 -0.18939133 0.12849292
-0.11114029 0.3239974 0.029540746 0.22888604 -0.09551436 -0.4702117 -0.12169791 -0.06434279
0.017348204 0.44314182 0.061471537 -0.32981244 -0.25157604 0.33518615 0.37886697 -0.005667401
-0.45562306 -0.12743396 -0.47898403 -0.20392615 -0.43665794 -0.101736784 -0.22971047 -0.0680512
-0.4845314 -0.5141792 0.28517178 0.019697731 0.3362077 -0.18764564 -0.05350184 0.3406648
-0.6512047 0.195547 -0.23516153 0.6540376 0.17513794 -0.0758223 -0.24252792 0.3116197
-0.33437446 0.13773964 -0.26081574 -0.15082476 0.13826783 0.3974194 0.111363865 0.08033218
-0.048033264 0.10750966 0.3930745 0.37842405 0.118904695 -0.08506957 0.046761 0.57320637
0.10615327 -0.12540287 0.09668432 -0.30491358 0.088365026 -0.33410132 -0.08896129 0.3097369
0.13259847 0.22776733 -0.52976334 -0.13056867 0.28605655 -0.076926224 -0.2672333 0.10796053
-0.5565319 0.009327269 -0.13903645 -0.02794093 -0.046852376 -0.3459456 -0.41687095 0.10432719
-0.006075837 0.28298128 -0.34549308 -0.3311515 -0.21974495 0.42455143 0.27684772 -0.19228889
0.035644002 0.118562505 0.69766647 -0.042130906 -0.07655936 -0.46116826 -0.64037395 0.120553985
-0.56110704 0.008999958 -0.13123257 -0.25588003 0.3043004 0.17390789 0.3764471 0.06498177
-0.49258193 -0.5983747 -0.03154089 -0.23488975 -0.27827108 0.08180384 -0.20283297 0.035646997
-0.29674837 0.38246942 0.30790937 0.016965406 0.0044450136 -0.27995795 0.5610128 -0.1805531
-0.40673915 -0.453289 0.08625335 -0.06536552 0.33088705 -0.088645406 0.21353222 0.39182556
0.280652 -0.03555965 0.14484818 0.5093404 0.39790347 0.4176073 0.17735587 0.06137177
-0.53057635 -0.2589695 -0.029593395 -0.3919059 -0.15086062 0.38773143 -0.3809496 -0.14774193
-0.043124933 0.08218166 0.32426488 0.6084183 -0.19500351 -0.29289523 0.38677293 -0.26873887
-0.465834 0.24330662 0.23218922 0.06244704 -0.6054727 -0.32255715 0.378803 0.1670592
0.3493241 -0.12025157 -0.24357295 -0.033825662 0.29369408 0.16906732 -0.38932076 -0.4007864
-0.38967606 -0.21611245 0.3825536 0.049377 0.46932206 0.43777686 -0.04555219 -0.32162777
0.27784112 0.070962176 0.17971632 0.42144647 0.45522058 0.20338453 -0.03735875 -0.050606456
-0.28827873 0.319879 -0.012913197 0.22610258 0.102441475 0.35807398 -0.02473515 -0.28484038
-0.1826937 0.16357721 -0.4711255 0.044067334 0.18724021 0.23051295 -0.37366834 0.44294366

model.0.bias f4 [128]
00000000: 0d83 103e ecc8 d13e 0f00 39bd 63a2 e73d
00000010: 41ec 02bd 0143 d43c b4b0 923d 6a33 0d3f
00000020: c85a 0f3e 8406 b0be 83c4 103e ea31 69bd
00000030: 0599 a13e 6c00 fe3c 168c 043f 3bee 39be
00000040: aa4e ef3d dbc7 55bb 873b 7cbc db28 1c3e
00000050: 39a4 09bd d275 783e 5942 423d 891d 33be
00000060: 03ac 473e 7930 cabe 60b9 bcbe 3ed5 063e
00000070: 6118 15be 3cad 40be f3ee 09be 601d b4be
00000080: 08bf 463e b63b a83e d2c4 6abd a5b6 67bd
00000090: 65e4 213b aeb0 be3e 39b9 75bd 2147 a43c
000000a0: 0f09 1b3e 1319 e03e 6da0 4b3b d4a9 063e
000000b0: d661 d3be 40aa 8c3e 4366 3abe cf46 1f3e
000000c0: aaf3 a1be 01af 913e ab5b ae3d 694b 1d3d
000000d0: 06ba 523e ca8f 2c3d f8ce 4a3e 2036 e0bb
000000e0: 94dc 8c3e 81d2 c03e 3250 a53e a776 263e
000000f0: 98ff f2bd cd39 1a3e 15a5 753e ea0d e1bd
00000100: e57d b63e d12e acbd a458 9bbe 947b 9d3d
00000110: 5b3d 443d 5833 413c 9a7b 5cbd a50c 153e
00000120: 4c5d abbd 3ea0 2dbd 5ce4 07bc b7ed 8c3d
00000130: 56b4 183d 5777 9cbe 9a21 f4bc ddbb b73d
00000140: 8a1a 39be 1625 5c3e e494 923e aefe e63d
00000150: f6d9 d23e cfec 5c3e c84c 9dbc 57d9 a03e
00000160: 279f e43d 840f 44bd d312 ce3e c362 5dbd
00000170: 3cee fe3e b3a2 38be ce6a 533e ea9e 8a3e
00000180: 2434 eb3e 50c0 c73e 189f 423e f514 51be
00000190: 841c 97be c382 38be 40dc 883e b3d8 b33d
000001a0: 0558 573e d2e9 a33e 776c 08be 7da5 4a3e
000001b0: c643 a53e 0749 4ebe 603f db3d 038b 2fbe
000001c0: 1b0b bdbd 86c0 ae3e 23b7 723d b6b5 d3bc
000001d0: 281d da3e c564 fa3d a06d c43c 3a70 b6bc
000001e0: 9bb1 803e 5032 533d 8143 cfbc b5bd 193d
000001f0: da2e 8fbe fc5b 05be 7fbe a83e db7f 35be
0.14112492 0.40973604 -0.04516607 0.1131027 -0.03196359 0.025910856 0.0716261 0.55156577
0.13999474 -0.3437997 0.14137463 -0.056932367 0.31562057 0.03100606 0.51776254 -0.18157284
0.11684926 -0.0032620344 -0.015395052 0.1524996 -0.03360388 0.24263695 0.047426555 -0.17491736
0.19499211 -0.39490107 -0.3686018 0.13167283 -0.14560081 -0.18816084 -0.13470058 -0.3517866
0.1940881 0.32858056 -0.05731661 -0.056570668 0.0024702784 0.3724417 -0.059991095 0.020053448
0.15140174 0.4376913 0.0031070963 0.13150722 -0.4128558 0.2747364 -0.18203072 0.15554355
-0.31631213 0.2845383 0.08513578 0.038401995 0.20578775 0.042129315 0.19805515 -0.0068423897
0.27512038 0.37660602 0.32287747 0.162562 -0.11865157 0.15061112 0.23988755 -0.10988982
0.35642925 -0.08407367 -0.30341065 0.07689586 0.047910076 0.011792026 -0.053828813 0.14555605
-0.08367404 -0.042389147 -0.008294191 0.06881278 0.037281357 -0.305598 -0.029801179 0.08971379
-0.1807653 0.21498522 0.2862922 0.11279045 0.41181916 0.2157471 -0.019201651 0.31415817
0.111631684 -0.04786636 0.40248737 -0.054049265 0.49791133 -0.18030815 0.20646212 0.27074367
0.45938218 0.3901391 0.19006002 -0.2041815 -0.29513943 -0.18018632 0.26730537 0.087815665
0.2102967 0.32014328 -0.13322626 0.19789691 0.3227827 -0.20145045 0.10705447 -0.17142873
-0.09230634 0.3413126 0.059256684 -0.025843482 0.4260037 0.122262515 0.023978055 -0.02227031
0.25135502 0.051561654 -0.025300743 0.037534434 -0.27965432 -0.1302337 0.32957837 -0.17724554

model.2.weight f4 [128, 128]
00000000: 06e6 bdbe bf6e 6a3d 63ad 05be 7a23 c1bc
00000010: 60ee 3f3d 8dfb 8d3d 6aea c33d 67ab 74be
00000020: a1fe 883d a03d dabd adf2 09bf dd3e 63be
00000030: d776 0f3b 0e7f b7be b54b ad3d c17e 91bb
00000040: 0531 60bd 17c5 603d 39df 69be 20dc 43bc
00000050: 6e8c bfbe 9285 923c 311f d9be 3399 5ebd
00000060: 62c5 913d 4869 31be 5d64 e13d 1009 4c3d
00000070: 8b4e debc 33cc a2be 53c0 14be bd16 b5bd
00000080: b8f2 21be 4627 77be bd43 ee3d 7165 1a3e
00000090: e1a3 68be fb86 dbbc 908e db3c ecc5 493c
000000a0: cfa2 2e3c cd8f b7be 649f 3abe b83d 303e
000000b0: deea 12be ac0b 023e e870 893d bde0 913c
000000c0: 226c 183d 9b04 0f3e 0a16 8fbe 2d62 0abd
000000d0: 91d9 223e b746 db3d 7388 da3d ae63 b33c
000000e0: f1f5 acbd 6716 57be b24c 1ebd d652 b7bc
000000f0: bea5 f63d e3f2 683d b1c7 b7bc c177 33be
00000100: bbea 15bf d8fa 16be 10bc f3bb 41a3 3fbe
00000110: 1124 103e 5ee0 6ebc 7949 6cbe 12fd 2fbc
00000120: bedb 9abd d21c 393e 5c6d 6bbe 00ac fabe
00000130: 0e8f dd3d 80f7 7dbe 6728 973e 543e 5fbe
00000140: 33fb 33be e3e3 d53d bf7b 64bd f8a8 44bd
00000150: 1709 273e 5c9d 24bd 67bc 6b3d a110 db3d
00000160: a17d b53e 4ac8 31be cbc0 113e b556 dcbd
00000170: 0923 29bf d0bf d8be 306e ac3d 83a1 04be
00000180: c35a c03d 553b a9bb 6c23 213d a160 00be
00000190: 8e78 283e e62c 2dbe 594e e73d 75c6 e2be
000001a0: 2975 823c 6810 74be 5929 a6be e425 ce3d
000001b0: 518f 53be e8c4 403d b986 89be d981 f3be
000001c0: 1f6b b7bd f8b2 f23d cec8 c4be 90a4 dabd
000001d0: 35b1 a1bd 6c07 ebbc 4fb3 bfbe 3123 b2be
000001e0: 9105 f03d 5b1d aa3d 94f6 0e3e c0a0 b0bd
000001f0: 1eb5 0dbd adf3 c1be c4ca 13be e62c 0b3e
00000200: 19f3 91bd 2e38 77bc 3ceb 943e 88a4 f13d
00000210: 9bf5 af3a 8408 9f3c 0e4b 5abe 12d1 01be
00000220: 5c01 8d3d fe7e 29be 897f 1bbd 202b 013e
00000230: 64a9 203d 82b9 093e 11c2 043e b82f d0bc
00000240: 9530 813d 9d15 a4bd 9d88 58bd 7b33 ed3c
00000250: a8b8 6d3c 647c 9f3d fc43 53be f337 edbc
00000260: 4b0e 983d 7f3b 0d3f e55b f33d 85b5 a5bd
00000270: 184e 7bbd 9ce3 f13c ddcb b03d ec86 c2ba
00000280: 69f5 5a3d 5fc8 c8bd 8095 183d 5851 7cbd
00000290: 0d43 6dbc 592f bbbb d4f1 453e 446e 343d
000002a0: 9113 5fbe 34c5 17be abdc b83e 25b8 323e
000002b0: bffb d8bd c4e5 ce3d 4746 54be 2e39 863d
000002c0: 42cd e9bd 5bcf fc3c 9387 b6be d6b1 bbbb
000002d0: 9b74 7d3d 1289 fd3d 08d6 e33d a65e 76be
000002e0: 12c7 2b3e c028 413e 1ff7 8d3c f538 e2bd
000002f0: c555 793e 2f41 513d 5dc6 14bc 8c61 87be
00000300: 5a44 e43c 25b2 97be 2ded d43c d1f8 3f3c
00000310: fa96 873e 5a1a b53c 9ca5 7e3f ae5e 2dbc
00000320: 3dd3 c6bc 1206 ef3d 144b 43be 0038 2f3d
00000330: f00e a93c bd87 233e 3613 303e ed29 993e
00000340: b1f8 3c3d 1f6e 76bd 0572 edbd 3028 babd
00000350: 9e60 183e d7d7 073f 5723 d2bc c456 813c
00000360: 1c6a 8c3e 108f 18bd facb 75bd 238b 573d
00000370: 10be fabd d615 693e ca99 15be 5af1 b7bd
00000380: 59e4 4abd 5dad 2b3e 4812 a53d e09d 72be
00000390: 2896 913d a08d 2f3e 9953 91bd 7db9 8ebe
000003a0: ba5b ab3d 75b0 1c3c d43d 2c3d 432d cebc
000003b0: 3087 ee3c 9260 0f3e 8ede a9bd 41a5 27bd
000003c0: 042f 023e 99a4 ca3c 568e 37bd 8239 1abe
000003d0: 761c 043e b36b bc3d b07a d1bd 447b 45be
000003e0: d800 473d 7d31 8bbd 130d b2bc e232 213e
000003f0: f1cf 023f 424f 593e e72a b6bc b3a3 f03d
-0.37089556 0.057234522 -0.13054423 -0.023576487 0.04685819 0.06932745 0.09566195 -0.2389351
0.066891916 -0.10656285 -0.5388592 -0.22191949 0.0021890902 -0.35839123 0.084617056 -0.004440159
-0.05473425 0.05487546 -0.22839059 -0.011954337 -0.37411827 0.017885957 -0.4240661 -0.05434532
0.07117726 -0.17325318 0.11005471 0.04981333 -0.027137062 -0.31796417 -0.14526491 -0.088422276
-0.15815246 -0.24136075 0.11634014 0.1507776 -0.22718765 -0.026797762 0.026801378 0.012315255
0.010658934 -0.358519 -0.18224865 0.17211044 -0.14347407 0.12699765 0.06710988 0.017807359
0.0372125 0.139666 -0.27946502 -0.033785034 0.15903307 0.10706847 0.10670557 0.021898117
-0.08445347 -0.2100464 -0.03864736 -0.022378366 0.120433316 0.05687226 -0.022434087 -0.17526151
-0.58561295 -0.14744127 -0.0074381903 -0.1871462 0.14076258 -0.0145798605 -0.23074903 -0.010741489
-0.07561444 0.180774 -0.22990936 -0.4895935 0.10818301 -0.24801445 0.29523012 -0.2180112
-0.17576294 0.104438566 -0.055782076 -0.048012704 0.16312061 -0.040189132 0.05755272 0.10696531
0.3544741 -0.1736156 0.14233701 -0.107587256 -0.66069084 -0.4233384 0.08419454 -0.12952237
0.093923114 -0.0051645436 0.03934042 -0.12536861 0.16452238 -0.16911659 0.112942405 -0.44292036
0.015925007 -0.23834383 -0.3245342 0.10065821 -0.2066014 0.047062784 -0.26860598 -0.47560003
-0.089559786 0.11850542 -0.38434452 -0.10675919 -0.07895128 -0.028690062 -0.3744149 -0.34792474
0.11719812 0.0830638 0.1396125 -0.08624411 -0.034596555 -0.37881222 -0.14432818 0.13591346
-0.07126445 -0.015089078 0.2908572 0.1179896 0.0013424637 0.01941324 -0.21317694 -0.1267741
0.06885025 -0.1655235 -0.037963424 0.12614107 0.039224043 0.13449672 0.12964655 -0.02541338
0.063080944 -0.08011935 -0.05286466 0.028955212 0.0145093575 0.077873975 -0.20631403 -0.028957343
0.07424601 0.5516891 0.11882762 -0.08091263 -0.061353773 0.029527478 0.08632634 -0.0014841235
0.053456698 -0.09803843 0.03725195 -0.061601013 -0.014481318 -0.0057124314 0.19330531 0.04405047
-0.21784808 -0.14821321 0.36105856 0.17453058 -0.10594892 0.10102418 -0.20729934 0.06553875
-0.11416103 0.030860594 -0.3565031 -0.005727987 0.06187878 0.1237966 0.111248076 -0.24059543
0.16775158 0.18863201 0.01732975 -0.1104602 0.24349125 0.051087555 -0.009080497 -0.2644161
0.027864624 -0.296281 0.025992 0.011717037 0.26482373 0.022107292 0.9947145 -0.010581655
-0.024270648 0.1167108 -0.19071609 0.042778015 0.020637006 0.15969749 0.17194828 0.299148
0.046135608 -0.060163613 -0.11594013 -0.090896964 0.14880607 0.5306372 -0.025651617 0.015788443
0.27424705 -0.03724581 -0.06000898 0.052622925 -0.12243283 0.22762236 -0.14609447 -0.08981581
-0.049534176 0.16765352 0.080601275 -0.23693037 0.07108718 0.1714387 -0.07096023 -0.2787589
0.08367105 0.009563555 0.04205115 -0.025168067 0.029117197 0.14001682 -0.08294402 -0.040929083
0.12713248 0.02473669 -0.044813477 -0.15061 0.12901482 0.092002295 -0.10228479 -0.19285303
0.04858479 -0.067965485 -0.02173475 0.15742067 0.51098543 0.2122164 -0.022237254 0.11749973

model.2.bias f4 [128]
00000000: a933 3bbc 0afe 203d 94c2 f43d 9e64 06be
00000010: f24c 92bc 731c fd3c 1b10 7b3c 9793 333e
00000020: bbd8 af3d d307 2a3b 976f df3d aab5 1bbe
00000030: 0deb 1fbd 0d00 833c 6454 eebd 74e3 cf3d
00000040: 102b 2dbd 743f af3c 1a9f 8c3d 0da7 acbd
00000050: c831 1fbd 017c d33d d17b 983c 515c 803d
00000060: f526 2b3d 9c3d 1dbd a100 9c3d 0d2f 5f3d
00000070: 4f0d dbbd f81f 8c3d 564c 2bbd 16d3 c13d
00000080: 87c8 073e 1a43 a9bc 646c 2c3b c224 2e3d
00000090: 2391 efbd a3f6 963d af9e e63d 00e0 3ab7
000000a0: 1d23 393c 10e6 c13d eaea 0d3d cf4a 04bd
000000b0: a84c 623d 0b83 a13c c89f f43d edcf 5d3d
000000c0: 8e29 b53d adbe 0abb b0dc 663d 2443 05be
000000d0: 9a70 bd3c 9890 f4bd 8bf8 b53d f1fc c23d
000000e0: 390b 7f3d 7782 293d c0bd 12bd 587b 1f3e
000000f0: 19d9 ce3d 3a8e 943d 8193 c23d 1098 403d
00000100: bfcf ce3b 6fae 5d3b b7d5 d93b 3088 c73d
00000110: 3677 d93d da6a 283d 536a 0cbc 6368 f03d
00000120: d49a 24bc ac95 79bd 505d 023b bdd8 c53d
00000130: 0f56 943d d55f fe3c 9d14 bb3c cf11 943d
00000140: b932 973d 09af 483d c28a d63d 7742 db3d
00000150: 27a5 883c 796f 8cbc 8c4d d73d b8ba 163d
00000160: 1cb7 58bd 6abb 0abd a50a dd3d a782 b8bd
00000170: 3e6a 14bd df78 aa3d 4ce8 193d f19b 0a3d
00000180: 131f cf3c c4e9 553d ca8b a83d dcfb 24b7
00000190: 7bad cd3d 7556 b93d de45 55bc 1c17 87bc
000001a0: 30f4 82bd bac8 963d 1eef b93d 26b1 0d3e
000001b0: 5134 123d 43d5 75bd 9669 f5bc 3033 d8bd
000001c0: eb44 193e 722c a93d 3dc7 053d a660 38bd
000001d0: 55a8 74bd dc46 4a3d 3ba5 28bd 3e3a 6b3d
000001e0: a010 25ba 70b1 673a da2c b53d a844 cd3d
000001f0: 2dd9 283d f3d1 7a3c 1811 153e 677d 32bc
-0.011425891 0.03930477 0.11951175 -0.1312432 -0.017858956 0.030897355 0.015323664 0.1753677
0.0858626 0.0025944605 0.10909956 -0.15206018 -0.03904252 0.015991235 -0.1163719 0.10150805
-0.042277396 0.021392561 0.06866284 -0.084303 -0.038865834 0.10326386 0.018613728 0.06267608
0.0417852 -0.038388833 0.076173075 0.05448823 -0.10695898 0.06842035 -0.041820846 0.094640896
0.13260089 -0.02066188 0.0026309723 0.042515524 -0.116976045 0.07371261 0.11260735 -1.1138618e-05
0.011299876 0.09467709 0.03464786 -0.032297906 0.055248886 0.019715806 0.11944538 0.05415337
0.088458166 -0.002117078 0.056362808 -0.13013893 0.023124982 -0.119416416 0.088852964 0.09520901
0.062266562 0.041384187 -0.03582549 0.15574396 0.10100002 0.0725369 0.095007904 0.047020018
0.0063113864 0.0033825894 0.0066477912 0.097427726 0.10618441 0.041117527 -0.008570272 0.1173866
-0.0100466795 -0.060933754 0.0019892044 0.0966048 0.07242977 0.031051556 0.022836978 0.07229959
0.073827215 0.04899505 0.10475685 0.107060365 0.016680313 -0.017142998 0.10512838 0.036799163
-0.052909 -0.03387014 0.10793046 -0.09009295 -0.036234133 0.083238356 0.03757505 0.033840124
0.025283372 0.05222489 0.08229788 -9.833802e-06 0.100428544 0.090496935 -0.013017146 -0.016490512
-0.06394231 0.07362504 0.09078811 0.13837108 0.035694424 -0.060017835 -0.029957574 -0.10556638
0.14967696 0.082604304 0.03266071 -0.045014046 -0.059730846 0.049383983 -0.0411732 0.05742859
-0.0006296728 0.0008838391 0.088464454 0.10022861 0.04122274 0.015308845 0.14557302 -0.010894156

model.4.weight f4 [2, 128]
00000000: 2373 2ebf 9a1b cabe f122 3fbe 683b 32bf
00000010: 4a74 da3e 3d33 c4be 4489 743d 4fd2 ad3e
00000020: 2049 033f d784 53bf 71f3 71be bbab d7be
00000030: 2ae2 22bf e386 983e f239 933e 8505 33be
00000040: f23b 7dbe 1671 ab3e 1740 b63e 0b60 34bf
00000050: 3692 76be 14f1 833e 22a0 92be cb83 833e
00000060: 226d 33bd 8abb debe b813 97be a46b df3d
00000070: fb4b 97be 18be 17bf 559e 7bbe 2871 93be
00000080: f7a2 9e3e 280b 67be 713f 293e 3104 ff38
00000090: beee 14bf c2da bebd 6b7b 9ebe d5d7 883d
000000a0: cdba 9a3e a49b 3ebf b70d 843e 3ccc 87be
000000b0: 81d3 01bf 5a25 523d 8668 353e 1705 c73e
000000c0: 46c1 883e da76 873c 201a 36bf ac1a d1be
000000d0: 0692 95bd 1942 093f 05cc 60be 9d98 06bf
000000e0: 1e26 9ebe b48a 2c3d d932 afbd d421 0dbf
000000f0: 07a6 01be dd28 d3bd c0a2 90be 7e02 8c3e
00000100: 4d3c 263e 9099 773d d44c 1b3e e48d e9be
00000110: a26f bd3e 5991 e53e 28fa 9dbe 1c97 b93e
00000120: 47e6 17be c3f1 813d e961 893e 80a8 ea3e
00000130: e38f 363e 370e a6be beb7 8abe ea02 35bf
00000140: d81f a33e b0e7 ce3e 3b6f 8e3e f85f c23c
00000150: c7fe 2e3e 7ae5 be3e 945c 00bf 6b7d a0be
00000160: 63fb 86be 6eb2 52be c5d2 dd3e 875f dfbe
00000170: 41ab c7bc 0f55 01bf 6adc 093e 8c01 813e
00000180: 8dde 913a e88d f4be 2d00 ddbe c637 74be
00000190: 9d0f 14bf 2f5b 23be 1827 25bf 38d6 7bbd
000001a0: 8929 23bf 4817 49be e04c 613e 97c6 1bbf
000001b0: c62e 92be dab2 3c3e 2aab b73e 2322 14bf
000001c0: 780a 9f3e 6441 893e fbdd a63e 400f 9bbd
000001d0: a3d1 5a3e c3b1 8b3d f02d 29bf 38f5 b9be
000001e0: 2992 783e a69a f73e c3f4 dc3e 078e a4be
000001f0: f925 363e 9565 403e 734b e13e 237b 21bf
00000200: 4ca6 493e d371 723d 3dad 23be f36a a53d
00000210: 8384 6a3d fbe7 c93c 20ac 32bd 90dc 123e
00000220: a1af 503e faab 00be 29ff 1e3e 0a1c fcbd
00000230: 73f9 883e 2fd0 b73e d8d9 20bf 10ca c7bd
00000240: 9639 c13d 179e 32be 9c4e 163e 8b3d 583e
00000250: 5442 2b3e 9cfa 86be 0628 23be 73e0 97be
00000260: f044 b0be 4e1a c7be 3ed9 083e 7c91 6fbf
00000270: 8f72 1f3c f151 843e 9cdf 333e 2a0b dfbe
00000280: 1bf3 f53d 444c 893e 2ce1 2e3e 1654 9b3d
00000290: b16a ee3d 9f9c 14bd 2e6c 183e 4ac6 073d
000002a0: fa68 0dbf 3b7f 38be 322e 2fbf fabe fd3d
000002b0: ce7a e13d f15a 77bd 7d2c 5fbe 2d8a b4bd
000002c0: 79fa 98be a198 a43c b0ec 4d3c ca04 4abe
000002d0: c7af b2be d92d 30bf 2ff2 033e f227 1f3e
000002e0: fd32 6ebc 1e94 2ebd 812b d4be 2258 8c3e
000002f0: b7c9 9bbe 0ae5 33bf a210 bdbd a1ff 64be
00000300: a928 7f3e fcb3 6dbc 679b ffbe 5479 023e
00000310: 51f4 a13d 3467 753e 1698 9a3d 7667 fe3c
00000320: b110 353e f688 353d ba6e c9be 00f1 35bf
00000330: 3ae5 71be 9f10 813d 7a70 d8be e091 223d
00000340: a675 e5be 59e5 6f3e 66a2 d03d b72a 78be
00000350: 301f 113e 07ca 023e 63b5 6e3d f135 273e
00000360: fde6 003e 757f fdbd 63e0 56bf 441b 15be
00000370: fc4b bfbe da7a eb3d 6f88 19bf 2b97 803e
00000380: ed69 f9be dec3 313d 80e3 e53d 2907 4b3e
00000390: d4ff 233e 4bd8 80be 7278 e5be a82b 00bc
000003a0: 6c9b dbbb 302d 3b3e 8f97 efbd 0859 833e
000003b0: 781f 103e 157f 02bf 1c51 913c fa84 2fbd
000003c0: fcfc 42bc 978f babe 8e2b 64be d1d7 a93d
000003d0: a82b bb3e f06e 223c 3ee5 fbbd 4585 2e3e
000003e0: 886b a1be 38cc e7be 0a9f f43d 8e4b dc3e
000003f0: eeb6 a63e 3e32 c0be 67f7 18bf 9eb7 db3d
-0.68144435 -0.39474183 -0.18665673 -0.69621897 0.42666847 -0.38320342 0.05970122 0.33949515
0.51283455 -0.8262457 -0.23628022 -0.42123207 -0.6362635 0.2979041 0.28755146 -0.17482574
-0.24729899 0.33484715 0.35595772 -0.7045905 -0.24079213 0.25769866 -0.28637797 0.25686488
-0.04380525 -0.43502456 -0.29507232 0.10909203 -0.29550156 -0.59274435 -0.24572118 -0.2879727
0.30983707 -0.2256285 0.16528107 0.00012160128 -0.5817679 -0.093190685 -0.30953535 0.06681792
0.30220643 -0.7445624 0.25791714 -0.26523006 -0.50713354 0.051305152 0.17715654 0.3887107
0.26709956 0.016536165 -0.71133614 -0.40840662 -0.073032424 0.5361648 -0.21952827 -0.5257662
-0.30888456 0.042124465 -0.0855462 -0.5512974 -0.1266099 -0.103105284 -0.28249168 0.2734565
0.1623394 0.060449183 0.15166026 -0.45616066 0.36999232 0.44837454 -0.30854917 0.362481
-0.14833938 0.063449405 0.26832512 0.4583168 0.17828326 -0.3243272 -0.2709331 -0.7070757
0.31860232 0.4041114 0.27819237 0.023727402 0.17089377 0.37284452 -0.50141263 -0.31345686
-0.26363668 -0.20575878 0.43324867 -0.4362757 -0.024373652 -0.50520414 0.13462988 0.25196493
0.0011128947 -0.47764516 -0.43164197 -0.23849401 -0.57836324 -0.15952753 -0.6451278 -0.06148359
-0.6373525 -0.19637787 0.22001982 -0.608499 -0.2855131 0.18427601 0.35872775 -0.5786459
0.31062675 0.26807702 0.32591233 -0.07571268 0.21369033 0.06821015 -0.6608572 -0.363199
0.24274506 0.48360175 0.43155488 -0.32139608 0.17787923 0.1878875 0.44002876 -0.63078517
0.19692343 0.059190582 -0.15984054 0.080770396 0.05725528 0.02464675 -0.043621182 0.1434195
0.20379497 -0.12565604 0.15527023 -0.123100355 0.26752815 0.3590102 -0.62832403 -0.09755337
0.09434812 -0.17443119 0.14678425 0.21117227 0.16724521 -0.26363075 -0.15933236 -0.2966343
-0.34427595 -0.38887256 0.13364121 -0.93581367 0.009731903 0.25843766 0.17565769 -0.43563205
0.12009259 0.26816 0.17078084 0.075843975 0.116414435 -0.036282178 0.14885017 0.033148088
-0.55238307 -0.18017285 -0.68429863 0.123899415 0.11009751 -0.060389463 -0.21794315 -0.088154174
-0.29878595 0.02009231 0.012568638 -0.1972839 -0.34899732 -0.6881996 0.12885354 0.15542582
-0.014538524 -0.042621724 -0.4143944 0.2741099 -0.30427334 -0.7027136 -0.09231688 -0.2236314
0.24917854 -0.014508244 -0.4992325 0.12741596 0.07907928 0.2396515 0.07548539 0.031055193
0.17682149 0.04432007 -0.3934229 -0.7107086 -0.23622599 0.06301998 -0.42273313 0.0396899
-0.4481632 0.23427333 0.10187225 -0.24235044 0.14172053 0.1277238 0.058278453 0.16329171
0.12588115 -0.12377826 -0.83936137 -0.14561182 -0.3736266 0.114980415 -0.59973806 0.25115332
-0.48713627 0.043399684 0.11225033 0.1982695 0.1601556 -0.25165018 -0.44818455 -0.007822908
-0.0067018773 0.18278956 -0.116988294 0.25653863 0.14074504 -0.5097516 0.017738871 -0.042851426
-0.0119011365 -0.36437675 -0.2228224 0.08293117 0.36556745 0.009914145 -0.12299584 0.17043026
-0.31527352 -0.45272994 0.11944397 0.43026394 0.3256144 -0.37538332 -0.59752506 0.107283816

model.4.bias f4 [2]
00000000: 5daf 013d ed02 e63c
0.03166138 0.028077567
