hw2/preTrained/ddpg_actor_LunarLanderContinuous-v2_04282023_010357_.pth (torch, 276375 bytes, 6 tensors)

model.0.weight f4 [256, 8]
-0.07415861 -0.018831247 -0.49142256 0.27273676 -0.3775202 -0.029280247 0.057823118 0.47900072
0.09090072 -0.2491622 -0.18073776 -0.048573762 0.6315471 0.0130725065 0.13074507 0.42562872
-0.068104774 -0.20572752 0.8439807 -0.03906159 -0.6353207 -0.4045119 -0.37433884 -0.42895892
-0.897536 -0.25545716 -0.3044641 -0.47692952 -0.5425968 0.23434381 -0.06629949 0.15349704
0.17035213 -0.04234434 0.5401568 -0.029867092 0.570144 -0.04610062 0.5163694 -0.15799646
0.26399535 0.14751482 -0.31365317 -0.050405525 0.18174724 0.06952305 0.26774654 -0.039027534
-0.17358094 0.17423432 -0.10562806 0.7095456 -0.5304604 -0.2368732 0.035215516 0.00022429826
-0.016518928 0.0732766 1.9029948 3.0467136 0.29612577 -0.064793 -0.07572495 0.2055082
0.12825722 0.29009178 0.24004637 -0.36407137 -0.12749851 0.38849452 0.5925124 -0.3169307
0.13036862 0.18734433 -0.14615807 -0.21198611 -0.34663314 0.03153833 -0.066164434 0.22582261
-0.13135248 -0.19460449 0.02731652 0.12606084 0.978911 -0.28672296 -0.43492916 0.56072074
-0.2990346 0.038665075 0.023701586 0.4213831 0.3209866 0.04818689 -0.13420987 0.20707627
-0.10077233 -0.08085704 -0.1175651 -0.07790655 0.10345443 0.387524 0.5239752 0.12542646
-0.03783464 0.39810947 0.55635506 2.313939 0.07147783 0.24446522 0.26039314 0.10865104
0.6669628 -0.37426963 -0.0134052085 -0.35368606 0.1857116 -0.24840726 -0.10642055 0.32021314
0.30197048 0.42659447 -0.43043074 -0.20313543 0.7480461 -0.29630998 0.24942131 0.12695926
-0.5877267 -0.47932753 0.02480159 0.12304151 -0.7221973 0.08235062 -0.13739036 -0.45813334
-0.02960013 0.12353283 -0.72924155 -0.25834328 -0.5187138 0.58795154 0.6318948 -0.40185767
-0.044892997 -0.21197535 1.6256984 -0.08947702 0.39480332 -0.44929597 -0.22161615 -0.0051724436
-0.067189835 0.20743974 0.56627935 -0.36258495 0.46305972 0.6633755 0.24333912 -0.24228957
-0.7895417 -0.34139678 -0.26184162 -0.2601844 -0.32270932 0.15608656 -0.23697427 -0.39533257
-0.34016255 0.47575232 -0.058519304 0.50763696 0.025497567 -0.27691796 0.26613954 -0.1518824
0.50503695 -0.023054061 1.1645268 0.59323514 0.5645033 -0.21955435 0.25627112 0.41793168
0.27613124 0.067223005 0.18135485 0.081328295 0.5603645 0.35948727 0.0667871 -0.12830435
-0.15305804 -0.22460501 0.73030066 -0.54129064 -0.22140169 0.44223922 -0.35667825 -0.40997595
-0.49383062 0.3525319 0.065168284 0.39951313 -0.15349758 -0.16950227 0.7580899 -0.10792511
-0.29614216 0.2752627 0.6355512 -0.47550943 -0.29217497 0.13640708 -0.22118926 -0.035287656
0.6078672 -0.2655877 -0.70198274 0.05722231 -0.01238367 -0.33239436 -0.5670717 0.13666804
0.14718752 -0.23815738 0.21227108 0.19190155 1.3646244 0.2703695 -0.3846812 0.0075253397
0.23096345 -0.020693593 1.078121 0.37500376 1.1555063 0.59831625 -0.15836385 0.1890825
-0.546671 0.05469994 0.22766405 0.24413918 0.118702725 0.08308668 -0.24769458 -0.36686504
-0.374444 -0.24629575 -0.06401753 -0.09769521 0.62476206 0.19801514 -0.32175705 0.2240701
00000000: 78e0 97bd fd43 9abc bd9b fbbe 27a4 8b3e
00000010: 544a c1be 21dd efbc efd7 6c3d 953f f53e
00000020: 282a ba3d 6024 7fbe 5213 39be 48f5 46bd
00000030: 12ad 213f 112e 563c 09e2 053e 02ec d93e
00000040: 847a 8bbd 3caa 52be 1f0f 583f 0cff 1fbd
00000050: 61a4 22bf 2f1c cfbe 57a9 bfbe 81a0 dbbe
00000060: ebc4 65bf 48cb 82be b8e2 9bbe 1b30 f4be
00000070: a0e7 0abf d3f7 6f3e 07c8 87bd 542e 1d3e
00000080: ca70 2e3e 4271 2dbd b747 0a3f d5ab f4bc
00000090: f5f4 113f 01d4 3cbd c930 043f d3c9 21be
000000a0: 662a 873e 200e 173e 2697 a0be 0676 4ebd
000000b0: f31b 3a3e 1a62 8e3d 1316 893e 56db 1fbd
000000c0: 34bf 31be 7b6a 323e 8653 d8bd c8a4 353f
000000d0: 41cc 07bf e38e 72be 253e 103d 9b31 6b39
000000e0: b452 87bc 0b12 963d 5595 f33f 5bfd 4240
000000f0: cc9d 973e 31b2 84bd af15 9bbd be70 523e
00000100: dc55 033e e986 943e b7ce 753e 9067 babe
00000110: f88e 02be c1e8 c63e e5ae 173f be44 a2be
00000120: 5a7f 053e 31d7 3f3e 76aa 15be e312 59be
00000130: e679 b1be 562e 013d 3881 87bd 0b3e 673e
00000140: 4481 06be 6646 47be e5c6 df3c 1816 013e
00000150: e999 7a3f 5acd 92be 09af debe 658b 0f3f
00000160: 101b 99be 455f 1e3d d429 c23c 87bf d73e
00000170: 5b58 a43e 9e5f 453d 506e 09be cd0b 543e
00000180: b961 cebd 6098 a5bd f9c5 f0bd 788d 9fbd
00000190: ebdf d33d 8c69 c63e 3d23 063f cb6f 003e
000001a0: 7ff8 1abd 01d5 cb3e 496d 0e3f 9417 1440
000001b0: f862 923d 1755 7a3e 4052 853e 7084 de3d
000001c0: 13be 2a3f 45a0 bfbe 85a1 5bbc 5716 b5be
000001d0: 2f2b 3e3e 795e 7ebe 04f3 d9bd faf2 a33e
000001e0: e09b 9a3e 976a da3e 6b61 dcbe bc02 50be
000001f0: f37f 3f3f f1b5 97be 4d68 7f3e 9c01 023e
00000200: 4275 16bf 6b6a f5be b42c cb3c 30fd fb3d
00000210: ece1 38bf 71a7 a83d 0fb0 0cbe 7490 eabe
00000220: f97b f2bc c8fe fc3d 93af 3abf 9245 84be
00000230: 6dca 04bf fe83 163f dcc3 213f 4ac0 cdbe
00000240: b8e1 37bd 1110 59be e316 d03f ba3f b7bd
00000250: a923 ca3e 1f0a e6be 58ef 62be 9a7d a9bb
00000260: d39a 89bd 156b 543e aff7 103f bca4 b9be
00000270: 2a16 ed3e fad2 293f e42d 793e c21a 78be
00000280: 681f 4abf 8fcb aebe 1b10 86be e436 85be
00000290: 283a a5be 28d5 1f3e 62a9 72be 0869 cabe
000002a0: c929 aebe cf95 f33e f0b1 6fbd 7ff4 013f
000002b0: 46e0 d03c 31c8 8dbe 7143 883e 0f87 1bbe
000002c0: 1a4a 013f dfdb bcbc 370f 953f 42de 173f
000002d0: 4a83 103f dbd2 60be f835 833e 24fb d53e
000002e0: 1361 8d3e 37ac 893d 16b5 393e 738f a63d
000002f0: 0c74 0f3f b70e b83e adc7 883d 3762 03be
00000300: 3fbb 1cbe dbfe 65be fcf4 3a3f 0692 0abf
00000310: 20b7 62be 2e6d e23e 889e b6be 5ee8 d1be
00000320: 5ed7 fcbe 107f b43e f376 853d fc8c cc3e
00000330: 782e 1dbe 0192 2dbe 2e12 423f d707 ddbd
00000340: f29f 97be 3cef 8c3e 7cb3 223f f975 f3be
00000350: f597 95be 4cae 0b3e 707f 62be ca89 10bd
00000360: 2f9d 1b3f 1cfb 87be 24b5 33bf f161 6a3d
00000370: e0e4 4abc 982f aabe 9c2b 11bf b5f2 0b3e
00000380: 53b8 163e 87df 73be 975d 593e d781 443e
00000390: 03ac ae3f df6d 8a3e eff4 c4be 2097 f63b
000003a0: af81 6c3e 9c85 a9bc deff 893f 7e00 c03e
000003b0: a1e7 933f 412b 193f 222a 22be d89e 413e
000003c0: a1f2 0bbf 0b0d 603d c420 693e 9fff 793e
000003d0: 6a1a f33d 5929 aa3d a6a3 7dbe bcd5 bbbe
000003e0: 20b7 bfbe f434 7cbe 9f1b 83bd 6d14 c8bd
000003f0: 68f0 1f3f 7bc4 4a3e 57bd a4be a272 653e

model.0.bias f4 [256]
0.0048760218 0.2775692 0.2249902 -0.3370494 0.21385515 0.047967035 -0.0014971008 -0.032270316
-0.21070574 -0.69114554 0.35809866 0.12842333 0.17904985 -0.3010386 -0.10827775 -0.11758635
-0.019367838 0.013005337 -0.063987024 -0.06947787 -0.12806325 -0.12497186 -0.1328247 -0.27287975
0.109315105 -0.20799573 -0.059742082 -0.07597351 0.16307382 -0.23612611 0.23524143 -0.37442952
-0.29880792 0.095942505 -0.09118487 0.07571892 -0.28583193 0.016784836 -0.14326796 0.0515849
0.40856874 -0.31415257 -0.1885167 -0.12701671 -0.44233492 0.10061656 -0.40011194 0.16685456
0.090650514 -0.17000581 0.3842052 0.15115133 -0.054596968 -0.06311659 0.14818193 0.2819042
-0.12326322 0.31113964 0.34077725 -0.25709707 -0.05240155 -0.088962294 0.30744827 -0.11030285
0.20759305 0.332238 -0.08915576 0.3372507 -0.102831 0.34616804 0.1255306 -0.071292266
0.22687414 -0.118873894 -0.2500062 -0.27651876 0.06514174 -0.22681175 0.065151826 0.5144559
-0.27493155 0.11259857 0.25461838 0.016603844 -0.29955202 -0.36807707 0.47318795 -0.21790053
0.068513736 0.43531922 -0.09656627 -0.18930827 0.1701505 -0.087813124 -0.255066 0.0980021
0.23526917 -0.019638507 0.35175195 0.043026783 -0.08754524 0.3038403 0.48086068 0.20787717
0.038165532 -0.06618556 -0.015396217 -0.11337478 0.30323702 0.11282526 -0.016532637 0.025635526
0.08039495 0.22842056 -0.23345785 0.49240056 0.33181173 -0.1467949 -0.18891367 0.32088128
0.33055452 0.067846805 -0.043070856 -0.20312677 -0.22918636 0.23672974 0.06820608 0.020484554
0.10747324 0.05394077 0.025691532 -0.040857323 -0.33014894 0.27614772 -0.04246968 -0.25862828
0.041644644 -0.06318638 -0.2942718 0.44535816 0.25801185 0.28859612 0.009122493 0.09011795
0.057599656 -0.17194222 -0.15967661 -0.3210348 0.23245205 -0.06410598 -0.000112978516 0.12988926
-0.22197635 -0.09745592 -0.046681214 0.09859378 -0.02954637 -0.2881927 -0.12623224 -0.25678045
0.40992326 0.33034682 0.29302824 -0.001657598 -0.2666189 -0.29486728 0.21602352 -0.18829179
0.09215347 -0.091709375 0.1610304 -0.14262384 -0.18468021 0.46726316 0.054321893 -0.0425545
-0.23671816 0.1980088 -0.30600014 -0.06499114 0.057215516 -0.047576964 0.14535709 -0.13196841
0.1694891 -0.287912 0.13661796 -0.033172935 -0.13981035 0.22306041 0.45021215 -0.1909178
0.011651244 -0.23443858 0.051099565 -0.049797315 -0.5059309 -0.3801294 0.33302352 0.31885105
-0.26512867 -0.054514866 -0.111554004 0.21627447 0.012000443 0.23659156 0.24585241 -0.11072982
0.24609028 0.112538315 0.29230988 0.059315998 -0.07308217 0.2679793 0.11186214 0.2436348
0.27798045 -0.2797448 -0.025952961 0.16113414 -0.107942246 -0.08911338 0.31643847 -0.062808335
-0.1391041 -0.1833583 0.14446224 -0.0939121 0.017433738 -0.047326352 -0.25620446 0.27008525
-0.08715929 0.24849787 0.38543352 -0.15964618 -0.108078085 -0.20701519 0.16125092 -0.19431838
0.24700399 0.46017808 0.016218634 -0.13704416 -0.2701083 0.003185901 -0.15055151 0.15532385
0.17480749 0.30450988 0.16336595 0.17213765 0.0837794 0.20266408 -0.21669938 -0.06953632
00000000: 09c7 9f3b 8d1d 8e3e d563 663e bd91 acbe
00000010: d8fc 5a3e 1579 443d 5e3a c4ba e12d 04bd
00000020: 3fc3 57be eaee 30bf b558 b73e 6881 033e
00000030: d858 373e bb21 9abe bac0 ddbd 1dd1 f0bd
00000040: 4da9 9ebc 5614 553c a10b 83bd 6a4a 8ebd
00000050: 0323 03be 3ff1 ffbd 3303 08be e5b6 8bbe
00000060: 99e0 df3d d5fc 54be 1db4 74bd 0098 9bbd
00000070: d3fc 263e 0bcb 71be 21e3 703e 3ab5 bfbe
00000080: 5afd 98be 817d c43d 22bf babd 8512 9b3d
00000090: 9058 92be 5a80 893c d6b4 12be b04a 533d
000000a0: ec2f d13e 9bd8 a0be 860a 41be ab10 02be
000000b0: b979 e2be 0e10 ce3d 79db ccbe ecdb 2a3e
000000c0: faa6 b93d 0116 2ebe 8bb6 c43e 6ac7 1a3e
000000d0: 12a1 5fbd 4543 81bd 01bd 173e bf55 903e
000000e0: 6d71 fcbd b24d 9f3e 5b7a ae3e 3aa2 83be
000000f0: 02a3 56bd dd31 b6bd dc69 9d3e 76e6 e1bd
00000100: 4693 543e 191b aa3e 4c97 b6bd 20ac ac3e
00000110: 0f99 d2bd f03c b13e 188b 003e ae01 92bd
00000120: b251 683e 2874 f3bd d000 80be de93 8dbe
00000130: 0869 853d 5741 68be 526e 853d 62b3 033f
00000140: d4c3 8cbe 149a e63d 575d 823e c904 883c
00000150: e25e 99be 9974 bcbe b145 f23e 5121 5fbe
00000160: ee50 8c3d 29e2 de3e 89c4 c5bd 07da 41be
00000170: ef3b 2e3e 5ed7 b3bd 0398 82be 53b5 c83d
00000180: 67ea 703e efe0 a0bc d518 b43e da3c 303d
00000190: eb4a b3bd f590 9b3e 5f33 f63e c1dd 543e
000001a0: 7653 1c3d 4b8c 87bd 6a40 7cbc 0931 e8bd
000001b0: e241 9b3e ee10 e73d 746f 87bc 9801 d23c
000001c0: 1ca6 a43d 14e7 693e 930f 6fbe ed1b fc3e
000001d0: 3ae3 a93e 6751 16be 9672 41be 8d4a a43e
000001e0: 713e a93e 44f3 8a3d 116b 30bd 7700 50be
000001f0: d4af 6abe 4869 723e a1af 8b3d 39cf a73c
00000200: ee1a dc3d fff0 5c3d 0c77 d23c 025a 27bd
00000210: 4809 a9be 3c63 8d3e b0f4 2dbd ed6a 84be
00000220: 9393 2a3d dc67 81bd cbaa 96be fc05 e43e
00000230: 211a 843e dfc2 933e 8276 153c c38f b83d
00000240: 9eed 6b3d 9f11 30be 4482 23be ac5e a4be
00000250: e907 6e3e ff49 83bd e1ee ecb8 b101 053e
00000260: c54d 63be f896 c7bd cd34 3fbd 89eb c93d
00000270: 3b0b f2bc fe8d 93be 0643 01be ba78 83be
00000280: 76e1 d13e 3823 a93e cc07 963e c243 d9ba
00000290: 4682 88be d8f8 96be 4535 5d3e 90cf 40be
000002a0: f5ba bc3d 20d2 bbbd 27e5 243e fc0b 12be
000002b0: cf1c 3dbe 1e3d ef3e a280 5e3d a14d 2ebd
000002c0: 3f66 72be d2c2 4a3e 0dac 9cbe 131a 85bd
000002d0: d15a 6a3d 10e0 42bd 7dd8 143e ba22 07be
000002e0: 8d8e 2d3e 3469 93be 94e5 0b3e 58e0 07bd
000002f0: 722a 0fbe f369 643e 3582 e63e f57f 43be
00000300: dce4 3e3c ab10 70be c74d 513d 45f8 4bbd
00000310: b084 01bf 52a0 c2be 0f82 aa3e 7240 a33e
00000320: f2be 87be fb4a 5fbd 6d76 e4bd 0e77 5d3e
00000330: 829d 443c 0f45 723e bcc0 7b3e 51c6 e2bd
00000340: 17ff 7b3e 7d7a e63d a4a9 953e 55f5 723d
00000350: 1bac 95bd 9534 893e fa17 e53d 677b 793e
00000360: 7453 8e3e b63a 8fbe 4e9b d4bc 5900 253e
00000370: d310 ddbd 1381 b6bd 3904 a23e a8a1 80bd
00000380: 4e71 0ebe 47c2 3bbe e9ed 133e fd54 c0bd
00000390: 33d1 8e3c 47d9 41bd 3b2d 83be 9d48 8a3e
000003a0: 9280 b2bd 3a76 7e3e 8b57 c53e 4a7a 23be
000003b0: 0b58 ddbd cafb 53be f61e 253e 66fb 46be
000003c0: 9dee 7c3e 769c eb3e f1dc 843c 4e55 0cbe
000003d0: a34b 8abe 8dca 503b 2d2a 1abe 370d 1f3e
000003e0: bc00 333e b8e8 9b3e 6749 273e da44 303e
000003f0: 8994 ab3d 2c87 4f3e 71e6 5dbe 0f69 8ebd

model.2.weight f4 [256, 256]
-0.1228137 0.08249875 -0.26538303 -0.1739311 0.084223785 0.10882372 -0.19040534 -0.7657859
0.09634771 0.16734801 0.095666155 0.020119315 0.034911245 -0.6952679 -0.1825078 0.015794883
-0.07356931 0.08495671 -0.1872807 0.078682184 -0.09334873 -0.33620515 -0.31889662 0.009427805
0.0035569738 -0.43252277 -0.124940835 -0.010854596 0.01930175 -0.108650535 0.25525925 -0.00469104
-0.47128662 -0.15917155 0.011590546 0.14044116 -0.21628408 -0.13761573 -0.48091552 0.051580627
0.24367309 -0.4298124 -0.07138644 -0.18625772 -0.1032454 0.1557043 0.00090373715 0.17787214
0.12189391 -0.063896425 -0.17819446 -0.09657753 0.06302643 0.1056204 -0.07839212 -0.044279866
-0.31736284 -0.0063995826 0.026802978 -0.1348207 -0.14638004 -0.12433857 0.0364249 -0.08433853
-0.28395936 -0.1718744 -0.016817521 0.0473876 0.1405799 0.14861384 0.10326093 -0.058176335
0.09935154 0.17549147 0.06628085 -0.5334895 0.097465515 -0.033779006 0.04724929 0.17884865
-0.05084005 0.074169464 -0.10890111 0.14862949 -0.2220695 -0.21618716 0.1255898 -0.084753476
0.12473628 0.040664375 -0.19180478 -0.01680078 -0.05905716 -0.0014468945 -0.025338242 -0.17110541
0.07060567 0.0131453145 0.12401067 0.11388176 0.05907905 0.2293211 0.038753558 0.03845015
-0.38393986 -0.36312586 -0.055369888 0.090021424 -0.37524095 -0.029136345 0.05734996 0.023512317
0.078013204 0.022404788 -0.29197043 0.12190742 -0.0689247 -0.050335225 -0.930551 0.12645143
0.14046063 -0.07028968 -0.019609923 -0.00030130494 -0.17019258 0.14885983 -0.99735236 0.004616113
0.069589496 0.10264665 -0.62111133 -0.13612123 0.016076092 0.13222244 -0.098664664 -0.072671995
0.012106847 -0.004972164 0.05681323 0.12423953 0.12017854 0.14689903 0.014757177 0.26505443
-0.18642823 0.006605994 -0.06085141 -0.22617894 0.12760843 -0.076078855 0.026706351 0.15159798
-0.045116458 0.013497161 0.0908135 -0.0019085973 -0.07816449 -0.8748469 0.054968257 -0.31924868
0.38682625 0.037533082 -0.013858924 0.02856756 0.03045366 -0.22444399 -0.063665695 0.04407737
0.05946571 -0.03406462 0.08505175 -0.10236441 0.0049823984 0.13673773 0.238985 0.013644413
-0.022368312 0.108002596 -0.37167153 0.12928061 0.02091174 0.0022858859 0.063672 -0.13244902
0.13320583 -0.045269977 -0.0052783065 -0.0056805513 0.10512052 -0.05941374 -0.12973838 -0.16878965
-0.5842888 -0.14206941 0.057413697 -0.09988853 0.06313349 -0.15344627 0.09584168 0.26428175
0.016225586 -0.023452593 -0.1829065 0.06803531 0.09435044 9.0919726e-05 -0.056034274 0.053431693
0.14729398 0.09770916 0.020711057 -0.08221422 0.04079794 -0.631407 0.021036375 -0.013535008
0.102477536 0.06753148 0.0706721 -0.0448563 -0.45199826 0.051057644 0.14539598 0.055248603
0.14738296 0.038845003 -0.02052504 -0.20963813 -0.074575685 0.013416182 -0.02173116 0.20333506
0.120351836 -0.23302296 0.14613566 0.24163404 0.029936444 0.04014911 -0.013247456 -0.33005852
-0.15268081 0.1570867 -0.022868296 0.1107601 -0.69095737 -0.008477983 -1.0822612 0.010313179
-0.027785003 0.03247059 0.032964602 -0.09041839 -0.08055457 -0.041502338 -0.3304051 -0.04255087
00000000: c085 fbbd 1bf5 a83d 49e0 87be ff1a 32be
00000010: 857d ac3d f8de de3d 9ef9 42be 8b0a 44bf
00000020: f351 c53d 475d 2b3e 9eec c33d 43d1 a43c
00000030: 18ff 0e3d 14fd 31bf 53e3 3abe 4564 813c
00000040: 82ab 96bd c9fd ad3d 83c6 3fbe 2024 a13d
00000050: 9e2d bfbd 1523 acbe 6b46 a3be 1577 1a3c
00000060: 1e1c 693b a073 ddbe fbe0 ffbd 7ad7 31bc
00000070: b41e 9e3c 2c84 debd 57b1 823e 4cb7 99bb
00000080: 7b4c f1be defd 22be 46e6 3d3c cfcf 0f3e
00000090: 9379 5dbe 23eb 0cbe 8f3a f6be 3546 533d
000000a0: 7085 793e 5f10 dcbe 0e33 92bd 58ba 3ebe
000000b0: 5372 d3bd f370 1f3e c6e8 6c3a 1d24 363e
000000c0: 84a3 f93d 21dc 82bd 9c78 36be 71ca c5bd
000000d0: 0014 813d 824f d83d 0c8c a0bd ce5e 35bd
000000e0: 627d a2be 97b3 d1bb eb91 db3c 700e 0abe
000000f0: a6e4 15be 38a5 febd 4732 153d aeb9 acbd
00000100: 1f63 91be d8ff 2fbe e6c4 89bc 8019 423d
00000110: 2df4 0f3e 3a2e 183e 777a d33d 4f4a 6ebd
00000120: d278 cb3d 09b4 333e 41be 873d c592 08bf
00000130: 009c c73d db5b 0abd 7988 413d 1a24 373e
00000140: a83d 50bd 29e6 973d 8c07 dfbd 5432 183e
00000150: 3066 63be 2b60 5dbe 9d9a 003e 3b93 adbd
00000160: bc75 ff3d b08f 263d 7968 44be caa1 89bc
00000170: ece5 71bd b9a5 bdba 2592 cfbc 4236 2fbe
00000180: b599 903d 725f 573c 4ef9 fd3d d73a e93d
00000190: e0fc 713d 27d3 6a3e 0dbc 1e3d e87d 1d3d
000001a0: c493 c4be a2eb b9be 89cb 62bd 275d b83d
000001b0: 951f c0be 58af eebc cbe7 6a3d e79c c03c
000001c0: 63c5 9f3d 3f8a b73c 267d 95be 99aa f93d
000001d0: 6528 8dbd 4f2c 4ebd 9738 6ebf 7c7c 013e
000001e0: e9d4 0f3e 09f4 8fbd fda4 a0bc 77f8 9db9
000001f0: f746 2ebe b66e 183e 7c52 7fbf c342 973b
00000200: f084 8e3d 6838 d23d 2701 1fbf 5d63 0bbe
00000210: 02b2 833c 5265 073e b310 cabd 0ed5 94bd
00000220: cc5b 463c 89ed a2bb fdb4 683d 4b71 fe3d
00000230: 2b20 f63d b36c 163e 16c8 713c 37b5 873e
00000240: 0be7 3ebe 1877 d83b 543f 79bd 749b 67be
00000250: c9ab 023e 3bcf 9bbd 47c7 da3c 803c 1b3e
00000260: 09cc 38bd 3223 5d3c 6efc b93d e629 faba
00000270: b414 a0bd f7f5 5fbf 6526 613d 9074 a3be
00000280: 170e c63e 4abc 193d 8a10 63bc 8406 ea3c
00000290: f479 f93c a5d4 65be 2963 82bd 798a 343d
000002a0: 5192 733d 5887 0bbd 9d2f ae3d 6fa4 d1bd
000002b0: 6343 a33b fa04 0c3e 7cb8 743e d18c 5f3c
000002c0: c03d b7bc 7730 dd3d bb4b bebe 2362 043e
000002d0: 194f ab3c cdce 153b 7766 823d b7a0 07be
000002e0: 1c67 083e 036d 39bd a5f5 acbb eb23 babb
000002f0: 6d49 d73d d25b 73bd 23da 04be 32d7 2cbe
00000300: f393 15bf a57a 11be a02a 6b3d 5c92 ccbd
00000310: 224c 813d 0521 1dbe a548 c43d f04f 873e
00000320: 85eb 843c a71f c0bc d74b 3bbe 1956 8b3d
00000330: ce3a c13d 28ac be38 3284 65bd 31db 5a3d
00000340: 3cd4 163e bd1b c83d 3caa a93c ee5f a8bd
00000350: be1b 273d e4a3 21bf 7a54 ac3c f0c1 5dbc
00000360: bedf d13d f24d 8a3d 89bc 903d 3dbb 37bd
00000370: 516c e7be d221 513d afe2 143e 5c4c 623d
00000380: 8feb 163e f01b 1f3d 2124 a8bc 61ab 56be
00000390: 23bb 98bd 8ccf 5b3c 8c05 b2bc 1137 503e
000003a0: 067b f63d 929d 6ebe 96a4 153e ea6e 773e
000003b0: 463d f53c 6573 243d dc0b 59bc 6efd a8be
000003c0: 5c58 1cbe 56db 203e 4b56 bbbc 31d6 e23d
000003d0: 95e2 30bf 3de7 0abc 8987 8abf 9cf8 283c
000003e0: 609d e3bc e2ff 043d e405 073d 472d b9bd
000003f0: cbf9 a4bd 5bfe 29bd db2a a9be d249 2ebd

model.2.bias f4 [256]
0.16009846 -0.055099346 0.07746285 0.018876564 0.079737835 -0.0071739955 0.018884107 0.16492236
0.036584422 0.059852872 0.04643235 0.11564575 -0.121939115 -0.09107953 -0.029116329 0.24252738
-0.14089617 -0.063515864 0.11758186 0.11286589 0.011088792 0.048779484 -0.049815666 -0.15804946
-0.09854079 -0.11614146 0.14030863 -0.067194216 0.0129868 0.08237772 0.06964804 0.031429343
0.11346946 -0.0012405431 -0.0028007855 0.022171328 -0.022883974 0.09044469 0.07382547 -0.12025467
0.09197706 0.03643501 0.046374034 -0.008243484 -0.007384532 0.035988797 0.20418675 -0.029419418
-0.001751965 0.01239135 0.041399542 0.081265464 0.07853545 0.045547955 0.14916106 -0.0742612
-0.056726653 0.01874891 0.29273164 0.0039765234 0.058820903 0.0029254407 -0.00488019 0.17416796
0.08248896 0.023806987 0.052302938 0.14518085 0.09419292 -0.0012466968 -0.014817834 -0.0496997
-0.06330587 0.046313282 0.030286884 0.029690249 0.0369934 0.046160504 -0.010241873 -0.037944775
0.047141343 0.12925719 0.07412941 -9.024139e-05 -0.010414169 -0.02872917 0.007452525 0.035954133
0.010491138 0.08673881 -0.033857416 -0.008943835 0.09171494 -0.012779532 0.092243314 0.17466591
-0.0139591405 0.22605954 -0.05865023 -0.045297876 0.06510345 -0.05988749 0.025149768 -0.15039918
0.042976815 -0.05475629 0.015185419 0.029802822 -0.098984346 -0.03755567 0.10800252 0.1435343
0.009226067 -0.15966061 -0.14176 -0.13322473 -0.118802816 0.025980273 0.13883713 0.048532546
0.04062306 0.14620154 -0.11922494 0.07050032 -0.004385502 -0.055750042 -0.017051276 0.046090215
0.18693745 -0.084288 0.049987577 0.08067739 -0.023846526 0.10870352 -0.096662216 -0.0070504
0.10788374 -0.01238067 0.011313982 -0.09803397 0.13304009 0.01270841 0.0088878125 -0.02611754
0.07377624 0.056747794 0.0048205424 -0.07193761 0.036826525 0.15808305 0.10276186 -0.061116405
-0.02494733 0.15897629 -0.122764535 0.09934796 0.004455677 0.048869807 0.07417908 0.18654755
0.03701553 0.10038642 -0.029882025 -0.07701009 0.003918787 0.031651944 -0.05032203 -0.031441133
0.086320184 0.027007861 0.062667675 -0.079976335 -0.1623337 -0.0039462904 -0.006687763 0.002312695
-0.16695417 -0.09887935 0.05478543 0.24793002 0.045921315 0.044229917 0.032193597 0.060505748
-0.0880387 -0.04328563 0.04722732 -0.027701266 0.06836314 -0.0004150655 -0.023608845 -0.047519058
0.0858535 -0.020305185 0.21722068 -0.039911013 -0.023588313 -0.045529496 -0.050897412 -0.09580802
-0.052546423 -0.0028165802 0.020234853 0.16486557 -0.08514649 -0.074978754 -0.06939128 -0.0024457104
-0.09803121 0.044173867 0.014869253 0.022935148 -0.006033298 -0.017557004 -0.029769976 0.015496966
0.11064154 -0.034898724 -0.020537086 0.1057827 -0.026050419 0.074775554 0.048968256 -0.13725714
-0.19988656 0.09211031 -0.020418858 -0.06176958 0.028599616 0.07967227 0.010721121 0.024486046
0.028916106 -0.07874879 0.09705672 0.13222057 -0.07387757 0.18033215 0.09564121 0.088633284
0.01351964 0.033260852 0.14826806 0.0135815265 0.07172897 0.10500356 0.113312565 -0.06083647
0.10081148 -0.1682557 -0.011227447 0.026690582 -0.038327154 0.16708724 0.008610249 -0.0018426895
00000000: daf0 233e daaf 61bd d8a4 9e3d 06a3 9a3c
00000010: 974d a33d d613 ebbb d8b2 9a3c 68e1 283e
00000020: 8cd9 153d 4928 753d d92f 3e3d aed7 ec3d
00000030: 37bb f9bd e887 babd 5e85 eebc 1959 783e
00000040: 1647 10be 9b14 82bd c2ce f03d 3b26 e73d
00000050: c4ad 353c ffcc 473d 830b 4cbd b8d7 21be
00000060: c1cf c9bd 93db edbd 11ad 0f3e 1f9d 89bd
00000070: 96c6 543c a6b5 a83d a2a3 8e3d 0ebc 003d
00000080: ad62 e83d b899 a2ba 628d 37bb a5a0 b53c
00000090: 2c77 bbbc 113b b93d cf31 973d 1548 f6bd
000000a0: 785e bc3d e13c 153d b3f2 3d3d ae0f 07bc
000000b0: f2f9 f1bb fd68 133d 5516 513e fe00 f1bc
000000c0: 31a2 e5ba 1705 4b3c 9192 293d 826e a63d
000000d0: 32d7 a03d 7e90 3a3d adbd 183e 4216 98bd
000000e0: 355a 68bd 5097 993c ece0 953e 7f4d 823b
000000f0: 30ee 703d c0b8 3f3b 00ea 9fbb 1659 323e
00000100: f9ef a83d df06 c33c 9b3b 563d 4aaa 143e
00000110: 38e8 c03d 3468 a3ba 80c6 72bc ea91 4bbd
00000120: 82a6 81bd ffb2 3d3d 331c f83c f738 f33c
00000130: 6486 173d cc12 3d3d 87cd 27bc fb6b 1bbd
00000140: 4817 413d ff5b 043e 29d1 973d fa3f bdb8
00000150: 31a0 2abc 7059 ebbc 5034 f43b a444 133d
00000160: 06e3 2b3c 1ea4 b13d 13ae 0abd 2a89 12bc
00000170: 0bd5 bb3d 3e61 51bc 10ea bc3d 9fdb 323e
00000180: e1b4 64bc 277c 673e 393b 70bd 448a 39bd
00000190: f554 853d 964c 75bd e306 ce3c 3e02 1abe
000001a0: 7508 303d 2248 60bd 43cc 783c 0c25 f43c
000001b0: 4eb8 cabd f9d3 19bd 6d30 dd3d a8fa 123e
000001c0: ee28 173c 127e 23be 8929 11be 106c 08be
000001d0: e44e f3bd 95d4 d43c 522b 0e3e 10ca 463d
000001e0: 5e64 263d dbb5 153e 352c f4bd 7962 903d
000001f0: 42b4 8fbb 285a 64bd 1eaf 8bbc 18c9 3c3d
00000200: 886c 3f3e 309f acbd c6bf 4c3d 303a a53d
00000210: ca59 c3bc f39f de3d d7f6 c5bd 0b07 e7bb
00000220: 26f2 dc3d 4bd8 4abc 485e 393c 09c6 c8bd
00000230: a93b 083e ef36 503c 309e 113c 74f4 d5bc
00000240: ff17 973d 6070 683d a4f5 9d3b 0754 93bd
00000250: 69d7 163d 86e0 213e cf74 d23d 3255 7abd
00000260: 585e ccbc aeca 223e f96b fbbd f176 cb3d
00000270: ed00 923b b52b 483d 34eb 973d 5206 3f3e
00000280: 999d 173d 6597 cd3d 26cb f4bc 77b7 9dbd
00000290: 2b69 803b 78a5 013d 791e 4ebd 6bc8 00bd
000002a0: a3c8 b03d 973f dd3c e957 803d a2ca a3bd
000002b0: ce3a 26be e24f 81bb 0625 dbbb 9590 173b
000002c0: 09f6 2abe 4281 cabd b066 603d 5ee1 7d3e
000002d0: fd17 3c3d 6e2a 353d 6fdd 033d e0d4 773d
000002e0: a24d b4bd 464c 31bd 6f71 413d c4ed e2bc
000002f0: f901 8c3d 269d d9b9 5667 c1bc 58a3 42bd
00000300: f6d3 af3d 0f57 a6bc 196f 5e3e bb79 23bd
00000310: 473c c1bc 237d 3abd ce79 50bd ff36 c4bd
00000320: eb3a 57bd 6096 38bb 90c3 a53c 85d2 283e
00000330: 4861 aebd 768e 99bd 041d 8ebd 3648 20bb
00000340: 96c4 c8bd a8ef 343d 2b9e 733c 7ee2 bb3c
00000350: f9b2 c5bb b5d3 8fbc 2ae0 f3bc fde6 7d3c
00000360: 0898 e23d f7f1 0ebd 643d a8bc 9aa4 d83d
00000370: b067 d5bc ed23 993d f092 483d 238d 0cbe
00000380: 10af 4cbe 55a4 bc3d 7345 a7bc 1902 7dbd
00000390: be49 ea3c 372b a33d a4a7 2f3c f696 c83c
000003a0: 78e1 ec3c 0c47 a1bd acc5 c63d d464 073e
000003b0: 204d 97bd fea8 383e 8adf c33d 5e85 b53d
000003c0: 7b81 5d3c 883c 083d 95d3 173e 0d85 5e3c
000003d0: a3e6 923d 1b0c d73d 6b10 e83d aa2f 79bd
000003e0: 4076 ce3d 394b 2cbe 53f3 37bc 35a6 da3c
000003f0: effc 1cbd eb18 2b3e 0012 0d3c 6686 f1ba

model.4.weight f4 [2, 256]
0.30430052 1.5488659 -0.14859495 -0.7204634 0.44180793 -0.49439862 0.12833294 1.7213008
0.27884457 0.13112867 0.7175587 0.27421853 -0.3349909 0.2319896 0.42601818 2.969957
-0.72797966 0.014752468 -0.011847733 -0.5333929 -0.008349186 -0.20177214 -0.60120267 0.12865177
-0.22289826 0.022860715 0.049149062 -0.12463731 0.39120987 3.3232732 -0.36580443 -0.15984005
-0.29847452 -0.23995908 -0.028050397 -0.52545077 -0.0057893647 0.662141 -0.49205002 -0.2169212
-0.7085791 -0.34678355 0.38571486 -0.25490537 -0.65395343 -0.058560595 0.2386668 -0.008726991
0.23220815 0.25553048 -0.095510714 0.49922836 -1.0556309 -0.053467166 0.30167302 0.22095338
-0.31254405 0.6398517 -0.20039156 0.41377056 0.37967455 -0.37875566 -0.03240068 0.5454307
-0.18898548 -0.49806866 0.23120798 0.9110808 3.3789144 -0.34013644 0.6948897 -0.26101828
0.05951914 -0.41544133 4.241914 -0.07423512 0.3826241 -0.015058761 -0.8975621 -0.39962944
0.52209234 -0.35593784 -0.5530691 0.4546945 0.29173392 0.28963625 -0.026770048 0.37916988
0.06353275 -0.054866258 -0.18409334 -0.28786543 0.7129764 0.2237046 0.05195154 -0.50566494
0.30839828 0.55398405 0.017130021 -0.16659392 0.9867892 -1.0663395 -0.71605295 0.0054274797
0.040366635 -0.041168746 0.77248067 1.918504 -0.45267677 -0.7197102 1.4278324 2.7396173
0.91262066 0.7803545 0.14120114 -0.33905256 0.64121956 0.12595923 0.51794046 -0.59322864
0.18345463 1.8686715 0.13969107 -0.077763505 0.51635814 -0.42366034 0.71074826 -0.037492983
3.476353 0.13795011 -0.23605995 -0.09430624 0.3754004 -0.54293746 -0.6839941 0.34817445
0.6425703 0.09429591 0.6753832 -0.59138894 -0.6978604 0.09964832 -0.21207875 0.0057312744
-0.24306747 -0.2348587 0.0013278729 -0.009785865 0.8876552 -0.3991594 -0.31756276 -0.07139741
-0.17323728 0.95414394 -0.19338071 -0.540887 -0.3472347 0.6163559 -0.30813256 -0.070701614
0.12244467 0.5677911 0.19822101 -0.1355229 -0.14231542 -0.7624313 0.21452905 -0.05016148
1.9692426 -0.27688703 -0.34992996 0.24364384 1.5241584 0.3205153 -0.6076405 0.2683418
0.55596966 -0.6185594 -0.20499562 -1.9502269 0.82619476 0.1864319 -0.043723818 0.22832333
-0.08682629 -0.12815088 -0.48702165 0.14840621 0.42415977 0.60987395 0.40802068 0.021461422
-0.6489022 0.4168101 1.3284235 -0.0037715402 -0.055083457 -0.01454923 -0.049965627 -0.49311355
0.35693938 0.3343106 -0.047054533 -0.5414629 -0.14626443 -0.3669659 0.27685913 0.728101
-0.23667237 -0.008683127 0.9774779 -0.31969082 -0.037832517 0.2249258 0.057599712 0.26077226
-0.21719544 -0.052651074 0.37665853 -0.6152011 0.10758686 1.2810836 0.2630028 0.93136966
-0.35538343 -0.0935602 -0.41998515 -0.20002665 1.0098042 -0.15488395 0.033740435 -0.023520093
0.32935238 -0.32387307 0.7375755 -0.07517756 -0.2569985 0.6252219 0.119927645 0.69790214
0.54178125 0.3124516 0.35838678 0.18265365 -0.19581217 0.026971286 -0.35289297 0.27669585
-0.59447783 -0.5077057 -0.039113414 0.18932094 -0.3445514 -2.7136328 -0.47712317 -0.02622755
00000000: 47cd 9b3e 3d41 c63f 4629 18be 4a70 38bf
00000010: a634 e23e d121 fdbe b669 033e 9653 dc3f
00000020: b7c4 8e3e 9846 063e edb1 373f 5f66 8c3e
00000030: ed83 abbe af8e 6d3e 0e1f da3e c713 3e40
00000040: e05c 3abf 56b4 713c fe1c 42bc 708c 08bf
00000050: 06cb 08bc 5b9d 4ebe 6be8 19bf 4abd 033e
00000060: 713f 64be 6546 bb3c 8750 493d d941 ffbd
00000070: a94c c83e 82b0 5440 b84a bbbe 1cad 23be
00000080: a7d1 98be d5b7 75be f2c9 e5bc f183 06bf
00000090: b6b4 bdbb 1382 293f fbed fbbe 9720 5ebe
000000a0: 7165 35bf 9d8d b1be 6b7c c53e f582 82be
000000b0: 7e69 27bf 3cdd 6fbd 1265 743e a7fb 0ebc
000000c0: f9c7 6d3e e4d4 823e 1f9b c3bd dc9a ff3e
000000d0: ea1e 87bf 6300 5bbd e374 9a3e 9a41 623e
000000e0: c605 a0be 52cd 233f 7233 4dbe bcd9 d33e
000000f0: b464 c23e 43ec c1be 93b6 04bd 59a1 0b3f
00000100: 6985 41be db02 ffbe c9c1 6c3e 973c 693f
00000110: 2240 5840 5d26 aebe 4be4 313f 30a4 85be
00000120: 57ca 733d bab4 d4be c2bd 8740 9508 98bd
00000130: 4ee7 c33e 06b9 76bc a1c6 65bf 3b9c ccbe
00000140: d8a7 053f 7c3d b6be f095 0dbf b8cd e83e
00000150: 265e 953e 344b 943e dc4c dbbc 8e22 c23e
00000160: 751d 823d 71bb 60bd f782 3cbe 1963 93be
00000170: 9f85 363f d212 653e 23cb 543d 4273 01bf
00000180: 61e6 9d3e e6d1 0d3f 4254 8c3c 9997 2abe
00000190: 389e 7c3f d07d 88bf 3f4f 37bf 00d9 b13b
000001a0: 7c57 253d 8fa0 28bd 4bc1 453f 8a91 f53f
000001b0: 40c5 e7be ed3e 38bf 36c3 b63f e455 2f40
000001c0: 82a1 693f 50c5 473f 0897 103e 4c98 adbe
000001d0: f726 243f 75fb 003e bf97 043f d5dd 17bf
000001e0: 88db 3b3e a130 ef3f 2d0b 0f3e 7942 9fbd
000001f0: 0c30 043f 02ea d8be 99f3 353f 3e92 19bd
00000200: 917c 5e40 cb42 0d3e b3b9 71be a123 c1bd
00000210: 7b34 c03e f3fd 0abf 3d1a 2fbf ec43 b23e
00000220: 7d7f 243f 371e c13d eae5 2c3f 4465 17bf
00000230: fba6 32bf 6b14 cc3d 2c2b 59be 6acd bb3b
00000240: aee6 78be cd7e 70be 050c ae3a e554 20bc
00000250: 5f3d 633f 9f5e ccbe 9697 a2be ce38 92bd
00000260: 1d65 31be c742 743f 9805 46be 9277 0abf
00000270: bfc8 b1be 80c9 1d3f 8dc3 9dbe 02cc 90bd
00000280: 45c4 fa3d c25a 113f 73fa 4a3e 84c6 0abe
00000290: 22bb 11be b32e 43bf 81ad 5b3e 2076 4dbd
000002a0: 2410 fc3f 23c4 8dbe 052a b3be c57d 793e
000002b0: 9f17 c33f 951a a43e 548e 1bbf 1964 893e
000002c0: 0754 0e3f e959 1ebf 5fea 51be 09a1 f9bf
000002d0: 8081 533f 01e8 3e3e bf17 33bd 97cd 693e
000002e0: fbd1 b1bd fc39 03be e75a f9be ccf7 173e
000002f0: 782b d93e b320 1c3f 16e8 d03e ddcf af3c
00000300: 741e 26bf 2268 d53e c809 aa3f f22b 77bb
00000310: 319f 61bd e55f 6ebc c2a8 4cbd 6179 fcbe
00000320: c2c0 b63e c22a ab3e 41bc 40bd 509d 0abf
00000330: 58c6 15be f4e2 bbbe 7bc0 8d3e d464 3a3f
00000340: 3e5a 72be ad43 0ebc fe3b 7a3f 84ae a3be
00000350: 45f6 1abd f352 663e aded 6b3d f183 853e
00000360: 7b68 5ebe a7a8 57bd 63d9 c03e d27d 1dbf
00000370: 8056 dc3d 8cfa a33f 4ea8 863e 3e6e 6e3f
00000380: d1f4 b5be 7d9c bfbd 4b08 d7be c9d3 4cbe
00000390: 4441 813f e699 1ebe 6933 0a3d 36ad c0bc
000003a0: e0a0 a83e b1d2 a5be bfd1 3c3f b1f6 99bd
000003b0: 4f95 83be 8b0e 203f a09c f53d b7a9 323f
000003c0: 2db2 0a3f a8f9 9f3e 797e b73e 8f09 3b3e
000003d0: fc82 48be e3f2 dc3c 63ae b4be 14ab 8d3e
000003e0: b32f 18bf 00f9 01bf 6335 20bd 59dd 413e
000003f0: 0b69 b0be 29ac 2dc0 7d49 f4be 29db d6bc

model.4.bias f4 [2]
-0.09195258 0.06817283
00000000: a251 bcbd 329e 8b3d
