hw2/preTrained/ddpg_actor_LunarLanderContinuous-v2_04302023_005707_.pth (torch, 276375 bytes, 6 tensors)

model.0.weight f4 [256, 8]
0	0xbe8765b5	-0.26444784
1	0x3d1eb6dc	0.038748607
2	0xbecf466e	-0.4048342
3	0x3f1b471b	0.60655373
4	0xbe2af57d	-0.16695209
5	0xbe7f1d0d	-0.24913426
6	0x3d9caa52	0.076496735
7	0x3ece85a7	0.40336344
8	0xbe869a56	-0.26289624
9	0xbf3abee1	-0.7294751
10	0xbde8b5fb	-0.11362835
11	0xbcffbc48	-0.03121771
12	0x3cd03174	0.025414206
13	0x3dd469e2	0.10371758
14	0xbca0a773	-0.019611096
15	0x3ed615f8	0.41813636
16	0xbe315516	-0.17317614
17	0xbce0b18b	-0.02742841
18	0x3dc48951	0.095965035
19	0xbe980a2b	-0.29695258
20	0x3cfd1ddd	0.030898029
21	0xbf1de673	-0.6167976
22	0xbee833c3	-0.4535199
23	0xbe8a1dc5	-0.26975837
24	0xbf61b403	-0.881653
25	0x3c80e9bd	0.015736455
26	0xbedcb131	-0.43103936
27	0xbf1fa732	-0.62364495
28	0xbed1b572	-0.40958744
29	0xbd548ab9	-0.05189011
30	0x3e8dfa3e	0.27729982
31	0x3f020943	0.5079538
32	0x3e840774	0.25786936
33	0x3e91c4c6	0.2847044
34	0xbd33581f	-0.04378521
35	0xbe3af441	-0.18257238
36	0x3f30055c	0.6875818
37	0x3e2ff60a	0.171837
38	0xbd835d09	-0.064142294
39	0x3e0b6a3f	0.13614748
40	0x3e7580ec	0.23974961
41	0x3ea36aa7	0.31917307
42	0xbdf18393	-0.11792674
43	0xbb7c40a1	-0.003849067
44	0x3da1a008	0.07891852
45	0x3d88050a	0.06641586
46	0x3f0d696a	0.55238974
47	0x3f1faeee	0.62376297
48	0xbec79f5f	-0.38988778
49	0x3e3b3525	0.18281992
50	0xbecf29a6	-0.40461463
51	0x3ec67714	0.38762724
52	0x3d9c4f1a	0.07632275
53	0xbd22f3f6	-0.03978344
54	0x3def86fc	0.11695668
55	0x3ef38f1a	0.47570115
56	0x3e415387	0.1887952
57	0x3e845865	0.2584869
58	0x3e810c90	0.25204897
59	0x3f6c2df8	0.9225764
60	0xbea8ce3a	-0.32969838
61	0xbeb7d133	-0.35901794
62	0xbe1dd61b	-0.15413706
63	0x3eb6da5a	0.35713464
64	0xbe112b09	-0.14176573
65	0x3f154c57	0.5831961
66	0x3e0cd18b	0.1375181
67	0xbe475c50	-0.19468808
68	0xbebf477d	-0.3735923
69	0x3ed0bd9b	0.40769657
70	0x3f3d8805	0.74035674
71	0xbca5ac79	-0.020223843
72	0xbf5c37e9	-0.8602281
73	0x3e61a44e	0.22035334
74	0xbe915cac	-0.28391016
75	0x3ee806b9	0.4531763
76	0xbe9a4f53	-0.30138645
77	0xbe946399	-0.28982237
78	0xbe0b0e65	-0.1357971
79	0x3da086d1	0.07838214
80	0xbf14eba8	-0.5817208
81	0xbca90acd	-0.020635033
82	0x3e1db71b	0.1540188
83	0x3ea643fb	0.3247374
84	0x3ea4fd80	0.32224655
85	0xbea157cd	-0.315123
86	0xbe0557f2	-0.1302183
87	0x3ede9ee2	0.43480593
88	0xbf045b4a	-0.51701796
89	0xbd7f39d3	-0.062311005
90	0xbf32fd97	-0.699182
91	0x3ea48c18	0.32138133
92	0x3d517abd	0.051142443
93	0xbcd3887f	-0.025821922
94	0x3e05bb94	0.13059837
95	0xbdbfc606	-0.09363942
96	0xbf265839	-0.6497837
97	0x3d45671e	0.048194043
98	0xbe9fdf12	-0.31224877
99	0xbeaf6aaf	-0.3426108
100	0xbdc5bfd5	-0.0965573
101	0x3e97b064	0.29626763
102	0x3e6b2058	0.22961557
103	0x3d9ca932	0.07649459
104	0xbe80ed77	-0.2518117
105	0x3ef41c36	0.47677773
106	0x3e4520f4	0.19250852
107	0x3b0e0c96	0.0021674982
108	0xbe6c4f35	-0.2307709
109	0x3e2c0500	0.16798782
110	0x3e5564ef	0.20839284
111	0xbf0ca2b9	-0.54935795
112	0x3e95b9ce	0.2924332
113	0xbf226165	-0.6342986
114	0x3e83793b	0.2567843
115	0xbe0232e6	-0.12714729
116	0xbed1dcfc	-0.4098891
117	0xbeef914f	-0.4679055
118	0xbcd59ae8	-0.026074842
119	0x3eb7573b	0.3580874
120	0x3f372166	0.71535337
121	0x3e796343	0.24354272
122	0xbed861fa	-0.4226225
123	0xbe7c6af9	-0.24650182
124	0x3e8d667a	0.27617246
125	0xbe568f61	-0.20953132
126	0xbf0de3aa	-0.5542551
127	0xbd4e6145	-0.050385732
128	0xbead0184	-0.3379022
129	0x3d5dbd31	0.054135505
130	0x3e12cfab	0.14337032
131	0xbe10d750	-0.14144635
132	0xbeb15d18	-0.34641337
133	0xbe622d40	-0.22087574
134	0xbf1f1ca9	-0.62153107
135	0xbec51644	-0.3849355
136	0xbe813e65	-0.25242916
137	0x3d91bd7a	0.07116218
138	0xbe9f5be0	-0.31124783
139	0xbf1f2508	-0.6216588
140	0xbebaae86	-0.36461276
141	0x3f38194e	0.7191361
142	0x3f126fe3	0.57201976
143	0xbefe19f5	-0.4962918
144	0x3ef9b8cc	0.487738
145	0xbe186690	-0.14882874
146	0x3ef8359a	0.48478395
147	0xbe2408f7	-0.16019045
148	0x3e81e776	0.25371903
149	0xbd418dca	-0.04725436
150	0xbf436362	-0.7632352
151	0xbea441de	-0.32081503
152	0xbf61f7c0	-0.8826866
153	0xbe56eacc	-0.20988005
154	0xbe6b1484	-0.22957045
155	0xbda0607c	-0.07830903
156	0x3e8d325a	0.27577478
157	0x3dea8516	0.114511654
158	0x3e97d512	0.29654747
159	0x3e94e86e	0.2908358
160	0xbe7bcedf	-0.24590634
161	0xbcb4c9e1	-0.02206892
162	0x3ecfa6d1	0.40556958
163	0xbe9f8542	-0.31156355
164	0xbf16dad5	-0.5892766
165	0xbd9e0507	-0.07715803
166	0xbf4def2a	-0.8044306
167	0xbdbf1174	-0.09329501
168	0xbf329e74	-0.6977303
169	0x3eedba18	0.4643104
170	0xbe5c711e	-0.21527526
171	0x3eea3ef5	0.45751157
172	0x3dd086d6	0.10181968
173	0xbdec09d8	-0.11525315
174	0xbe983886	-0.29730624
175	0xbf067489	-0.5252157
176	0x3ecd56f0	0.4010539
177	0xbbd71827	-0.0065641585
178	0x3e654237	0.2238854
179	0x3d98c7b2	0.07459964
180	0x3e9f3edb	0.31102642
181	0xbda7fe60	-0.08202815
182	0x3f2c0301	0.67192084
183	0x3efffca0	0.49997425
184	0xbe1f7bf0	-0.15574622
185	0xbf549fc7	-0.830563
186	0xbe3d7850	-0.18502927
187	0x3e1d3599	0.15352477
188	0x3f0535f2	0.5203544
189	0x3e612134	0.21985322
190	0x3d1a4122	0.03765977
191	0xbe8c1412	-0.27359062
192	0xbe97f68f	-0.29680297
193	0xbf060ad1	-0.52360255
194	0x3f41fc3b	0.757755
195	0xbee2c934	-0.4429413
196	0xbe44f765	-0.19234999
197	0x3eca4986	0.3950922
198	0xbf11f15e	-0.5700892
199	0xbd94a3bf	-0.072577946
200	0xbecc60c7	-0.39917585
201	0x3f0f794c	0.5604446
202	0x3ed31f74	0.41234934
203	0x3e8616f4	0.26189387
204	0xbd00e2e3	-0.031466376
205	0xbee08c26	-0.43856925
206	0x3e95678c	0.29180562
207	0x3e6814d4	0.22664195
208	0xbf42c9b8	-0.7608905
209	0xbe08c35e	-0.13355777
210	0x3e787694	0.24263984
211	0xbef044d8	-0.46927524
212	0xbf003ebe	-0.50095737
213	0xbd5c70db	-0.053818565
214	0x3e7c72b3	0.2465313
215	0x3e507202	0.2035599
216	0xbd6e6cf9	-0.058209393
217	0x3e043c32	0.12913588
218	0xbf1145bf	-0.5674705
219	0xbe07907f	-0.13238715
220	0x3f1ed146	0.62038076
221	0x3e646ed0	0.22307897
222	0xbe2332ac	-0.15937299
223	0xbec0c8a5	-0.3765308
224	0xbd11d08e	-0.035599284
225	0x3d477fe4	0.04870595
226	0xbe843d5a	-0.25828058
227	0x3f4c86d0	0.7989321
228	0x3f1d9b37	0.61564964
229	0x3ec47b0a	0.3837512
230	0x3eb11f66	0.34594268
231	0xbe43669e	-0.19082114
232	0x3e9544b1	0.2915397
233	0x3e850bb2	0.25985485
234	0x3e89e60c	0.26933324
235	0x3e7277fc	0.23678583
236	0x3e45f73c	0.19332594
237	0x3e36f774	0.17867833
238	0xbe75b00f	-0.23992942
239	0x3eb6cd03	0.35703287
240	0xbf5563c0	-0.8335533
241	0x3dbc06e0	0.09180999
242	0x3d143a12	0.036188193
243	0x3cbb5fca	0.022872824
244	0x3e380a38	0.17972648
245	0x3da3315a	0.079683974
246	0x3c901298	0.017586991
247	0xbf2452fd	-0.6418913
248	0xbf1f52b6	-0.6223558
249	0x3e93d125	0.28870502
250	0xbf013f84	-0.5048754
251	0xbcbc726f	-0.023003785
252	0x3eba7f2b	0.36425146
253	0x3efe04c0	0.49613
254	0xbf42beed	-0.7607258
255	0x3e1830ba	0.14862338

model.0.bias f4 [256]
0	0x3e0d4cf2	0.13798884
1	0x3ea99a40	0.33125496
2	0x3e9b14ad	0.30289212
3	0xbd0efed0	-0.034910977
4	0x3d8c715d	0.0685756
5	0xbca234b4	-0.019800521
6	0x3e857328	0.2606442
7	0xbd820937	-0.06349414
8	0xbdd1e42a	-0.10248597
9	0xbe4c6935	-0.19962008
10	0x3ee61c8f	0.44943663
11	0x3dfbc835	0.12294046
12	0x3ec91914	0.39276946
13	0xbd91b3f2	-0.071144
14	0xbe8b299b	-0.2718018
15	0xbd8b67a7	-0.068068795
16	0x3eac164d	0.33610764
17	0xbe0ae7cb	-0.13564985
18	0xbea6298e	-0.3245358
19	0x3e4696d2	0.19393471
20	0xbd2b8182	-0.041871555
21	0xbe62fedb	-0.22167532
22	0xbdfbd21d	-0.12295935
23	0xbed2f2f6	-0.4120099
24	0xbc87e400	-0.016588211
25	0xbe9ca293	-0.30592784
26	0xbe98dcda	-0.29855996
27	0x3e77cb3c	0.24198622
28	0xbda0eaa0	-0.07857251
29	0x3dc756b5	0.09733335
30	0x3ec7c7ff	0.39019772
31	0x3deb07d6	0.11476104
32	0xbe3149c2	-0.17313293
33	0x3e3ca635	0.18422778
34	0x3ec1a214	0.37818968
35	0x3d4ce321	0.050021295
36	0xbe33f5e9	-0.17574276
37	0xbd892484	-0.06696418
38	0xbec9e55f	-0.3943281
39	0xbcd2cac2	-0.025731448
40	0x3e0037f2	0.12521341
41	0xbe201e42	-0.15636542
42	0xbb550361	-0.0032503235
43	0x3cc5a523	0.024126595
44	0x3e62f877	0.22165094
45	0x3de8a70a	0.11359985
46	0xbd8492d2	-0.06473316
47	0x3e13f70f	0.14449714
48	0xbe7f04fb	-0.24904244
49	0xbf190ee4	-0.59788346
50	0x3f0db04f	0.5534715
51	0x3eb7b418	0.35879588
52	0xbc8fa53a	-0.01753484
53	0x3a334e12	0.00068399415
54	0x3d953ed8	0.07287377
55	0xbdcf76d3	-0.10130086
56	0xbecfd519	-0.40592268
57	0x3f04e839	0.51916844
58	0x3eda9227	0.4268963
59	0xbe938ed0	-0.28819895
60	0xbe12965b	-0.14315169
61	0x3e331c1b	0.1749119
62	0x3f1160e5	0.56788474
63	0x3e26a8d5	0.16275342
64	0x3eab7b10	0.33492327
65	0x3ef7c249	0.48390415
66	0xbe8ecddb	-0.2789143
67	0x3d56b509	0.052418742
68	0x3aa6d152	0.0012727177
69	0x3e691c36	0.22764668
70	0x3db11d75	0.086481966
71	0x3ceae11a	0.02867179
72	0x3e28baff	0.16477583
73	0xbdab3988	-0.083605826
74	0x3d8721f5	0.06598274
75	0x3dc2285e	0.09480356
76	0xbe1fd9cc	-0.15610427
77	0x3dd36a06	0.10322957
78	0xbd9f1d7d	-0.07769296
79	0x3ec05a11	0.37568715
80	0xbef041c3	-0.46925172
81	0x3e4e50a5	0.20147951
82	0x3edcd079	0.43127802
83	0xbd7e201f	-0.06204235
84	0xbe72d237	-0.23713003
85	0x3e873291	0.26405767
86	0x3e83fc57	0.25778458
87	0xbebf5a82	-0.3737374
88	0x3d93276d	0.07185254
89	0x3eafc8ec	0.3433298
90	0xbe9e448c	-0.30911672
91	0xbe4bfc61	-0.19920494
92	0x3e15a76c	0.14614648
93	0xbd85eee9	-0.06539709
94	0xbebe146d	-0.3712496
95	0x3e45a4bc	0.19301122
96	0x3e78ba0f	0.24289726
97	0x3e93fe75	0.28905073
98	0x3d79df10	0.061003745
99	0x3dfdadfe	0.12386702
100	0xbde8d079	-0.11367888
101	0x3ee91ed5	0.45531335
102	0x3d7988db	0.06092153
103	0x3e91a3b3	0.28445205
104	0xbd30b17a	-0.043138005
105	0xbee586f6	-0.4482953
106	0xbd05a621	-0.032629136
107	0x3e27a8d3	0.16372995
108	0xbe62292f	-0.22086023
109	0x3e47cc87	0.19511615
110	0x3e8bfc22	0.273408
111	0xbdae0ac7	-0.08498149
112	0x3eae9f92	0.34106117
113	0x3e1196cb	0.14217679
114	0xbdfb4abc	-0.12270114
115	0x3e99ab67	0.30013582
116	0x3e815015	0.2525641
117	0xbe0506a7	-0.12990819
118	0xbebf3dbd	-0.3735179
119	0x3e62659f	0.22109078
120	0x3ebafda1	0.36521628
121	0x3e7d481e	0.24734542
122	0xbdc84da1	-0.097804315
123	0xbe912434	-0.28347933
124	0xbe419420	-0.18904161
125	0xbd4b441a	-0.049625494
126	0xbe889dda	-0.2668293
127	0xbe3ba8a5	-0.18326052
128	0x3ee7fdf4	0.45310938
129	0x3c3a41c5	0.01136822
130	0x3e24fcd2	0.16112068
131	0x3e58453b	0.2112016
132	0xbe3a6d28	-0.18205702
133	0xbc835f90	-0.016036779
134	0x3babd4e3	0.005243884
135	0xbeb4fe8b	-0.3535045
136	0xbebc0e68	-0.3672974
137	0x3eeb79e4	0.45991433
138	0xbe5b2760	-0.21401739
139	0x3ec12dfe	0.37730402
140	0x3e6cea66	0.23136291
141	0x3ea9016e	0.33008903
142	0x3ea07319	0.31337813
143	0xbe33c632	-0.17556074
144	0xbcb44502	-0.022005562
145	0x3dd1c39c	0.10242388
146	0xbe0c6d8c	-0.13713664
147	0xbe6f8929	-0.23392166
148	0x3de1a82f	0.110184066
149	0xbe6ceb9c	-0.23136753
150	0xbe49e3b9	-0.19715776
151	0x3d943228	0.07236129
152	0xbe4eafcb	-0.20184247
153	0x3d2a83b2	0.0416295
154	0x3e3da057	0.18518196
155	0x3d8b60e7	0.06805592
156	0xbf048254	-0.51761365
157	0xbc895305	-0.01676322
158	0xbdc03225	-0.09384564
159	0xbc830c7c	-0.015997164
160	0xbd6ef81a	-0.058342077
161	0x3d4981c1	0.04919601
162	0xbcde0e35	-0.027106384
163	0xbd55daf0	-0.05221075
164	0xbd7bb867	-0.061455157
165	0x3e84957d	0.258953
166	0x3f0bd242	0.546177
167	0xbba84852	-0.0051355744
168	0x3eac7e20	0.33689976
169	0x3e2a0f8c	0.16607493
170	0x3eba04bf	0.36331746
171	0x3ea157f5	0.31512418
172	0x3dc7ce8f	0.09756195
173	0xbd4d0f5a	-0.05006347
174	0xbe2244d7	-0.15846573
175	0x3e2ec154	0.17065936
176	0xbea215e7	-0.31657335
177	0x3e0d4cfc	0.13798898
178	0x3dbc2679	0.091870256
179	0x3e8e50b1	0.27795938
180	0x3ed2b626	0.41154593
181	0xbdedbb8e	-0.11608039
182	0x3eb598f6	0.35468262
183	0xbe8fd33c	-0.28090847
184	0x3e3b483c	0.18289274
185	0xbca86c24	-0.020559378
186	0xbd92e49e	-0.071725115
187	0xbe9d89bb	-0.30769143
188	0x3e8ef14c	0.2791847
189	0xbd79c9dc	-0.060983524
190	0x3f0f1a0d	0.55899125
191	0x3ccb5d19	0.024824666
192	0x3e385f25	0.18005045
193	0xbe5ee42d	-0.2176673
194	0xbe120dcd	-0.14263077
195	0xbf1d2057	-0.6137747
196	0xbe68c2e8	-0.22730601
197	0xbeac131e	-0.33608335
198	0x3e9c9f97	0.30590507
199	0x3ec2b718	0.38030314
200	0x3ed8e8f2	0.42365223
201	0x3e7bc326	0.24586162
202	0xbea3954f	-0.3194985
203	0x3e8bed7e	0.2732963
204	0x3e03fc82	0.12889293
205	0x3e22c80e	0.15896627
206	0x3e97b6a8	0.29631543
207	0xbe4a7a92	-0.1977332
208	0x3e1f97a5	0.15585192
209	0x3e6e23ab	0.23255794
210	0x3f153211	0.5827952
211	0xbf16f359	-0.5896507
212	0x3e8e50b8	0.2779596
213	0xbe252087	-0.1612569
214	0xbe1aeeb1	-0.15130116
215	0x3ef56ee6	0.4793617
216	0xbd728433	-0.059208106
217	0xbe6a1d0f	-0.22862647
218	0x3d94d8fc	0.07267949
219	0x3e744035	0.23852618
220	0x3d8e7ca9	0.06957371
221	0x3f1f00c8	0.6211057
222	0xbe562f28	-0.20916426
223	0xbdd571ce	-0.10422097
224	0x3b8ad7b7	0.004237141
225	0xbe4dc2d2	-0.2009385
226	0x3e03d34a	0.12873569
227	0xbe851928	-0.25995755
228	0xbd9f0e0f	-0.07766353
229	0x3e48a51a	0.19594231
230	0xbd23e115	-0.040009577
231	0xbc828db0	-0.015936702
232	0xbe822cdc	-0.2542485
233	0x3e1af69d	0.15133138
234	0x3aa9d1cb	0.00129562
235	0xbe547e1e	-0.20751235
236	0xbed2708e	-0.41101497
237	0x3dfa53a0	0.122229815
238	0x3df638ee	0.12022577
239	0xbdb8dc33	-0.09026375
240	0x3e11d0d7	0.14239822
241	0x3ea284ac	0.31741846
242	0xbe6cbcec	-0.23118943
243	0x3ee7eda2	0.45298487
244	0xbe3de51c	-0.1854443
245	0x3e7509f5	0.2392958
246	0xbe1a228d	-0.15052243
247	0x3e9e2790	0.3088956
248	0x3e0a2646	0.13491163
249	0x3e8c7ce0	0.27439022
250	0x3b0afdab	0.0021208327
251	0x3ea3bd8b	0.31980547
252	0xbea910be	-0.33020586
253	0x3e8fbdbc	0.28074443
254	0xbe36c740	-0.17849445
255	0x3ed03be9	0.40670708

model.2.weight f4 [256, 256]
0	0xbe70b239	-0.23505487
1	0xbd0c2c49	-0.03422192
2	0xbf1b9179	-0.6076885
3	0xbdb286a0	-0.08717084
4	0x3d0e0a41	0.034677748
5	0x3d9eaa90	0.07747376
6	0xbdc77fc7	-0.097411685
7	0x3e7b5e75	0.24547751
8	0x3e23242d	0.15931769
9	0xbf385258	-0.72000647
10	0x3e3df288	0.1854955
11	0x3bb0535d	0.0053810314
12	0x3ce3beee	0.027801003
13	0x3e330661	0.17482902
14	0xbe4bbfc9	-0.19897379
15	0xbeb1a5e3	-0.34696874
16	0xbd381223	-0.04493917
17	0x3de4a778	0.11164755
18	0xbf7b532f	-0.98173803
19	0x3ddea420	0.10871148
20	0x3d01e9a2	0.03171695
21	0xbe5d6ec8	-0.21624291
22	0x3e107ecd	0.1411087
23	0xbd78fafd	-0.060786236
24	0xbe324914	-0.1741069
25	0xbc79f860	-0.015256971
26	0x3d80c86e	0.06288229
27	0x3e2f5c48	0.17125046
28	0x3d4de08e	0.05026298
29	0x3c76af4c	0.0150564425
30	0x3e821cd6	0.25412625
31	0x3e1e3dc1	0.15453245
32	0x3dc6fd7a	0.097163156
33	0x3da93a5a	0.08263083
34	0x3beaf233	0.0071699857
35	0xbbb0fe2d	-0.005401394
36	0xbdf21487	-0.118203215
37	0xbe10b7eb	-0.14132659
38	0xbe07b286	-0.13251695
39	0xbd6d50fc	-0.05793856
40	0x3a82df71	0.0009984804
41	0xbe49c5c6	-0.19704351
42	0xbe520555	-0.20509847
43	0x3d93c241	0.07214785
44	0xbc7780c4	-0.015106384
45	0xbd976bf5	-0.07393638
46	0x3c7ed48a	0.015553603
47	0xbd854d22	-0.065088525
48	0xbde0615d	-0.109560706
49	0x3e930bf7	0.28720066
50	0xbb86a59d	-0.004109098
51	0x3e49ee64	0.19719845
52	0xbd9b69e4	-0.075885564
53	0xbdd01822	-0.10160853
54	0xbd81b846	-0.063339755
55	0x3e114d46	0.14189634
56	0xbef5a39e	-0.47976393
57	0x3df34fa8	0.118804276
58	0x3c9113b5	0.017709592
59	0xbd34059e	-0.04395067
60	0xbf87a821	-1.0598184
61	0xbdc6e445	-0.09711508
62	0xbdaf9d79	-0.085749574
63	0x3e688969	0.22708668
64	0xbcf41e24	-0.029799528
65	0x3ca58235	0.02020369
66	0x3df40fd6	0.11917083
67	0xbe91d6d9	-0.28484228
68	0xbb764c3a	-0.0037582056
69	0xbe09bfff	-0.13452147
70	0xbe141d4d	-0.14464302
71	0xbcca11ce	-0.024666693
72	0x3dd35a2a	0.10319932
73	0x3c784121	0.015152247
74	0xbe3ac3d5	-0.18238766
75	0x3de86abe	0.113484845
76	0x3dc908c3	0.09816124
77	0x3dc9c10e	0.098512754
78	0x3d4dda94	0.05025728
79	0x3e9f3b32	0.3109985
80	0xbee8f637	-0.45500347
81	0x3dec2bc9	0.11531789
82	0xbd37d8ba	-0.04488442
83	0xbb8ec334	-0.004356766
84	0xbeb6c9f7	-0.35700962
85	0x3ca12a6a	0.019673545
86	0x3d29f43e	0.041492693
87	0x3ced6f22	0.028983656
88	0x3e26627d	0.16248508
89	0xbe9b7cb2	-0.30368572
90	0xbab5350a	-0.0013825011
91	0xbd33b6a1	-0.04387534
92	0xbe33478c	-0.17507762
93	0x3e58919f	0.211493
94	0x3b06cf40	0.0020570308
95	0xbe2edd76	-0.17076668
96	0xbdfed94f	-0.12443792
97	0xbf4ebda0	-0.80758095
98	0xbe0708ef	-0.13187002
99	0x3db6da96	0.08928411
100	0x3dc5fc18	0.09667224
101	0x3e47e130	0.19519496
102	0xbd0f467b	-0.034979325
103	0x3d9bf403	0.07614901
104	0x3e01b94e	0.12668344
105	0xbf4405a3	-0.765711
106	0xbb2a8505	-0.0026019227
107	0xbd6f70b5	-0.058457095
108	0x3e5e2303	0.21693043
109	0xbdd90aff	-0.105978005
110	0x3d814eea	0.0631388
111	0x3e0d45ca	0.13796154
112	0x3e892678	0.26787162
113	0xbccdd9b9	-0.025128232
114	0xbed4141e	-0.41421598
115	0x3e04c147	0.12964354
116	0xbde5f1f6	-0.11227791
117	0xbf0e9736	-0.5569948
118	0xbca5d107	-0.020241274
119	0x3ce2d747	0.027690543
120	0x3d4446ca	0.047919072
121	0x3e59fbb4	0.21287423
122	0xbd979292	-0.07401003
123	0xbea4882d	-0.32135144
124	0x3d99c2f5	0.07507888
125	0x3d54010f	0.051758822
126	0x3c65a31c	0.014015939
127	0xbdb659e3	-0.08903863
128	0x3ded8d7d	0.115992524
129	0x3de4a222	0.11163737
130	0x3e620a15	0.22074158
131	0xbe5be719	-0.21474876
132	0x3dcdfb33	0.10057678
133	0x3d346f56	0.04405149
134	0x3d8826bb	0.06648012
135	0xbe2ea232	-0.1705406
136	0xbd8eeb68	-0.06978494
137	0xbe5e0369	-0.21680988
138	0x3e009c01	0.12559511
139	0x3dd20046	0.102539584
140	0x3ccaccf9	0.024755942
141	0x3e95764d	0.2919182
142	0x3dc072c5	0.093968906
143	0x3e599fc0	0.21252346
144	0xbe6ed6d7	-0.23324142
145	0xbcd6fa55	-0.026242414
146	0xbe80dc16	-0.25167912
147	0xbef6f2cd	-0.48232117
148	0x3db0ff83	0.08642485
149	0x3df11bce	0.117728814
150	0xbe11e169	-0.14246143
151	0x3d83d8e1	0.06437851
152	0xbe5d900f	-0.21636985
153	0x3e2b8e97	0.16753612
154	0x3de1a37d	0.11017511
155	0xbe3e107e	-0.18560979
156	0xbe32db34	-0.17466432
157	0xbc1dcb31	-0.009630964
158	0x3d9d8e37	0.07693141
159	0x3e0274cb	0.12739865
160	0xbe28e592	-0.16493824
161	0x3cdbf545	0.026850352
162	0xbdd900ec	-0.10595879
163	0xbe0da158	-0.13831079
164	0xbca9ca56	-0.020726364
165	0xbd37754d	-0.0447896
166	0x3e928431	0.2861648
167	0xbe290c0f	-0.16508506
168	0x3dc8f7a3	0.09812858
169	0x3e71b8d1	0.23605658
170	0xbde7bb3f	-0.11315011
171	0x3e0232aa	0.1271464
172	0x3e0d9322	0.13825658
173	0xbe873142	-0.26404768
174	0x3d1304a5	0.0358931
175	0x3e8fc642	0.28080946
176	0xbe05efc4	-0.13079745
177	0x3d8f3945	0.06993345
178	0x3e294afd	0.16532512
179	0xbe3f59c8	-0.18686593
180	0xbd521b5f	-0.051295634
181	0x3d077da0	0.03307879
182	0x3e507771	0.20358063
183	0xbec2c9a8	-0.38044477
184	0x3e714d5b	0.23564665
185	0xbda8de3f	-0.08245515
186	0xbf19b86d	-0.60047036
187	0x3e85ccee	0.2613291
188	0x3d911658	0.0708434
189	0xbe87bb24	-0.26509964
190	0x3a9b165b	0.0011832224
191	0xbd803476	-0.06260006
192	0xbe9b4618	-0.30326915
193	0x3e675737	0.22591864
194	0xbe5fe546	-0.21864805
195	0xbf0f785c	-0.5604303
196	0x3d4d6d40	0.050153017
197	0x3d647c56	0.05578264
198	0x3d5f6f58	0.054549545
199	0x3e264407	0.16236888
200	0xbe13b169	-0.14423145
201	0xbeb279a9	-0.34858444
202	0x3c960cd7	0.01831667
203	0xbe89a433	-0.26883087
204	0xbe093bd7	-0.13401733
205	0x3db9c0a9	0.0906995
206	0x3df5305e	0.11972116
207	0xbd976535	-0.073923506
208	0xbeb788c4	-0.3584653
209	0x3e7dfd31	0.24803616
210	0x3e0996f1	0.13436486
211	0x3dbceef2	0.09225263
212	0x3dcebb33	0.10094299
213	0xbd1e5e08	-0.038663894
214	0x3da2c1fb	0.07947155
215	0xbe8d0ea6	-0.27550238
216	0x3cfda0a9	0.030960398
217	0xbdb8599b	-0.09001466
218	0xbdbed280	-0.093174934
219	0x3db77b44	0.08959058
220	0xbd506bf3	-0.0508842
221	0x3d9e09a8	0.077166855
222	0xbe358e05	-0.17729957
223	0xbe192454	-0.14955264
224	0x3dbea545	0.093088664
225	0xbd8ecd8a	-0.06972797
226	0x3d3dde9b	0.04635487
227	0x3db07006	0.08615117
228	0xbed4691c	-0.41486442
229	0xbe70f078	-0.23529232
230	0x3e606c05	0.21916206
231	0xbe62dd2f	-0.22154687
232	0x3deb7612	0.114971295
233	0x3da1b613	0.07896056
234	0x3dec81fb	0.11548229
235	0x3e848a76	0.25886887
236	0xbd7dd80a	-0.06197361
237	0xbd78b41d	-0.060718644
238	0x3e495eeb	0.19665115
239	0x3e6ae2f3	0.22938137
240	0xbe1ef5e5	-0.15523489
241	0xbe1fa51c	-0.15590328
242	0xbda56753	-0.08076348
243	0xbba75f0f	-0.0051077674
244	0x3e10ff40	0.1415987
245	0x3e095a02	0.13413242
246	0xbeaf8e9d	-0.34288493
247	0xbe8161e1	-0.25269988
248	0xbda7cc9c	-0.08193323
249	0x3d0eb904	0.034844413
250	0x3e03f476	0.12886223
251	0x3e24f1e5	0.161079
252	0xbd421cde	-0.04739081
253	0x3e138457	0.14405952
254	0xbd8191cc	-0.06326637
255	0xbcb5cc67	-0.022192193

model.2.bias f4 [256]
0	0x3d8fda02	0.070240036
1	0xbdb7de0a	-0.089778975
2	0x3d5219b7	0.051294055
3	0xbe188a87	-0.14896594
4	0x3d6b8f88	0.05750993
5	0x3da57026	0.08078031
6	0xbb42596e	-0.0029655355
7	0xbd113046	-0.035446428
8	0x3db43781	0.08799649
9	0xbe45d83f	-0.19320773
10	0xbba749d0	-0.0051052347
11	0xbd609dbb	-0.054837923
12	0x3d23411c	0.039857015
13	0xbe91ecc1	-0.2850094
14	0x3dfbd4da	0.122964576
15	0xbd86e2d2	-0.06586231
16	0x3a6f528f	0.00091294287
17	0xbda7ecc5	-0.08199457
18	0xbcffe583	-0.03123737
19	0x3c220917	0.0098898625
20	0x3d1681d6	0.036744915
21	0x3d100e61	0.035169963
22	0xbd821ed1	-0.06353534
23	0x3de0c589	0.10975177
24	0x3c50fccc	0.012755584
25	0x3c1b6147	0.009483642
26	0x3c81a1a5	0.015824148
27	0x3c88a2e2	0.016679231
28	0xbb1c53b5	-0.0023853604
29	0xbe00b609	-0.12569441
30	0x3ca5f0c2	0.020256404
31	0x3df56775	0.119826235
32	0x3d96c6eb	0.07362159
33	0x3e032547	0.12807189
34	0x3d35d84a	0.044395722
35	0x3ce6e292	0.028184209
36	0xbd3c6a0d	-0.045999575
37	0x3ca0ad2f	0.01961383
38	0x3dd29ad5	0.10283438
39	0x3d7ebb97	0.06219062
40	0x3cbc91fd	0.023018831
41	0x3e124952	0.14285782
42	0x3db5e96a	0.08882411
43	0x3e03dbfe	0.12876889
44	0x3cbb9c09	0.022901552
45	0x3d1efcec	0.038815424
46	0x3dde0f4d	0.10842762
47	0x3e07c8b9	0.13260163
48	0xbe3de5f7	-0.18544756
49	0xbe037034	-0.12835771
50	0x3cd8e382	0.026475672
51	0x3debffaa	0.115233734
52	0xbe28330a	-0.1642572
53	0x3de05261	0.109532125
54	0x3e2aac2e	0.16667244
55	0xbe674472	-0.22584704
56	0x3da6ecc1	0.08150626
57	0xbc4451dc	-0.011982407
58	0x3da7229c	0.08160898
59	0xbde71d45	-0.112848796
60	0xbc43da16	-0.011953851
61	0x3ca365eb	0.01994606
62	0x3e0d1772	0.13778475
63	0x3ce069b2	0.02739415
64	0xbc5c56b0	-0.013448402
65	0x3e6e4395	0.23267968
66	0xbdabffc7	-0.08398395
67	0x3e1897f7	0.1490172
68	0xbdb077be	-0.08616589
69	0xbde80d23	-0.11330631
70	0xbe17f27b	-0.14838593
71	0xbe1925ad	-0.14955778
72	0x3de68cc9	0.112573214
73	0xbded31cc	-0.115817636
74	0xbe42c78c	-0.19021434
75	0x3cb3e135	0.021957973
76	0xbd9e181b	-0.077194415
77	0xbd9c5732	-0.07633819
78	0xbdb49fed	-0.08819566
79	0xbded6311	-0.11591161
80	0x3c3f92be	0.011692701
81	0x3e86f9c7	0.2636244
82	0x3d258263	0.04040755
83	0xbd2d71b0	-0.04234475
84	0x3cd7346d	0.026270116
85	0xbdcdfb15	-0.10057656
86	0x3de187db	0.110122405
87	0x3cdf46df	0.027255474
88	0xbd626f0e	-0.05528169
89	0xbd96e81e	-0.073684916
90	0x3ddf0ede	0.108915076
91	0xbc1e7283	-0.009670856
92	0xbd153992	-0.036431856
93	0xbd91999d	-0.071093775
94	0xbd82a613	-0.063793324
95	0x3d920f18	0.07131785
96	0xbc924da7	-0.017859293
97	0x3ce73ebe	0.02822816
98	0xbdbaa908	-0.091142714
99	0x3d7a2976	0.061074696
100	0xbca59e85	-0.02021719
101	0xbdeeb49d	-0.11655543
102	0x3d9bd4b1	0.07608927
103	0xbd18cdab	-0.037305515
104	0x3de9e70f	0.11421024
105	0xbce7d33e	-0.02829897
106	0xbd75789b	-0.05992947
107	0xbdf972ad	-0.12180076
108	0xbd595b6d	-0.053065706
109	0x3de9446a	0.11390002
110	0xbc01a9ef	-0.0079140505
111	0xbd84b578	-0.06479925
112	0xbdde3325	-0.10849599
113	0xbd9ecac8	-0.07753521
114	0xbdbafa5f	-0.09129786
115	0xbe2c46da	-0.16823903
116	0xbe000cf5	-0.12504943
117	0x3d4703d7	0.048587646
118	0x3e14291b	0.14468805
119	0x3ded75f7	0.11594766
120	0x3cc3711d	0.023857648
121	0x39e0e7fb	0.00042897448
122	0x3d8315fd	0.06400678
123	0x3dc6bd32	0.09704055
124	0x3c4bd567	0.012441016
125	0x3e0081f0	0.12549567
126	0xbc4afa54	-0.012388784
127	0x3d336a64	0.043802634
128	0xbb9e6bc7	-0.0048346254
129	0xbd823728	-0.063581765
130	0x3c9e5f8b	0.019332668
131	0x3d194d26	0.03742709
132	0x3d51a5f9	0.051183674
133	0xbd0566f1	-0.032568876
134	0xbd355c37	-0.044277396
135	0xbde39279	-0.11111922
136	0x3d84f9a5	0.064929284
137	0xbd3ee525	-0.046605248
138	0x3b01351a	0.001971549
139	0x3d3c2a05	0.04593851
140	0x3e1e19b8	0.15439498
141	0xbd970a22	-0.073749796
142	0xbd8abc5a	-0.067742065
143	0xbce695c7	-0.028147591
144	0x3acbb001	0.0015540124
145	0xbcfb7ac8	-0.030698195
146	0x3e161781	0.14657404
147	0x3da5810e	0.08081256
148	0xbcd768bc	-0.026295058
149	0x3e5cc64e	0.21560022
150	0x3e337d8b	0.1752836
151	0x3e0ec498	0.13942182
152	0x3c80d1dc	0.015725069
153	0x3e167768	0.14693987
154	0x3d37015d	0.044679035
155	0x3d378c12	0.044811316
156	0xbd273f95	-0.04083212
157	0xbc4c2255	-0.012459357
158	0x3d81b717	0.0633375
159	0xbde2bd61	-0.110712774
160	0x3cf642ad	0.03006109
161	0x3db94dde	0.09048055
162	0x3d7aa668	0.061193854
163	0xbd95ef8a	-0.07321079
164	0x3dbc1667	0.091839604
165	0x3dab3c01	0.08361054
166	0x3e2072f7	0.15668856
167	0xbd063ad0	-0.03277093
168	0x3db37b85	0.08763794
169	0x3c5f8616	0.013642808
170	0x3cd46724	0.025928088
171	0x3d0052e9	0.03132907
172	0xb9867167	-0.00025642963
173	0x3de0faf0	0.109853625
174	0xbda46deb	-0.08028778
175	0x3d24e81b	0.040260416
176	0xbd0701b6	-0.032960616
177	0xbd09e535	-0.033665854
178	0xba668daf	-0.0008794916
179	0x3d1dc843	0.038521063
180	0x3d85f5c4	0.06541017
181	0x3da5a075	0.080872454
182	0x3ceb7440	0.028741956
183	0x3d22cbf2	0.03974528
184	0xbe0220d7	-0.1270784
185	0x3dad7e60	0.0847137
186	0x3da88a6f	0.08229529
187	0x3bd4b710	0.0064915493
188	0xba9aa6eb	-0.0011799013
189	0x3cd54310	0.026032954
190	0x3c90b53f	0.01766455
191	0xbd6e2fc9	-0.05815104
192	0x3e289b92	0.16465595
193	0xbd899969	-0.06718714
194	0x3cc1c0d6	0.023651522
195	0xbae4a6d7	-0.0017444742
196	0xbcacac04	-0.021078117
197	0xbd45aafa	-0.04825876
198	0xbd4db9ce	-0.050226025
199	0x3e1af2be	0.15131661
200	0x3cd2bee8	0.025725797
201	0xbe6898c9	-0.22714533
202	0x3d881686	0.06644921
203	0x3d2f24bd	0.042759646
204	0x3de223fd	0.110420205
205	0x3c82a3e5	0.015947292
206	0xbcc41a9e	-0.023938473
207	0x3dc9cb94	0.098532826
208	0xbcc76c45	-0.02434362
209	0x3da3b9a7	0.07994395
210	0x3cf21a5a	0.029553581
211	0xbd5800b3	-0.05273504
212	0x3c3d3e1b	0.011550452
213	0xbc92c53a	-0.01791631
214	0x3dbc4a03	0.09193804
215	0x3d4386ab	0.04773585
216	0x3bc747ee	0.0060815727
217	0x3d809a94	0.062794834
218	0xbd2e056f	-0.04248565
219	0x3e1b08bd	0.15140052
220	0x3d268d53	0.04066212
221	0x3e17ef80	0.14837456
222	0x3c15e0fd	0.00914788
223	0x3cee86bd	0.029116983
224	0x3d818cca	0.063256815
225	0x3d142f8a	0.03617815
226	0x3da402e1	0.080083616
227	0x3c424f34	0.011859704
228	0x3dfc4a9b	0.12318917
229	0x3e376a87	0.1791173
230	0x3c42754c	0.011868786
231	0x3e30f668	0.17281497
232	0xbd6c28c9	-0.057656083
233	0x3dc2176e	0.09477125
234	0xbdf09a4a	-0.11748178
235	0x3c24e6b8	0.010064773
236	0xbd57d641	-0.052694563
237	0x3d65f41b	0.056141
238	0xbe197ccb	-0.14989011
239	0x3caff5e7	0.02147956
240	0x3e350479	0.17677487
241	0x3cdb076d	0.02673694
242	0x3e0036ce	0.12520906
243	0x3cd0fc83	0.025511032
244	0x3dcb6259	0.09930868
245	0x3d6a911c	0.057267293
246	0x3d0ee61c	0.03488742
247	0xbcc92811	-0.024555238
248	0x3d924ceb	0.07143577
249	0x3d70f288	0.058825046
250	0xbb741e8c	-0.0037249653
251	0x3d21a3b8	0.039462775
252	0xbe01460f	-0.12624381
253	0x3e23dd86	0.16002473
254	0xbd774de9	-0.060377035
255	0x3d60a280	0.054842472

model.4.weight f4 [2, 256]
0	0x3eb2be5e	0.34910864
1	0x3f6ad44b	0.91730183
2	0xbe930a23	-0.2871867
3	0xbf1f6f97	-0.6227965
4	0x3e96ea7c	0.29475772
5	0x4086754b	4.201818
6	0xbf30e1e7	-0.690947
7	0x3f95061a	1.1642487
8	0x3ec18479	0.3779638
9	0x3f1e4a9c	0.61832595
10	0x3ec0e925	0.37677875
11	0x3f004f70	0.5012121
12	0xbf29c05a	-0.6630913
13	0xbe1bb60e	-0.15206167
14	0x3ef26af8	0.47347236
15	0x3f0cd16f	0.5500707
16	0xbf05c55f	-0.5225429
17	0xbebaca9b	-0.364827
18	0x3bef4778	0.007302221
19	0xbfb66082	-1.4248202
20	0xbf205ca2	-0.62641346
21	0x3f3bece6	0.73408353
22	0xbd00b109	-0.031418834
23	0xbf389642	-0.72104275
24	0xbd25b060	-0.040451407
25	0xbe16cb7d	-0.14726062
26	0xbee9a409	-0.4563296
27	0x3f02d00e	0.51098716
28	0xbe596eb9	-0.21233644
29	0xbf56fc74	-0.8397896
30	0xbd941541	-0.07230616
31	0xbff1aa54	-1.8880105
32	0xbf2ae984	-0.66762567
33	0x3f0685d5	0.5254796
34	0xbe021717	-0.1270412
35	0xbe35095a	-0.17679349
36	0xbe54364b	-0.20723836
37	0x3ea89c03	0.32931527
38	0xbe81b56a	-0.2533372
39	0xbf6de9d8	-0.9293494
40	0xbcb594a5	-0.022165606
41	0x3f403a5b	0.75089043
42	0x3f34d8ed	0.706435
43	0xbe695f31	-0.22790219
44	0x3f5822bf	0.8442802
45	0xbd6a8eb8	-0.057265013
46	0x3e2d86cd	0.16945954
47	0x3f7316d5	0.94956714
48	0x3ff0c8cb	1.8811277
49	0x3e85d4d9	0.26138952
50	0xbc9b62fe	-0.018968102
51	0x3e857c36	0.26071328
52	0xbf05fadf	-0.52335924
53	0xbed8d1be	-0.4234752
54	0x3f31fb8c	0.69524455
55	0x3f5c5e34	0.8608124
56	0xbee9e81a	-0.45684892
57	0x3e983920	0.29731083
58	0x3f4ee271	0.8081427
59	0x3e9b9a58	0.30391192
60	0x3ec05dbd	0.37571517
61	0xbd6b64bb	-0.05746911
62	0xbf820126	-1.01566
63	0x3f82d901	1.0222474
64	0xbcf586e0	-0.02997154
65	0xbe9a6035	-0.30151525
66	0x3f2e7794	0.6815121
67	0x3ecc9997	0.3996093
68	0x3f218eb9	0.631084
69	0xbefca461	-0.4934416
70	0x3f0c6ad1	0.5485049
71	0xbe8261d2	-0.25465256
72	0xbf5912f9	-0.84794575
73	0x3e6a7954	0.22897846
74	0x3e487a4c	0.19577903
75	0xbd4eb769	-0.050467882
76	0x3f1977fe	0.5994872
77	0xbf816632	-1.0109313
78	0xbf53e367	-0.82768863
79	0x3e183b63	0.14866404
80	0x3f029bb8	0.5101886
81	0xbeae8953	-0.34089145
82	0xbf072c1f	-0.528017
83	0x3e8777fc	0.26458728
84	0xbc335aa8	-0.010946907
85	0x3f19635d	0.5991724
86	0xbe5e3d14	-0.21702987
87	0x3db68714	0.08912483
88	0x3f1c51ec	0.610625
89	0xbe028eef	-0.12749837
90	0xbda5b9a1	-0.080920465
91	0xbd1cde4e	-0.038297944
92	0xb91b133c	-0.00014789117
93	0x3e9074eb	0.282142
94	0x3d7e5c8f	0.06209999
95	0xbf0cf3ea	-0.55059683
96	0x3f0a8592	0.5411006
97	0x3efe9f94	0.49731123
98	0x3f13d90b	0.57753056
99	0xbd68a6c0	-0.05679965
100	0x3ea08648	0.31352448
101	0xbed506e8	-0.41606832
102	0x3e3c4acd	0.18387909
103	0xbbbe9834	-0.005816484
104	0x3e33c259	0.17554606
105	0xbe6e85a7	-0.23293172
106	0xbcba001b	-0.022705128
107	0x3eb9138f	0.36147735
108	0x3e881c3d	0.26584044
109	0xbde347d8	-0.110976875
110	0x3f9ea758	1.2394819
111	0xbcaa5012	-0.020790134
112	0x3fab5010	1.3383808
113	0x3e851e3a	0.25999624
114	0xbe628b93	-0.22123556
115	0x3e91de67	0.28489992
116	0x3e335259	0.17511882
117	0x3f2dd543	0.67903537
118	0xbe8825ae	-0.26591247
119	0x3eafb824	0.34320176
120	0x3f299ade	0.66251934
121	0x3eec5722	0.46160227
122	0xbd779189	-0.060441528
123	0xbeae7035	-0.34069982
124	0x3f56e85c	0.839483
125	0xbe5c23f9	-0.21498097
126	0x3c736136	0.01485472
127	0xbd004ceb	-0.031323355
128	0x3ed7b1a1	0.42127708
129	0xbdb2beff	-0.08727836
130	0xbefeea38	-0.4978807
131	0xbb97b8d7	-0.004630189
132	0xbeeaed62	-0.45884234
133	0xbf18d93a	-0.5970646
134	0x3e55761e	0.2084584
135	0x3d813171	0.06308258
136	0x3e87a502	0.26493078
137	0xbea42c11	-0.3206487
138	0x3eb1d65e	0.34733862
139	0xbf3a065f	-0.7266597
140	0xbf435990	-0.76308537
141	0x3ca3e2d8	0.020005628
142	0xbeb44232	-0.35206753
143	0x3c9bc610	0.019015342
144	0xbf551fe9	-0.83251816
145	0xbe71cc22	-0.23613027
146	0x402b64dd	2.6780312
147	0xbf9161fb	-1.1358026
148	0x3f0f91e8	0.5608201
149	0x3f1426eb	0.57871884
150	0x3e8004bb	0.2500361
151	0xc01b57da	-2.427237
152	0x3ee82d67	0.4534714
153	0x3f8d367a	1.103225
154	0xbed3f9ba	-0.41401464
155	0x3eaca893	0.33722362
156	0xbeff1ad8	-0.49825168
157	0x3e77d38a	0.2420179
158	0xbe332c79	-0.17497434
159	0x3ef4ed4e	0.478373
160	0xbe217fc4	-0.15771395
161	0x3e865a20	0.26240635
162	0x40627cf4	3.5388765
163	0xbeda895f	-0.4268293
164	0xbe959095	-0.2921187
165	0xbdf2d589	-0.11857135
166	0x3cabb6b6	0.020961147
167	0xbd566585	-0.05234291
168	0xbe0474f4	-0.12935239
169	0xbaa5c0d0	-0.0012645964
170	0xbd38d958	-0.04512915
171	0x3d075ee8	0.033049494
172	0xbd30fbfb	-0.043209057
173	0xbdbc0b28	-0.091818154
174	0xbe9503da	-0.291045
175	0x3e629461	0.22126915
176	0x3ce91389	0.028451698
177	0xbf5f6f34	-0.8727906
178	0x3cbb7122	0.022881094
179	0xbfaa5945	-1.3308493
180	0xbe3e0ce6	-0.18559608
181	0xbede24c6	-0.4338743
182	0xbd2f724c	-0.04283361
183	0x3f397436	0.7244295
184	0x3ed01ab8	0.40645385
185	0xbfcb3698	-1.5876036
186	0xbe88d6c0	-0.2672634
187	0x3d9aba76	0.07555096
188	0x3eb4433c	0.35207546
189	0x3d451a6c	0.0481209
190	0x3f65b964	0.8973601
191	0xbe8e9cb9	-0.27853945
192	0xbf885f70	-1.0654125
193	0x3ee5714b	0.44812998
194	0x4011097a	2.2662034
195	0x3cab8424	0.020937033
196	0xbd63c6a0	-0.055609345
197	0xbd0f3e57	-0.03497156
198	0xbd6e1aec	-0.058131143
199	0xbd297644	-0.041372553
200	0x3f5a77d9	0.85339123
201	0x3effa340	0.49929237
202	0xbe367d80	-0.17821312
203	0xbed13406	-0.40860003
204	0xbdb2fc5f	-0.08739542
205	0xbf193c52	-0.59857666
206	0x3f2a7648	0.6658673
207	0xbf47ef37	-0.7809939
208	0xbbaba7d0	-0.0052385107
209	0xbeb1c75c	-0.34722412
210	0x3e13ab37	0.14420782
211	0x3f2d7a2f	0.6776456
212	0xbf3b658f	-0.7320184
213	0x3f45dc27	0.7728905
214	0x3f56ac34	0.8385651
215	0xbf01ed2d	-0.50752527
216	0x3df6932c	0.120397896
217	0xbf4c890c	-0.79896617
218	0x3ebf4d08	0.37363458
219	0xbe9fef66	-0.31237334
220	0xbf39eb2b	-0.7262446
221	0x3d7abbf7	0.061214413
222	0x3d19ae3e	0.037519686
223	0x3e6d14c2	0.2315245
224	0x3e4724f3	0.19447689
225	0xbf1be85a	-0.60901415
226	0xbf1b583e	-0.6068152
227	0xbe8b33c9	-0.27187946
228	0x3fb84a22	1.4397624
229	0xbed0f85f	-0.40814492
230	0x3d007417	0.031360712
231	0xbf185754	-0.5950825
232	0x3f06cd6e	0.5265721
233	0xbf6e9857	-0.932012
234	0x3f153c22	0.5829488
235	0xbe8968ba	-0.26837713
236	0xbdf156bd	-0.11784122
237	0x3f04945a	0.51788867
238	0x3f8847e6	1.0646942
239	0x3e05f97f	0.13083456
240	0x3f1dae27	0.6159386
241	0x3cfc9bbf	0.030835984
242	0x3eda21d6	0.4260394
243	0x3e36c1f4	0.17847425
244	0xbee99c10	-0.4562688
245	0xbeaffb29	-0.34371307
246	0xbe70f9b9	-0.23532762
247	0x3f9adc85	1.2098547
248	0x3f8df97d	1.1091763
249	0xbe8cdfe0	-0.27514553
250	0xbebf1781	-0.3732262
251	0x3ee2d7e6	0.44305342
252	0xbf6f8c6e	-0.93573654
253	0x3f10b37d	0.5652388
254	0xbe993cea	-0.29929286
255	0xbdb2f702	-0.08738519

model.4.bias f4 [2]
0	0xbdc090e4	-0.09402636
1	0x3d0432bf	0.032274958
