hw2/preTrained/ddpg_critic_LunarLanderContinuous-v2_04262023_002640_.pth (torch, 277399 bytes, 5 tensors)

model.0.weight f4 [256, 10]
0	0xbea455a3	-0.32096586
1	0x3fe1522b	1.7603201
2	0xbf2eea28	-0.68326044
3	0xbf6162b4	-0.88041234
4	0x3e9cf6e3	0.3065711
5	0xbfa13f0a	-1.2597363
6	0xbfc49637	-1.5358342
7	0xbf94a2ec	-1.161222
8	0xbe01feac	-0.12694806
9	0x3dfc4d9b	0.123194896
10	0x3df60e57	0.12014454
11	0xbf7b93be	-0.9827231
12	0xbe92a3ff	-0.28640744
13	0xbdd55115	-0.10415856
14	0xbea56fb4	-0.32311785
15	0x3efa21ff	0.48854062
16	0x3fac5df9	1.3466178
17	0xbfea3268	-1.8296633
18	0xbd37f8d8	-0.04491505
19	0xbf6bbbf7	-0.92083687
20	0xc000143a	-2.0012345
21	0xc02d29ea	-2.7056832
22	0x3f88dea7	1.0692948
23	0xbe75d6d1	-0.24007727
24	0xbd1cdb63	-0.03829516
25	0x3f83b978	1.0290976
26	0xbf5dc9b1	-0.8663588
27	0x3f8745da	1.0568192
28	0x3bdc3449	0.0067201
29	0xbeb58611	-0.35453847
30	0xbf2aa626	-0.6665977
31	0xc0893c95	-4.2886453
32	0xbfa33622	-1.2750895
33	0xbf45ee99	-0.77317196
34	0x3ebee725	0.37285724
35	0x3ea532bb	0.32265267
36	0x3ebcf9e9	0.36909416
37	0x3f153c91	0.5829554
38	0xbf1517f2	-0.5823966
39	0x3e2b095a	0.16702786
40	0xbfd249f9	-1.6428825
41	0xbe8864fc	-0.26639545
42	0xbe6a458b	-0.22878091
43	0x3f750b09	0.95719963
44	0xbe014fe1	-0.12628128
45	0x3e5665b1	0.2093723
46	0xbe9495f7	-0.29020664
47	0xbf893168	-1.0718203
48	0x3e0496bf	0.1294813
49	0x3d21a728	0.039466053
50	0xbdea71dd	-0.11447499
51	0xc0634de4	-3.551629
52	0xbf4b8f0b	-0.7951514
53	0xbf10343b	-0.563297
54	0xbe1f2541	-0.15541555
55	0x3f598182	0.8496324
56	0xbda9f4a6	-0.08298616
57	0xc0658862	-3.5864491
58	0xbf2565da	-0.6460854
59	0x3f1fb661	0.62387663
60	0x3f60c24e	0.87796485
61	0xc027c01f	-2.6211011
62	0x3ee989c8	0.4561293
63	0xbf271ef1	-0.6528159
64	0xbed2293c	-0.41047084
65	0x3f171939	0.5902286
66	0xbedb9725	-0.42888752
67	0xbf73ffb7	-0.95312065
68	0xbf651a7a	-0.89493525
69	0x3f5f65f8	0.87264967
70	0x3dd9be8c	0.10632047
71	0xbf18e43c	-0.5972326
72	0x3f08ff97	0.53515
73	0xbfd6e096	-1.6787288
74	0x3ec9685b	0.3933743
75	0x3e50f93d	0.20407577
76	0xbf8672ac	-1.0503745
77	0x3cdf0453	0.027223742
78	0x3e947b19	0.29000166
79	0x3f222a45	0.6334575
80	0x3f31d45b	0.69464654
81	0x3e42959f	0.19002388
82	0x3ea9d54a	0.3317054
83	0x3fa9b0a1	1.3257028
84	0x3f9a51de	1.2056234
85	0xbf002afa	-0.5006558
86	0xbf4ce759	-0.8004051
87	0x3f2422b3	0.64115447
88	0x3de8fc9a	0.11376305
89	0x3f0062b2	0.501506
90	0xbf070c91	-0.5275355
91	0xbce3b10d	-0.027794385
92	0xbf782de5	-0.9694503
93	0x3e2e7228	0.17035735
94	0x3e9017b1	0.28143075
95	0x3e058ed5	0.13042767
96	0xbfa8a8db	-1.3176531
97	0x3f006404	0.5015261
98	0xbf8bc5c4	-1.0919728
99	0xbe86b6a4	-0.2631122
100	0xbfb74aa5	-1.4319655
101	0xbea382c3	-0.319357
102	0xbf8b6366	-1.0889709
103	0x3f5fb4dd	0.8738535
104	0xbd31a518	-0.043370336
105	0x3e1f53d7	0.15559326
106	0xbd1337fb	-0.03594206
107	0x3fa721f1	1.3057233
108	0xbdef6a49	-0.11690194
109	0xbeaa11a0	-0.33216572
110	0xbf6f5a3e	-0.93497074
111	0xbec47e18	-0.38377452
112	0xbe139d61	-0.14415504
113	0xbfab98e2	-1.3406031
114	0x3a19120f	0.0005839178
115	0xbe628852	-0.22122315
116	0xbf8f8c8f	-1.121477
117	0xbf600683	-0.87509936
118	0xbd5664d2	-0.052342243
119	0x3cc9a436	0.024614435
120	0xbd009cea	-0.031399645
121	0xbd115021	-0.035476808
122	0x3f4278a5	0.7596534
123	0x3e7c07e7	0.2461239
124	0x3f33f210	0.70291233
125	0xbed7dd46	-0.42161006
126	0xbfe89947	-1.8171777
127	0x3eaf4e11	0.34239247
128	0xbf808e8d	-1.0043503
129	0x3ef76b36	0.48323983
130	0x3dc7672a	0.09736474
131	0x3ee16f7d	0.4403037
132	0x3fb55bde	1.4168661
133	0x3f234ab6	0.63785875
134	0xbf85b62c	-1.044622
135	0xbe72e607	-0.23720561
136	0xbfd6f1ee	-1.6792581
137	0x3f22a9a6	0.6354011
138	0x3d3f70c2	0.046738394
139	0x3c3f27f6	0.011667242
140	0x3f920e67	1.1410645
141	0xbf6f7a18	-0.93545675
142	0xbeff51f2	-0.49867207
143	0xbf282c03	-0.65692157
144	0x3f1e4077	0.61817116
145	0xbf7085e9	-0.9395433
146	0x3ec7869c	0.38969886
147	0xbe9e08c8	-0.30866075
148	0x3a109faf	0.0005516959
149	0xbf2962b9	-0.66166264
150	0x3fd92bcf	1.6966494
151	0xbe1d3ecf	-0.15355991
152	0x3f809a88	1.0047159
153	0xbe6e6739	-0.23281564
154	0xbe9e2429	-0.30886963
155	0x3f28aa56	0.6588491
156	0x3e88d42f	0.26724383
157	0xbefe9d0f	-0.497292
158	0xbcb5a87c	-0.022175066
159	0xbd9cbce1	-0.07653213
160	0x3f8951b8	1.0728064
161	0xbfacf39b	-1.3511842
162	0xbf0e3a9b	-0.55558175
163	0x3ce1b406	0.027551662
164	0x3e581c10	0.21104455
165	0x3f399613	0.7249462
166	0xbf24790c	-0.642472
167	0x3e370729	0.17873825
168	0xbeb3eb37	-0.35140392
169	0x3e5aefcf	0.21380542
170	0xbfe3c582	-1.779465
171	0xbe4a32be	-0.19745919
172	0xbf23006b	-0.6367251
173	0x3fd9f983	1.702927
174	0xbf994449	-1.1973964
175	0xbefc4528	-0.49271512
176	0xc00308c1	-2.0474093
177	0xbfc02294	-1.5010552
178	0xbdad21c2	-0.084537044
179	0x3ee58c7d	0.44833747
180	0x3f3cd0ec	0.7375629
181	0xc0d20d73	-6.5641418
182	0xbefddb8a	-0.49581558
183	0x3def26cc	0.11677322
184	0xbef349a6	-0.47517127
185	0x3edf8a7f	0.43660352
186	0x3fa0a5ec	1.2550635
187	0xbe0f3490	-0.13984895
188	0xbebbcb2c	-0.36678445
189	0x3eeed83d	0.46649352
190	0xc00ed6e8	-2.2318668
191	0xc017287e	-2.3618464
192	0x3e05b19f	0.13056038
193	0x3f6cff79	0.9257732
194	0x3d8c0e15	0.068386234
195	0xbee73c49	-0.4516318
196	0x3d51dc2a	0.051235355
197	0xbef6c881	-0.48199847
198	0xbe512f6d	-0.20428248
199	0xbf40a2e0	-0.7524853
200	0xbd8bd5ac	-0.06827864
201	0x3d6e9bfa	0.05825422
202	0xbc371204	-0.011173729
203	0x3e608065	0.21923979
204	0x3bfa41dc	0.0076372456
205	0x3eaa5ed6	0.3327548
206	0xbe3fc78c	-0.18728465
207	0xbf0e2c83	-0.5553667
208	0xbe78807d	-0.24267764
209	0xbb67eff4	-0.0035390826
210	0xbf03cc0b	-0.5148322
211	0xbe831dcd	-0.25608674
212	0x3f2a94a9	0.6663309
213	0xbf10732f	-0.56425756
214	0xbeea51e3	-0.457656
215	0xbf1c824b	-0.6113631
216	0x3e8df183	0.2772332
217	0x3f8fb8cd	1.1228272
218	0xbcad3c71	-0.021146985
219	0x3d0f352b	0.034962814
220	0x3f8be23a	1.0928414
221	0x3f55a5f3	0.83456343
222	0x3f945c45	1.1590658
223	0xbf19ad87	-0.60030407
224	0x3f37b7ab	0.7176463
225	0x3ea6ce5e	0.3257932
226	0xbfd1b3eb	-1.6383032
227	0x3f8acae2	1.0843165
228	0xbe8f1f31	-0.27953485
229	0x3be55b88	0.0069994368
230	0xbf02925d	-0.5100458
231	0xc04abfa2	-3.1679463
232	0x3edce567	0.4314377
233	0x3e2415ce	0.16023943
234	0x3f97544e	1.1822603
235	0xbfa3f363	-1.2808651
236	0x3f190afa	0.59782374
237	0xbdda9160	-0.10672259
238	0x3d45e1ad	0.048310924
239	0xbe7bbe48	-0.24584305
240	0xbf5747bf	-0.8409385
241	0xbe8cb354	-0.27480567
242	0x3f7299fb	0.94766206
243	0xbf806c9a	-1.0033143
244	0xbe341245	-0.17585094
245	0xbec4ca89	-0.38435772
246	0x3f5686b8	0.83799314
247	0x3fb4a6a9	1.4113361
248	0xbf3d6200	-0.7397766
249	0x3f2f6f18	0.6852889
250	0xbf142547	-0.5786938
251	0xbe46fd76	-0.19432625
252	0xbe79ab36	-0.24381718
253	0x4004df09	2.076113
254	0x3e8e1384	0.27749264
255	0x3e8efea6	0.27928656

model.0.bias f4 [256]
0	0xbf84fd69	-1.0389835
1	0x3f7ce479	0.9878612
2	0x3f10be88	0.5654073
3	0xbf7a871f	-0.9786243
4	0xbf5d452e	-0.86433685
5	0xbfc8f3c7	-1.5699395
6	0xbe83cacf	-0.25740668
7	0xbf6e4e96	-0.9308866
8	0xbf872db4	-1.0560822
9	0xbf783c66	-0.9696716
10	0xbfb476bf	-1.4098738
11	0xbfc727ad	-1.5558983
12	0xbf986495	-1.1905695
13	0xbf7d6ae1	-0.9899121
14	0xbf63feef	-0.8906087
15	0xbf728566	-0.947348
16	0xbf25615a	-0.6460167
17	0x3e57fce1	0.2109256
18	0xbf17f40a	-0.5935675
19	0x3f68283a	0.9068638
20	0xbf85b415	-1.0445582
21	0x3d88931c	0.06668684
22	0xbf1969fd	-0.5992735
23	0xbd8becbc	-0.06832263
24	0xbfa71b09	-1.3055125
25	0xbf043b4d	-0.51652986
26	0xbd43b8fd	-0.04778384
27	0xbfbb231f	-1.4620093
28	0xbf3bf6bd	-0.7342337
29	0xbec2283c	-0.3792132
30	0xbf617588	-0.88069963
31	0xbfb1ade6	-1.3881195
32	0x3f39ee67	0.726294
33	0x3f1af6c6	0.60532796
34	0xbf7919d7	-0.97305053
35	0xbfdbad70	-1.7162304
36	0xbfde3f29	-1.7363025
37	0x3f4f077e	0.8087081
38	0xbf6add5d	-0.91744024
39	0xbf85b712	-1.0446494
40	0xbfc91f8c	-1.5712752
41	0xbf0f26d8	-0.55918646
42	0xbf9a40d1	-1.205103
43	0xbfa84ab2	-1.3147795
44	0xbf9a350a	-1.2047436
45	0x3cf83954	0.030300774
46	0xbecb4e87	-0.3970835
47	0x3fbf0f14	1.4926476
48	0x3e80ffda	0.251952
49	0xbfccab48	-1.5989771
50	0xbf36a9ca	-0.7135283
51	0xbf82723f	-1.0191115
52	0xbf5366f1	-0.8257895
53	0xbe86f953	-0.26362094
54	0xbf507cb3	-0.81440276
55	0xbfcbafc3	-1.5913013
56	0xbfe79d63	-1.8094906
57	0x3fa0b6f2	1.255583
58	0xbf52b073	-0.8230049
59	0xbf9900bd	-1.195335
60	0xbe7aa40f	-0.24476646
61	0xbf888314	-1.0665002
62	0x3e993d1f	0.29929444
63	0x3ce3e680	0.027819872
64	0xbf333676	-0.70004976
65	0x3b118fb5	0.00222109
66	0xbfb6f731	-1.4294187
67	0xbfa79608	-1.3092661
68	0xbfbb33bb	-1.4625162
69	0x3f684dd5	0.9074376
70	0xbfb0a6dc	-1.3800921
71	0xbfc92cbe	-1.5716779
72	0x3d317854	0.043327644
73	0x3f672c0f	0.90301603
74	0xbecffe44	-0.40623677
75	0x3e4dc49c	0.20094532
76	0xbfd5f776	-1.6716144
77	0x3ee58337	0.4482667
78	0x3f450087	0.7695393
79	0xbf488641	-0.78329855
80	0x3f30653a	0.6890446
81	0xbf5619a8	-0.836329
82	0xbfa14374	-1.259871
83	0xbf5c419b	-0.86037606
84	0x3e73f507	0.2382394
85	0xbf9de3c2	-1.2335131
86	0x3e0da9e7	0.13834344
87	0x3de996bb	0.11405703
88	0x3e7e1ad1	0.24814917
89	0xbf2aa513	-0.66658133
90	0x3f56f86f	0.8397283
91	0xbf963aaf	-1.1736659
92	0xbfe7b8f7	-1.8103322
93	0xbf1f0c0f	-0.62127775
94	0xbf0a1f15	-0.5395368
95	0xbf280925	-0.65638953
96	0xbe7a54ee	-0.2444646
97	0xbfb817fa	-1.4382317
98	0x3f715049	0.9426313
99	0xbf0afed4	-0.54295087
100	0xc00dcab1	-2.2154963
101	0x3ede8395	0.43459764
102	0xbfbbdd10	-1.4676838
103	0xbf6c40f7	-0.9228663
104	0xbef3ca18	-0.47615123
105	0xbebb15b8	-0.36540008
106	0xbf8c36f1	-1.0954267
107	0x3edcfa79	0.43159845
108	0xbfc94e63	-1.5727047
109	0xbff772e7	-1.933194
110	0x3efb7e20	0.49119663
111	0xbfa13b44	-1.2596211
112	0x3d6914f2	0.05690474
113	0xbfa81f04	-1.3134465
114	0xbf469b49	-0.77580696
115	0xbf437cbc	-0.76362205
116	0xbfc1bb74	-1.5135331
117	0xbec3ff47	-0.382807
118	0xbfdc9c13	-1.723513
119	0xbe80656f	-0.25077388
120	0xbe050c6f	-0.12993024
121	0xbd2f1716	-0.042746626
122	0x3f844c0f	1.0335711
123	0xbd26935d	-0.04066788
124	0xbf2785ff	-0.65438837
125	0xbfae86f8	-1.3634939
126	0x3f878892	1.0588553
127	0x3e56c11c	0.20972103
128	0xbee29d40	-0.44260597
129	0xbf8c8a34	-1.0979676
130	0xbfb7bc60	-1.4354362
131	0x3c819c44	0.015821584
132	0xbfbc26c8	-1.4699335
133	0xbfd46c4a	-1.6595547
134	0x3e2e5b91	0.17027117
135	0xbf486b19	-0.7828842
136	0xbeb285c1	-0.3486767
137	0x3e5cd6ef	0.21566366
138	0x3ee96e14	0.45591795
139	0x3efac29d	0.48976603
140	0xbf6776fa	-0.9041592
141	0xbe836baa	-0.2566808
142	0xbf630667	-0.88681644
143	0xbf5ebda3	-0.8700811
144	0x3e3f3a92	0.18674687
145	0x3f98b6bd	1.1930767
146	0xbf7d40aa	-0.98926795
147	0xbf85e2fc	-1.0459895
148	0xbf6cd4b2	-0.9251205
149	0xbfa6c3be	-1.3028486
150	0xbfd00f3b	-1.6254648
151	0xbf9bc2ac	-1.2168784
152	0xbf069dce	-0.5258454
153	0xbfb6bbdc	-1.427608
154	0x3c800184	0.015625723
155	0x3f0c2b32	0.5475341
156	0xbea4370e	-0.32073253
157	0x3f7bbe5c	0.9833734
158	0x3e26d21f	0.16291092
159	0x3e011a55	0.12607701
160	0xbf535f12	-0.8256694
161	0xbf1c651a	-0.6109177
162	0xbf0877e4	-0.5330794
163	0xbf586bcc	-0.84539485
164	0x3d3ed2f6	0.046587907
165	0x3f131ab7	0.5746264
166	0x3e152eb7	0.14568602
167	0x3e8d08a1	0.27545646
168	0xbf6e0c59	-0.9298759
169	0xbf94e632	-1.163275
170	0x3f409e32	0.75241387
171	0x3efc39d3	0.49262866
172	0xbf63e54c	-0.89021754
173	0xbec9ae8b	-0.39390978
174	0x3d426fad	0.047469784
175	0xbf94ee3f	-1.1635207
176	0x3e82f206	0.25575274
177	0x3dd01d08	0.10161787
178	0xbf8d38ca	-1.1032956
179	0xbe0e68d3	-0.13907175
180	0xbf570862	-0.83997166
181	0xbfb51e89	-1.4149944
182	0xbfb18046	-1.3867271
183	0x3e93451c	0.28763664
184	0xbf99f22e	-1.2027032
185	0xbfa4392d	-1.2829949
186	0xbf854fc5	-1.0414969
187	0xbf1986d8	-0.5997138
188	0xc007bed0	-2.1210213
189	0xbed065c4	-0.4070264
190	0x3f21a5db	0.631437
191	0xbf574f95	-0.8410581
192	0x3dd77fee	0.105224475
193	0x3f540f6d	0.8283604
194	0xbf525a02	-0.8216859
195	0x3f1b12fd	0.6057585
196	0xbfa5dc1b	-1.2957796
197	0xbf2e0930	-0.6798277
198	0xbfbb56bc	-1.4635844
199	0xbf58e47b	-0.84723634
200	0x3f6c6902	0.9234773
201	0xbf55ffc2	-0.8359338
202	0xbfdf29bd	-1.7434613
203	0xbfaae7c9	-1.3351985
204	0xbef846ea	-0.48491603
205	0x3fb5c395	1.4200312
206	0xbeb9e542	-0.36307722
207	0xbf74820c	-0.95510936
208	0x3fe02275	1.7510515
209	0xbeb332a3	-0.3499957
210	0xbf183a7c	-0.5946424
211	0x3f102638	0.5630832
212	0xbf33b494	-0.70197415
213	0x3e5080f5	0.20361693
214	0xbfe421d2	-1.7822821
215	0xbf01fb2a	-0.5077387
216	0xbfa2647f	-1.2686919
217	0x3f2b296f	0.668601
218	0xbf5d4493	-0.8643276
219	0x3f9bf573	1.218428
220	0xbf722506	-0.94587743
221	0xbe6c7a18	-0.2309345
222	0xbf7c173a	-0.9847294
223	0x3fc85c34	1.5653138
224	0x3f1a4915	0.60267764
225	0xbeac1321	-0.33608344
226	0x3d7446fd	0.059638012
227	0xbfc78a3e	-1.5589063
228	0xbf0e1588	-0.55501604
229	0xbfbda87e	-1.4817045
230	0xbf7e9083	-0.9943926
231	0xbd002793	-0.03128774
232	0xbf1c2d4d	-0.61006624
233	0xbf3af2d1	-0.7302676
234	0xbd907cec	-0.07055077
235	0xbee96e70	-0.4559207
236	0x3f8d3bbf	1.1033858
237	0xbdb323b5	-0.08747045
238	0xbfcfcbbb	-1.6234049
239	0xbf8fe44c	-1.1241546
240	0xbfcf2593	-1.6183342
241	0x3fa72235	1.3057314
242	0xbeaed1e9	-0.34144524
243	0xbfac86f7	-1.3478688
244	0xbf5cb3f3	-0.8621208
245	0x3f4e6455	0.80621845
246	0x3f3f4e00	0.74728394
247	0xbfb9e1a0	-1.452198
248	0xbfbb322c	-1.4624686
249	0xbe7838a2	-0.24240354
250	0xbf8e8378	-1.1133871
251	0xbd5c4506	-0.053776763
252	0xbf89e5fb	-1.077331
253	0xbfb57d26	-1.4178817
254	0x3e2381f9	0.1596755
255	0xbf1bb714	-0.6082623

model.2.weight f4 [256, 256]
0	0x39e31146	0.00043309684
1	0x3c72f1ef	0.014828189
2	0xbd699414	-0.057025984
3	0x3c5567d1	0.01302524
4	0xbd9eacca	-0.07747801
5	0xbc5e6c01	-0.013575555
6	0x3d83fa03	0.0644417
7	0x3d39fda6	0.045407914
8	0xbd61abed	-0.0550956
9	0x3ccfb30b	0.025353929
10	0x3ce92aa7	0.028462721
11	0xbc5cd211	-0.013477818
12	0x3afb42bc	0.0019169669
13	0x3c597d94	0.013274569
14	0xbd9c0f59	-0.07620115
15	0xbbe68b33	-0.007035637
16	0x3be0d40c	0.0068612155
17	0x3c9c9b8e	0.019117143
18	0x3d4c7fc6	0.04992654
19	0xbcb3e76e	-0.02196094
20	0x3cf89cc2	0.030348185
21	0xbcd382d9	-0.025819229
22	0x3c8dc73b	0.017306915
23	0x3c0bb29d	0.008526471
24	0xbc24ce81	-0.010059
25	0xbd384ee3	-0.044997107
26	0xbd2fe39e	-0.042941682
27	0xbd2bf939	-0.041985724
28	0x3c023abe	0.007948576
29	0x3d130451	0.03589279
30	0xbc744e8b	-0.014911304
31	0xbd00d725	-0.031455178
32	0xbca50f3a	-0.020148862
33	0xbdb725fc	-0.08942792
34	0xbd6a6da4	-0.057233468
35	0xbc908934	-0.017643549
36	0x3c36f371	0.011166439
37	0xbabbe70f	-0.0014335829
38	0x3d037a90	0.032099307
39	0xbc1a2f1e	-0.009410648
40	0xbc8ca8e3	-0.017170375
41	0x3c3c44b0	0.011490986
42	0x3cd492cd	0.025948906
43	0xba36c680	-0.0006972328
44	0xbd994da6	-0.074855134
45	0xbcc5392b	-0.024075111
46	0x3c8c12f9	0.01709889
47	0x3d2a10e5	0.041520018
48	0xbd0d9991	-0.03457028
49	0xbd4bd5f8	-0.049764603
50	0xbd497d49	-0.049191747
51	0xbd321660	-0.04347837
52	0xbc79ff47	-0.015258617
53	0xbdc29c66	-0.09502487
54	0xbd84b27b	-0.06479355
55	0xbda2337d	-0.07919977
56	0x3c7b9dcb	0.015357445
57	0x3d3770ef	0.044785436
58	0xbc5d5fa0	-0.013511568
59	0x3cbe5afd	0.023236746
60	0xbd4f011a	-0.05053816
61	0x3bfe12c4	0.007753702
62	0xbd89b1c8	-0.06723362
63	0xbd19a480	-0.037510395
64	0x3c70e88d	0.014703882
65	0xbda6c38f	-0.081427686
66	0x3cfc4298	0.030793473
67	0xbc5daacd	-0.013529492
68	0x3ce99458	0.028513119
69	0x3c40ca3e	0.011766968
70	0x3c5a5950	0.013326958
71	0x3c560810	0.013063446
72	0xbc63abea	-0.013895968
73	0xbd4ce7f5	-0.0500259
74	0x3cab31e1	0.020897808
75	0x3d37267f	0.044714447
76	0xbd00a679	-0.03140876
77	0xbc516a1d	-0.012781647
78	0xbc8da5d0	-0.01729098
79	0xbd84d3a9	-0.064856835
80	0xbdb4861c	-0.08814642
81	0xbd98c6c4	-0.074597865
82	0xbdcbfdb9	-0.09960503
83	0x3c3f9d6c	0.011695247
84	0xbca4db24	-0.020124026
85	0x3d479dee	0.048734598
86	0x3cf67e27	0.030089451
87	0x3cb83560	0.022486389
88	0x3cff1a35	0.031140426
89	0xbd630580	-0.055425167
90	0xbbfef504	-0.007780673
91	0xbda83371	-0.08212937
92	0x3b9a4c50	0.004708804
93	0x3d19f425	0.03758635
94	0xbc0a88fb	-0.00845551
95	0x3cd2aba0	0.025716603
96	0x3c9b4700	0.018954754
97	0x3baf5a80	0.0053513646
98	0xbd30b87f	-0.0431447
99	0xbd8e9ea6	-0.069638535
100	0xbcc841c2	-0.024445418
101	0xbda78513	-0.08179679
102	0xbd6f7e28	-0.05846992
103	0xbb8028c6	-0.0039111106
104	0xbdae3a9e	-0.08507274
105	0xbcf02128	-0.029312685
106	0x3cd14e83	0.025550133
107	0xbd93e5a4	-0.07221535
108	0xbd01adc2	-0.03165985
109	0x3d4b3082	0.049606808
110	0x3d317b89	0.043330703
111	0xbd3c3aba	-0.045954444
112	0xbcb88ba3	-0.022527521
113	0xbd170ba8	-0.03687635
114	0x3d5d1912	0.053978987
115	0xbb94a088	-0.0045357384
116	0xbc214c6b	-0.00984488
117	0x3c972a54	0.0184528
118	0x3c78aa22	0.015177282
119	0xbd78f327	-0.060778763
120	0xbc16f56e	-0.009213788
121	0xbc4a0bef	-0.012331947
122	0x3b63e9e6	0.0034776866
123	0xbcb7e516	-0.022448104
124	0x3c1e996c	0.009680133
125	0xbd83e662	-0.064404264
126	0xbcfb1289	-0.030648487
127	0xbd41ffbd	-0.04736303
128	0xbca389da	-0.019963194
129	0xbd771224	-0.060320035
130	0xbd01142b	-0.031513374
131	0xbd2f2d94	-0.042768076
132	0xbd869c22	-0.06572749
133	0xbcf666b5	-0.030078271
134	0xbd84dd5a	-0.06487532
135	0xbd1def8b	-0.038558524
136	0x3da8959c	0.08231661
137	0xbd9100f2	-0.070802584
138	0xbc4f5dd9	-0.012656652
139	0xbd25d1b1	-0.04048318
140	0xbcac0a7e	-0.021001097
141	0xbd7992c6	-0.06093099
142	0xbd0f7140	-0.035020113
143	0xbd7b1e3e	-0.061308138
144	0xbcbc2b3b	-0.022969833
145	0xbd9a6e7c	-0.075406045
146	0x3da892b3	0.08231106
147	0xbd7926a5	-0.06082787
148	0x3c8576e6	0.016292047
149	0x3cec2dbc	0.028830402
150	0x3c7d07c8	0.01544375
151	0xbc56d4ea	-0.013112286
152	0xbdcda078	-0.100403726
153	0xbd2340f2	-0.03985686
154	0xbd21df24	-0.039519444
155	0xbd9c66f9	-0.07636828
156	0x3c820cca	0.015875239
157	0x3b1e08d8	0.0024114158
158	0xbd5464ad	-0.051853824
159	0xbd8072e0	-0.06271911
160	0x3c37158b	0.01117457
161	0xbdafb2b3	-0.08579006
162	0x3ad10364	0.0015946445
163	0xbc8ff42a	-0.017572481
164	0xbc6b4ec7	-0.014362044
165	0xbc2771d9	-0.0102200145
166	0x3d136278	0.03598258
167	0xbd8319a0	-0.06401372
168	0x3c9711e1	0.018441143
169	0x3c2560a6	0.010093844
170	0x3d3385fb	0.043828946
171	0xbc4c63f3	-0.012475002
172	0xbd8176a5	-0.06321458
173	0xbd59c7c2	-0.05316902
174	0xbd593ca8	-0.053036362
175	0xbce1cca2	-0.027563397
176	0x3d22c12d	0.039735008
177	0x3d3d1360	0.046161056
178	0xbdac3ced	-0.08410058
179	0xbce4d2fc	-0.027932636
180	0xbd8fde20	-0.07024789
181	0x3b8f8146	0.0043794243
182	0x3d379dd3	0.044828247
183	0xbd56f024	-0.05247511
184	0xbdc03c8e	-0.0938655
185	0xbd7bd093	-0.06147821
186	0xbd0d4a8f	-0.034494933
187	0x3cb73fed	0.02236935
188	0x3cb557d9	0.022136616
189	0xbda3d582	-0.07999708
190	0xbd896bce	-0.06710015
191	0xbc94d478	-0.01816772
192	0x3c9428b6	0.018085819
193	0xbc0c3ae7	-0.008558965
194	0xbd1048de	-0.03522574
195	0xbd8b506a	-0.06802447
196	0xbd15b23f	-0.03654694
197	0xbd44c68e	-0.04804092
198	0x3cc0728e	0.023492124
199	0xbcbe1bda	-0.02320664
200	0xbd133dc3	-0.035947572
201	0xbd2b4f61	-0.04182375
202	0x3c66bb03	0.014082673
203	0x3c06bbdb	0.008223499
204	0xbd45db83	-0.048305046
205	0xbd158537	-0.036503997
206	0xbd3203a1	-0.043460492
207	0xbce82b17	-0.02834086
208	0x3d1459c9	0.03621844
209	0xbd093702	-0.033499725
210	0xbd990c13	-0.07473006
211	0xbd70e1bf	-0.05880904
212	0xbd729cdd	-0.059231628
213	0xbd719529	-0.05898014
214	0x3ca9123f	0.020638583
215	0x3cedde96	0.029036801
216	0xbd4109e0	-0.04712856
217	0x3b82e6bd	0.0039947913
218	0xbd501d2c	-0.05080907
219	0xbd15b9a2	-0.036553986
220	0xbcba0c84	-0.022711046
221	0xbd74d6ce	-0.059775166
222	0x379f1fda	1.8969109e-05
223	0xbc74f03a	-0.014949853
224	0x3c9843fe	0.018587109
225	0x3b8c856f	0.0042883675
226	0xbd5f94b3	-0.05458517
227	0x3c034f48	0.008014508
228	0x3c217dbf	0.00985664
229	0x3cab6f66	0.020927142
230	0xbdd070c5	-0.10177759
231	0x3d86b8f6	0.06578247
232	0xbd7d96ed	-0.061911512
233	0xbd1f9258	-0.038957924
234	0xbd1acbbe	-0.03779196
235	0xbc86f27f	-0.016473053
236	0xbc53672a	-0.012903014
237	0xbdb610b7	-0.08889907
238	0xbd6ee125	-0.058320183
239	0x3c378b95	0.011202713
240	0xbd840d7b	-0.06447884
241	0x3c954d37	0.018225295
242	0xbd8c6ca9	-0.06856663
243	0x3c2b7d2d	0.010466856
244	0xbd541b85	-0.051784057
245	0xbcac53bf	-0.021036027
246	0x3ce37280	0.027764559
247	0x3da520c5	0.08062891
248	0xbc4a247a	-0.012337798
249	0xbd745cb3	-0.059658717
250	0xbceae567	-0.02867384
251	0xbd658231	-0.056032363
252	0xbdcfe398	-0.10150832
253	0x3ca12b3f	0.019673942
254	0xbd618bd5	-0.055064995
255	0xbd73fc32	-0.059566684

model.2.bias f4 [256]
0	0xba1940eb	-0.00058461603
1	0x3e90fb30	0.2831664
2	0xbd8182c2	-0.06323768
3	0xbd34ab32	-0.044108577
4	0x3e98278e	0.29717678
5	0xbb976640	-0.0046203434
6	0x3e847492	0.25870186
7	0x3f472610	0.77792454
8	0x3e8d766c	0.2762941
9	0xbf9da42a	-1.2315724
10	0xbddff31c	-0.10935041
11	0x3e07ad95	0.1324981
12	0x3f5ea279	0.86966664
13	0x3ebd09b1	0.36921456
14	0xbd52ee9e	-0.051497094
15	0xbd2c8382	-0.042117603
16	0x3e93fa3a	0.28901845
17	0xbedd8a86	-0.43269747
18	0xbc979bb5	-0.018506864
19	0x3e981871	0.29706147
20	0xbbc8adc9	-0.0061242324
21	0xbd7a053e	-0.061040156
22	0xbc447a62	-0.011992069
23	0xbb25c79b	-0.0025295976
24	0xbfec14ac	-1.8443809
25	0xbe143eb2	-0.14477041
26	0x3f3c11f6	0.73464906
27	0xbe026081	-0.12732126
28	0xbf98d8a9	-1.194112
29	0x3e8e4f8b	0.2779506
30	0xbcf30514	-0.029665507
31	0xbdc3b146	-0.095552966
32	0xbdf43036	-0.11923258
33	0x3e213efd	0.15746684
34	0x3e948c8b	0.29013476
35	0xbd60f324	-0.054919377
36	0xbd9c5c03	-0.07634737
37	0xbf6949c6	-0.91128194
38	0x3ee74852	0.45172364
39	0x3e2cef3c	0.16888136
40	0xbfac9283	-1.3482212
41	0xbe0409f1	-0.12894417
42	0x3f20d750	0.6282854
43	0xbf3ca47f	-0.736885
44	0xbfc6028d	-1.5469528
45	0x3f61ce7c	0.88205695
46	0xbf8e070c	-1.10959
47	0xbf772347	-0.96538204
48	0x3db05120	0.08609223
49	0xbd5b3328	-0.053515583
50	0x3f730878	0.949348
51	0x3eb15a83	0.34639367
52	0x3e80c59e	0.2515077
53	0xbdf2fd89	-0.11864764
54	0x3e93f080	0.28894424
55	0xbdd5c97f	-0.10438823
56	0xbc88856c	-0.016665183
57	0x3b9c6b63	0.0047735437
58	0xbc434481	-0.011918188
59	0x3e98f760	0.29876232
60	0x3e8158e7	0.2526314
61	0xbfbf1a65	-1.492993
62	0x3d7a74b6	0.06114646
63	0xbca64129	-0.020294743
64	0x3e9de3ea	0.30837947
65	0xbda313a7	-0.07962733
66	0xbdb9d1a1	-0.09073187
67	0xbf22aeed	-0.63548166
68	0xbd136b15	-0.035990793
69	0xbc4a0b85	-0.012331848
70	0xbe72fb7f	-0.2372875
71	0xbd9e0f59	-0.07717771
72	0xbcf4e012	-0.029892001
73	0x3e6f7345	0.23383816
74	0x3e978ff9	0.2960203
75	0x3f067514	0.525224
76	0x3e31b02c	0.1735236
77	0x3f76159d	0.9612673
78	0xbf58005b	-0.8437554
79	0x3e21b2b1	0.15790822
80	0x3f6ffcc6	0.93745077
81	0xbd5f9fe0	-0.054595828
82	0xbed72a23	-0.42024335
83	0xbcb64423	-0.022249287
84	0xbc0d567e	-0.008626578
85	0x3e9491aa	0.29017383
86	0xbf80f4b7	-1.0074681
87	0xbdb12ad0	-0.08650744
88	0xbdb041cc	-0.086063
89	0x3f3f0750	0.74620533
90	0x3ee77284	0.45204556
91	0xbf8edc66	-1.116101
92	0x3ea85818	0.3287971
93	0x3d818ecc	0.063260645
94	0xbf258fc3	-0.6467249
95	0x3ea34cd4	0.31894553
96	0x3e9ce230	0.30641317
97	0x3f49b88d	0.7879723
98	0x3e102a68	0.14078677
99	0x3eb3f3cb	0.35146937
100	0x3f6deca4	0.9293921
101	0xbce5e56a	-0.028063495
102	0x3f4837e2	0.7821027
103	0x3eabb6ce	0.33537906
104	0x3e834fad	0.25646725
105	0x3e4b13e2	0.19831803
106	0x3e94dec2	0.290762
107	0x3f65834f	0.89653486
108	0x3f59382a	0.84851325
109	0xbdcc17d5	-0.09965483
110	0xbd9d3357	-0.07675808
111	0x3ebca737	0.36846325
112	0x3da1d05a	0.07901068
113	0xbdd9af79	-0.10629172
114	0xbfe89b16	-1.8172328
115	0x3e375b63	0.17905955
116	0x3dd5747d	0.10422609
117	0x3eafa013	0.34301814
118	0xbd7d6bfb	-0.061870556
119	0xbd08be5f	-0.033384677
120	0xbbfdaf1b	-0.0077418215
121	0x3eb134f4	0.34610713
122	0xbf042e47	-0.51633114
123	0x3e4c2ab5	0.19938166
124	0xbe57c81f	-0.21072434
125	0xbdd88dd3	-0.10573926
126	0x3ebd150e	0.36930126
127	0x3f36ba52	0.7137805
128	0xbf043125	-0.5163749
129	0x3df8f231	0.12155569
130	0x3e949c0d	0.29025307
131	0xbf3dc4cb	-0.7412841
132	0xbf0c7fb3	-0.54882354
133	0x3e82dd64	0.25559533
134	0xbe22575f	-0.15853642
135	0x3f8344f1	1.0255414
136	0x3e8f624b	0.2800468
137	0xbd644596	-0.055730425
138	0xbd718da5	-0.058972973
139	0x3eb0118d	0.3438839
140	0xbd083946	-0.033257745
141	0x3f1c5693	0.610696
142	0x3dd20a18	0.102558315
143	0xbe2c1908	-0.16806424
144	0xbe6974e0	-0.2279849
145	0xbeab5eb5	-0.33470693
146	0xbf1107dd	-0.56652623
147	0xbf12bb53	-0.57317084
148	0x3eabce5c	0.33555877
149	0x3f537241	0.8259621
150	0xbf815a00	-1.0105591
151	0xbe7cd5b3	-0.24690895
152	0xbd809dfa	-0.06280132
153	0x3ea5158b	0.32242998
154	0xbdbddccc	-0.09270629
155	0xbe3b77d1	-0.18307425
156	0x3f361f6e	0.7114171
157	0x3e9b1f9d	0.30297557
158	0xbc9b27cc	-0.018939875
159	0x3e92bddc	0.28660476
160	0xbd3691fc	-0.044572815
161	0x3eb237cd	0.34808198
162	0x3d09d9d4	0.033655003
163	0x3eb26573	0.34843025
164	0xbd30a1c6	-0.04312303
165	0xbdda94a5	-0.10672883
166	0x3be87e08	0.007095102
167	0xbda56c22	-0.08077265
168	0x3ebdb023	0.37048444
169	0xbd521097	-0.051285353
170	0x3c26298a	0.01014174
171	0x3eb80e41	0.35948375
172	0xbdc1ca7d	-0.0946245
173	0x3ea6cb35	0.3257691
174	0xbbffff70	-0.007812433
175	0xbce77f00	-0.0282588
176	0x3eb1ec14	0.34750426
177	0xbec276fc	-0.37981403
178	0x3f403c08	0.750916
179	0xbd7554e5	-0.059895415
180	0xbd89ba72	-0.06725015
181	0x3c9ba7bc	0.01900088
182	0x3e849840	0.25897408
183	0xba94abca	-0.0011342701
184	0x3f9f6995	1.2454096
185	0xbfb4cd77	-1.4125203
186	0x3e3b5dec	0.18297547
187	0xbeb3eeaf	-0.3514304
188	0x3e84d9bd	0.2594737
189	0xbd8a0468	-0.06739122
190	0x3f4a43d3	0.7900974
191	0xbdc9c2f3	-0.09851637
192	0xbf63a849	-0.8892866
193	0xbed84a0c	-0.42243993
194	0x3eec9269	0.46205452
195	0x3e9caf93	0.30602702
196	0xbd30bee1	-0.043150786
197	0xbe96da2f	-0.29463336
198	0xbd64f300	-0.055895805
199	0xbdd52aa3	-0.10408523
200	0xbfc85060	-1.5649529
201	0x3e2410d8	0.1602205
202	0xbd251d4a	-0.040311135
203	0xbf7c255f	-0.98494524
204	0x3e261eb6	0.16222653
205	0x3eac28b8	0.33624816
206	0xbb795239	-0.0038043393
207	0xbdc25576	-0.09488957
208	0xbfa927bd	-1.3215252
209	0x3f7e42e4	0.99320817
210	0x3e983631	0.29728845
211	0xbfdbd559	-1.7174484
212	0xbf4ed973	-0.8080055
213	0xbcb1558f	-0.021647243
214	0xbd465366	-0.04841938
215	0xbd8fbbdc	-0.07018253
216	0xbeb41209	-0.3517001
217	0x3e85c144	0.26124012
218	0xbeb8bb1d	-0.36080256
219	0xbd86f30e	-0.06589328
220	0x3f5c2684	0.8599627
221	0xbda32fb6	-0.079680845
222	0x3e996f34	0.29967654
223	0xbddac0e3	-0.106813215
224	0xbd3284b3	-0.043583583
225	0xbeaf497a	-0.34235746
226	0x3bf7aa9f	0.0075581814
227	0x3eb41a52	0.3517633
228	0xbd75adaa	-0.059980072
229	0x3e90bddd	0.28269854
230	0xbe82ea6b	-0.25569472
231	0x3e282ec0	0.16424084
232	0x3f294008	0.6611333
233	0xbc71857e	-0.0147413
234	0xbdc6f08d	-0.0971385
235	0xbf2cb249	-0.6745954
236	0xbd0ca05f	-0.03433263
237	0x3e82abed	0.25521794
238	0x3f2dcf81	0.6789475
239	0xbeb59c23	-0.35470685
240	0xbc2a4cc2	-0.010394277
241	0xbe04fb1f	-0.1298642
242	0x3aaa2e6f	0.0012983809
243	0x3f8186e8	1.0119295
244	0xbebdfbb4	-0.37106097
245	0x3e95841a	0.29202348
246	0x3f1e07bb	0.61730546
247	0xbdcef1a2	-0.101046816
248	0x3e1721c2	0.14758971
249	0xbd82073d	-0.06349037
250	0x3e825006	0.25451678
251	0xbd09b4f7	-0.033619847
252	0xbd15503a	-0.036453463
253	0x3c2415b4	0.01001494
254	0xbd937ba0	-0.07201314
255	0x3e832d43	0.2562047

model.4.weight f4 [1, 256]
0	0x3c97d9bd	0.018536443
1	0xbee4749d	-0.4462022
2	0x3cd859cc	0.026410006
3	0x4036631e	2.8497996
4	0xbf8b97f7	-1.0905751
5	0x3cd54940	0.026035905
6	0xbec8ad42	-0.39194685
7	0xbfed3990	-1.8533192
8	0xbee20b0e	-0.4414906
9	0xc0a13e44	-5.038851
10	0xbb157a1b	-0.0022808376
11	0x3ffa3ca0	1.9549751
12	0x3fccb77b	1.5993494
13	0xbef032ae	-0.46913666
14	0xbb8ae0d4	-0.0042382274
15	0xbcdf620b	-0.02726843
16	0xbece64fc	-0.4031142
17	0xc06e7ba8	-3.7262974
18	0xbc0f0c17	-0.00873091
19	0xbed1f5e8	-0.41007924
20	0x3d88a7d6	0.06672637
21	0x3ce68d9f	0.028143702
22	0x3b3e6574	0.002905217
23	0xbc406735	-0.0117433565
24	0xc0fc5d3c	-7.886381
25	0xbcf04883	-0.029331451
26	0x3feb735d	1.8394581
27	0xbcaa6cca	-0.020803828
28	0xc0c4e558	-6.152996
29	0xbee7bbb1	-0.45260385
30	0x3a8112a1	0.0009847471
31	0x3bc304ad	0.005951485
32	0xbc085077	-0.008319966
33	0xbec857b5	-0.39129415
34	0xbed35922	-0.4127894
35	0xbbbb5bd1	-0.0057177325
36	0x3ca1fcf1	0.019773932
37	0xc062e9c2	-3.5455174
38	0x3f5cb201	0.8620911
39	0xbec553bd	-0.3854045
40	0xc026c892	-2.6059918
41	0xbcbfb1c4	-0.023400195
42	0x3f8aa23c	1.083076
43	0x4041cca6	3.0281157
44	0xc0940e52	-4.626748
45	0x3fd6a4b3	1.6769012
46	0x4020e8bd	2.5142052
47	0xc03d4112	-2.9570966
48	0x40185654	2.380269
49	0xbbb1166b	-0.0054042838
50	0x40112794	2.2680407
51	0xbecb34d3	-0.3968874
52	0x401329b8	2.2994213
53	0xbc6854ca	-0.014180372
54	0xbed6e641	-0.41972545
55	0x3cd5ae58	0.02608411
56	0xbb7e8c64	-0.0038841004
57	0x38debeac	0.000106213
58	0xbeed3116	-0.46326512
59	0xbeed33d9	-0.4632862
60	0xbee1a692	-0.44072396
61	0xc059dbda	-3.4040437
62	0x404c539f	3.1926038
63	0x3c1531c3	0.009106102
64	0xbed56d10	-0.4168477
65	0x407b93f3	3.930905
66	0x3cc795e1	0.02436346
67	0xc044b58c	-3.0735807
68	0xbc142c49	-0.0090437615
69	0xba4489c8	-0.00074973376
70	0x3febea0e	1.8430803
71	0x3caa1bdd	0.02076524
72	0xbc190060	-0.009338468
73	0xbed4977d	-0.41521826
74	0xbed80391	-0.4219022
75	0x3f7032fe	0.9382781
76	0xbecabe50	-0.39598322
77	0x3fd7d27f	1.6861113
78	0x408babd6	4.364726
79	0xbec9124e	-0.39271778
80	0x3fa01427	1.250615
81	0x3c11bf16	0.008895656
82	0x4083be4e	4.1169806
83	0xbc55ea47	-0.013056344
84	0x3b5dd97f	0.0033851562
85	0xbedb5489	-0.42837933
86	0xc0659ff5	-3.587888
87	0x3cd1ab7f	0.025594471
88	0x3c95214e	0.018204357
89	0x3ff4bf8e	1.9120958
90	0x401104de	2.265922
91	0x4008f0aa	2.139689
92	0xbef1ebc6	-0.47250193
93	0x40199974	2.399991
94	0x40737106	3.8037734
95	0xbecc54d5	-0.39908472
96	0xbed24edc	-0.4107579
97	0x3f995421	1.1978799
98	0x40964963	4.6964583
99	0xbee3a14f	-0.44459006
100	0x3ffb1d56	1.9618328
101	0x3cf21f4b	0.029555937
102	0x3fdf980c	1.7468276
103	0xbec9fac2	-0.39449126
104	0xbee75960	-0.45185375
105	0xbebc459f	-0.36771867
106	0xbed0aa15	-0.40754762
107	0x40154e6b	2.3329113
108	0xc0719129	-3.7744849
109	0xbcd4f1df	-0.02599424
110	0x3d02a7b0	0.0318982
111	0xbee52543	-0.4475499
112	0xbecd0c2e	-0.40048355
113	0x4059fc02	3.4060063
114	0xc0b7b7f5	-5.7412057
115	0xbec25f32	-0.37963253
116	0xc0bebf5c	-5.9608593
117	0xbef1faab	-0.47261557
118	0xbba32c18	-0.0049796216
119	0xbd164093	-0.036682677
120	0x3d07c898	0.033150285
121	0xbed771a5	-0.4207889
122	0x408a0dd4	4.314188
123	0xbec9016b	-0.39258894
124	0xbfabe9c7	-1.3430718
125	0xbc88ab21	-0.016683163
126	0x3ecbff76	0.3984334
127	0x3fac317e	1.3452604
128	0xc02d0c22	-2.7038655
129	0x405726cc	3.361743
130	0xbee4612b	-0.44605383
131	0x402c3890	2.6909523
132	0x401d9b42	2.4626012
133	0x40023851	2.0346873
134	0xc04ea4f9	-3.2288191
135	0x400524e4	2.0803766
136	0xbee88f60	-0.45421886
137	0xbcd0b24c	-0.025475644
138	0x3fbc42f8	1.4707937
139	0xbeec6c51	-0.4617639
140	0x3c65eef7	0.014034024
141	0x3fd8b298	1.6929502
142	0xbec6028b	-0.38673815
143	0x40445dd6	3.0682273
144	0x405f2f09	3.4872458
145	0x3eed703a	0.46374685
146	0xc08ee420	-4.4653473
147	0xc08b1b56	-4.347087
148	0xbee5a7bc	-0.44854534
149	0x3ff6e591	1.9288808
150	0xc00ffc12	-2.2497602
151	0xbf572a43	-0.8404886
152	0x3c255ef9	0.010093444
153	0xbedfa772	-0.43682438
154	0xbc822c8c	-0.015890382
155	0x3ffeef15	1.9916712
156	0x4004b36c	2.073451
157	0xbeed2713	-0.46318874
158	0xbd0a70da	-0.03379903
159	0xbed37ca1	-0.41306022
160	0xbce19406	-0.027536403
161	0xbef75275	-0.48305097
162	0x404775ae	3.1165576
163	0xbeca5adf	-0.39522454
164	0xbc46aeb9	-0.012126618
165	0x3b187d12	0.0023267907
166	0xbb5ad773	-0.0033392578
167	0x3b608dd4	0.0034264224
168	0x4006877a	2.1020188
169	0xbad04ec1	-0.0015892611
170	0x3bf61454	0.0075097475
171	0xbee3196c	-0.44355333
172	0xbc0a5e9b	-0.008445407
173	0xbee513b8	-0.44741607
174	0xbca0ffa3	-0.019653147
175	0x3c93613b	0.017990699
176	0xbeda60db	-0.4265202
177	0xbf07e9c1	-0.53091055
178	0x3f793c67	0.9735779
179	0xbd1b8f63	-0.03797854
180	0xbb059564	-0.0020383233
181	0xbb727a4d	-0.0036999166
182	0xbed898f0	-0.42304182
183	0xbc2c4251	-0.010513858
184	0x4003433f	2.0509794
185	0x4098f1d9	4.7795224
186	0x400e3557	2.2220056
187	0xbf05f011	-0.5231944
188	0xbed0809e	-0.40723127
189	0xc0589139	-3.3838637
190	0x3fd832aa	1.6890461
191	0x404e0654	3.2191362
192	0xc042e67a	-3.0453172
193	0xc0132d89	-2.2996542
194	0x3f5617c3	0.8363001
195	0xbee4a100	-0.44654083
196	0x3d0d561c	0.03450595
197	0xbf06b013	-0.5261242
198	0x3b68a6a8	0.0035499725
199	0x3ce729b5	0.02821813
200	0x4085f13f	4.185699
201	0xbeca1896	-0.39471883
202	0x401cb4fa	2.448546
203	0xc0b16f8d	-5.544867
204	0x3fe7c437	1.8106755
205	0xbee2bfc6	-0.44286937
206	0x3cef5512	0.02921537
207	0xbc807458	-0.015680477
208	0xc0798680	-3.8988342
209	0x3fd58e8e	1.6684129
210	0xbed935bc	-0.4242381
211	0xc0850ed4	-4.15806
212	0xc0aba555	-5.363932
213	0x3ce706ca	0.02820148
214	0xbff94305	-1.9473578
215	0x3c900f58	0.017585441
216	0xbf07eb6e	-0.5309361
217	0xbecc4647	-0.39897367
218	0xbc128335	-0.008942415
219	0xbc31572e	-0.010824008
220	0x3fad8d16	1.3558681
221	0xbf1b4d9e	-0.6066531
222	0xbee2abd9	-0.44271734
223	0x3b983136	0.0046445383
224	0x3cb3dc0a	0.021955509
225	0xbf025d59	-0.5092369
226	0xbbb20e91	-0.0054338654
227	0xbee4586e	-0.44598716
228	0xbca56a11	-0.020192178
229	0xbec8ce54	-0.39219916
230	0xc0488528	-3.1331272
231	0xbec31dc7	-0.38108656
232	0x3fb7a5a1	1.4347421
233	0xbc9cdb12	-0.01914743
234	0xbc822f62	-0.015891735
235	0x4051dbd7	3.279043
236	0xbc6f69be	-0.014612613
237	0xbed15160	-0.40882397
238	0x3f83db2a	1.0301259
239	0xbf084211	-0.5322581
240	0x3c961cba	0.018324245
241	0x3cfe9a0d	0.031079317
242	0x3cb8092c	0.022465311
243	0x3ff96b45	1.9485861
244	0x400af614	2.1712694
245	0xbede4b64	-0.43416893
246	0xc038a9dd	-2.8853676
247	0x3fbca4fa	1.4737847
248	0x40361757	2.8451746
249	0x3c2c033c	0.010498818
250	0xbecbcf21	-0.39806464
251	0xbcc6c18d	-0.024262214
252	0xbc1d95d0	-0.009618238
253	0x3ac8e559	0.001532714
254	0xbcea594d	-0.028607035
255	0xbed6c4db	-0.41947064
