hw2/preTrained/ddpg_actor_LunarLanderContinuous-v2_04242023_195146_.pth (torch, 276375 bytes, 6 tensors)

model.0.weight f4 [256, 8]
000000 b0 11 ba 3c 52 cf 9c 3d 47 a1 d3 be 81 8f 97 3b
       0.022713512 0.07656731 -0.41333982 0.0046252613
000010 cf 75 93 bd 41 7f 34 bd 7d 1a b4 3e 44 30 17 3f
       -0.072002046 -0.04406667 0.3517646 0.5905802
000020 22 0a 5d bd 73 40 9b bc 11 48 9f 3d 48 82 91 37
       -0.05396474 -0.01895163 0.077774175 1.7346014e-05
000030 26 c8 8f 3e fe 57 87 3d d9 82 22 3e 6a 31 5e 3e
       0.2808239 0.0660858 0.15870227 0.21698537
000040 43 05 cd 3e 99 d0 2a be 9e 74 43 3d d4 78 27 3e
       0.40043077 -0.16681136 0.047718637 0.16354686
000050 17 2a 41 bc 6b 1e 07 bf 86 52 cf be 9c 0d c2 be
       -0.01178982 -0.5278079 -0.40492648 -0.37901008
000060 72 2c ec be 03 72 21 bf de c3 03 bf 36 25 ed be
       -0.4612766 -0.63064593 -0.51470745 -0.46317452
000070 f0 e3 61 be 29 79 8c 3d c2 1d aa 3e 04 0c 53 3e
       -0.22059608 0.06859047 0.33225828 0.20610052
000080 93 31 b2 3d 22 68 5e 3e 8c 64 03 3e 4a 3a 7d be
       0.08700862 0.21719411 0.12831324 -0.24729267
000090 85 2f 1e 3f 81 d9 f8 3d 70 b6 06 3e 76 79 c5 3d
       0.6179126 0.121508606 0.13155532 0.096423075
0000a0 0a f6 03 be 10 82 b4 3e 91 90 8c be 69 bd 08 be
       -0.12886825 0.3525548 -0.27454045 -0.13353504
0000b0 68 81 9c 3d db 5b 2c 3e c5 08 47 bc 92 61 a2 3e
       0.0764187 0.16831915 -0.012148087 0.31715065
0000c0 b7 fa ce be 4c cf 69 3e 93 ca 12 bf e7 aa bc 3e
       -0.40425655 0.22832984 -0.57340354 0.36849138
0000d0 28 9b 33 be 84 da 15 3e 47 fd c5 3c fa 62 80 3e
       -0.17539656 0.14634138 0.024168624 0.25075513
0000e0 8b cb 4a 3d 19 40 05 be ac cf 01 3e d5 7a a1 3e
       0.04951052 -0.13012733 0.12676877 0.31539026
0000f0 0d 65 af be 85 75 0a bf b5 b9 1a bd 14 53 f7 3c
       -0.34256783 -0.5408557 -0.03777476 0.030190982
000100 44 a3 ae be 71 46 d6 3e 76 54 06 3b e0 d2 53 be
       -0.34108937 0.41850618 0.002049712 -0.20685911
000110 85 55 dd be 3c 85 58 3e 00 d1 6f 3e 18 e9 09 be
       -0.4322931 0.21144575 0.23419571 -0.13467824
000120 96 80 be bd 6c 0d ca bc 5e 41 b2 be 64 db 27 be
       -0.093018696 -0.024664603 -0.34815496 -0.16392285
000130 55 de fc be 69 df 46 bd 83 ba 61 be f0 83 a9 be
       -0.49388376 -0.048552904 -0.22043805 -0.33108473
000140 1c 14 87 be 57 07 19 bd a5 b5 0f 3d de 8f ed 3d
       -0.2638253 -0.037360515 0.03508534 0.11599706
000150 65 7b a6 3e a8 3f 18 be 0c 03 dc bd 97 3b 16 3f
       0.32516018 -0.14868033 -0.10742769 0.58684677
000160 34 8f ef be 34 c9 c6 bd 66 52 fc be 9a 4b 09 3f
       -0.46788943 -0.09706345 -0.49281615 0.53630984
000170 85 4f cc 3e 1f 1b 71 be c2 30 1c be 4c 7e 98 3e
       0.3990442 -0.23545502 -0.15252975 0.29783857
000180 93 77 90 be 33 9b 34 3e 15 e8 03 be 7f a0 82 be
       -0.28216228 0.17637329 -0.12881501 -0.25513074
000190 df dd 0b 3c 35 bd ad 3e 0d 9a 4f 3e 48 18 41 3e
       0.008536785 0.33933416 0.2027361 0.18856919
0001a0 6c 88 bf be 2f c8 63 3e 32 c3 da 3c d7 a7 66 3e
       -0.3740877 0.22244333 0.026704405 0.22524963
0001b0 c6 ef 8e be bb 2e c6 be 3e 33 a2 3d 4c a0 cf 3d
       -0.27917308 -0.38707528 0.0791993 0.10137996
0001c0 9b cd 46 3f be ed 9f be 6b 05 e9 3e 3e d6 e3 bd
       0.7765748 -0.3123607 0.45511946 -0.11124848
0001d0 85 41 55 bd 3e be 6b be cf 38 48 be 4a b4 ea 3e
       -0.052064437 -0.2302179 -0.19552921 0.45840675
0001e0 93 15 92 3c fc 7c 9c 3e b2 f4 87 be 4d f7 a9 be
       0.017832553 0.30564106 -0.26553875 -0.33196488
0001f0 84 38 d8 3e 21 ed d1 3d 12 87 a9 be 06 b8 9b 3e
       0.42230618 0.10250307 -0.33110863 0.30413836
000200 16 ae b3 be 96 78 65 bd 5e c0 2a be 29 34 68 3c
       -0.35093755 -0.056023203 -0.16674945 0.014172592
000210 d8 ef 14 be 9d fc 5b be e7 34 2e be b4 d9 4f be
       -0.14544618 -0.21483083 -0.17012368 -0.20297891
000220 6a ad 5f be fe 58 c5 3e d4 ce f7 be e5 e8 ed be
       -0.21843496 0.38544458 -0.48399985 -0.46466747
000230 3d c0 60 be ba 7b d0 3e f7 9c 28 3e 68 44 df be
       -0.21948333 0.40719396 0.16466127 -0.43606877
000240 24 03 9d 3e e2 46 5c 3e 88 86 19 3f 5c df 35 be
       0.3066646 0.21511415 0.59970903 -0.17760986
000250 7d 01 7e bd 86 e8 03 bf 46 84 bb be ca 0a 0f be
       -0.062013138 -0.5152668 -0.36624354 -0.1396896
000260 4d ba 29 bf db e8 3e 3e 2b 76 97 be 94 11 d8 be
       -0.662999 0.18643515 -0.29582343 -0.4220091
000270 5f 3d a5 3e b5 2f f4 3e d1 68 0f 3e c4 5a 20 bb
       0.32273385 0.47692648 0.14004828 -0.0024468163
000280 7b 9c af be 60 f0 cc be ab 54 9c bd 52 68 6f be
       -0.34299073 -0.40027142 -0.07633337 -0.23379639
000290 0c bd fc be 91 27 be bd a4 08 49 be a8 33 24 be
       -0.4936298 -0.092848904 -0.19632202 -0.1603533
0002a0 1b 4c 8e be 43 6d 60 3e 95 80 d1 bd 77 82 0f 3f
       -0.2779244 0.2191668 -0.10229603 0.5605845
0002b0 e6 81 a7 3e d3 9e 7e be 24 2d d4 3e a7 ce 75 be
       0.32716292 -0.24865274 0.4144069 -0.24004613
0002c0 41 9a a7 3e 51 c2 e6 be 1d 83 3a 3e da 2f 9c bd
       0.32734874 -0.45070127 0.18214078 -0.076263145
0002d0 17 0d 06 be 3a 7b bb be 38 98 fe 3e 03 22 c1 3e
       -0.13090931 -0.36617452 0.4972551 0.3772126
0002e0 9b 11 e0 3b a5 62 03 3e 17 b8 d2 bc f6 20 2d 3e
       0.0068380362 0.12830599 -0.025722547 0.16907105
0002f0 2d 41 03 3f 24 c5 2b 3f fa 20 5e 3e c5 69 21 be
       0.51271325 0.6709769 0.21692267 -0.15763004
000300 7c 7d 31 be 69 17 da bd b8 60 9f 3e 94 55 cd be
       -0.17333025 -0.106489964 0.31128478 -0.40104353
000310 4c fd ac 3d ca da 12 3f f2 5d b8 be 08 14 5b be
       0.0844675 0.57365096 -0.36009175 -0.2139436
000320 94 00 9e be 73 52 95 3e 27 66 68 3e 30 51 a2 3e
       -0.30859816 0.29164466 0.22695218 0.31702566
000330 56 4e 0e be e0 1b cc be 3a 3a 59 3e bf bc 64 be
       -0.1389707 -0.39865017 0.21213618 -0.22337626
000340 34 57 d6 be 2e 4c 8a 3e 9a 2c b0 3e 52 e1 d1 3c
       -0.41863406 0.27011245 0.34409028 0.025620136
000350 76 00 22 bf 27 78 8b be 26 0f 8f 3d bc b2 af bd
       -0.63281953 -0.27240106 0.06985311 -0.08579013
000360 1d c1 bd bd f7 8f 34 3e a9 be 7b be 75 a4 46 be
       -0.09265349 0.17633043 -0.2458445 -0.19398673
000370 4e 6f 88 3e 6b 64 19 3e a2 fb 64 be ac 7b 7d 3e
       0.2664742 0.14979713 -0.22361615 0.24754208
000380 f3 f3 27 3e c6 26 83 3c 11 7e e8 3e 63 64 bf 3d
       0.16401653 0.0160097 0.4540868 0.09345319
000390 7c a8 4e 3e 2b f8 da 3d bb d0 e1 bd 2c e8 99 be
       0.20181459 0.106918655 -0.1102614 -0.30059946
0003a0 0c 8c 29 3e f7 6c aa 3e d8 be 82 3e 6d 71 86 3e
       0.1655733 0.3328626 0.25536227 0.26258412
0003b0 ec e1 8b bc 2d df 0d 3e 84 4a 52 3e d1 12 5c 3e
       -0.017075501 0.13854666 0.20536238 0.21491553
0003c0 87 65 0f bf 93 f6 73 3e 1a b5 ad 3d c4 e4 d5 3d
       -0.56014293 0.2382453 0.08481808 0.10444024
0003d0 50 a5 12 be b5 c2 ed 3d d6 9f 3f 3a d1 ab bc be
       -0.14320874 0.11609403 0.0007309889 -0.36849836
0003e0 5a 00 02 bf 90 6e df 3e b8 6a 0e be 02 32 09 be
       -0.50781786 0.4363904 -0.13907897 -0.13397983
0003f0 3a 9c 6f 3e 91 fd f5 3e b4 1f c1 be 96 d3 c1 3e
       0.2339944 0.48045018 -0.377195 0.3785674

model.0.bias f4 [256]
000000 c9 29 60 3e 92 9f 50 3e 76 b3 be 3d 9e 15 14 be
       0.2189094 0.20373371 0.09311573 -0.14461371
000010 b8 77 a5 3e ab fb ad 3d 3e 50 90 3e 27 01 af be
       0.323179 0.084952675 0.2818622 -0.34180567
000020 e5 f4 fa bd 53 70 f6 be fd 08 e6 3e e9 98 eb 3d
       -0.12253741 -0.48132572 0.44928733 0.11503775
000030 40 f1 a6 3e cb b5 40 be b0 4b e8 bd 2d f2 75 be
       0.32605934 -0.18819349 -0.11342561 -0.24018164
000040 13 2b 38 bd 83 db fa 3d 23 a0 6c 3e 92 45 37 3e
       -0.044962954 0.122489 0.23107962 0.17897633
000050 c9 7f 3d be f7 b0 5a be de b1 26 3c da b1 07 be
       -0.18505777 -0.21356569 0.010174243 -0.13251439
000060 25 da 75 3e 41 e6 92 be 1b c1 c8 3d 8a f3 6f bc
       0.24008997 -0.28691295 0.09802457 -0.014645467
000070 08 bb c6 3e 1f ed 3e 3e a0 17 ce 3e e2 76 00 3e
       0.3881457 0.18645142 0.402524 0.1254535
000080 1a 4d b0 bd fd c0 2b ba 0f ec ae 3e e0 18 a2 3d
       -0.08608456 -0.000655189 0.34164473 0.07914901
000090 a9 66 33 bd 92 b4 a3 be 55 d6 57 be ca 20 a6 3e
       -0.043799076 -0.31973702 -0.21077855 0.3244689
0000a0 a3 67 6e 3e 4f 35 04 be c4 11 2f be 6f 95 7a 3c
       0.23281722 -0.1291096 -0.17096621 0.015294417
0000b0 ce 47 9e 3d f5 a8 9c 3d cd 45 bc be 86 f6 80 3e
       0.077285394 0.076494135 -0.36772004 0.25188082
0000c0 59 4a 66 3e 5d 11 31 bb 49 5a 08 3f ad 12 fb 3e
       0.22489299 -0.0027018406 0.53262764 0.49037686
0000d0 bf 46 4f 3e d7 e2 17 3d c0 2d 98 3e e1 e8 ca bd
       0.20241831 0.037081566 0.29722404 -0.099076994
0000e0 61 3d 8d be f0 ce 09 3f 7e f2 fb 3e 1f f5 0b be
       -0.2758589 0.53831387 0.49208444 -0.13667725
0000f0 f3 69 72 bd db 13 bd 3c d8 b1 b9 3e e3 bf 01 be
       -0.059183072 0.023080757 0.36268497 -0.12670855
000100 9c ff c2 3e ec ec 8a 3e 76 83 1a 3e 63 7e c0 3e
       0.3808564 0.27133882 0.15089211 0.37596425
000110 ba da dc be e7 7e 87 3e 05 72 52 3e d1 ec 97 bd
       -0.43135625 0.26464006 0.20551307 -0.07418216
000120 24 55 7a 3d dd f6 d5 bd 12 d1 bb bd 35 d7 89 3d
       0.061116353 -0.10447476 -0.09170736 0.067305006
000130 e4 b9 34 bc d3 88 04 3d c8 7e e4 3d 39 26 be 3e
       -0.011030648 0.03235705 0.11156994 0.37138537
000140 dd 4a 8c bd 81 0e 6f 3d b6 71 f7 bd 58 c9 25 3e
       -0.068502165 0.05836344 -0.120822355 0.16190088
000150 7f 4c 6f be ef ad 0c 3e d1 14 0e 3f 6e d6 b8 bd
       -0.23369025 0.13738225 0.55500513 -0.09025274
000160 ea d4 56 3d 90 1d a9 3e 42 77 a5 be 1a bb f6 bd
       0.052449144 0.33030367 -0.3231755 -0.120474055
000170 2d f8 87 bd 2c 04 54 3d c9 87 00 be 6c 1d 6f 3e
       -0.06639133 0.05176179 -0.12551798 0.23351067
000180 65 19 d2 3e 35 a9 a5 3d 83 9a 17 3e d7 34 a1 3d
       0.41035 0.08088914 0.14805035 0.078714065
000190 2e 79 da 3d dc d6 57 3e 47 44 55 3e 66 96 2e 3e
       0.106676444 0.21078056 0.20826827 0.1704956
0001a0 35 45 1d 3d 7f 5d 2a be 92 f6 e4 3c c5 79 b2 bd
       0.03839608 -0.16637228 0.027949605 -0.08714632
0001b0 49 7b 03 bc f9 94 ce 3d 01 b8 87 3d d4 40 5b be
       -0.008024999 0.10087008 0.06626893 -0.21411449
0001c0 7d 29 ac 3d df ca 1f 3e ba fc b4 be 93 f4 c0 3e
       0.08406351 0.15604733 -0.35349065 0.37686595
0001d0 68 c9 a0 3e c4 31 4a be 4c 7f a1 be 5e 58 9e 3e
       0.3140366 -0.19745547 -0.31542432 0.30926794
0001e0 d2 f7 cd 3e be a1 2d 3e 9d 45 32 3e 76 54 c0 bd
       0.40228134 0.16956231 0.17409368 -0.0939111
0001f0 55 02 ca be 81 4d e3 3d d8 be 72 bd 4c 69 1a 3d
       -0.39454904 0.11098767 -0.059264034 0.037698075
000200 42 6c d1 3e 16 c2 ee 3d 41 4f f6 bc 07 d0 f0 bd
       0.40902907 0.11658113 -0.030067088 -0.11758428
000210 05 ce 51 be 1d e2 13 3e 2c 36 5f 3e 34 05 93 be
       -0.20488746 0.14441724 0.21798009 -0.28714907
000220 fd 0a 4e be e9 3e 81 3e 7c 7d 02 be 82 e7 c2 3e
       -0.20121379 0.2524331 -0.12743181 0.3806725
000230 20 f9 63 3e af e7 aa 3e d8 8a a4 3e 7c 48 a8 3d
       0.22263002 0.33379886 0.3213718 0.0821695
000240 8f 8b 6e bc cb 6b de bd 44 78 34 be 01 f1 80 be
       -0.014559641 -0.108604036 -0.17624003 -0.2518387
000250 35 af 2f 3e 9a c9 2f be b8 40 4b bd 32 bc d5 bd
       0.1715668 -0.17166749 -0.049622267 -0.10436286
000260 21 54 bc be ef 14 93 3d 5e 92 db 3e b0 e2 e1 3d
       -0.36782935 0.07181727 0.42885107 0.11029565
000270 12 f4 8f be 0f d3 a8 bd f6 e6 29 bc b8 13 fc bc
       -0.28115898 -0.08243381 -0.010370007 -0.030771121
000280 0b bd 15 3c 23 ab eb 3e 43 b2 b6 3e cf 4f 11 be
       0.00913931 0.46029004 0.35682878 -0.14190601
000290 65 ff af bd cd 00 6c 3e b5 a5 c0 3e 12 54 88 3e
       -0.085936345 0.2304718 0.37626424 0.2662664
0002a0 7b d5 79 3e 07 95 a2 bc 23 1b e3 3e 21 a4 6f 3d
       0.24397843 -0.019846452 0.4435664 0.058506135
0002b0 e8 9a f5 bc 17 5f f7 3e bc 01 9c bd 79 ce 40 3e
       -0.029981092 0.48314735 -0.07617518 0.18828763
0002c0 1b f9 09 3d 91 bf 42 3e 8a db 45 be 3a f9 48 bd
       0.03368483 0.1901839 -0.19322029 -0.049065806
0002d0 98 ea cb 3e 15 64 d0 bd 76 07 a9 3e 3e d4 6b bd
       0.39827418 -0.10175339 0.33013505 -0.057575457
0002e0 b8 4c 8e bb a8 52 03 be 9a c8 a2 3e e5 9f 18 bc
       -0.0043426417 -0.128245 0.31793672 -0.009315466
0002f0 7c 44 8a 3d da 76 2b 3e 11 ee b9 3e b2 1a 80 bd
       0.067513436 0.16744557 0.36314443 -0.06255092
000300 9b 92 8b be e3 8e 0c bf 19 87 7c be 94 ab f3 be
       -0.2726029 -0.5490553 -0.2466091 -0.4759184
000310 75 bb 8f be 8b 81 9f be 0d 56 bd 3e ca 7e 79 3e
       -0.28072706 -0.3115352 0.36979714 0.24364772
000320 34 8d 86 bd 87 ce 38 3e 1c bd 73 3d e7 2a 77 3e
       -0.06569901 0.18047534 0.05950652 0.2413746
000330 57 db 18 bc 22 0e aa 3e 76 95 b5 3e 7b 4e 45 3b
       -0.009329638 0.33213907 0.35465592 0.0030106592
000340 e9 d8 5c 3e 73 0a 8a 3e fd ff be 3e f0 1b 98 be
       0.2156712 0.26961097 0.3730468 -0.29708815
000350 25 67 bb 3e 9a 70 29 3c b4 b2 a1 3d 5b 9b 8f 3e
       0.3660213 0.010341788 0.07895413 0.28048214
000360 be 96 6e 3c 8e bf 26 3e da d6 82 be e6 6a 1b be
       0.014562307 0.1628401 -0.25554544 -0.15177497
000370 0d c1 bb bd 1e ef d8 3e c1 4a 9c 3e e7 7d 23 be
       -0.09167681 0.42369932 0.30525783 -0.15965997
000380 6b c1 4f 3e 4b a0 37 bc b4 64 fc 3d 0a 9f f2 bd
       0.20288627 -0.01120765 0.12323895 -0.118467405
000390 6c fb 8d 3d 06 a0 31 3e 81 ef 21 be ad 91 88 3e
       0.069327205 0.173462 -0.1581402 0.26673642
0003a0 3d 53 0d be d9 ac 05 3e 39 af 2a 3e b3 4a 39 be
       -0.13801284 0.13054217 0.16668405 -0.18094902
0003b0 60 b9 be 3d 2b 6f 6b 3e da 15 98 3e 3d 10 ce 3d
       0.09312701 0.22991626 0.2970417 0.10061691
0003c0 db 83 0e 3e 76 8f a8 3e c7 8d 1e bd 41 7e 23 3e
       0.13917486 0.32921952 -0.03870943 0.15966131
0003d0 78 1a af be c5 dd 8c 3e 2d 61 8c be 08 32 d5 3d
       -0.34199882 0.27512947 -0.2741789 0.10409933
0003e0 46 7c 01 3f b8 de c7 3e 27 13 7f 3e ee 33 ed 3d
       0.5058025 0.39037108 0.2490965 0.115821704
0003f0 a2 e9 de bd 4f bc 9c 3e be 8f 96 be 85 11 7a 3e
       -0.10884406 0.30612418 -0.29406542 0.24420746

model.2.weight f4 [256, 256]
000000 82 03 66 3d fd 96 b3 bd 48 3b 95 3c 02 b4 4d 3d
       0.05615569 -0.08769033 0.018216744 0.050220497
000010 f0 ba 1c 3c f7 c1 2b 3d 1d 6e ab 3d df 12 c6 bb
       0.009566054 0.041933026 0.08370612 -0.00604473
000020 dd 83 59 3d 74 e3 0e be cd a6 82 3d 12 2a c9 bd
       0.05310427 -0.13953954 0.06379471 -0.098224774
000030 50 74 0f 3c 08 bc bf 3b 8a 74 4f bd cc 54 28 3d
       0.008755758 0.0058512725 -0.05064825 0.041096494
000040 2b 4c 8b 3d 7d 94 d7 3a b4 d1 d1 bc d1 58 4a 3d
       0.06801637 0.0016447451 -0.02561269 0.04940111
000050 c0 76 54 3d 12 4f 13 3e 64 64 3a 3d 37 aa 4e be
       0.05187106 0.14385632 0.045505896 -0.2018212
000060 d6 f4 84 bd f9 e4 89 bd d7 07 43 3c dd 4d 74 3d
       -0.06492011 -0.06733126 0.011903725 0.05964457
000070 c5 db fd bd b7 e4 24 bc 16 8a 87 3d ec 9c b1 3c
       -0.12395433 -0.0100642955 0.06618135 0.021681271
000080 3a 18 bb bd 18 64 03 3c e2 2c 54 3d 66 b4 08 3d
       -0.0913548 0.00801947 0.051800616 0.033375166
000090 91 8a 67 bc 0c 6f 95 3d 8d 28 df ba 28 9b 40 3d
       -0.014132158 0.07296571 -0.0017025635 0.04702297
0000a0 98 2a ab bc 6e 8f d2 bd 4c ef 4c 3c 7b dc 9d 3d
       -0.020894334 -0.10281263 0.012508225 0.07708069
0000b0 5c 56 0d bd 0e d5 92 3c ca 10 b0 3d 16 5d 85 3d
       -0.034506187 0.017923858 0.08596952 0.06511895
0000c0 e8 17 8e 3d 93 1f 42 bd 3f 55 a8 3d fc 2e 73 3d
       0.069381535 -0.047393393 0.082193844 0.05937098
0000d0 74 16 8f bd f2 5a 2a 3d 27 e5 ca bb 14 da ef bd
       -0.069867045 0.04159064 -0.006191868 -0.11711517
0000e0 6b 81 59 bd 89 2e 48 3e 93 eb 81 3d f6 6e e6 bc
       -0.05310194 0.19549002 0.0634376 -0.028129082
0000f0 dc c3 97 bc 02 c8 e0 bc fe de 19 3d 10 d9 32 3e
       -0.01852601 -0.027439121 0.037566178 0.17465615
000100 41 f6 ab 3d 41 35 39 3d ea 35 a8 bc f1 bc af 3d
       0.083965786 0.045216803 -0.02053352 0.085809596
000110 a3 bb 8b bd 7f 4a cd 3b c3 5b d0 3d 3b fd 6e 3c
       -0.06822898 0.006264984 0.10173752 0.014586742
000120 e7 d6 5f 3e 9b 0a f8 3b 40 73 ea 3d 73 86 92 bc
       0.21859322 0.0075696236 0.114477634 -0.017886376
000130 cd d1 fa 3c 86 6e cc bd 5a b1 07 bd df 38 c6 3d
       0.030617619 -0.09982018 -0.03312812 0.09678816
000140 94 4c 4f bd 08 26 04 bc 1b fd 7c 3d 06 7d da 3d
       -0.05061014 -0.008065708 0.061764818 0.106683776
000150 76 8e f4 3c a4 09 83 3e 67 f7 7f 3d 8c 88 2c bc
       0.029853087 0.25593293 0.0624918 -0.010530602
000160 b4 24 85 3d 79 0f e4 3c af f1 2c 3d 57 7b 31 3e
       0.06501141 0.02783941 0.042222675 0.17332207
000170 a6 9e c4 3e f4 49 07 3d 6c 0d f6 bd 01 cb d1 bb
       0.3840229 0.03302951 -0.12014279 -0.006402374
000180 4e 55 72 bc 42 f6 bb bd 10 45 be 3d 9a 3e 9f bd
       -0.014790846 -0.09177829 0.092905164 -0.07775612
000190 3f b7 50 3d 5e 35 c2 3c 6d 60 de 3c ab a7 ce bd
       0.050956007 0.023707088 0.027145589 -0.10090574
0001a0 b5 20 76 bc 68 c9 fd bd 88 6a 01 be 82 af 5c 3e
       -0.015022446 -0.12391931 -0.12638295 0.21551326
0001b0 56 a2 ca 3c 20 da 60 3c c1 e6 40 bd e4 08 75 bd
       0.024735611 0.01372388 -0.047095064 -0.059822932
0001c0 e7 07 f8 3d bc 7f c6 3b d4 5c 3c 3d 3f 54 36 bd
       0.12110882 0.0060577076 0.045986965 -0.044513937
0001d0 f1 e5 3d 3d 5e 2e 0d bc 3b fe 1b bd 81 b5 3f 3d
       0.046361867 -0.008617012 -0.03808425 0.046803955
0001e0 87 48 26 3d ff 3d da bd c7 26 17 bd 28 09 be 3d
       0.04059651 -0.10656356 -0.036902215 0.0927909
0001f0 79 9e 00 be 85 53 36 bd 90 51 2f 3d f9 2d bd 3c
       -0.12560453 -0.044513244 0.042802393 0.02309321
000200 35 0b f2 3c 79 82 65 bd 7e 0f b3 bc 5d f4 4b 3e
       0.02954636 -0.05603263 -0.021857973 0.19917436
000210 c9 88 5e 3d 42 2d 9f 3d 26 18 7f bc c1 2c 3b be
       0.054329667 0.07772304 -0.015569722 -0.18278791
000220 27 81 9c bc 3d 16 76 3d 9e d0 1f 3d d5 ca 26 3b
       -0.019104553 0.0600798 0.039017312 0.0025450487
000230 7e 37 57 3d 3d 19 23 3d 5f aa a7 bb ff 6d 1c 3d
       0.052543156 0.03981899 -0.0051167454 0.038190838
000240 a3 9e fc 3d 35 4d 26 3a 69 12 57 bc 1e 85 de 3d
       0.12334945 0.0006343902 -0.013126948 0.10865234
000250 f0 80 3d 3d 5d 3c 35 3d 4a f2 13 bc 7f 8c 29 3e
       0.046265543 0.04424702 -0.009029934 0.16557501
000260 38 ce 52 bd 80 18 5e bd ce cb 8b 3d 10 10 a2 bc
       -0.051466197 -0.054222584 0.06825982 -0.01978305
000270 a9 74 4d be d5 24 e2 3c 7c 24 ad bd 47 57 91 3c
       -0.20064034 0.027605454 -0.084542245 0.017741812
000280 27 94 fc bd 80 01 51 3c f2 a0 9a bd e6 9a 28 bd
       -0.12332945 0.012756705 -0.07550229 -0.041163348
000290 66 71 88 3d 1d 50 39 3e b8 8e 48 bc be e2 47 3b
       0.06662254 0.18096967 -0.012241058 0.003050014
0002a0 a3 88 db 3c 02 bc a3 bd e8 ca b4 3d 3d ec 82 3d
       0.026798552 -0.07994844 0.08827764 0.06392715
0002b0 d5 69 10 3e f3 1c 36 3d 20 49 28 3d d0 ee 46 bd
       0.14102872 0.044461202 0.041085362 -0.048567593
0002c0 03 26 40 3d 76 ab 86 bd f7 26 b8 3c c8 cb b2 3d
       0.04691125 -0.06575672 0.022479517 0.087302744
0002d0 a6 c2 6c 3c fd 60 0c 3e 25 f7 5d 3d 01 5f 8e 3d
       0.014450705 0.13708873 0.054190774 0.06951714
0002e0 c2 93 da 3c 1d b6 91 be c2 f8 85 bd 6c 5b 7c 3e
       0.026681785 -0.28459254 -0.065415874 0.2464425
0002f0 6c 6b 66 3d 8a 0b 71 3d d7 ec fb bd 06 ef 4b bd
       0.05625479 0.058848895 -0.12301033 -0.049788497
000300 8c b6 92 bc 1d 4e b7 bd 60 28 7c 39 a5 08 d9 bd
       -0.01790931 -0.08950446 0.00024047634 -0.10597352
000310 86 c2 37 3d 0a f9 47 bc 11 d4 d2 3b 29 fa 1e 3e
       0.044863246 -0.012205372 0.0064339717 0.15525116
000320 1f 45 02 3e 56 7e 4b bd dc 91 8f bd 81 5a 9a bd
       0.1272168 -0.04968103 -0.07010242 -0.075367935
000330 3a d2 37 3d 8a fc ff bb b9 b4 e4 bd 2e 1a 9f bc
       0.044878222 -0.0078120874 -0.111672826 -0.019421663
000340 e4 14 f2 3c 7e 81 09 3e 96 73 8b 3c 4c 1f 0a bd
       0.029550977 0.13428304 0.01702289 -0.033721253
000350 4a cf 1b 3d 73 99 3c 3e 9e 5d c9 bd 78 76 83 3d
       0.038039483 0.18417911 -0.09832309 0.064190805
000360 95 36 8a bd 26 fb 8b 3d 6a b8 18 3e 7d 77 e1 bc
       -0.06748692 0.06835012 0.14914098 -0.027522797
000370 47 56 e1 bd a9 db 04 3d 22 f3 bf 3b 9c cf 05 3e
       -0.11002784 0.032436047 0.005857841 0.13067478
000380 22 6c 8b 3c 9b 29 73 3d 7f 68 04 3b dd 11 6e 3e
       0.017019335 0.05936585 0.0020203886 0.23249002
000390 34 c6 ef bc 6a 30 1a bd ea bb ea 3d b6 46 4e 3d
       -0.029269315 -0.037643827 0.11461623 0.050360404
0003a0 64 f0 3e 3e b7 bf ba bc 37 97 78 3d 6b 6e 5f be
       0.18646389 -0.022796495 0.060691085 -0.21819465
0003b0 0d 77 73 3d 6d 92 d3 3c dd 1e 03 3d 1e 46 bf 3c
       0.059439708 0.025826657 0.032011855 0.023348864
0003c0 c1 d3 b8 3d 33 64 83 3b d0 b6 8e bb 3d df 58 3c
       0.09024764 0.0040097474 -0.004355289 0.013236818
0003d0 67 fa 22 bd 21 8c de 3c 79 4f da bb 9e 80 7c bd
       -0.039789584 0.027166428 -0.006662306 -0.061646096
0003e0 55 f2 ff bc f9 5c a7 3d 89 29 c4 ba 71 c3 9a 3d
       -0.031243483 0.0817203 -0.0014965992 0.07556809
0003f0 73 d9 5b 3d e6 41 14 3e 6e c9 52 be db 7d 5f bd
       0.053674173 0.14478263 -0.20584652 -0.054563385

model.2.bias f4 [256]
000000 c9 15 07 3d c2 1f 20 3c aa 09 eb 3c ec e5 53 be
       0.03297976 0.009773197 0.028691132 -0.20693177
000010 04 90 a8 3c 03 2f 7a 3d a3 2f 83 bd 5f ff 74 bd
       0.020576485 0.06107999 -0.0640557 -0.059813853
000020 ee 3a 7f 3d be 29 aa bd 74 be f6 bb 4b 39 84 3c
       0.06231206 -0.08308743 -0.007530028 0.0161406
000030 aa 19 32 be a7 fe 57 bd b6 06 b3 3c 8f 2e 88 3d
       -0.17392603 -0.05273309 0.021853786 0.06649505
000040 d9 9b e6 bd e3 2c 5a bd d2 59 24 bd e4 cd 92 3b
       -0.11260194 -0.053265464 -0.04012472 0.0044801105
000050 42 2d b3 3d 58 a4 c0 3d 80 28 6d bc 1e 9f 1a bd
       0.087488666 0.09406346 -0.014474988 -0.037749402
000060 61 4b ac 3c fb 33 83 bd 53 e0 8a 3c bb 0d db bc
       0.021032037 -0.06406399 0.01695267 -0.026739946
000070 d2 83 2d bd 65 4e 89 bc c7 1d 0b 3d fc d5 b1 bb
       -0.04236204 -0.016761014 0.033963945 -0.0054271203
000080 9f fa 42 3d 11 5e da bc 89 bc 1c bd 57 bc c2 3c
       0.047602292 -0.026656182 -0.03826574 0.023771448
000090 ff d8 91 3d a2 b7 0c 3c d1 c2 5f bb 4f 72 f7 bd
       0.07121467 0.008588703 -0.003414322 -0.120823495
0000a0 e8 c2 d7 3c ba 82 c2 3d 33 42 99 3d 9a ab 1c 3d
       0.026338056 0.0949759 0.074833296 0.03824959
0000b0 3c fc 1c 3d 02 38 6f 3d 70 03 d7 3d 9d 55 4e bd
       0.038326487 0.058403023 0.104987025 -0.050374616
0000c0 76 12 3f bc 69 74 81 bd 1b 8a cf 3d ee 06 86 3c
       -0.011662116 -0.063210316 0.101337634 0.016360726
0000d0 76 a4 ff bc 7e 8c 4c 3d 2f d5 98 3d 18 2a 6a 3d
       -0.03120635 0.04993867 0.074625365 0.05716905
0000e0 57 c6 be 3c a4 04 96 3c 9f 2f 33 3b 5a a7 26 bd
       0.023287935 0.01831276 0.0027341617 -0.040686943
0000f0 07 ae e8 bb ca 70 ad 3c 46 66 58 3c 45 8a 92 3d
       -0.007100824 0.021171946 0.013207978 0.07155279
000100 12 b1 bf 3c e6 91 d1 3d 67 e6 ab 3d 57 9a ed bd
       0.023399863 0.10232906 0.08393555 -0.116017036
000110 3f 5a cd bc 54 e3 36 3d c5 60 87 bd 23 31 da 3c
       -0.025067447 0.04465039 -0.06610254 0.026634758
000120 de ad 99 3c 86 5b 08 3e d4 36 d4 bd 3d 39 ca 3c
       0.018759664 0.13316163 -0.1036202 0.024685496
000130 c0 15 83 bd 12 9a be bb b5 de 0f be b9 52 01 be
       -0.06400633 -0.0058167065 -0.140498 -0.12629212
000140 e1 cf 9c 3c b3 9c 62 3c a9 6e ef 3c 0d 19 fd ba
       0.019142093 0.013831305 0.029227572 -0.0019309834
000150 72 6c 06 3d ed 15 72 3d 93 87 36 be 36 fc d5 3d
       0.032818265 0.05910294 -0.17825155 0.10448496
000160 d8 5b 0c bd 68 e5 08 bc 4d ab 0d 3d d7 a3 55 bc
       -0.034267277 -0.008355476 0.034587193 -0.013039551
000170 4b 43 86 bc d5 d8 01 bd d1 5d 63 3c 64 35 c6 3d
       -0.01638951 -0.031700928 0.013877348 0.09678152
000180 fa d9 9b 3c 59 c8 0e 3d a7 db 59 bd ce e1 c8 3c
       0.019024838 0.034859035 -0.053187992 0.024521735
000190 a4 6c 94 3d 54 d3 1a 3b dc 7f 92 3d 3f d8 05 be
       0.07247284 0.0023624497 0.071532935 -0.13070773
0001a0 2e e7 0e 3d 49 43 8c bd cf 0a 77 3d 10 8a 84 bd
       0.03488844 -0.06848771 0.060313042 -0.06471646
0001b0 df db 0c bd 27 c1 3f 3d b5 82 97 3d f2 d2 44 3c
       -0.034389373 0.046815064 0.07397977 0.012013184
0001c0 c7 4b 33 3b 87 02 00 3d a0 49 0b 3d a6 60 83 bb
       0.00273584 0.03125241 0.03400576 -0.004009324
0001d0 5f 29 89 bd c5 8b 8e bd 4e dc ba bd 41 b2 6c bc
       -0.06697344 -0.06960253 -0.09124051 -0.014446796
0001e0 88 17 97 3d 2d a2 c8 3b 48 67 e6 bd 12 fd ed bc
       0.07377535 0.0061228485 -0.11250168 -0.029051337
0001f0 d8 67 cf bc 93 36 30 3c 64 3e 6f 3d cf c7 94 3d
       -0.025318071 0.010755199 0.05840911 0.07264673
000200 78 63 1d 3e 27 d2 43 3c 5c 50 1a 3d 46 e3 36 3d
       0.15369976 0.01195196 0.037674293 0.04465034
000210 f6 d3 b8 3d 67 c8 0c 3c 7b 25 34 3c 33 6c 56 3d
       0.09024803 0.0085927015 0.010995264 0.05234928
000220 77 9b 50 bc 97 bb dc bc 40 7b 34 3d eb 6d 5e bd
       -0.012732378 -0.026944919 0.044062853 -0.054304045
000230 2a fb ec 3b 3c e2 ee 3b 2d f1 f2 bc cf 15 ca bc
       0.0072320895 0.007290153 -0.029656017 -0.024668602
000240 b0 7a 97 3d 69 9d 84 bd e5 d2 56 3d e7 4c 92 be
       0.07396448 -0.06475336 0.05244722 -0.28574297
000250 b6 e0 68 3d dc ef a3 bc 5b 7e ef bd bd b7 75 bc
       0.056854926 -0.020011835 -0.11694022 -0.01499742
000260 ec 04 ea bc e4 db 12 3d 94 89 02 bd 02 bd 42 3a
       -0.0285668 0.035854235 -0.031869486 0.0007428677
000270 9b 45 4c bd b3 65 a6 bc a6 e9 58 3c bb 30 e7 3d
       -0.04987107 -0.020312166 0.0132393 0.112885915
000280 bd 12 1e bd 8f 86 c6 3d f8 d6 06 bd e1 10 3e 3d
       -0.03859209 0.09693634 -0.032919854 0.046402816
000290 7d 38 20 bd 43 b3 02 bd 77 c1 06 bb e5 a0 85 bd
       -0.03911637 -0.03190924 -0.0020562091 -0.06524829
0002a0 52 d6 07 bd 68 3b 06 3c 04 07 f3 3c c7 9e 0f bd
       -0.033163376 0.0081928745 0.029666431 -0.03506353
0002b0 da 7e 65 3a 5d 00 80 3d e7 d4 7f bd b0 52 1d 3c
       0.0008754559 0.06250069 -0.0624589 0.009602234
0002c0 e1 27 63 bd 88 ad 03 bd fd 97 86 3c 3c 0b b6 3c
       -0.055457953 -0.032147914 0.016429896 0.022222154
0002d0 a2 87 28 3d 40 7e cf bc 95 84 07 3d 27 04 17 bd
       0.041144975 -0.025328755 0.033085424 -0.036869194
0002e0 1b e1 58 bc dd 26 b1 ba 57 e5 f1 3c c8 b6 ec bc
       -0.013237263 -0.001351561 0.029528303 -0.02889575
0002f0 8f 9d 22 3d 98 32 81 3d 18 f5 ec 3c 2d 7d 8a bc
       0.03970104 0.06308478 0.028925464 -0.016905392
000300 5b 45 2a 3c 8e b9 2a bd f0 b3 9c 3d 5e 7c 0f bd
       0.010392512 -0.041680865 0.07651508 -0.035030715
000310 d8 0a a7 bc 9f 6d 80 bd eb 94 9d 3a 8c 61 fc 3c
       -0.020390913 -0.062709086 0.001202253 0.030808233
000320 52 cd b2 3c 31 a0 ba 3a c3 a7 a2 3d db 4b b4 3d
       0.02182642 0.0014238415 0.07942154 0.08803531
000330 ab 33 57 3c fb 32 cf bc 6a 18 57 bd 70 a1 e8 bd
       0.013134877 -0.025292864 -0.052513517 -0.11358917
000340 b2 57 e2 bc 4c bd a8 3d be b0 8b bc b9 a4 86 bd
       -0.027629707 0.082392305 -0.01705205 -0.06574387
000350 e9 ae 03 3d 6a c7 f6 3d 30 0e e9 3d 7a 5f 20 3d
       0.03214923 0.12049754 0.11379659 0.039153554
000360 ea cc f8 3d d1 f7 de 3c ba 2e 86 3c 94 d5 8e bd
       0.12148459 0.027217777 0.016379703 -0.069743305
000370 91 03 08 bd e3 9e 42 3d 76 c9 24 3d ef db aa 3c
       -0.033206526 0.047514807 0.04023119 0.020856826
000380 c3 26 25 bd ec 49 c5 bb 8c 16 8a bc 98 41 be bd
       -0.04032017 -0.006020775 -0.016856454 -0.09289855
000390 eb 9a 59 3d 76 65 8c 3d fc ff ab bc ee e9 a0 bd
       0.053126257 0.0685529 -0.020996086 -0.078571185
0003a0 b5 2d 6c 3c 3c f4 38 bd 3a 98 ea bd 91 4f 31 3d
       0.014415194 -0.045154795 -0.11454816 0.04328877
0003b0 38 6c 16 3d 13 5a cf 3c a7 70 48 3d 4f 34 33 3d
       0.0367243 0.025311505 0.04893556 0.043751057
0003c0 36 d9 c0 3d e3 e9 b8 3d 1e 94 ca 3c 6d 0c c4 bd
       0.0941643 0.09028985 0.02472883 -0.095726825
0003d0 82 56 41 3e c6 b6 cb 3c 1f 80 0f be 88 8e 19 be
       0.18880656 0.024867427 -0.14013718 -0.14995778
0003e0 11 04 08 3d b5 a1 34 bd 1a 40 4e bd 4a a3 80 bd
       0.033207003 -0.04409953 -0.0503541 -0.06281145
0003f0 7a d8 28 bd 56 33 96 3d d6 7f be bc e3 a3 9d 3d
       -0.041222073 0.0733401 -0.023254316 0.076972745

model.4.weight f4 [2, 256]
000000 b9 7f 07 3d fc 8f 85 3d a4 82 58 be 2b d3 9b be
       0.03308079 0.065216035 -0.21143585 -0.30434546
000010 eb d2 be 3d 36 20 6e be 2a fc 52 be e5 56 be 3d
       0.09317573 -0.23254475 -0.20604005 0.092939176
000020 7e 95 db 3c a1 92 7c be 95 f0 9b 3e 65 c9 64 be
       0.026804682 -0.2466531 0.30456987 -0.22342451
000030 48 ce 8e be 5b fe c6 3d f5 06 6b 3e 03 f8 d4 3b
       -0.27891755 0.09716483 0.22951873 0.006499292
000040 57 2f 9f be 43 94 1c bd 5a 63 ab 3d 99 ff 68 bd
       -0.31090805 -0.03822733 0.08368559 -0.056884382
000050 55 b6 0f bd 3c a2 72 3e b7 c8 8b be e3 3d 2f bd
       -0.035085995 0.236947 -0.2730157 -0.04278363
000060 41 10 b2 be fe 15 a9 bc ca 9e 80 3b d9 8f ac be
       -0.34778026 -0.02064037 0.003925179 -0.33703497
000070 47 b4 52 3c 82 2f 13 3e 0a 10 9a be a7 a2 1a bc
       0.012860364 0.14373592 -0.30090362 -0.009438193
000080 a8 8a 00 bd 36 a7 82 be 68 32 19 be ad f1 88 be
       -0.031382233 -0.25518197 -0.14960635 -0.26746884
000090 bb 0d 96 3e b0 69 17 3d 47 5c ba be b5 f7 1e be
       0.2930735 0.036966026 -0.36398527 -0.1552418
0000a0 3d aa 0a bc c4 b6 b3 bc b0 1d 68 3c c7 69 37 bd
       -0.0084634395 -0.021937735 0.014167234 -0.04477861
0000b0 40 2d 72 3e c9 b6 a2 be 31 0e 19 3f 94 4c 47 3f
       0.23650074 -0.3178008 0.5978728 0.77851224
0000c0 01 3a 02 3e f5 f0 cc 3d 33 d9 b3 bd bb ba bd bd
       0.12717439 0.100068964 -0.08781662 -0.09264132
0000d0 9a aa b8 b9 59 a2 43 bd 04 ac ab be c1 1a b9 3d
       -0.00035222323 -0.04776225 -0.33529675 0.09038306
0000e0 9d c1 07 bd 60 d8 fa 3d 0f 5a e7 bd 08 6f b6 3d
       -0.03314363 0.122483015 -0.11296474 0.08907896
0000f0 77 92 34 3e 79 c5 5f bd 52 89 76 be f8 da f3 3d
       0.17633997 -0.054631684 -0.24075821 0.11906999
000100 01 8e 09 bc 1e 63 54 be 87 e8 86 bd d4 6c 9b 3f
       -0.008395673 -0.20740935 -0.0658732 1.2142587
000110 b9 88 f7 3d 69 19 8d be 9a bc 81 3d 33 c1 43 be
       0.12086625 -0.2755845 0.06334801 -0.19116668
000120 bf 79 df 3d 0f 20 f6 bd e4 2c b9 bc b9 d5 5b bd
       0.10911893 -0.120178334 -0.022604413 -0.05367062
000130 c1 b0 07 3d 20 f3 0f 3b 0d 06 00 be b8 4e 33 3e
       0.03312755 0.0021964982 -0.12502308 0.17510498
000140 36 9c 1b 3e 2d 8b 39 be dd f8 92 bd 9a 14 02 3e
       0.15196308 -0.18119498 -0.07176373 0.12703171
000150 fa 9e 63 3e 89 06 85 3d 1c 57 7c be 92 09 2f 3e
       0.22228613 0.06495387 -0.24642605 0.17093495
000160 34 2d bc 39 39 db aa be ef 3c ca bd 96 f2 1b bd
       0.00035891833 -0.3337038 -0.098749034 -0.038073145
000170 89 36 7f 3e 8e df 17 3e 7e 92 fd 3e dc 73 35 be
       0.24923147 0.14831373 0.49525827 -0.17719978
000180 9e 6a bc bd e4 65 c0 3d f1 7e d5 3d da 4f e6 be
       -0.09200023 0.09394434 0.10424603 -0.44982797
000190 92 dc 0c 3e 0c 8a 28 be 01 77 d0 be 3b 2b 57 be
       0.13756016 -0.1645891 -0.40715793 -0.21012585
0001a0 77 63 3a 3f 35 7c 8f be 11 cb b2 3e 77 b4 48 3d
       0.7280802 -0.2802445 0.34920552 0.04900023
0001b0 e0 c7 23 be 7e 11 6c be ab b5 a0 3d 9b ee 93 b9
       -0.15994215 -0.23053548 0.078471504 -0.000282158
0001c0 3b 89 ff 3d 5c 04 0c 3e ef 1c 33 be 79 36 0b 3f
       0.124773465 0.13673538 -0.17491506 0.54379994
0001d0 99 17 c0 3d e3 10 1c 3f 3d 42 0a bd d5 a8 32 be
       0.09379501 0.6096327 -0.033754576 -0.17447217
0001e0 68 46 e3 3d dd ac 44 3d 81 95 e1 3e 30 a0 96 bd
       0.11097413 0.048016418 0.44059375 -0.07354772
0001f0 d3 9b 8f 3d 53 4f f2 bc 99 d6 70 3b 7a 7a 8b bf
       0.07012143 -0.02957884 0.0036749004 -1.0896752
000200 0d 07 38 3e 3d a7 57 be 20 8d 55 be d5 01 6f ba
       0.1797144 -0.2105989 -0.20854616 -0.00091173995
000210 bc db 0e be 24 f2 88 be ea 9b c0 3d 85 11 d1 3d
       -0.1395101 -0.2674724 0.09404738 0.1020842
000220 ca 75 1e 3e e4 4c 1d be 17 39 08 3e fc 9a db be
       0.1547462 -0.15361363 0.13303028 -0.4289168
000230 ae ee fb bd 3d d7 ce 3e 79 1f d8 3d 9a 85 c4 3c
       -0.12301384 0.4039859 0.10552878 0.023989487
000240 75 81 68 be 8d 8b 34 be f6 6b 98 3f e8 ca ab be
       -0.22705634 -0.1763136 1.1907947 -0.33553243
000250 d5 c4 91 3f e5 e5 db be dc 73 aa 3e 1e 8f 1a be
       1.1388193 -0.42948833 0.3329152 -0.15093657
000260 66 f9 3c 3d f0 86 98 3e 4e 18 b2 bd 6d 5a d4 bc
       0.046136282 0.2979045 -0.08696042 -0.025922025
000270 b1 b0 7a bc ec 1e 42 3e 1f 83 cc bd ee 8d ce bd
       -0.015300916 0.18957108 -0.09985947 -0.10085665
000280 d0 87 cf 3e 14 e2 98 3c 32 a8 3e 3d 4c 27 8c 3e
       0.40533304 0.01866249 0.046547122 0.2737373
000290 a9 6e 46 bd ae 9a e8 bd 6e 20 cc 3d 28 2c 1b be
       -0.048445377 -0.11357628 0.09967123 -0.15153563
0002a0 06 12 4f be 41 40 c7 bb fb 5c 17 bd 39 63 ec 3d
       -0.20221719 -0.0060806577 -0.036953907 0.11542363
0002b0 16 8d 26 bd e1 7d b7 bd ea 34 ad be 1e 86 8e 3d
       -0.040661894 -0.08959556 -0.33829433 0.069591746
0002c0 e7 34 ba 3d d5 58 b4 bd 5d f6 aa bc 6f 13 e0 be
       0.090921216 -0.08806006 -0.020869428 -0.43764827
0002d0 d5 97 45 be 51 86 89 be 58 54 3b bd 55 56 6c 3e
       -0.192962 -0.26860288 -0.045734733 0.23079808
0002e0 97 64 20 3d c2 cd f9 bd aa da 36 be e9 c4 fa 3d
       0.03915843 -0.12197448 -0.17856851 0.12244589
0002f0 b9 2c 85 3d c0 ce 01 3e 3d 24 65 3e bb f9 38 bd
       0.06502671 0.12676525 0.22377105 -0.045160037
000300 e2 a1 5d bd 1c 4c 05 3e 96 e4 0e 3e 20 9b 9c bb
       -0.05410946 0.13017315 0.13954386 -0.0047792345
000310 6e b1 66 bd dd 25 7f be 94 1b 4b be 7c 3d ab bd
       -0.056321554 -0.24916787 -0.19834739 -0.083613366
000320 d9 5e ca 3d d2 90 e9 3c 57 13 6d be 41 56 d8 be
       0.09881372 0.028511439 -0.23151909 -0.42253307
000330 f7 46 90 bd a4 25 c4 be 1e 73 ad 3d 50 2c 08 be
       -0.070447855 -0.38309968 0.084692225 -0.13298154
000340 d4 2f 0b 3d 8a 7e ab be a9 53 48 3d d1 e0 bc bb
       0.03398116 -0.3349498 0.04890791 -0.005764105
000350 99 ad 37 bb de 62 14 3f 6f 86 c5 be 2e 97 32 bd
       -0.0028027056 0.5796336 -0.38579127 -0.043601207
000360 ff 41 ad be 28 86 37 be dd 3a c0 3d 93 c0 fe be
       -0.33839414 -0.1792227 0.09386227 -0.49756297
000370 bb dd 5c bd 11 b1 26 3e ff d6 7b 3e 86 e1 43 3e
       -0.053922396 0.16278483 0.24593733 0.19128999
000380 0c 5c 04 bf 01 bb bc 3e 69 41 2b be 19 6e 6d 3e
       -0.5170295 0.36861423 -0.1672417 0.2318653
000390 41 93 20 3e 7b 9b 72 be ef 17 06 3e 78 65 0a bf
       0.15681173 -0.23692124 0.13095067 -0.5406108
0003a0 4a a2 1f be 45 11 a1 be eb 1c 90 3e 00 e9 91 be
       -0.15589252 -0.31458488 0.28147063 -0.28498077
0003b0 65 42 c6 bd 8e 35 a3 3d 28 b3 8d 3e 9f 72 0a 3e
       -0.096806325 0.07969199 0.27675748 0.13520287
0003c0 80 70 d0 3d 19 6d f5 3e 9d 6f 8a 3c 30 5e 5d be
       0.10177708 0.47934797 0.016898924 -0.21617961
0003d0 2f b0 7e 3e 83 44 6c 3e 10 0e 96 be fa fa 0b 3f
       0.24871896 0.2307301 -0.29307604 0.54679835
0003e0 51 36 54 3d c7 03 92 be 5b ea 69 bd 8e b4 9a be
       0.051809613 -0.28518507 -0.057108264 -0.30215877
0003f0 14 c9 5b be d0 17 17 3e 1a 9e 61 bd 64 33 13 be
       -0.21463424 0.14755177 -0.055082418 -0.14375073

model.4.bias f4 [2]
000000 e2 4e 0d bd 0e fb 9b 3d
       -0.034499057 0.07616244
