hw2/preTrained/ddpg_critic_LunarLanderContinuous-v2_04282023_190713_.pth (torch, 277399 bytes, 5 tensors)

model.0.weight f4 [256, 10]
0	0x408de57e	4.434264
1	0x40847e62	4.1404276
2	0xc036e3ae	-2.8576465
3	0x3fa97d10	1.3241291
4	0xc02f215f	-2.7364118
5	0xc02e68f5	-2.725156
6	0xc03f163f	-2.9857328
7	0x3e1d421f	0.15357254
8	0xbe8556aa	-0.26042682
9	0x3e865ae2	0.26241213
10	0x40001a82	2.001618
11	0x407b1a91	3.9234965
12	0xbf94a270	-1.1612072
13	0x3f8bcfee	1.092283
14	0xc06c121d	-3.6886055
15	0xbfdae93c	-1.7102427
16	0x3f28b5a2	0.6590215
17	0xc09737ac	-4.725546
18	0x3e1e8603	0.15480809
19	0x3ddd850c	0.10816392
20	0x40ec4ca9	7.384358
21	0x40afd794	5.4950657
22	0xc1070946	-8.439764
23	0x401322fe	2.2990108
24	0x3fa01177	1.250533
25	0x408c6823	4.387712
26	0xc08bcc61	-4.3686986
27	0x404c6be2	3.1940846
28	0xbf9d65fe	-1.229675
29	0x3edb2c21	0.42807105
30	0xc024757f	-2.5696714
31	0xbf5fa0f2	-0.8735496
32	0xc0620b06	-3.5319228
33	0xbfd6952b	-1.6764272
34	0x40b6b4d8	5.7095757
35	0xc019c08f	-2.4023778
36	0x3f2ad2eb	0.66728085
37	0x3f98515f	1.1899832
38	0xbee675c7	-0.45011732
39	0x3fca770c	1.581758
40	0x40a7c53b	5.242826
41	0x40d26fa7	6.5761294
42	0xc133f616	-11.24758
43	0x408df59e	4.4362326
44	0x3f36a3ab	0.7134349
45	0x408144cd	4.0396485
46	0xc045d107	-3.090883
47	0x3e93a424	0.28836167
48	0xbf801ce6	-1.0008819
49	0xbe839001	-0.25695804
50	0xc002d0a1	-2.0439837
51	0xc104c6c6	-8.298529
52	0x3f4e117f	0.80495447
53	0xc0208bca	-2.508532
54	0xbec9870a	-0.3936084
55	0x409fde00	4.9958496
56	0x407ceec3	3.9520729
57	0xc0880725	-4.250872
58	0xbf16eb72	-0.5895301
59	0x3f9d9841	1.2312089
60	0x402f933b	2.7433612
61	0x40605578	3.5052166
62	0xbf8bab77	-1.0911702
63	0xbefa87be	-0.48931688
64	0xc078cca6	-3.8874907
65	0xc022e023	-2.5449302
66	0xbfa23f9c	-1.2675662
67	0x3fd330b5	1.6499239
68	0xbf7d0d97	-0.9884886
69	0x3f54e679	0.83164173
70	0x40062491	2.0959818
71	0x40240077	2.5625284
72	0xbff07e9d	-1.8788639
73	0x3f996f1c	1.1987033
74	0x408c4221	4.3830724
75	0x41828010	16.31253
76	0x40c9d553	6.3072906
77	0xbfbf5efa	-1.495086
78	0x3ea101cd	0.31446686
79	0xbe30f365	-0.17280348
80	0x3f8d444d	1.1036469
81	0xc12e8f6c	-10.910015
82	0x3f2935ec	0.66097903
83	0xbfbe21c0	-1.485405
84	0x3ea3792a	0.31928378
85	0x4007970e	2.1185946
86	0xbfbada57	-1.4597882
87	0x3ea9bcb4	0.33151782
88	0xbfffb1c0	-1.997612
89	0x3f4c2736	0.7974733
90	0x405d3a18	3.4566708
91	0x40aa1567	5.3151126
92	0xbf9b422f	-1.2129573
93	0xbda15fbe	-0.078795895
94	0xc02ae859	-2.6704314
95	0xc0487845	-3.1323407
96	0xbf425269	-0.75907
97	0x3ff500d5	1.9140879
98	0xbfe03a5b	-1.7517809
99	0x3fbd4eb9	1.4789649
100	0xc068b477	-3.6360147
101	0x405ee67f	3.4828184
102	0x3f3e2012	0.74267685
103	0x3fcea9ce	1.614557
104	0xbf6e9b51	-0.93205744
105	0x40da0aee	6.813834
106	0xc069bb8b	-3.6520717
107	0xbf87f074	-1.0620255
108	0x3fc4e741	1.5383073
109	0x3f1fc072	0.62403023
110	0xc090ca19	-4.52467
111	0xbf3da0c1	-0.74073416
112	0x4095f8dd	4.686629
113	0x40a4e10a	5.1524706
114	0xc10a8ca3	-8.659335
115	0xc0bd7174	-5.9200993
116	0xbe401ccc	-0.18760985
117	0xbfcfb9dc	-1.6228595
118	0x3fc20415	1.5157496
119	0xbf9a2d1b	-1.2045015
120	0xc04a1f13	-3.1581466
121	0x4018b825	2.3862393
122	0x3f978c19	1.183963
123	0x3fc81b0e	1.5633256
124	0xbf6df9b5	-0.9295915
125	0x40b332cd	5.5999513
126	0xc068603a	-3.6308732
127	0xbf7a599d	-0.9779299
128	0x3fd63318	1.6734343
129	0x3f24e4c0	0.64411545
130	0x401057d3	2.2553604
131	0x40eedac7	7.464206
132	0x3f8aae8a	1.0834515
133	0x3f3c6aae	0.7360028
134	0xc0245d5e	-2.5681987
135	0xc07e1aa6	-3.9703765
136	0xbf9ba83f	-1.216072
137	0x40004512	2.0042157
138	0xbfb1a1dd	-1.3877522
139	0x3fbb2885	1.462174
140	0xc0588ce9	-3.3836005
141	0x3f9593ba	1.1685708
142	0x40ac27b7	5.379848
143	0x40736b90	3.80344
144	0xc105d275	-8.363881
145	0xc0a9c5b4	-5.3053837
146	0xbf3398c9	-0.70155007
147	0x40496f91	3.1474345
148	0xbf101b91	-0.56292063
149	0x3f81b8b4	1.0134492
150	0x3fcd9dac	1.6063743
151	0x4028c7a0	2.6371841
152	0xbff794ed	-1.9342324
153	0xc0020bd5	-2.0319722
154	0xc05874d6	-3.382131
155	0xc00c0667	-2.1878908
156	0xbe5ca1c8	-0.2154609
157	0x3ed854bf	0.42252156
158	0xbe7ab23e	-0.24482056
159	0x3f8961ef	1.0733012
160	0x4016d30a	2.3566308
161	0x3fa048d3	1.2522224
162	0xc00041f8	-2.0040264
163	0x3ed99341	0.42495158
164	0xbefa7c14	-0.4892279
165	0x40ea28fd	7.3175035
166	0x4087452c	4.227194
167	0xc09faa40	-4.9895325
168	0x3e6cc6b1	0.2312267
169	0x3e1cb5a6	0.15303668
170	0x402ab422	2.6672444
171	0x406f19ca	3.735949
172	0xbfc4a581	-1.5363008
173	0x3ffb0de8	1.9613619
174	0xc05a0d9d	-3.407081
175	0xc01f1b3e	-2.4860377
176	0xbfc8d309	-1.5689403
177	0xc08481a7	-4.1408267
178	0xbe869ffe	-0.2629394
179	0xbdbcf7e7	-0.09226971
180	0x40080623	2.1253746
181	0x40186246	2.3809981
182	0xc0042c78	-2.0652142
183	0x3fc617bc	1.5475993
184	0xc0392e4b	-2.8934505
185	0xbfdf082e	-1.7424371
186	0xbedcbe29	-0.4311383
187	0xc07840db	-3.8789585
188	0xbe33cd7f	-0.1755886
189	0xbf29ce5b	-0.663305
190	0x3fcf2702	1.6183779
191	0x4107e7a0	8.494049
192	0xbfa5fb86	-1.2967384
193	0x403646cd	2.8480713
194	0xc03e2b40	-2.9713898
195	0xc04be3d9	-3.1857817
196	0xbfa087de	-1.2541463
197	0xc08fba10	-4.4914627
198	0xbe023c7b	-0.12718384
199	0xbf27210b	-0.65284795
200	0xc0327358	-2.78829
201	0x409596b4	4.6746464
202	0x3f6351d9	0.88796765
203	0x402d72e9	2.7101386
204	0xbebbfcd7	-0.3671634
205	0x40aadb67	5.3392825
206	0xbfd2cafb	-1.6468195
207	0xbeca07eb	-0.39459166
208	0x3f4d021e	0.80081356
209	0x3eac76eb	0.33684477
210	0x40702557	3.752279
211	0xbe35f9c8	-0.17771065
212	0x3fe5e873	1.7961563
213	0xbf71e8d7	-0.9449591
214	0x40999993	4.799997
215	0xc011ddba	-2.279158
216	0x3fe158ef	1.7605265
217	0xc012293a	-2.2837663
218	0xbf870db3	-1.0551056
219	0xbde495ae	-0.11161362
220	0xbfe291ae	-1.7700708
221	0x40c0a568	6.020191
222	0x400c89c0	2.1959076
223	0x4010f7cc	2.2651243
224	0x4087cbb2	4.243615
225	0x400ac1d8	2.1680813
226	0xbe223112	-0.15839031
227	0xc0218a07	-2.5240495
228	0x3de9fed9	0.114255615
229	0xbe88a09e	-0.2668504
230	0xbfe57a38	-1.7927923
231	0xc0493519	-3.1438658
232	0x4060b896	3.5112662
233	0xbfb972d5	-1.4488169
234	0xc09d3acf	-4.913429
235	0xbf05ae0e	-0.5221871
236	0x402c4399	2.6916258
237	0xc01d2c7b	-2.4558399
238	0x3f467556	0.7752279
239	0x3f238896	0.6388029
240	0xc015a646	-2.3382735
241	0x4090686a	4.512746
242	0x40a71dac	5.222372
243	0xbedaef32	-0.42760617
244	0xc024ea8e	-2.576816
245	0xc0bb8457	-5.859905
246	0xbf304ec9	-0.68870217
247	0x40262a01	2.5963137
248	0xbf0eb37c	-0.5574262
249	0x3f74f5cb	0.9568755
250	0xbfa24ecf	-1.26803
251	0x40896deb	4.2946677
252	0x40245c14	2.56812
253	0x406e42a8	3.7228184
254	0x406d86bf	3.7113492
255	0x400cd572	2.2005277

model.0.bias f4 [256]
0	0xbf62858e	-0.8848504
1	0x3f4f8e1b	0.8107621
2	0xbee31047	-0.44348356
3	0xbe494c2a	-0.1965796
4	0x3f0aa425	0.54156715
5	0xbf8ae907	-1.0852364
6	0x400bf1c5	2.1866314
7	0xc08ddb83	-4.433046
8	0xbf102114	-0.56300473
9	0x4064f46e	3.5774188
10	0x41030d95	8.190816
11	0x4113fdf5	9.249501
12	0x41056657	8.337485
13	0x40adc842	5.4306955
14	0x40ac5122	5.384904
15	0x3fabdb5b	1.3426317
16	0xc0287fa7	-2.6327913
17	0xbf5af49b	-0.8552949
18	0xbea01fe8	-0.31274343
19	0x4009fb8d	2.1559784
20	0x410e18fa	8.881098
21	0x40aa8f84	5.330019
22	0x410a4093	8.640765
23	0xbf3cf5a5	-0.73812324
24	0x4144b01e	12.292997
25	0x4115c402	9.360353
26	0x41131813	9.1933775
27	0x40a82164	5.254076
28	0x40e76621	7.231217
29	0xc08281db	-4.0783515
30	0x414f267e	12.9468975
31	0xbf1dbc07	-0.6161503
32	0x410e2088	8.882942
33	0x418beecb	17.491598
34	0xbed4c771	-0.41558412
35	0xbf8ee32f	-1.1163081
36	0x3db6074d	0.08888111
37	0xbf996972	-1.1985304
38	0xbed75aaa	-0.4206136
39	0xbf2b6cca	-0.66962874
40	0x3eeff839	0.46869066
41	0xbf0a6dbf	-0.5407371
42	0xbf0c6e65	-0.5485595
43	0xbf95fde5	-1.1718107
44	0x3d4be46f	0.049778398
45	0x411db12a	9.855753
46	0xc0a5fddd	-5.187239
47	0x408db22a	4.4279985
48	0xbf2f0c37	-0.68378013
49	0x40e6330c	7.1937313
50	0xbf9c5f06	-1.2216499
51	0x4111e552	9.118486
52	0x3f21bb72	0.63176644
53	0x4104cc61	8.299897
54	0xbf805bd8	-1.0028028
55	0x410e9c06	8.913092
56	0x3f531b79	0.82463795
57	0x4117397a	9.451532
58	0x3ef3ce54	0.47618353
59	0xc1125ee5	-9.148168
60	0x3f5d0599	0.86336666
61	0x4128cfb7	10.550712
62	0x3e85be5a	0.2612179
63	0x4137178b	11.443248
64	0x41064b8a	8.393442
65	0x40d12c5a	6.536664
66	0x3e6b3855	0.22970708
67	0xbf88363d	-1.0641552
68	0x400ce294	2.2013292
69	0xbfac6900	-1.3469543
70	0x4110976a	9.036966
71	0xbe9c381c	-0.30511558
72	0x40fe40f8	7.9454308
73	0x4118848e	9.532362
74	0x41102d00	9.010986
75	0xc0eee1f3	-7.4650817
76	0xc0c1808e	-6.0469427
77	0xbe831f26	-0.25609702
78	0x41139e9b	9.226222
79	0xc01999c2	-2.4000096
80	0x413feb78	11.9949875
81	0x4008d19a	2.137793
82	0x410e0034	8.87505
83	0xbeed4c14	-0.46347106
84	0xc074d5c1	-3.8255465
85	0x40f12335	7.5355477
86	0x4121dfed	10.117169
87	0x3f4d334c	0.801564
88	0x4116e999	9.432031
89	0x3f9ec737	1.2404546
90	0x40cfd963	6.4952865
91	0x3fe9d464	1.8267941
92	0x3f500ae6	0.8126663
93	0x40519464	3.274682
94	0x403e16b8	2.9701366
95	0x4118c2ce	9.54756
96	0x3f1566aa	0.5835978
97	0x3fa3d2d2	1.2798712
98	0xbf00ba92	-0.50284684
99	0x411ad48b	9.67689
100	0xc03986e1	-2.8988574
101	0x3e9fead9	0.31233862
102	0x3fe81e08	1.8134165
103	0x3f62f60d	0.88656694
104	0x4187eb68	16.989944
105	0x40309304	2.7589731
106	0x411bbda1	9.733796
107	0x41398194	11.594135
108	0x410b0c20	8.69046
109	0xbcc4fba5	-0.024045775
110	0x40ff10fc	7.9708233
111	0x3da98df5	0.08279029
112	0xbe6b73ff	-0.22993468
113	0x400692a1	2.1026995
114	0xbf0f4b68	-0.55974436
115	0x4132eb63	11.182467
116	0xbf504068	-0.81348276
117	0xc0a16b4a	-5.044347
118	0xc0290eae	-2.641521
119	0x410bc08f	8.734511
120	0xc1307d47	-11.030585
121	0xbf9d8566	-1.2306335
122	0x4191ea4b	18.2394
123	0xc0021b04	-2.032899
124	0x3fcdeb99	1.6087524
125	0xbd8633dd	-0.06552861
126	0x40faecb4	7.8413944
127	0x40938542	4.610017
128	0x41714d36	15.08135
129	0xbfabdae7	-1.3426179
130	0xc06d389f	-3.7065809
131	0x40c77a3e	6.233672
132	0x40e8a935	7.270655
133	0x3f162d39	0.58662754
134	0x4110a8e2	9.041231
135	0xbeffe78c	-0.49981344
136	0x3f7407f0	0.9532461
137	0x41023a50	8.139236
138	0x3f53f392	0.82793534
139	0xbe1019b5	-0.14072306
140	0x410e1060	8.878998
141	0x3e5ba24b	0.21448629
142	0x40f46cdd	7.638289
143	0x3e84d46c	0.25943315
144	0x4117a263	9.477145
145	0xbf8ab983	-1.0837864
146	0x3ffbf54c	1.9684234
147	0xbf1f7e81	-0.62302405
148	0xbe4533bf	-0.19258021
149	0xc139ae84	-11.605106
150	0xbfbd5f40	-1.4794693
151	0xbdf31194	-0.11868587
152	0x3fa27458	1.2691755
153	0x41296288	10.5865555
154	0xc0d1807b	-6.5469337
155	0x409a7a12	4.827401
156	0xbe6296f0	-0.2212789
157	0x3ec0d4c9	0.37662342
158	0x3df3ab4d	0.118979074
159	0xbf98ec52	-1.1947119
160	0x3e5fd2fb	0.21857826
161	0xbec187d9	-0.37798956
162	0x40d59061	6.6738744
163	0xbf278edc	-0.6545236
164	0x3f7bef85	0.9841235
165	0xbd8b2aa0	-0.067952394
166	0x41135b2b	9.209758
167	0x3fffd696	1.9987361
168	0x3fccf705	1.6012884
169	0xbed1e719	-0.40996626
170	0x41144d08	9.268806
171	0x40f2668f	7.5750194
172	0xbf0e0622	-0.5547811
173	0x4136c48b	11.422984
174	0xc134227d	-11.25842
175	0xbea2ce81	-0.31798175
176	0x3f63ad71	0.88936526
177	0x4055ed67	3.342615
178	0x412496eb	10.286845
179	0x40ac5915	5.3858743
180	0x4087a70a	4.2391405
181	0xc090ae00	-4.52124
182	0xc13ecd1b	-11.925075
183	0x410fc723	8.986117
184	0x40e11675	7.0339913
185	0xbecd2be6	-0.40072554
186	0x3f13287d	0.57483655
187	0x41042f37	8.261527
188	0x41818d12	16.193882
189	0xbf728179	-0.9472881
190	0x41918fbb	18.19518
191	0xbf1925bf	-0.5982322
192	0xc0b2f81f	-5.592788
193	0x413d93c7	11.848578
194	0x4131972c	11.099407
195	0x413d8690	11.845352
196	0xc06e6fbd	-3.72557
197	0x40038ad0	2.0553474
198	0xbf324ef3	-0.69651717
199	0x40a12dcc	5.0368404
200	0xbf3089e8	-0.6896043
201	0x3f80ff2f	1.0077876
202	0x41214a5b	10.080653
203	0xc0ef75ba	-7.483121
204	0x3eacc791	0.33746007
205	0x402f1c70	2.7361107
206	0xbf4f61ba	-0.81008494
207	0x40d098ee	6.518668
208	0x401e052f	2.4690664
209	0x4054a787	3.322725
210	0x3f4edf33	0.80809325
211	0xbf82ba4d	-1.0213104
212	0xbed0616c	-0.40699327
213	0xbf1f2037	-0.6215853
214	0x3ebd7b4e	0.37008137
215	0x4103730b	8.215587
216	0x3fde9f27	1.739232
217	0x411532f1	9.324937
218	0xbf86bd42	-1.0526507
219	0x41134b2d	9.205853
220	0x4083e7d3	4.122049
221	0xbf269449	-0.65070015
222	0x40d6e320	6.715225
223	0xbf008bb1	-0.5021315
224	0x4188f118	17.117722
225	0xbe650107	-0.22363673
226	0xc0126f73	-2.2880523
227	0x3c0a8196	0.008453747
228	0xbeea88ba	-0.4580744
229	0x3fd670ff	1.6753234
230	0x4014fcd5	2.3279316
231	0x409b500c	4.8535213
232	0x417c40c9	15.765817
233	0xbfa902d6	-1.320399
234	0x40e5ef22	7.185441
235	0x413def97	11.870994
236	0x4116dc42	9.428774
237	0x41955667	18.667189
238	0x411aa369	9.664895
239	0x40a96175	5.2931466
240	0xbf4ff68b	-0.8123557
241	0x41209914	10.037373
242	0x3ef73126	0.48279685
243	0x417346f2	15.204821
244	0x3f81a710	1.0129108
245	0xc09b8a00	-4.8605957
246	0xbf477bb7	-0.7792315
247	0xbf0731a7	-0.5281014
248	0x404504c2	3.0784154
249	0x4110810c	9.031506
250	0xbf0db6b9	-0.5535694
251	0xbf228e1c	-0.6349809
252	0xc023bc2c	-2.55836
253	0x3f6da187	0.92824596
254	0x3f5382f1	0.82621676
255	0x4149e4f3	12.618396

model.2.weight f4 [256, 256]
0	0x3d03d86e	0.032188825
1	0x3cea59c3	0.028607255
2	0xbd069b81	-0.032863144
3	0x3b9404df	0.0045171822
4	0xbd5cfa4a	-0.05394963
5	0xbbbfb4d8	-0.0058504157
6	0x3d26ae6f	0.040693697
7	0x3c76f3a6	0.015072739
8	0xbd6aaf88	-0.057296306
9	0x3d4a9c41	0.04946542
10	0xbd0f6199	-0.035005186
11	0x3c46d520	0.012135774
12	0xbcba7140	-0.02275908
13	0x3d3d8c50	0.04627639
14	0xbd480ad5	-0.048838455
15	0x3c23b049	0.00999076
16	0x3d03c025	0.032165665
17	0x3d116fd3	0.035507035
18	0x3d4c7fc6	0.04992654
19	0xbcb8ae78	-0.02254413
20	0xbbbeedcb	-0.005826687
21	0xbd85315e	-0.06503557
22	0xbc8c8f71	-0.017158242
23	0xbcf71984	-0.030163534
24	0x3c1eacdc	0.009684768
25	0xbd870d0a	-0.06594284
26	0xbd7530ce	-0.059860997
27	0xbd6d4eff	-0.057936665
28	0xbd74f127	-0.059800293
29	0x3baf6c20	0.0053534657
30	0x3bd94aab	0.0066312156
31	0xbd856276	-0.065129206
32	0xbd35b277	-0.04435965
33	0xbd8ad70b	-0.067792974
34	0xbd172758	-0.036902755
35	0xbc82bc23	-0.015958851
36	0x3cd977f8	0.026546463
37	0xb952cdd1	-0.00020103833
38	0x3d08fee0	0.033446193
39	0xbc3ce718	-0.011529706
40	0x3c6e66b0	0.01455085
41	0x3c3c44b0	0.011490986
42	0x3cdea9a9	0.02718051
43	0xba36c680	-0.0006972328
44	0xbdad4338	-0.084600866
45	0x3c16b4ca	0.009198377
46	0xb9cfe51b	-0.00039652814
47	0x3cb61d9f	0.022230921
48	0xbd58b517	-0.052907076
49	0xbdb774ea	-0.089578465
50	0xbd787124	-0.060654774
51	0xbd5f513f	-0.05452084
52	0xbd39ede6	-0.045392893
53	0xbd88d090	-0.06680405
54	0xbd025cf7	-0.03182694
55	0xbda8e34f	-0.08246481
56	0x3d4e4f54	0.050368622
57	0x3cb98061	0.022644224
58	0xbc5d5fa0	-0.013511568
59	0x3cab0b8f	0.020879535
60	0xbd05e9d4	-0.0326937
61	0x3d34db8a	0.04415468
62	0xbd44ce72	-0.048048444
63	0xbd19a480	-0.037510395
64	0xbd10bb62	-0.035334952
65	0xbd31b79c	-0.043387994
66	0x3cfc4298	0.030793473
67	0xbd39377e	-0.045218937
68	0x3ce99458	0.028513119
69	0x3aecf67f	0.0018078833
70	0x3c9e599f	0.019329844
71	0x3c6a5526	0.0143025275
72	0x3ba353d3	0.004984358
73	0xbce54f3c	-0.027991883
74	0x3c048313	0.008087891
75	0x3c967753	0.018367445
76	0xbd297ca8	-0.041378647
77	0xbd4f13be	-0.050555937
78	0xbdb0b14d	-0.086275674
79	0xbd8fd7d0	-0.07023585
80	0xbd4a3607	-0.04936793
81	0xbd380535	-0.04492684
82	0xbd8821ad	-0.06647048
83	0x3c565836	0.013082555
84	0xbd88417b	-0.066531144
85	0x3c91730c	0.017755054
86	0x3b85505e	0.0040684184
87	0xbc026057	-0.0079575395
88	0x3cda47e5	0.02664561
89	0xbd630580	-0.055425167
90	0xbb517985	-0.00319633
91	0xbdc3baba	-0.095571
92	0x3b9a4c50	0.004708804
93	0x3d147f2a	0.036254086
94	0xbbe6d6ab	-0.0070446334
95	0xbc897495	-0.016779223
96	0x3d674ec4	0.0564716
97	0x3baf5a80	0.0053513646
98	0xbd0168a5	-0.031593937
99	0xbdb496b9	-0.088178106
100	0xbd78270b	-0.06058411
101	0xbd0f21ef	-0.03494447
102	0xbd6fa55b	-0.058507305
103	0x3c99f014	0.018791236
104	0xbd916aa7	-0.071004204
105	0xbc06d041	-0.008228363
106	0xb9ef66be	-0.0004566218
107	0xbd1ff8cf	-0.03905564
108	0x3aa8b8f4	0.0012872503
109	0x3d4b3082	0.049606808
110	0xba64f567	-0.00087340776
111	0xbd3c3aba	-0.045954444
112	0xbb9844f8	-0.0046468936
113	0xbd170ba8	-0.03687635
114	0x3cb5f87b	0.022213211
115	0x3cde82a0	0.027161896
116	0x3cbffbbe	0.02343547
117	0xbc549e54	-0.0129772015
118	0x3c85a928	0.016316012
119	0xbd9ca60b	-0.07648858
120	0xbd9a2164	-0.075259
121	0x3c1c7c8c	0.009551179
122	0x3cb2151d	0.021738583
123	0xbcaaa82b	-0.020832142
124	0x3d21012f	0.03930777
125	0xbd649a31	-0.05581111
126	0xbd28c1dc	-0.041200504
127	0xbd1771dd	-0.036973823
128	0x3a10cc50	0.0005523609
129	0xbd13a892	-0.036049433
130	0xbd5e128a	-0.0542169
131	0xbcb9caf7	-0.022679789
132	0xbda14cc2	-0.078759685
133	0xbcee0c6a	-0.029058654
134	0xbd9d69b6	-0.076861784
135	0xbc8ec54f	-0.017428068
136	0x3d3b7ebf	0.04577517
137	0xbdb22ec6	-0.087003276
138	0x3c9d2859	0.019184278
139	0xbb73cc00	-0.003720045
140	0xbccefa97	-0.025265975
141	0xbdbdd7b5	-0.092696585
142	0xbd359162	-0.0443281
143	0xbcc82cfe	-0.024435516
144	0xbd313050	-0.043258965
145	0xbd77548d	-0.06038337
146	0x3c014b9d	0.007891563
147	0xbd657de9	-0.05602828
148	0x3d27b408	0.040943176
149	0x3c52a011	0.012855546
150	0x3d4ecc7a	0.050487973
151	0xbc63b473	-0.013898003
152	0xbd9181a8	-0.07104808
153	0xbd880407	-0.06641393
154	0xbd8f65e5	-0.07001857
155	0xbda2dc02	-0.079521194
156	0x3c8c940c	0.017160438
157	0x3ccf86cd	0.025332833
158	0xbcf93ab2	-0.030423496
159	0xbd7bfdae	-0.061521225
160	0xbcd88d64	-0.026434608
161	0xbd968436	-0.07349436
162	0x3c91ee38	0.017813787
163	0xbd204374	-0.03912683
164	0x3c1e4e06	0.009662157
165	0xbd26849e	-0.040653817
166	0x3c7e1c94	0.015509743
167	0xbd98c6c6	-0.07459788
168	0xbc4f08f8	-0.012636416
169	0x3cfe7146	0.031059872
170	0x3ca49848	0.020092145
171	0xbd01d4e6	-0.031697176
172	0xbd00db0a	-0.031458892
173	0xbd59c7c2	-0.05316902
174	0xbda75c5d	-0.08171914
175	0x3bb5f087	0.0055523547
176	0x3b04b008	0.0020246524
177	0x3d03cbba	0.03217671
178	0xbd7c1616	-0.0615445
179	0xbc48f708	-0.012265928
180	0xbd5ad57f	-0.053426262
181	0xbd88ab09	-0.06673247
182	0x3ce2459a	0.02762108
183	0xbda35826	-0.07975797
184	0xbdc06524	-0.09394291
185	0xbdb6670f	-0.089063756
186	0xbc888162	-0.016663257
187	0xbc1cdfa7	-0.009574807
188	0x3d3f966b	0.04677431
189	0xbda99b25	-0.082815446
190	0xbd25a96b	-0.040444773
191	0x3c06550a	0.008198986
192	0xbce6d916	-0.028179687
193	0xbc653afb	-0.013991113
194	0xbb5536c4	-0.0032533864
195	0xbd021c9f	-0.031765576
196	0xbd10ffa2	-0.03540004
197	0xbc93ab5d	-0.018026048
198	0x3ccb2bb8	0.02480112
199	0x3c249075	0.010044207
200	0xbd22a061	-0.03970373
201	0xbc10296b	-0.008798937
202	0x3c614bd3	0.013750988
203	0xbc40dea2	-0.01177183
204	0xbd6b32b2	-0.057421394
205	0xbd6f796e	-0.058465414
206	0xbc2d3f9c	-0.010574248
207	0x3b5e79c0	0.003394708
208	0x3c833e12	0.016020808
209	0xbd4fbc56	-0.05071672
210	0xbd75280c	-0.059852645
211	0xbd95793a	-0.07298513
212	0xbcd65a03	-0.026165968
213	0xbd25e46c	-0.040501043
214	0xbc1d1c66	-0.00958929
215	0x3b95e854	0.004574815
216	0xbd4109e0	-0.04712856
217	0xbc717f96	-0.0147398915
218	0xbd4b2089	-0.049591575
219	0xbd672f66	-0.056441687
220	0xbcaefc20	-0.021360457
221	0xbcdbeee4	-0.02684731
222	0x3c98f67f	0.018672226
223	0xbcfea49e	-0.031084355
224	0x3d3dd43d	0.046344984
225	0x3d19817e	0.03747701
226	0xbd33a423	-0.043857705
227	0x3c034f48	0.008014508
228	0x3bb4a16a	0.005512406
229	0x3b8175a0	0.0039507896
230	0xbd8b669b	-0.0680668
231	0x3cff5c67	0.03117199
232	0xbd2b9d30	-0.041897953
233	0xbd1b1a8a	-0.037867106
234	0xbd1c83e9	-0.038211737
235	0xba648c2d	-0.00087183976
236	0xbd4c5980	-0.04989004
237	0xbd7390e8	-0.059464365
238	0xbd10602c	-0.035247967
239	0x3d42ba06	0.047540687
240	0xbd817a61	-0.0632217
241	0xbc7439eb	-0.014906387
242	0xbd11bfb7	-0.035583224
243	0x3d0fa2c7	0.035067346
244	0xbd112fa2	-0.035445817
245	0xbd46c49d	-0.04852735
246	0x3d23eea8	0.040022522
247	0x3d301d9b	0.042996984
248	0x3c9e2bdc	0.019308023
249	0xbd97f8d3	-0.07420506
250	0xbd714cb3	-0.058911037
251	0xbcc6e42c	-0.024278723
252	0xbdd54edb	-0.10415431
253	0x3d2431c8	0.040086538
254	0xbd072abb	-0.032999735
255	0xbd351316	-0.044207655

model.2.bias f4 [256]
0	0xbc981d9a	-0.018568803
1	0x403e1e78	2.9706097
2	0x400aba8a	2.1676354
3	0x40e68990	7.2042923
4	0x402758e1	2.6147997
5	0x3fca7105	1.5815741
6	0x4051e81e	3.2797923
7	0x3cda9034	0.02668009
8	0x3ec52cbf	0.385107
9	0x41264f82	10.394411
10	0xbd867ec1	-0.06567145
11	0x411805db	9.50143
12	0x4117f737	9.497855
13	0x4042c032	3.0429807
14	0x4044542d	3.0676377
15	0x403b74a0	2.9289932
16	0x40425163	3.0362175
17	0x3e2a839d	0.16651769
18	0xbcdfbb06	-0.02731086
19	0x401c293c	2.4400167
20	0x40e7255e	7.2233114
21	0xbda55ca6	-0.08074312
22	0xbcf665f5	-0.030077914
23	0x402700ab	2.6094158
24	0x3f5dce86	0.86643255
25	0x400ff7a3	2.2494895
26	0xbd871680	-0.065960884
27	0x3fa95ebe	1.3232038
28	0x3f49f6e8	0.78892374
29	0x3f55575c	0.83336425
30	0xbd2a854b	-0.041631024
31	0x40812869	4.036183
32	0xbdbb0977	-0.09132665
33	0x3f830533	1.0235962
34	0x3d8cdc39	0.06877942
35	0xc0a57be3	-5.171373
36	0xbd8a0834	-0.06739846
37	0x3fe71595	1.8053461
38	0x3cb02383	0.021501308
39	0x3f39e907	0.72621197
40	0xbd854d95	-0.06508938
41	0x3f8b5cc5	1.0887686
42	0x40da25e9	6.8171277
43	0x41288286	10.531866
44	0x3f7390e5	0.95142967
45	0x40e8aafe	7.270873
46	0xbcd4d32f	-0.025979606
47	0xbd6613aa	-0.056171097
48	0x3cc4155e	0.02393597
49	0xbd1ada72	-0.037805982
50	0x41178253	9.469317
51	0x4052e0e5	3.2949765
52	0x40fdcff0	7.931633
53	0xbbe5cc5f	-0.0070128883
54	0x3d79a557	0.060948696
55	0x4116da97	9.428367
56	0x3b72a325	0.0037023511
57	0x3d202b7f	0.03910398
58	0x3edc83da	0.43069345
59	0x404342a8	3.0509434
60	0x3f6a6bd9	0.9157081
61	0x3ff467d6	1.9094188
62	0xb8d07a1d	-9.940958e-05
63	0x3cf58b19	0.029973553
64	0x3f5f4c63	0.8722593
65	0x4117f1c5	9.496526
66	0xbd88cce7	-0.06679707
67	0xbca1da89	-0.019757526
68	0xbd2f02ba	-0.04272721
69	0xbc0da694	-0.008645672
70	0x40e4ea9d	7.1536393
71	0xbde96b93	-0.11397471
72	0xbd1565f3	-0.03647418
73	0x402273c3	2.5383155
74	0x405cc10c	3.4492826
75	0x41188a6f	9.533797
76	0x4056df25	3.3573697
77	0xbcb23368	-0.021753028
78	0xbc4c0a47	-0.012453622
79	0xbb30a137	-0.002695156
80	0x4115f386	9.371954
81	0xbd4446ae	-0.047918968
82	0x40de88df	6.954208
83	0xba579619	-0.00082239654
84	0x3f80542a	1.0025685
85	0x40428eb8	3.0399609
86	0x3bb8316f	0.0056211273
87	0x3ffab617	1.958682
88	0xbdd00595	-0.10157315
89	0x4123ab08	10.229256
90	0x40db7376	6.8578444
91	0x41179910	9.474869
92	0x3f7ce6db	0.9878976
93	0x412693e3	10.411105
94	0x40e565cf	7.168678
95	0x4049cddc	3.1531897
96	0x404e92e4	3.2277155
97	0x40daa873	6.8330626
98	0x40dd794a	6.921056
99	0x4048f61b	3.140021
100	0xbdd5b661	-0.10435177
101	0xbd56cf85	-0.052444
102	0x403b8d9a	2.9305177
103	0x401bd433	2.4348266
104	0x3f7c689a	0.9859711
105	0x40088d0e	2.1336093
106	0x3f8099e5	1.0046965
107	0xbcd1cb6b	-0.025609693
108	0xbcda88c5	-0.026676545
109	0x40e3021c	7.0940075
110	0x40e4b8a7	7.1475406
111	0x40256583	2.5843208
112	0x3dd7a459	0.10529394
113	0x40db96bb	6.8621497
114	0x40131870	2.2983665
115	0x3fdb26e4	1.7121243
116	0x3fbd9618	1.481143
117	0x3fdb8082	1.7148592
118	0x400a2578	2.158537
119	0x3f5e19e5	0.8675826
120	0xbc507eb2	-0.012725519
121	0x405bcf20	3.434517
122	0x40e4adca	7.1462145
123	0x3ecec826	0.40387076
124	0x3fdc3946	1.7204978
125	0xbdb370ab	-0.08761724
126	0xbd1f1b96	-0.038844667
127	0xbd9d8d56	-0.07692973
128	0x411c3e80	9.765259
129	0x40dab8d4	6.835062
130	0x40205271	2.5050318
131	0x40e58190	7.1720657
132	0x4116e4c0	9.430847
133	0x410802bb	8.500667
134	0x3dff5f75	0.12469379
135	0xbd514ce5	-0.051098723
136	0x3f6cae46	0.9245342
137	0x402869f8	2.6314678
138	0x4113b9af	9.232833
139	0x3ffdb2f1	1.9820234
140	0x3c11eb7f	0.008906244
141	0x410897a0	8.537018
142	0x4014793c	2.3198996
143	0x411b45b6	9.704519
144	0x411308d6	9.189657
145	0x3d92017a	0.07129188
146	0x3ffbe6f9	1.9679862
147	0x3fc14171	1.5098096
148	0x3f2ca293	0.6743557
149	0x3c904bc6	0.017614257
150	0x3f15e703	0.5855562
151	0xbb8a390b	-0.004218226
152	0xbcf28720	-0.029605448
153	0x403ea017	2.978521
154	0xbd9fd308	-0.07803923
155	0x4116298a	9.385141
156	0x40e741aa	7.2267656
157	0x3f70af27	0.9401726
158	0x3c42bf8d	0.01188649
159	0x4027d431	2.6223261
160	0xbd05c91a	-0.03266249
161	0x3f825ada	1.0183976
162	0x4130a017	11.039084
163	0x400f1c90	2.2361183
164	0xbcff1242	-0.031136636
165	0xbdb3a5c9	-0.087718554
166	0x3d09a25b	0.0336021
167	0xbdb56b05	-0.08858303
168	0x411dbfd2	9.859331
169	0xbd21e5bf	-0.039525744
170	0x3cd7ccfd	0.026342863
171	0x40394511	2.8948405
172	0x3fe96f0b	1.8237013
173	0x4008cc79	2.13748
174	0x3b7a0ab6	0.0038153357
175	0xbcd8bfb2	-0.026458595
176	0x3f7e02ee	0.9922322
177	0x4049fd56	3.1560874
178	0x411ec66c	9.923443
179	0xbd8035fc	-0.06260297
180	0xbd030310	-0.031985343
181	0x3d49853d	0.04919933
182	0x4046cc1b	3.1062076
183	0x3cfae038	0.030624494
184	0x41180210	9.500504
185	0x3fdd9121	1.7309915
186	0x4117076c	9.439312
187	0x40282ef0	2.6278648
188	0x402a9f8f	2.6659887
189	0x41189d84	9.538456
190	0x40f4eedb	7.654157
191	0x40e80fe9	7.251942
192	0x3fd19535	1.6373659
193	0x3fdcae09	1.7240611
194	0x40dac63d	6.836699
195	0x3e86fc17	0.26364204
196	0xbd731304	-0.059344307
197	0x3f04a3d0	0.5181246
198	0xbd56fbf5	-0.05248638
199	0xbda31322	-0.07962634
200	0xbd60cd98	-0.05488357
201	0xc15c185a	-13.755945
202	0x3cf77868	0.030208781
203	0x3f20a7fe	0.62756336
204	0x40e5438d	7.164496
205	0x3f0be75c	0.546499
206	0x3cda0ff9	0.026618944
207	0xbd974a11	-0.07387174
208	0x3f252408	0.64508104
209	0x4118bceb	9.546123
210	0x400179e4	2.0230646
211	0xbd2ebcab	-0.042660397
212	0x3fe0de15	1.7567774
213	0xbcb8d477	-0.022562249
214	0x411455d2	9.270952
215	0xbcaeca81	-0.021336796
216	0x3eda9f9d	0.426999
217	0x40188699	2.3832152
218	0xbdab7823	-0.08372524
219	0x4012834c	2.2892637
220	0x40db17a3	6.8466353
221	0x4022a3ab	2.5412395
222	0x3f79f8a3	0.97645015
223	0xbdaf171c	-0.0854933
224	0xbd3285f6	-0.043584786
225	0x3db680e7	0.08911305
226	0x3c878a41	0.016545417
227	0x4061a288	3.5255451
228	0xbcecbdb2	-0.028899048
229	0x405b92a1	3.4308245
230	0x4104fc39	8.311578
231	0x3f14b6ff	0.5809173
232	0x41176e87	9.464484
233	0x3ca1004d	0.019653464
234	0x40e4d046	7.150424
235	0x4117f809	9.498055
236	0xbd39ed8f	-0.04539257
237	0x3cb9534f	0.022622732
238	0x3cd5b2fb	0.026086321
239	0x401c49a3	2.4419944
240	0x3fe18dc5	1.762139
241	0xbd8458a4	-0.06462219
242	0x3aaa50b7	0.0012994026
243	0x40e12f54	7.0370274
244	0x401cc868	2.4497318
245	0x400072dd	2.0070107
246	0x41180ece	9.503614
247	0xbc064484	-0.008195046
248	0x40e184bc	7.047453
249	0xbd59b69d	-0.05315267
250	0x40509102	3.2588506
251	0x3aca47c7	0.0015432768
252	0xbd33fb23	-0.043940675
253	0x3d247efe	0.04016017
254	0x40201af5	2.5016453
255	0x3ecedbb4	0.40401995

model.4.weight f4 [1, 256]
0	0x3cfa0645	0.030520568
1	0xc10f2f32	-8.949022
2	0xc113c7be	-9.236265
3	0x41c13abb	24.153677
4	0xc10f5f8c	-8.960827
5	0xc11cb03b	-9.793025
6	0xc10b0b6d	-8.6902895
7	0x3c579f21	0.013160498
8	0xc13e2a92	-11.885393
9	0x41ea766e	29.307827
10	0xbaad19c8	-0.0013206536
11	0x41fb5c8b	31.420187
12	0x41fdcfd6	31.726482
13	0xc10b79fe	-8.717283
14	0xc10fb9bd	-8.982846
15	0xc10f16cc	-8.943066
16	0xc1120a5b	-9.127528
17	0xc143290d	-12.197522
18	0x3caa2494	0.020769395
19	0xc104d02f	-8.300826
20	0x41b6311d	22.773981
21	0xbc14d9dc	-0.009085145
22	0x3cd4c587	0.025973095
23	0xc107786b	-8.466899
24	0xc123fe4b	-10.249583
25	0xc10ebcf1	-8.921128
26	0x3ceb246e	0.028703894
27	0xc1269e83	-10.413699
28	0xc1493a0e	-12.5766735
29	0xc1498b15	-12.596456
30	0xbc1356e1	-0.0089928815
31	0x4093f484	4.623598
32	0x3c3cf66d	0.011533362
33	0xc1494cd4	-12.581257
34	0xc138d59b	-11.55215
35	0xc125d333	-10.364062
36	0x3c32e20f	0.010918154
37	0xc11cb144	-9.793278
38	0x3d55f2df	0.052233573
39	0xc1478a3a	-12.471247
40	0x3c4ef1f8	0.012630932
41	0x408ee1b8	4.4650536
42	0x41bc0f79	23.507555
43	0x420bb326	34.92495
44	0xc14ac4d9	-12.6730585
45	0x41c215df	24.26068
46	0x3d49f749	0.049308095
47	0x3cf944f0	0.03042838
48	0x3d2fb1ff	0.04289436
49	0xbb84cdb4	-0.004052842
50	0x41fa91be	31.321163
51	0xc10963c4	-8.586857
52	0x41cdde7c	25.733635
53	0x3bfbd838	0.0076856874
54	0xc13612a0	-11.379547
55	0x41fc4086	31.531506
56	0xbc88147f	-0.016611336
57	0x3d083586	0.03325417
58	0xc14292c1	-12.160829
59	0xc10f8f88	-8.972542
60	0xc14a1891	-12.630998
61	0xc11ad2ff	-9.676513
62	0x3b951133	0.0045491694
63	0xbcc7ba36	-0.024380784
64	0xc143a16b	-12.226909
65	0x41fc38b5	31.527689
66	0xbbbc06c2	-0.0057381103
67	0xbba621d4	-0.0050699506
68	0xbc404469	-0.01173506
69	0x3b964220	0.0045855194
70	0x41c1d6fe	24.229977
71	0x3cd79645	0.026316771
72	0x398ab4e9	0.000264562
73	0xc1068557	-8.407554
74	0xc10a1e8f	-8.632461
75	0x41fdbd14	31.717323
76	0xc10c8df2	-8.784655
77	0x3ccb6f1b	0.024833253
78	0x3cc5687a	0.02409767
79	0x3baeb7c1	0.0053319638
80	0x41f89147	31.070936
81	0x3b363ebe	0.0027808393
82	0x41b4d58e	22.604275
83	0x3cbb5949	0.022869723
84	0xc14aee53	-12.683185
85	0xc111761e	-9.091337
86	0xbcff1a57	-0.03114049
87	0xc11c8f37	-9.784965
88	0xbc4621c0	-0.012093008
89	0x4204b296	33.1744
90	0x41ba847e	23.314693
91	0x41fdf6e1	31.745546
92	0xc14ad738	-12.677544
93	0x41ede539	29.736925
94	0x41c2f788	24.370865
95	0xc10ef936	-8.9358425
96	0xc10bd792	-8.740129
97	0x41ba67eb	23.300741
98	0x41b3d1a2	22.47736
99	0xc108e041	-8.5547495
100	0xbc910297	-0.01770143
101	0x378c1211	1.6697713e-05
102	0xc11642f8	-9.39135
103	0xc103ddb7	-8.24163
104	0xc120da90	-10.05336
105	0xc1187dc9	-9.530709
106	0xc14ae455	-12.680745
107	0x3d40d3e8	0.04707709
108	0xbc3be688	-0.011468537
109	0x41cd4c82	25.662357
110	0x41c205f5	24.252909
111	0xc1072d0a	-8.448496
112	0xc139454c	-11.579418
113	0x41ba6a5d	23.301935
114	0xc11e272f	-9.884566
115	0xc11c1814	-9.755878
116	0xc122c0b9	-10.172051
117	0xc1205117	-10.019797
118	0xc104209a	-8.257959
119	0xc14a8f50	-12.659988
120	0x3cdd54c1	0.027017953
121	0xc109e17b	-8.617549
122	0x41c2062c	24.253014
123	0xc13d7ce2	-11.842989
124	0xc1061870	-8.380966
125	0xbc8eb8b9	-0.017422067
126	0x3d350a90	0.044199526
127	0xbc67d87e	-0.014150737
128	0x41ffcfe5	31.976511
129	0x41bb8643	23.440557
130	0xc1077980	-8.467163
131	0x41c320e9	24.39107
132	0x41f8f93b	31.121695
133	0x419e5371	19.790743
134	0xc13a4b3a	-11.643366
135	0x3c7f8c55	0.015597423
136	0xc14aa85c	-12.666103
137	0xc1190075	-9.562612
138	0x41f5d7ef	30.730436
139	0xc1207d82	-10.030642
140	0x3b2ccf35	0.0026368622
141	0x419e166d	19.76095
142	0xc104404c	-8.2656975
143	0x41a1f61b	20.245169
144	0x41843f28	16.530838
145	0xc13b59ca	-11.709421
146	0xc10a7cfb	-8.655513
147	0xc12258c4	-10.146671
148	0xc14393fa	-12.223627
149	0xbceb1754	-0.028697647
150	0xc1443845	-12.263738
151	0x3cced207	0.025246633
152	0x3d29bb2a	0.04143826
153	0xc1108d81	-9.034547
154	0x3bab7856	0.005232851
155	0x41f68e33	30.819433
156	0x41c24923	24.285711
157	0xc14bf73e	-12.747862
158	0xbd187fac	-0.037231132
159	0xc104f595	-8.309957
160	0xbb66d456	-0.0035221777
161	0xc148fb41	-12.561341
162	0x4208bce4	34.184464
163	0xc1189edf	-9.538787
164	0x3b70de2e	0.0036753523
165	0x3ca0c784	0.019626386
166	0xbd1c4880	-0.03815508
167	0xbb8f9008	-0.0043811835
168	0x41f13476	30.150616
169	0x3c263639	0.010144764
170	0xbcb5792a	-0.022152502
171	0xc1090f5d	-8.566251
172	0xc105402d	-8.328168
173	0xc1192483	-9.571414
174	0x3caee70a	0.021350402
175	0x3ca20d92	0.019781861
176	0xc148efef	-12.558578
177	0xc109cd37	-8.612601
178	0x41a85248	21.040176
179	0xbcfb425f	-0.030671297
180	0x3bba9524	0.0056940485
181	0x3cdf3ba5	0.02725012
182	0xc10fa737	-8.978324
183	0x3cadf77a	0.02123617
184	0x41fb0779	31.378649
185	0x40d3c0d2	6.6172876
186	0x41fc74da	31.557056
187	0xc115bbb8	-9.35833
188	0xc1082ab2	-8.510424
189	0x41fd1ae7	31.638136
190	0x41be238a	23.767353
191	0x41c30bb9	24.380724
192	0xc1226389	-10.149301
193	0xc1222599	-10.134179
194	0x41bb9345	23.446909
195	0xc13ff809	-11.998055
196	0x3d0db187	0.03459313
197	0xc14461be	-12.273863
198	0x3c62cf61	0.013843388
199	0xbcb02552	-0.02150217
200	0x3bb09951	0.0053893705
201	0xc205e9ad	-33.4782
202	0x3cdc9840	0.026928067
203	0xc14797bf	-12.474547
204	0x41bfecc8	23.990616
205	0xc13f82f4	-11.969471
206	0xbca8a59a	-0.020586777
207	0x3bfe7080	0.007764876
208	0xc14ad244	-12.676334
209	0x41fac10f	31.344267
210	0xc11ad831	-9.677781
211	0xbbde57fa	-0.00678539
212	0xc1233476	-10.200308
213	0x3d259fa7	0.04043546
214	0x41f478b7	30.558943
215	0x3b4e4211	0.0031472484
216	0xc1404361	-12.01645
217	0xc11637dc	-9.388638
218	0x3cdc9a84	0.026929148
219	0xc11d4e72	-9.831652
220	0x41ba27d0	23.26944
221	0xc105fa1d	-8.373563
222	0xc14953d2	-12.582964
223	0x3ccc9e5d	0.024977857
224	0x3cb3c447	0.021944178
225	0xc13b18d4	-11.693562
226	0xbc23bb55	-0.009993394
227	0xc10b6c88	-8.713997
228	0x3c42f98e	0.011900319
229	0xc10b0516	-8.688742
230	0x41d9c9cc	27.223534
231	0xc1420820	-12.126984
232	0x41fc9f84	31.577888
233	0x3b94602a	0.004528065
234	0x41c227d4	24.269447
235	0x41fbb4ad	31.46322
236	0x3ccd9211	0.025094064
237	0xc13685c3	-11.407657
238	0xbb97ed23	-0.004636423
239	0xc1054e8c	-8.3316765
240	0xc11959df	-9.584441
241	0xbb57b378	-0.0032913368
242	0x3cb7e241	0.022446753
243	0x41bcd5b2	23.604343
244	0xc10d4987	-8.830451
245	0xc11c1e78	-9.757439
246	0x41fda8ca	31.707417
247	0xbb69fa4f	-0.0035702174
248	0x41bd7fc1	23.68738
249	0x3cf5cdbb	0.030005326
250	0xc10bdeb4	-8.741871
251	0x3c4fd2c4	0.012684528
252	0xbd0b901c	-0.03407298
253	0xbbf089a4	-0.007340627
254	0xc1185e6e	-9.523054
255	0xc12615bb	-10.380305
