hw2/preTrained/ddpg_critic_LunarLanderContinuous-v2_04242023_195146_.pth (torch, 277399 bytes, 5 tensors)

model.0.weight f4 [256, 10]
-0.69292724 0.6941784 2.6772063 0.16376297 -1.0436848 -1.3731006 1.5229738 1.299497
-0.0524315 -0.32987452 2.3983839 1.7548825 2.3899503 2.0439613 -1.6735653 0.35538888
-0.9211579 0.32453912 1.1031147 -0.58570176 0.4680194 -2.85572 -0.3665821 -0.08285337
1.5352507 0.32482666 -2.9147105 2.1737044 -0.86274105 -0.1368912 -0.8000071 2.1485589
-0.7280668 -0.2529553 -1.1566113 -0.24344097 -0.42515966 -0.47491834 -1.2891976 -0.011425531
2.6597552 4.305026 3.2695534 -0.18059902 -0.2920961 -1.6175841 -2.5050774 1.7094449
0.48298883 0.10300549 1.0866685 0.811886 -0.32688498 -1.3014084 -1.1495521 0.41119877
0.91487795 0.06950765 0.6966181 0.5140303 -0.3512121 1.3169497 1.3049434 -0.8585244
-2.6078799 -0.29960057 -0.38107693 0.89238334 -1.608944 -0.17644106 0.65661573 -1.1968303
0.038300965 0.07862548 1.2884005 0.6136926 -1.8052359 1.8679931 -0.094355 -0.116625614
0.17442207 -2.8083029 -0.24697718 -0.119486555 1.6723372 0.16255349 -3.132953 2.2674253
-0.5869898 -0.24944395 -0.035204712 1.2903677 -0.18062206 -0.23382609 1.7489462 0.63351464
-2.0960114 2.4177532 -0.75388694 -0.41653025 -1.7145889 -0.629338 -0.7037264 -1.5912683
0.15476027 1.7260598 -0.8448722 -1.3286276 0.332026 0.17011552 0.9730776 1.8748121
-0.88228667 -0.25945356 -0.80356926 0.92142326 -1.4185227 -1.4108729 1.0955671 0.27414963
-0.7560579 0.9933514 -0.20853579 -0.59960604 0.37470123 1.2461019 -1.5066106 -1.1467011
0.31656983 0.61724406 3.0241616 2.9402404 3.1933577 1.0179776 -0.92852944 -0.8272341
-1.0513914 2.2679286 1.1379609 -0.5730879 1.6246843 -0.3300475 0.54117537 0.6063042
-0.91540873 -1.1261202 0.8303476 -1.8359367 -1.2130668 -0.16959265 0.76061684 -7.884243
0.25120586 -1.3376474 1.5504282 0.06544111 0.98117834 -3.5663373 -0.060184978 0.17598009
-0.593915 2.0978436 -0.6062153 -1.0665877 1.377648 0.5863267 -2.7933242 2.390408
-1.0818743 -0.7126633 1.5775541 1.5558947 -0.2826646 -1.1190492 -1.1835215 -0.27500433
0.25158256 -0.853454 0.860872 0.34046534 -0.87889135 -1.2475927 -1.1312197 -1.0082569
1.2612008 1.1029137 1.0452112 1.3483273 0.17850165 0.046727523 -0.16859175 -1.5913147
0.88682157 1.2154582 -1.0455728 -1.4513166 1.3121318 0.062226076 -0.17384428 0.00093662564
-0.20276266 0.92125815 0.54694915 -0.80564225 1.1833166 1.637219 2.088082 -1.1127148
0.67198926 0.49486965 -1.0146617 0.3681791 -0.78139734 -0.96029973 0.51144546 -1.2456712
0.9792699 -1.2770644 0.36901146 1.1304396 -1.8760478 -0.37906578 -0.72271645 -2.3057878
-0.60262734 0.49157566 -1.0937402 -1.2618515 0.20969869 -0.07518819 0.30393678 -2.8934066
-0.544462 0.036344524 1.5137091 0.43912587 -2.129549 1.6930556 -0.43815216 -0.22668253
-0.60463834 0.7493277 0.2753943 6.8742356 1.8525416 0.9186365 -1.7197686 -0.341091
-0.001028217 -0.07344969 -1.8674062 -0.88854843 -1.5001215 0.24980307 1.3892161 2.5776668
00000000: ae63 31bf adb5 313f 5957 2b40 7bb1 273e
00000010: 7797 85bf c3c1 afbf cef0 c23f eb55 a63f
00000020: 6ac2 56bd 50e5 a8be 1f7f 1940 fd9f e03f
00000030: f2f4 1840 43d0 0240 6337 d6bf 88f5 b53e
00000040: 01d1 6bbf fe29 a63e dd32 8d3f 8df0 15bf
00000050: 3da0 ef3e 1ec4 36c0 a6b0 bbbe 07af a9bd
00000060: 1883 c43f ae4f a63e 9e8a 3ac0 f91d 0b40
00000070: 99dc 5cbf 352d 0cbe 44cd 4cbf fd81 0940
00000080: 9662 3abf 5b83 81be d70b 94bf 9748 79be
00000090: 87ae d9be 7f28 f3be 6d04 a5bf 2632 3bbc
000000a0: 6e39 2a40 c6c2 8940 5d40 5140 f3ee 38be
000000b0: 9f8d 95be ff0c cfbf 3053 20c0 17cf da3f
000000c0: 504a f73e 8bf4 d23d f417 8b3f c3d7 4f3f
000000d0: 785d a7be 8d94 a6bf 8624 93bf a588 d23e
000000e0: 7135 6a3f 075a 8e3d 9055 323f 7d97 033f
000000f0: 13d2 b3be cf91 a83f 6308 a73f 41c8 5bbf
00000100: 81e7 26c0 3f65 99be 841c c3be 3c73 643f
00000110: e1f1 cdbf f7ac 34be f817 283f bc31 99bf
00000120: 79e1 1c3d 6506 a13d 4fea a43f f51a 1d3f
00000130: f811 e7bf 661a ef3f 323d c1bd 69d9 eebd
00000140: b39b 323e 3cbb 33c0 96e7 7cbe 5eb5 f4bd
00000150: 250f d63f 6c74 263e 4d82 48c0 7f1d 1140
00000160: f744 16bf 3c6e 7fbe d132 10bd c52a a53f
00000170: fdf4 38be 1b70 6fbe 78dd df3f 042e 223f
00000180: 0d25 06c0 78bc 1a40 bcfe 40bf 7443 d5be
00000190: a677 dbbf 4c1c 21bf 6a27 34bf aeae cbbf
000001a0: 7a79 1e3e 87ef dc3f 8b49 58bf 7810 aabf
000001b0: 50ff a93e c332 2e3e 9d1b 793f d8f9 ef3f
000001c0: 8add 61bf 19d7 84be b7b6 4dbf 65e2 6b3f
000001d0: 2792 b5bf 7c97 b4bf 8b3b 8c3f 575d 8c3e
000001e0: 038d 41bf 474c 7e3f 688a 55be c87f 19bf
000001f0: d7d8 bf3e 4480 9f3f 9ed8 c0bf 1ac7 92bf
00000200: 7115 a23e b503 1e3f dd8b 4140 e62c 3c40
00000210: f95f 4c40 174d 823f 1bb4 6dbf 9dc5 53bf
00000220: fe93 86bf be25 1140 b4a8 913f e3b5 12bf
00000230: a8f5 cf3f fcfb a8be 788a 0a3f c136 1b3f
00000240: 3a58 6abf b524 90bf a991 543f f9ff eabf
00000250: c645 9bbf b2a9 2dbe c9b7 423f b84b fcc0
00000260: 0e9e 803e 0838 abbf 6e74 c63f fd05 863d
00000270: 812e 7b3f df3e 64c0 8684 76bd 2034 343e
00000280: d00a 18bf 1243 0640 ed30 1bbf f285 88bf
00000290: c556 b03f 8219 163f d3c5 32c0 72fc 1840
000002a0: db7a 8abf 1a71 36bf 4bed c93f 8f27 c73f
000002b0: 6ab9 90be 013d 8fbf a27d 97bf 5ecd 8cbe
000002c0: 6ecf 803e f67b 5abf 1b62 5c3f 7951 ae3e
000002d0: 06ff 60bf 1eb1 9fbf cfcb 90bf 900e 81bf
000002e0: 076f a13f 472c 8d3f 7bc9 853f fd95 ac3f
000002f0: 23c9 363e 5c65 3f3d 51a3 2cbe 33b0 cbbf
00000300: bd06 633f 2294 9b3f 54d5 85bf bec4 b9bf
00000310: eff3 a73f c5e0 7e3d 3c04 32be e287 753a
00000320: 04a1 4fbe 93d7 6b3f dc04 0c3f 923e 4ebf
00000330: eb76 973f 6490 d13f 23a3 0540 706d 8ebf
00000340: 7d07 2c3f 8e5f fd3e 6fe0 81bf f981 bc3e
00000350: a809 48bf 34d6 75bf 17ee 023f 2772 9fbf
00000360: 6fb1 7a3f d976 a3bf 12ef bc3e 3fb2 903f
00000370: 5622 f0bf e914 c2be f203 39bf 0792 13c0
00000380: c945 1abf ceaf fb3e aeff 8bbf 5a84 a1bf
00000390: 41bb 563e 44fc 99bd 9a9d 9b3e 932d 39c0
000003a0: dd61 0bbf ffdd 143d 38c1 c13f 1bd5 e03e
000003b0: 884a 08c0 0cb6 d83f 7b55 e0be 771f 68be
000003c0: 94c9 1abf f1d3 3f3f 7b00 8d3e bdf9 db40
000003d0: 1520 ed3f c32b 6b3f 6121 dcbf 7ba3 aebe
000003e0: 3dc5 86ba cb6c 96bd 2b07 efbf e977 63bf
000003f0: fb03 c0bf 60cc 7f3e d5d1 b13f 7ef8 2440

model.0.bias f4 [256]
1.4104826 -2.9973137 0.29877076 1.9334617 1.8220257 0.2000777 3.2245238 0.77290887
-0.049357124 0.67994094 -0.18665113 0.0111183375 2.0850787 1.7121726 -1.625568 1.0694821
1.3489339 -0.04656446 0.15497938 4.3180375 2.2105606 2.257602 0.65385455 0.0194732
-2.2503808 -1.0167934 2.9950597 0.8585442 1.7649548 0.6899906 4.6770597 -0.2164719
0.5760768 5.0716457 5.159396 0.4965711 2.2780967 0.2554677 0.9265384 1.3266286
-0.63465136 0.23106894 0.030699058 3.1628513 0.5077511 2.5766835 -0.2948369 2.3337412
0.73337245 1.0178349 2.3208957 1.8858131 0.5584534 4.49213 -0.14391907 0.92533463
-1.452265 2.5431373 -0.56784993 -0.11072982 4.608914 1.4572146 -1.6879604 0.4296007
2.1863048 3.082361 0.109443836 -0.8724772 5.742812 -0.19878171 -0.5008264 0.47098777
0.7432811 1.8122171 1.3008415 -0.8007369 -1.5614166 -0.041505095 3.2426817 0.076347455
2.7503088 0.9562601 2.0185623 0.7743898 1.2319787 0.099200115 2.8906326 0.48455998
0.8167306 1.4488343 1.8271165 -0.10585068 0.84005284 1.8008718 1.0969307 1.7982903
-0.6555991 -4.029402 0.7383157 0.33976877 0.75693023 0.5962467 -0.30898684 0.7265526
2.0583277 -0.053857423 1.3077073 5.552096 -0.056080256 -0.32086945 2.7258828 1.3653734
-0.93799615 -0.17189224 0.14225496 0.015948845 -1.8597772 0.22072478 -3.6248446 -3.5146692
0.7891661 1.615877 4.0586114 5.890812 5.3796372 -0.33389166 0.81387335 2.320991
2.4438324 -0.3967321 1.0136472 4.5720205 -0.35601985 -1.1616685 -6.460427 -1.6884989
0.68881303 1.5867531 1.6251799 1.2491705 1.327248 1.7750778 0.70902604 2.5790188
1.2916099 1.2765871 1.2509168 -3.1553848 5.1494102 0.35918996 -1.9383655 1.5677944
2.340397 2.2437487 1.3620089 1.2323259 2.7619238 0.40018067 2.8711748 0.8645964
4.7507973 2.3731236 0.40670812 -1.2492647 0.7094865 0.24976568 2.3857148 0.9596196
-0.6770171 -0.34302947 -0.38491943 1.781648 -0.056695208 -0.37357375 0.3030662 1.1404907
0.39211625 -0.3093178 2.528052 -0.18530002 0.05689384 1.2970823 2.5776424 1.6751208
-0.49229157 0.7679488 3.5980623 -6.15483 -3.4933221 1.673829 2.0015273 0.03512033
0.95010626 -3.3329918 1.6794184 4.386036 0.31451556 0.065959215 -0.9857473 1.5784967
0.76124316 1.0431612 1.820753 1.6970364 2.4651697 -0.12771888 6.9806113 -0.12114971
2.3914442 -1.5525582 2.6251383 1.5072563 0.4249691 -0.17736843 0.8281307 4.8346677
-0.07927137 -1.4029189 0.24825841 1.5594752 0.94616646 -3.5356724 4.895224 1.6559399
2.4634385 1.2079668 2.3865325 1.314893 -0.79529566 0.6501657 -4.495188 1.9216765
1.9096413 -1.4614532 0.48327166 5.9689236 2.3205807 2.104232 1.5794318 3.8448334
0.8222369 0.39373612 4.3207927 -1.8703519 -0.282143 0.42540827 -4.218997 0.8473542
1.5420535 -0.83816177 -0.8926723 2.274269 -1.8729255 0.5071422 1.1188023 1.1206589
00000000: b28a b43f fdd3 3fc0 7bf8 983e ac7b f73f
00000010: 2338 e93f 2be1 4c3e 995e 4e40 5bdd 453f
00000020: b22a 4abd 9c10 2e3f 7921 3fbe b029 363c
00000030: ee71 0540 7928 db3f 9d12 d0bf cae4 883f
00000040: dea9 ac3f 60ba 3ebd eab2 1e3e 5d2d 8a40
00000050: d379 0d40 8d7c 1040 0363 273f 4386 9f3c
00000060: 3d06 10c0 4926 82bf 0faf 3f40 8dc9 5b3f
00000070: 0aea e13f 39a3 303f 79aa 9540 cfaa 5dbe
00000080: c579 133f ec4a a240 c619 a540 913e fe3e
00000090: 56cc 1140 aacc 823e 9f31 6d3f f7ce a93f
000000a0: 8378 22bf 569d 6c3e 977c fb3c 286c 4a40
000000b0: fafb 013f 62e8 2440 ddf4 96be 045c 1540
000000c0: 4cbe 3b3f 6a48 823f 8e89 1440 5362 f13f
000000d0: cdf6 0e3f 87bf 8f40 855f 13be bbe2 6c3f
000000e0: d2e3 b9bf c3c2 2240 9d5e 11bf 51c6 e2bd
000000f0: 397c 9340 0286 ba3f 160f d8bf 9ff4 db3e
00000100: 6bec 0b40 6745 4540 1724 e03d aa5a 5fbf
00000110: 1ec5 b740 6f8d 4bbe 2936 00bf 4f25 f13e
00000120: ac47 3e3f bbf6 e73f f981 a63f 18fd 4cbf
00000130: 80dc c7bf 3f01 2abd 1988 4f40 0e5c 9c3d
00000140: 0f05 3040 76cd 743f 2030 0140 693e 463f
00000150: 7ab1 9d3f 6e29 cb3d 2000 3940 3f18 f83e
00000160: 4215 513f 6773 b93f f4de e93f 3ec8 d8bd
00000170: b40d 573f f882 e63f 3a68 8c3f 602e e63f
00000180: 58d5 27bf dcf0 80c0 4202 3d3f 2cf6 ad3e
00000190: 2ec6 413f a0a3 183f 8633 9ebe 5aff 393f
000001a0: a4bb 0340 9a99 5cbd f462 a73f c5aa b140
000001b0: 69b4 65bd 0049 a4be dd74 2e40 8ec4 ae3f
000001c0: 8420 70bf 8504 30be 49ab 113e 27a7 823c
000001d0: 2e0d eebf ad05 623e 74fd 67c0 57f0 60c0
000001e0: ca06 4a3f 0fd5 ce3f 25e0 8140 8881 bc40
000001f0: fd25 ac40 d9f3 aabe 015a 503f 1e8b 1440
00000200: c067 1c40 7820 cbbe 31bf 813f fe4d 9240
00000210: 3c48 b6be 8eb1 94bf d1bb cec0 bb20 d8bf
00000220: 0d56 303f ba1a cb3f e505 d03f d2e4 9f3f
00000230: 43e3 a93f c035 e33f bb82 353f a50e 2540
00000240: 7953 a53f 3567 a33f 0b1e a03f d3f1 49c0
00000250: f8c7 a440 bfe7 b73e 5c1c f8bf 7dad c83f
00000260: 10c9 1540 9499 0f40 4f56 ae3f dbbc 9d3f
00000270: 5cc3 3040 7be4 cc3e 54c1 3740 3156 5d3f
00000280: 8806 9840 42e1 1740 0c3c d03e e8e7 9fbf
00000290: e8a0 353f 93c2 7f3e 8daf 1840 a1a9 753f
000002a0: fe50 2dbf 8fa1 afbe 2914 c5be 0b0d e43f
000002b0: 3c39 68bd 0f45 bfbe 7e2b 9b3e 99fb 913f
000002c0: 76c3 c83e e75e 9ebe 9bcb 2140 4abf 3dbe
000002d0: 8409 693d cb06 a63f 18f8 2440 5c6a d63f
000002e0: a40d fcbe 4b98 443f a746 6640 5ef4 c4c0
000002f0: 9792 5fc0 0740 d63f 0619 0040 56da 0f3d
00000300: 2a3a 733f bd4f 55c0 2ff7 d63f 685a 8c40
00000310: 2f08 a13e a015 873d ef59 7cbf 2e0c ca3f
00000320: d5e0 423f 4e86 853f 6f0e e93f 7d38 d93f
00000330: 57c5 1d40 bdc8 02be 2b61 df40 571d f8bd
00000340: 6c0d 1940 3aba c6bf 4402 2840 c6ed c03f
00000350: 8d95 d93e 12a0 35be 6000 543f 99b5 9a40
00000360: 0759 a2bd d992 b3bf 7437 7e3e e29c c73f
00000370: f737 723f 7548 62c0 ada5 9c40 d7f5 d33f
00000380: faa8 1d40 a89e 9a3f f3bc 1840 6a4e a83f
00000390: 7f98 4bbf 4271 263f 95d8 8fc0 7ff9 f53f
000003a0: 206f f43f e610 bbbf 626f f73e 6c01 bf40
000003b0: 6584 1440 bdab 0640 d22a ca3f c011 7640
000003c0: 1e7e 523f c897 c93e ef43 8a40 b167 efbf
000003d0: 0c75 90be 1dcf d93e 0602 87c0 34ec 583f
000003e0: 0262 c53f c591 56bf 2c86 64bf a08d 1140
000003f0: 06bc efbf 12d4 013f ea34 8f3f c071 8f3f

model.2.weight f4 [256, 256]
0.032188825 0.031241527 -0.031337522 0.038688246 -0.052508805 -0.0045132055 0.041828714 0.048246425
-0.01406154 0.0509457 -0.0032394677 0.008377406 0.00978825 0.04763956 -0.06504254 0.011541253
0.033527143 0.03549801 0.04992654 -0.019294545 0.023851128 -0.049561936 0.015985848 -0.030163534
0.010891768 -0.02974017 -0.026831822 -0.032735787 -0.015241287 0.038521107 0.007631783 -0.06277385
-0.01079427 -0.06644979 -0.035665102 -0.014535881 0.028282939 0.001269851 0.034931444 0.00058242487
0.01455085 0.011490986 0.028527388 -0.0006972328 -0.04521092 0.010689659 0.038581055 0.05173153
-0.03140343 -0.061142746 -0.040563088 -0.019560842 -0.043837965 -0.06539811 -0.035837755 -0.048614766
0.05560259 0.055536028 -0.013511568 0.039553214 -0.031983797 0.053686526 -0.044362463 -0.037510395
-0.0035691857 -0.041919854 0.030793473 -0.037180252 0.028513119 -0.0023876023 0.021633836 0.015637642
0.0052558146 -0.025174249 0.009301489 0.06418366 -0.009612896 -0.049079277 -0.06080906 -0.036946632
-0.04826358 -0.043465085 -0.06503073 0.014571643 -0.03317515 0.017755054 0.037087247 0.02526209
0.06598118 -0.055425167 -0.0017307387 -0.06584692 0.004708804 0.06964333 -0.0055297506 0.016889833
0.0564716 0.0053513646 -0.019107826 -0.055750206 -0.032713797 -0.052472763 -0.026741773 0.02623827
-0.07045966 -0.006910925 0.032759342 -0.037625007 -0.001025901 0.037588928 0.042150185 -0.045954444
-0.00339867 -0.03687635 0.053978987 0.027161896 0.023192987 0.020246437 0.049455307 -0.04472287
-0.052981038 0.011038615 0.023772579 -0.019363742 0.040379994 -0.057474855 0.005859082 -0.035524435
0.0017267594 -0.034576554 -0.03456456 -0.021345397 -0.04699397 -0.02743269 -0.041520733 -0.016831458
0.04520479 -0.051881444 0.020223321 -0.0022773407 0.006069831 -0.07480628 -0.0116574345 -0.03181
-0.007047175 -0.058889143 0.039657287 -0.052765988 0.04228055 0.034459356 0.03482012 0.0030924962
-0.070508294 -0.036557082 -0.036770247 -0.047755457 0.02851133 0.027862849 -0.033676658 -0.060034625
-0.024949975 -0.07238791 0.017640168 -0.03912683 0.016531533 -0.007425054 0.04769508 -0.05081602
-0.021656644 0.032482553 0.05770496 -0.0022653532 -0.031458892 -0.05316902 -0.055929966 0.0070755496
0.0035061196 0.038313266 -0.060657673 -0.021263188 -0.03801188 -0.03496673 0.047125913 -0.036066152
-0.05470293 -0.04096048 -0.014465866 -0.0051991954 0.047123052 -0.050333332 -0.040001396 0.009733297
0.0131653845 -0.008777136 -0.0022676343 -0.030458366 -0.002160848 0.0023598236 0.025351182 0.011558464
0.012024523 -0.0072961953 0.05386535 0.021520589 -0.02424661 -0.025328962 -0.009006833 0.003394708
0.04638191 -0.014958447 -0.04874986 -0.039683565 -0.02468613 -0.040501043 -0.00817379 0.03779047
-0.04712856 0.01713079 -0.048087753 -0.02751335 -0.01987455 -0.025529096 0.020090576 0.0020893991
0.047021106 0.03890561 -0.042354003 0.008014508 0.039649703 0.036687005 -0.056501694 0.032484926
-0.04131381 -0.036459494 -0.036692213 0.00011118429 -0.005986388 -0.054264594 -0.035666555 0.04891637
-0.043366387 0.017724901 -0.034286562 0.034023188 -0.031439953 -0.015312169 0.05375037 0.044479087
0.009558097 -0.040993135 -0.020479407 -0.024278723 -0.07099216 0.041629013 -0.015926551 -0.043607727
00000000: 6ed8 033d 3bee ff3c c65b 00bd 9177 1e3d
00000010: 7913 57bd 83e3 93bb 9654 2b3d 0b9e 453d
00000020: 6062 66bc 70ac 503d 404d 54bb 6341 093c
00000030: e55e 203c b321 433d 0635 85bd 8617 3d3c
00000040: c253 093d 5d66 113d c67f 4c3d 980f 9ebc
00000050: 7163 c33c 7501 4bbd c1f4 823c 8419 f7bc
00000060: 6373 323c a8a1 f3bc 69ce dbbc f615 06bd
00000070: 97b6 79bc 4fc8 1d3d 0914 fa3b 948f 80bd
00000080: 73da 30bc d416 88bd 9215 12bd e727 6ebc
00000090: 9fb1 e73c 2171 a63a 4614 0f3d dfad 183a
000000a0: b066 6e3c b044 3c3c 45b2 e93c 80c6 36ba
000000b0: 162f 39bd ae23 2f3c 2b07 1e3d 71e4 533d
000000c0: e2a0 00bd d170 7abd 7b25 26bd 0f3e a0bc
000000d0: 708f 33bd 72ef 85bd 9cca 12bd 4720 47bd
000000e0: 8bbf 633d bf79 633d a05f 5dbc 8d02 223d
000000f0: 7101 03bd 67e6 5b3d 6ab5 35bd 80a4 19bd
00000100: 00e9 69bb 27b4 2bbd 9842 fc3c 524a 18bd
00000110: 5894 e93c 5279 1cbb 7139 b13c 831a 803c
00000120: f838 ac3b 3a3a cebc 4665 183c b972 833d
00000130: 687f 1dbc 5a07 49bd ec12 79bd 5a55 17bd
00000140: 08b0 45bd 7208 32bd d52e 85bd e7bd 6e3c
00000150: abe2 07bd 0c73 913c cce8 173d 71f2 ce3c
00000160: 2421 873d 8005 63bd f4d9 e2ba c0da 86bd
00000170: 504c 9a3b 2aa1 8e3d e932 b5bb 8c5c 8a3c
00000180: c44e 673d 805a af3b 0488 9cbc 545a 64bd
00000190: e7fe 05bd aeed 56bd 9011 dbbc a4f1 d63c
000001a0: 274d 90bd 0a75 e2bb a92e 063d ae1c 1abd
000001b0: 8677 86ba d9f6 193d aca5 2c3d ba3a 3cbd
000001c0: 38bc 5ebb a80b 17bd 1219 5d3d a082 de3c
000001d0: 38ff bd3c dbdb a53c a691 4a3d 542f 37bd
000001e0: a502 59bd 4fdb 343c b6be c23c b6a0 9ebc
000001f0: 7e65 253d c16a 6bbd 8bfd bf3b 1282 11bd
00000200: 6e54 e23a 25a0 0dbd 9193 0dbd 8bdc aebc
00000210: c07c 40bd 85ba e0bc a511 2abd 20e2 89bc
00000220: a828 393d a381 54bd 61ab a53c 703f 15bb
00000230: 6fe5 c63b 0934 99bd d3fe 3ebc 344b 02bd
00000240: fdeb e6bb be35 71bd ae6f 223d 2621 58bd
00000250: 5f2e 2d3d 4125 0d3d 8b9f 0e3d 7aab 4a3b
00000260: a766 90bd e1bc 15bd 669c 16bd 3a9b 43bd
00000270: 9890 e93c a140 e43c 89f0 09bd dee6 75bd
00000280: e463 ccbc 1d40 94bd 1d82 903c 7443 20bd
00000290: 236d 873c de4d f3bb eb5b 433d 7624 50bd
000002a0: 4669 b1bc 6d0c 053d 095c 6c3d 5276 14bb
000002b0: 0adb 00bd c2c7 59bd d216 65bd 03da e73b
000002c0: edc6 653b 5fee 1c3d 2e74 78bd 2330 aebc
000002d0: 58b2 1bbd 4639 0fbd 1a07 413d 1aba 13bd
000002e0: 2e10 60bd 2dc6 27bd 3d02 6dbc 035e aabb
000002f0: 1a04 413d 532a 4ebd 81d8 23bd 6878 1f3c
00000300: a0b3 573c facd 0fbc 979c 14bb d383 f9bc
00000310: 039d 0dbb 45a7 1a3b 48ad cf3c b65f 3d3c
00000320: 8102 453c ec14 efbb eaa1 5c3d f24b b03c
00000330: d4a0 c6bc af7e cfbc 6591 13bc c079 5e3b
00000340: f5fa 3d3d 4614 75bc efad 47bd 3c8b 22bd
00000350: 913a cabc 6ce4 25bd 5ceb 05bc 2eca 1a3d
00000360: e009 41bd df55 8c3c aaf7 44bd ad63 e1bc
00000370: f4cf a2bc 6522 d1bc fe94 a43c 4dee 083b
00000380: 3499 403d 7d5b 1f3d 647b 2dbd 484f 033c
00000390: ba67 223d 1d45 163d 526e 67bd ea0e 053d
000003a0: ab38 29bd 8d56 15bd 934a 16bd 9c2b e938
000003b0: 7629 c4bb 8d44 5ebd 1817 12bd 885c 483d
000003c0: f4a0 31bd d033 913c 1170 0cbd e65b 0b3d
000003d0: 2ec7 00bd e4df 7abc 5929 5c3d b42f 363d
000003e0: 9199 1c3c 6be8 27bd 6ec4 a7bc 2ce4 c6bc
000003f0: 5664 91bd 2f83 2a3d 6678 82bc 049e 32bd

model.2.bias f4 [256]
0.014325055 0.79987115 1.2021552 4.9279704 -3.9055717 0.0068772375 0.62096757 0.027588425
0.62284636 -0.0056055575 -0.07232822 3.9224038 -0.073585644 0.8619285 -0.042912975 0.9992654
0.6568569 0.15141621 0.00089707633 0.72500527 4.9553576 -2.007551 -0.00481594 -3.9028335
0.110258445 4.8958354 -0.036157437 0.80487067 0.08998737 1.0875896 1.1653917 -0.07668481
-4.0432076 0.27686438 1.1073672 -0.046215963 0.22886644 0.71526814 4.951264 0.66163653
-0.05216812 0.62458915 -0.06701817 4.9485497 -0.042425085 4.9639363 0.5308408 4.3281355
4.9721127 0.9135509 0.029875355 1.0655419 1.4714245 -0.029091159 -0.018871086 -0.08108561
4.97556 0.009304041 1.4866883 1.2259202 0.5983149 -0.073978476 0.004769177 5.0450134
0.96062267 -0.013759797 -0.10604425 4.978751 4.9198327 1.1501434 -0.09818317 -0.10483332
-0.0045044636 1.3896873 1.382846 4.874493 0.68510973 4.929251 -0.006237294 0.6816402
0.015909202 -0.05460695 4.9128885 -4.0277085 0.022767736 0.5528987 -0.02344212 -0.058365036
-3.7405577 4.0747495 3.8199298 -0.06467154 0.7415829 4.520364 -0.061151512 1.0031024
1.1403126 3.9791148 4.9511223 1.6792238 -0.16360901 -0.035937827 -0.028997269 1.1373733
0.026830003 0.82622725 0.8345474 4.4088516 -0.027118132 4.862449 3.9422014 0.7168326
0.6447544 3.905337 -0.038375307 0.91372997 1.0995187 0.8986433 -0.033153698 0.10085145
-0.0011067799 1.1449562 4.8759947 0.9122018 0.032105472 -0.089382574 -0.048876956 4.897711
4.55558 -4.4028907 1.1868997 3.690284 0.0126738995 -0.0915166 0.7227375 -0.031968888
0.114583254 -0.02517508 -0.085788205 -4.1299624 -0.003239256 0.0121906195 0.3387763 4.915901
4.9018054 1.0236264 -0.039951354 0.14955066 1.5621206 0.0025927413 0.7410051 4.624687
4.4155354 1.282581 -0.07088545 1.1748343 -0.0055485144 0.84052175 0.004332749 1.4028051
-0.03120891 0.7016968 0.010804879 0.72243905 -0.007726818 4.8608027 1.6686442 -0.09249947
-0.06107938 4.8966627 0.74598885 0.95950943 -3.7823412 0.66495067 -0.0041192924 -0.012316744
0.1377276 0.84541035 0.024569836 0.850811 -0.03828771 0.040393755 1.7988045 0.013298623
0.042509645 0.55826896 0.16834365 1.488313 0.619195 4.963009 4.940487 4.0124154
-0.25216213 -0.27104983 3.951221 1.1779183 3.3765078 0.07600264 -0.059586078 4.8690457
0.13597426 -0.03435229 0.019035945 0.6769423 -0.10523974 0.73668724 -3.9279191 -0.08919643
-0.07474776 3.9553778 0.8452977 -0.0382547 0.16762263 -0.055777073 -0.061074495 -0.05075995
0.9889674 0.8985827 -0.23043713 -0.060108602 4.957649 0.67445195 0.6753514 -0.112657934
4.7300515 0.13600314 1.589744 0.74293494 -0.047235686 1.5636537 0.04608173 1.1823899
-0.045848798 0.009945627 -0.08681883 3.8785968 -0.0028475774 1.1785794 -0.003961952 0.69162774
0.035313472 -0.067561746 5.3524184 4.982717 -0.044535223 1.605104 4.981131 -0.040354665
-0.007899064 3.8913496 0.59513503 4.957657 -0.0047863945 0.97505486 -4.1845255 0.9213561
00000000: a3b3 6a3c 5bc4 4c3f 39e0 993f efb1 9d40
00000010: e3f4 79c0 735a e13b bbf7 1e3f 1f01 e23c
00000020: dc72 1f3f d3ae b7bb d120 94bd aa08 7b40
00000030: 12b4 96bd 59a7 5c3f 84c5 2fbd dbcf 7f3f
00000040: c627 283f da0c 1b3e c629 6b3a f299 393f
00000050: 4a92 9e40 b77b 00c0 08cf 9dbb 06c8 79c0
00000060: 2ecf e13d afaa 9c40 d219 14bd 010c 4e3f
00000070: 4c4b b83d 2336 8b3f 8e2b 953f ed0c 9dbd
00000080: f561 81c0 2bc1 8d3e 35be 8d3f f34c 3dbd
00000090: f75b 6a3e d01b 373f c170 9e40 0361 293f
000000a0: 3dae 55bd 13e5 1f3f d340 89bd 855a 9e40
000000b0: edc5 2dbd 91d8 9e40 2fe5 073f 1680 8a40
000000c0: 8c1b 9f40 79de 693f 29bd f43c ad63 883f
000000d0: a357 bc3f 9550 eebc 8997 9abc 3610 a6bd
000000e0: ca37 9f40 fa6f 183c cd4b be3f f4ea 9c3f
000000f0: 2a2b 193f 0782 97bd c246 9c3b c070 a140
00000100: 5eeb 753f c670 61bc ba2d d9bd ee51 9f40
00000110: 456f 9d40 e637 933f 4214 c9bd dab2 d6bd
00000120: 2e9a 93bb 46e1 b13f 1901 b13f d9fb 9b40
00000130: 5a63 2f3f 6dbc 9d40 3762 ccbb f97f 2e3f
00000140: 0454 823c 8aab 5fbd 6236 9d40 fde2 80c0
00000150: 6783 ba3c c58a 0d3f b009 c0bc 2d10 6fbd
00000160: 4c65 6fc0 5964 8240 bb79 7440 8372 84bd
00000170: 60d8 3d3f d2a6 9040 027a 7abd a965 803f
00000180: c3f5 913f d1a9 7e40 986f 9e40 cef0 d63f
00000190: 1f89 27be 8b33 13bd ae8b edbc 7395 913f
000001a0: 98ca db3c a183 533f e6a4 553f 5015 8d40
000001b0: d826 debc 2f99 9b40 074d 7c40 5782 373f
000001c0: a00e 253f 0bf1 7940 6d2f 1dbd 35ea 693f
000001d0: 07bd 8c3f 7d0d 663f 2ccc 07bd 348b ce3d
000001e0: 5f11 91ba ed8d 923f 2608 9c40 0f86 693f
000001f0: 0781 033d 360e b7bd 3433 48bd 0cba 9c40
00000200: 50c7 9140 7be4 8cc0 54ec 973f 9d2d 6c40
00000210: 30a6 4f3c 0e6d bbbd 5305 393f cff1 02bd
00000220: a0aa ea3d f83b cebc bab1 afbd a728 84c0
00000230: b349 54bb 2abb 473c 1674 ad3e 104f 9d40
00000240: 97db 9c40 3106 833f 08a4 23bd cf23 193e
00000250: 91f3 c73f fbea 293b 83b2 3d3f 70fd 9340
00000260: 114c 8d40 9d2b a43f 642c 91bd f860 963f
00000270: 50d0 b5bb 6f2c 573f bcf9 8d3b 1e8f b33f
00000280: d4a9 ffbc 67a2 333f f206 313c c4f1 383f
00000290: 3f31 fdbb b28b 9b40 2296 d53f 5d70 bdbd
000002a0: 5f2e 7abd 76b1 9c40 20f9 3e3f 69a2 753f
000002b0: e111 72c0 353a 2a3f 21fb 86bb 2bcc 49bc
000002c0: 7708 0d3e d06c 583f ae46 c93c c0ce 593f
000002d0: 93d3 1cbd ec73 253d 3a3f e63f 78e2 593c
000002e0: 981e 2e3d b7ea 0e3f 4762 2c3e 0a81 be3f
000002f0: 9083 1e3f f8d0 9e40 7818 9e40 b565 8040
00000300: 651b 81be 0bc7 8abe cee0 7c40 07c6 963f
00000310: b418 5840 46a7 9b3d 8810 74bd 39cf 9b40
00000320: d63c 0b3e fdb4 0cbd 45f1 9b3c 174c 2d3f
00000330: ef87 d7bd 8997 3c3f 0763 7bc0 9eac b6bd
00000340: 5b15 99bd e924 7d40 6e65 583f f6b0 1cbd
00000350: 44a5 2b3e 8076 64bd 4029 7abd aae9 4fbd
00000360: f82c 7d3f 8409 663f b6f7 6bbe 7034 76bd
00000370: 10a5 9e40 e2a8 2c3f d4e3 2c3f 34b9 e6bd
00000380: 955c 9740 6844 0b3e bb7c cb3f fc30 3e3f
00000390: 357a 41bd ce25 c83f 32c0 3c3d 8d58 973f
000003a0: f3cb 3bbd fcf2 223c 12ce b1bd ee3a 7840
000003b0: 6c9e 3abb b1db 963f 43d3 81bb 840e 313f
000003c0: dca4 103d d05d 8abd 0347 ab40 6b72 9f40
000003d0: 916a 36bd 0c74 cd3f 6d65 9f40 ef4a 25bd
000003e0: 136b 01bc df0b 7940 c55a 183f 20a5 9e40
000003f0: 30d7 9cbb 329d 793f a2e7 85c0 fedd 6b3f

model.4.weight f4 [1, 256]
0.0015856323 -3.0638478 -2.6170437 5.7601533 -7.348405 0.012507776 -3.2896383 0.014037472
-3.2405603 -0.0011528028 -0.008229767 8.502528 0.032040156 -3.1180034 -0.0074625965 -3.2394323
-3.1238775 -3.373258 -0.025574133 -3.1501298 5.8451047 -7.304512 -0.0047819056 -7.189845
-3.7057312 5.7805667 0.00059859984 -2.9997597 -3.2699678 -3.1235788 -2.6692743 0.0032878125
-6.0927806 -3.1277153 -3.1916695 0.004006717 -3.3654726 -3.2241209 6.4816203 -3.2678301
-0.0042319726 -3.2653363 -0.017874746 5.83628 0.0059902244 5.8063865 7.5272326 4.717227
5.765164 -3.2057571 0.00030549636 -3.325633 -3.3642578 0.0068956204 -0.026689349 0.005494645
5.8384314 0.018660014 -3.4574277 -3.3856802 -3.2741277 -0.0020226694 -0.004222402 5.1546717
-3.0645473 0.031059863 0.030714275 5.791058 5.8946376 -3.0673518 -0.014246371 -0.008903795
0.0322034 -3.0379004 -3.0447419 5.783616 -3.2350852 5.82247 0.03391623 -3.157965
0.037878957 0.00947024 5.855438 -7.5655417 -0.032751128 -3.159605 -0.0021411679 0.013388133
-6.4319987 3.8913317 7.56945 -0.0070595504 -2.9897385 4.834992 0.035310492 -3.204684
-3.2898452 7.3382187 5.7914915 -3.4828274 8.94917 0.009684393 0.026532508 -3.2533574
-3.7447095 -3.2137501 -3.2945797 4.810729 -0.016980091 5.845565 7.1324368 -3.1858792
-3.267325 7.4289174 -0.038906917 -3.1930244 -3.0281713 -3.2427633 -0.043216612 -3.685143
0.09184074 -3.1561599 5.9307175 -3.4870892 -3.3931112 -0.01392547 0.045269784 5.769285
5.0898476 -7.5390024 -3.086666 7.499188 0.0063131354 -0.0019771461 -3.4548209 -0.002894132
-3.6294515 -0.016103422 0.024925042 -6.4209504 -0.008503496 0.040555608 -2.9947982 5.8003926
5.837288 -2.5842583 -0.0056117154 -3.2963889 -3.0437033 0.016687218 -3.3607354 5.010035
4.824292 -3.0838318 0.012395605 -2.0228808 0.010903289 -3.0434744 -0.0393226 -3.0530968
-0.0019450616 -3.195962 0.04970878 -3.2914653 0.023161072 5.824277 -3.5016513 -0.008200294
0.04296955 5.898155 -3.238613 -3.4848762 -9.399984 -3.2696707 -0.0019516303 0.03395148
-3.5594106 -3.2722998 0.019486729 -2.611516 0.0010106119 0.027491365 -7.934411 0.0039161793
0.002853037 2.459767 7.732116 -3.4452286 -3.1361961 5.9660974 5.865648 6.765706
-3.941461 -3.894574 7.1896214 -3.3645573 8.869616 -3.216696 0.0065293107 5.86003
-3.6369495 0.026753921 0.02813767 -3.0286531 -0.025610736 -3.2557042 -6.5614815 -0.010015632
-0.022317218 8.21498 -3.065616 -0.00020332949 -3.23694 0.010337219 0.02808987 -0.026283506
-3.342986 -3.2323534 -3.9495888 -0.015990129 6.0317564 -3.1622708 -3.4283547 -0.0021896313
9.709649 -3.5322006 -3.2021658 -3.1887271 -0.007456504 -2.8754542 0.048733447 -3.2707036
0.0097358525 -0.0016053177 0.006490601 7.3905244 0.020822965 -3.0229533 0.027373403 -3.0555854
-0.007951799 -0.01907258 8.639735 5.952958 0.027228687 -3.4858105 6.6456256 0.026798513
0.011098825 6.6300206 -3.1247382 5.8238225 0.021114996 -3.0667253 -6.679049 -3.0893538
00000000: fed4 cf3a 1516 44c0 a57d 27c0 2d53 b840
00000010: 2226 ebc0 6aed 4c3c 6f89 52c0 6dfd 653c
00000020: 5765 4fc0 a519 97ba 25d6 06bc 5b0a 0841
00000030: 8a3c 033d 5e8d 47c0 cc88 f4bb dc52 4fc0
00000040: 9ced 47c0 76e3 57c0 d880 d1bc ba9b 49c0
00000050: 190b bb40 90be e9c0 88b1 9cbb 3613 e6c0
00000060: b32a 6dc0 67fa b840 5beb 1c3a 10fc 3fc0
00000070: 2747 51c0 b7e8 47c0 64d5 2ac0 5778 573b
00000080: 0ff8 c2c0 7d2c 48c0 5044 4cc0 c74a 833b
00000090: e763 57c0 ff57 4ec0 6f69 cf40 2124 51c0
000000a0: 5cac 8abb 45fb 50c0 0f6e 92bc cec2 ba40
000000b0: a549 c43b ebcd b940 17df f040 86f3 9640
000000c0: 397c b840 202b 4dc0 072b a039 2cd7 54c0
000000d0: 0050 57c0 a8f4 e13b 9fa3 dabc 6c0c b43b
000000e0: 6ed4 ba40 e3dc 983c 7f46 5dc0 fcae 58c0
000000f0: 4f8b 51c0 c38e 04bb 135c 8abb 12f3 a440
00000100: 8b21 44c0 4171 fe3c 819c fb3c 5950 b940
00000110: dfa0 bc40 7e4f 44c0 9c69 69bc 39e1 11bc
00000120: b6e7 033d f66c 42c0 0ddd 42c0 6213 b940
00000130: a30b 4fc0 ad51 ba40 bfeb 0a3d 191c 4ac0
00000140: f726 1b3d 1129 1b3c c05f bb40 eb18 f2c0
00000150: 0c26 06bd f836 4ac0 d652 0cbb e659 5b3c
00000160: efd2 cdc0 940b 7940 ef38 f240 cd53 e7bb
00000170: e057 3fc0 41b8 9a40 bca1 103d 8b19 4dc0
00000180: d38c 52c0 b0d2 ea40 e653 b940 a5e6 5ec0
00000190: cd2f 0f41 4aab 1e3c b45a d93c 0237 50c0
000001a0: 52a9 6fc0 15ae 4dc0 65da 52c0 7ef1 9940
000001b0: d519 8bbc de0e bb40 ec3c e440 72e5 4bc0
000001c0: da1b 51c0 b1b9 ed40 dc5c 1fbd 835a 4cc0
000001d0: 8fcd 41c0 6f89 4fc0 e703 31bd 62d9 6bc0
000001e0: ff16 bc3d 86fe 49c0 70c8 bd40 782c 5fc0
000001f0: bc28 59c0 a827 64bc cf6c 393d fc9d b840
00000200: 08e0 a240 823f f1c0 f08b 45c0 59f9 ef40
00000210: 6bde ce3b 0293 01bb c91b 5dc0 7aab 3dbb
00000220: ef48 68c0 53eb 83bc 9a2f cc3c 6d78 cdc0
00000230: 3f52 0bbc a31d 263d c6aa 3fc0 d19c b940
00000240: 10cb ba40 7d64 25c0 7be2 b7bb 09f8 52c0
00000250: 09cc 42c0 a2b3 883c 4a16 57c0 3552 a040
00000260: 9a60 9a40 805d 45c0 f016 4b3c e176 01c0
00000270: b5a3 323c 49c8 42c0 bc10 21bd f065 43c0
00000280: 70f1 feba a48a 4cc0 6f9b 4b3d 5ea7 52c0
00000290: 4abc bd3c 7a60 ba40 0e1b 60c0 875a 06bc
000002a0: d700 303d b0bd bc40 6f45 4fc0 3608 5fc0
000002b0: 5666 16c1 4942 51c0 d9cd ffba b510 0b3d
000002c0: 62cd 63c0 5c6d 51c0 a2a2 9f3c 1423 27c0
000002d0: 8276 843a 9235 e13c b2e6 fdc0 4b53 803b
000002e0: 05fa 3a3b d36c 1d40 7f6d f740 a07e 5cc0
000002f0: 70b7 48c0 45ea be40 63b3 bb40 aa80 d840
00000300: e640 7cc0 b340 79c0 6111 e640 e854 57c0
00000310: f2e9 0d41 59de 4dc0 d4f3 d53b 5e85 bb40
00000320: c8c3 68c0 0a2b db3c f980 e63c 74d5 41c0
00000330: 9bcd d1bc 755d 50c0 a8f7 d1c0 9b18 24bc
00000340: 99d2 b6bc 8f70 0341 0d33 44c0 d834 55b9
00000350: 062a 4fc0 705d 293c ba1c e63c 8250 d7bc
00000360: 7cf3 55c0 e1de 4ec0 10c6 7cc0 bbfd 82bc
00000370: 2604 c140 a562 4ac0 2a6a 5bc0 eb7f 0fbb
00000380: b95a 1b41 930f 62c0 49f0 4cc0 1b14 4cc0
00000390: b055 f4bb 7107 38c0 b99c 473d 3553 51c0
000003a0: 2083 1f3c 8669 d2ba 1caf d43b 2d7f ec40
000003b0: ec94 aa3c 1178 41c0 303e e03c b68e 43c0
000003c0: 4348 02bc 193e 9cbc 5b3c 0a41 a27e be40
000003d0: b20e df3c 8517 5fc0 f7a8 d440 8e88 db3c
000003e0: d9d7 353c 2129 d440 b6fb 47c0 c15c ba40
000003f0: 5bf9 ac3c 3a45 44c0 c5ba d5c0 f9b7 45c0
