hw1/preTrained/CartPole_GAE_0.005_0.96_0.98.pth (torch, 10199 bytes, 5 tensors)

share_layer.weight f4 [256, 4]
0	0xbc42c778	-0.011888377
1	0x3c53171d	0.012883929
2	0xbe5ebfe3	-0.21752886
3	0x3dae117f	0.08499431
4	0xbec211e9	-0.3790429
5	0xbd23fcea	-0.04003612
6	0x3e9e6bbd	0.30941573
7	0x3eb2589e	0.34833235
8	0x3e2e88ec	0.17044419
9	0xbe8fcedd	-0.28087512
10	0xbe6b13de	-0.22956797
11	0xbe214230	-0.15747905
12	0x3d9b06bd	0.075696446
13	0x3d4c0ba1	0.049815778
14	0x3eb9aafb	0.3626326
15	0x3f0b78a2	0.54480946
16	0xbe33a98a	-0.17545143
17	0x3c7293b9	0.014805728
18	0x3e3230e5	0.17401464
19	0x3d59be4f	0.053160008
20	0xbe0e45b3	-0.13893776
21	0xbf0425de	-0.5162028
22	0xbf00627e	-0.5015029
23	0xbed6c5f3	-0.41947898
24	0xbf03144a	-0.51202834
25	0xbf0d250f	-0.5513467
26	0xbf166302	-0.58744824
27	0xbef35464	-0.47525322
28	0xbf09fc88	-0.5390096
29	0x3e35fc61	0.17772056
30	0x3f057a8d	0.5214012
31	0x3ec72c50	0.38900995
32	0x3da34b1e	0.07973312
33	0x3cdb621d	0.026780182
34	0x3d90a544	0.07062772
35	0xbe6373dd	-0.22212167
36	0x3ecaf28b	0.3963817
37	0xbe17d57b	-0.1482753
38	0x3e7a761d	0.24459119
39	0x3e98b55d	0.2982587
40	0x3e45a94b	0.19302861
41	0x3e8ff48a	0.28116256
42	0xbe128538	-0.14308631
43	0xbdb4fbd4	-0.08837095
44	0x3d9ab2ae	0.07553612
45	0xbdbe83e3	-0.09302499
46	0x3ec1a6b8	0.3782251
47	0x3ea738e9	0.32660607
48	0xbf081ee8	-0.5317216
49	0xbd2b2f9b	-0.041793447
50	0xbe9fc32b	-0.3120359
51	0x3f0194d4	0.5061772
52	0xbee6929f	-0.45033738
53	0x3d8eaba5	0.06966332
54	0xbe352f9b	-0.17693941
55	0x3e4d3e4c	0.20043296
56	0xbda07995	-0.0783569
57	0xbd2e787f	-0.042595383
58	0x3ee4debe	0.4470119
59	0x3f031f36	0.512195
60	0xbeebf07d	-0.46081915
61	0xbefb1f9b	-0.4904755
62	0x3d54e8c8	0.05197981
63	0xbbe6a044	-0.007038148
64	0x3e446699	0.19179763
65	0x3ec0ca7a	0.37654477
66	0x3d7f11a9	0.0622727
67	0xbe0c377d	-0.13693042
68	0xbebafe57	-0.3652217
69	0x3e89b3fe	0.26895136
70	0x3ed0fcb3	0.40817794
71	0xbdb53c30	-0.088493705
72	0xbf1ab4c4	-0.60432076
73	0x3ddcc538	0.10779804
74	0xbee36ede	-0.44420522
75	0x3d4112ba	0.047137
76	0xbee5217c	-0.4475211
77	0x3da9f3f1	0.08298481
78	0xbf1549a3	-0.58315486
79	0xbec0a178	-0.3762319
80	0xbee128a4	-0.4397632
81	0xbe76a0dd	-0.24084802
82	0x3e475ffc	0.19470209
83	0xbd7e7fb6	-0.062133513
84	0x3efce84b	0.49395975
85	0xbda7066c	-0.08155522
86	0x3ea47d1a	0.32126695
87	0x3efd9466	0.49527282
88	0xbf040452	-0.5156909
89	0xbd9fb1ba	-0.077975705
90	0xbdcaac63	-0.098961614
91	0x3ea6761b	0.32511982
92	0x3e91c381	0.2846947
93	0xbe900539	-0.28128985
94	0xbe635dc6	-0.2220374
95	0x3e2e1401	0.16999818
96	0xbe5c1947	-0.21494018
97	0x3d2e9e3e	0.04263138
98	0xbee43a72	-0.4457584
99	0xbe4c6881	-0.1996174
100	0x3c56bb73	0.013106215
101	0x3eb6aa93	0.35677013
102	0x3f55c795	0.83507663
103	0x3e9ef4bf	0.310461
104	0xbe9908a9	-0.2988942
105	0x3e619f94	0.2203353
106	0x3e3ba4c4	0.18324572
107	0x3e867b8c	0.26266134
108	0xbe6f434b	-0.23365514
109	0xbd015883	-0.031578552
110	0x3f01092a	0.5040461
111	0x3e77e824	0.24209648
112	0x3eadfa11	0.33979848
113	0xbee0cb47	-0.43905088
114	0x3e567aff	0.20945357
115	0xbd1ad189	-0.037797485
116	0x3cc1e429	0.023668366
117	0xbe2bc0f1	-0.1677282
118	0xbce23b9e	-0.027616318
119	0x3e742941	0.23843862
120	0x3e923f0b	0.28563723
121	0xbc5811a4	-0.0131878
122	0xbed55c7d	-0.41672125
123	0xbc83674c	-0.016040467
124	0x3ea740d7	0.32666656
125	0xbe4445d3	-0.19167261
126	0xbf070481	-0.5274125
127	0x3e2a5c6b	0.16636817
128	0xbf05acfb	-0.5221707
129	0xbd110cd3	-0.03541262
130	0xbdceca8b	-0.10097226
131	0x3c938196	0.018006127
132	0xbe63210d	-0.22180577
133	0xbe33bc26	-0.17552242
134	0xbf286a26	-0.6578697
135	0xbed08f0b	-0.40734133
136	0x3e862a0d	0.26203957
137	0x3ea666d7	0.32500336
138	0xbf2a4e54	-0.6652577
139	0xbedd3fb6	-0.4321267
140	0xbe990a8a	-0.29890853
141	0x3e95a8a1	0.29230216
142	0x3ea41d4c	0.32053602
143	0xbeb4fe46	-0.35350245
144	0x3d81b3e2	0.06333138
145	0x3c34190c	0.0109923
146	0x3ec8ecfc	0.39243305
147	0xbdcfcb29	-0.101461716
148	0x3db3dc1e	0.087822184
149	0xbe775e90	-0.24157166
150	0xbf3b5a59	-0.73184735
151	0xbca09643	-0.0196029
152	0xbedb8093	-0.42871532
153	0xbe278ed2	-0.16363075
154	0xbe7dd6f0	-0.24789023
155	0xbe1d289e	-0.15347525
156	0x3e815c5f	0.25265786
157	0x3e85ada1	0.2610903
158	0x3f0e344c	0.5554855
159	0x3e6349af	0.22196077
160	0xbef68867	-0.48150942
161	0xbeac4655	-0.3364741
162	0xbe45c5b1	-0.19313695
163	0xbe20ffac	-0.15722531
164	0xbf02ce5a	-0.5109612
165	0x3e69bc51	0.22825743
166	0xbeb91a10	-0.36152697
167	0x3d75fc15	0.060054857
168	0xbee3f45a	-0.44522363
169	0x3e28185c	0.16415542
170	0x3c58f8da	0.013242925
171	0x3e900f02	0.2813645
172	0x3dc6b897	0.097031765
173	0xbedd7ec4	-0.43260777
174	0x3ee5187a	0.44745237
175	0xbeba9955	-0.36445108
176	0x3ebe3f6c	0.37157762
177	0xbf0163fa	-0.5054318
178	0x3ed0e7fc	0.4080199
179	0x3e16c332	0.14722899
180	0x3d7a1c33	0.06106205
181	0xbde8e849	-0.1137243
182	0x3edc97f1	0.43084672
183	0x3edd435f	0.43215463
184	0xbd7183c6	-0.05896356
185	0xbe49b2e1	-0.19697143
186	0x3e9d7862	0.30755907
187	0x3ebd5034	0.36975253
188	0x3e295b0b	0.16538636
189	0x3e341116	0.17584643
190	0x3e9bad80	0.30405807
191	0x3df4502e	0.119293556
192	0xbeff0a5d	-0.49812594
193	0xbefd4fbf	-0.49474904
194	0x3e25179c	0.16122288
195	0xbf0fe96c	-0.5621555
196	0xbdb1c31d	-0.08679793
197	0x3e605d30	0.21910548
198	0xbf347f31	-0.7050658
199	0xbe5b0e26	-0.21392116
200	0xbf1148ed	-0.567519
201	0x3e66fd2b	0.22557513
202	0x3dce9401	0.10086823
203	0x3e9fb8f6	0.31195801
204	0xbc7f2b2a	-0.015574256
205	0xbddc2010	-0.10748303
206	0x3eeeb918	0.4662559
207	0xbe9570e4	-0.2918769
208	0xbeb10a4d	-0.3457817
209	0x3e5ad880	0.2137165
210	0x3ea35cdf	0.31906793
211	0xbe277fbf	-0.16357325
212	0xbf33fd3b	-0.70308274
213	0x3dff0966	0.124529645
214	0x3d85ea44	0.06538823
215	0x3d56f8fe	0.05248355
216	0x3e9cb46a	0.30606395
217	0x3c8467ae	0.01616272
218	0xbe8b91a7	-0.2725956
219	0x3d390ea8	0.045179993
220	0x3eaafe35	0.3339707
221	0x3d97f114	0.07419029
222	0xbf0c6c15	-0.5485242
223	0x3cd5d15a	0.026100803
224	0xbe5ff14e	-0.21869394
225	0xbe813ec6	-0.25243205
226	0x3e51c7af	0.2048633
227	0x3e3af2a7	0.18256627
228	0x3e887f02	0.266594
229	0x3e4c3e68	0.19945681
230	0xbed27098	-0.41101527
231	0xbef008fe	-0.4688186
232	0x3d4fd779	0.0507426
233	0x3e6ece50	0.2332089
234	0x3e99aab5	0.30013052
235	0x3e9cf7fb	0.30657944
236	0x3e190414	0.14942962
237	0x3d291c36	0.04128667
238	0x3ec45f11	0.3835378
239	0x3eba9f6d	0.36449757
240	0xbf366c55	-0.7125905
241	0x3e972b8d	0.29525414
242	0x3e24cb97	0.16093288
243	0x3e4936a2	0.19649747
244	0xbe491f58	-0.19640863
245	0xbda616b5	-0.081098
246	0xbebc0111	-0.36719564
247	0xbf073b6e	-0.5282506
248	0xbe8234c0	-0.2543087
249	0x3de68917	0.112566166
250	0xbf394950	-0.7237749
251	0xbe972091	-0.29517034
252	0x3e6baa9d	0.23014303
253	0x3e45c2dc	0.19312614
254	0xbed38c2a	-0.41317874
255	0x3e47a482	0.19496349

share_layer.bias f4 [256]
0	0xbe4df13c	-0.20111555
1	0x3e393771	0.18087555
2	0xbd59f549	-0.053212438
3	0x3ea6ca8e	0.32576412
4	0xbe80ab13	-0.2513052
5	0xbdbe4945	-0.09291319
6	0xbd9d5e8b	-0.07684048
7	0x3e614d70	0.22002196
8	0xbe1e8231	-0.15479352
9	0xbeddf860	-0.43353558
10	0x3e8c0d6c	0.2735399
11	0xbe950da9	-0.29111984
12	0x3ed8928e	0.42299312
13	0x3e51c5e0	0.2048564
14	0x3eeb675c	0.45977294
15	0xbe87113c	-0.26380336
16	0xbdc7d3d5	-0.09757201
17	0xbe223126	-0.15839061
18	0xbd415881	-0.047203545
19	0x3d863971	0.06553925
20	0xbe49dafb	-0.1971244
21	0xbd94a84a	-0.07258661
22	0xbe6f121f	-0.23346756
23	0xbe564c8a	-0.20927635
24	0x3d37a2c7	0.04483297
25	0xbc86e3e3	-0.016466087
26	0xbe9a1fd9	-0.30102423
27	0x3e10849e	0.1411309
28	0xbe39c571	-0.18141724
29	0xbe534c83	-0.20634656
30	0xbf09eaf9	-0.53874165
31	0xbed29b88	-0.41134286
32	0x3e7bcdaf	0.24590181
33	0x3e64db38	0.2234925
34	0xbe83a722	-0.2571345
35	0xbe8e159f	-0.2775087
36	0xbe711800	-0.23544312
37	0xbcf03c77	-0.029325707
38	0xbd8d9cba	-0.06914659
39	0xbc39b839	-0.011335426
40	0x3e71f10a	0.23627105
41	0x3ddfff47	0.10937362
42	0x3dc1b877	0.09459012
43	0xbda85aa0	-0.0822041
44	0xbeeb3041	-0.45935252
45	0x3eac20eb	0.33618864
46	0xbeb3ee44	-0.3514272
47	0xbd974553	-0.073862694
48	0xbe92a2c3	-0.28639802
49	0xbc09242f	-0.008370443
50	0x3e5376e3	0.2065082
51	0xbecf0548	-0.40433717
52	0xbdaee34e	-0.08539449
53	0xbd2f0bd2	-0.042735882
54	0xbcca1d05	-0.02467204
55	0xbce50ab6	-0.027959209
56	0x3eb7c7d5	0.35894647
57	0x3deb977b	0.11503502
58	0x3ec0e256	0.3767268
59	0x3d1111e6	0.03541746
60	0xbd0ab875	-0.03386732
61	0x3e1ef0a6	0.15521488
62	0x3e05c815	0.13064606
63	0xbf0b6664	-0.5445311
64	0x3dbb32b7	0.091405325
65	0xbd936f0f	-0.07198917
66	0xbd6b4529	-0.057439003
67	0x3e5620e4	0.20910984
68	0xbedd9828	-0.43280149
69	0xbc259e20	-0.010108501
70	0xbea815d0	-0.32829142
71	0x3dd12d08	0.10213667
72	0xbf0e0ea5	-0.55491096
73	0xbd1ada2b	-0.037805717
74	0xbb8c1d0e	-0.0042759245
75	0x3db1ce6e	0.086819515
76	0x3bbfd73b	0.005854515
77	0xbd84abac	-0.06478056
78	0xbea53c2a	-0.32272464
79	0x3e661b4d	0.22471352
80	0xbdea9805	-0.11454777
81	0x3d02ba25	0.031915803
82	0x3ea7bdc6	0.32761973
83	0xbe697bc6	-0.22801122
84	0x3e98ab25	0.29818073
85	0x3d246599	0.040135954
86	0x3b059ce7	0.002038771
87	0x3e7560bd	0.23962684
88	0xbd2766a2	-0.040869363
89	0xbe809f55	-0.2512156
90	0x3dba0509	0.09082992
91	0xbde146e3	-0.10999849
92	0x3d88b893	0.0667583
93	0xbe8aed85	-0.27134338
94	0x3b41ecd2	0.0029590619
95	0x3b10c926	0.002209255
96	0x3e142d0a	0.14470306
97	0x3e8f08ce	0.27936405
98	0xbcb3feb7	-0.021972043
99	0xbe36e5d2	-0.17861107
100	0xbedfe5d8	-0.43730044
101	0xbf0286d1	-0.50986964
102	0x3e467fcc	0.19384688
103	0xbd095545	-0.033528585
104	0x3e8fc359	0.28078726
105	0x3d5898e4	0.052880183
106	0xbe8e36aa	-0.2777608
107	0xbd509743	-0.050925504
108	0x3dabef31	0.083952315
109	0xbebc42b9	-0.36769655
110	0xbd104bb7	-0.035228457
111	0xbf0e7ee7	-0.5566239
112	0xbd618265	-0.055055995
113	0x3e7db742	0.24776939
114	0xbdf2bb5c	-0.11852142
115	0xbcdd6be6	-0.027028989
116	0x3e09f521	0.13472416
117	0x3e2cbb0b	0.16868226
118	0xbe8e3155	-0.27772012
119	0xbd17020c	-0.036867186
120	0x3da584cc	0.080819696
121	0xbd98633d	-0.07440803
122	0xbe1d1a59	-0.15342082
123	0xbe942fa1	-0.28942588
124	0xbe2f9f14	-0.17150527
125	0xbefd9803	-0.49530038
126	0x3e5524dc	0.20814842
127	0xbea9058c	-0.33012044
128	0xbe26478c	-0.1623823
129	0xbd162089	-0.03665212
130	0xbe5654e6	-0.20930824
131	0x3e86a1d5	0.26295343
132	0xbecdfdfd	-0.4023284
133	0xbc9ade20	-0.018904746
134	0xbbaddd20	-0.005305901
135	0xbe14c234	-0.14527208
136	0xbd81badf	-0.06334471
137	0xbdb2b48c	-0.08725843
138	0xbe70ded1	-0.23522498
139	0xbed8d3c8	-0.42349076
140	0xbdc37990	-0.095446706
141	0xbed939d1	-0.42426923
142	0xbd6ab9f6	-0.057306252
143	0xbecd16ff	-0.40056607
144	0xbe41e820	-0.18936205
145	0x3db7ccdd	0.089746214
146	0xbf000a85	-0.5001605
147	0xbf06e317	-0.5269026
148	0x3d13cbba	0.03608296
149	0x3d6fbc47	0.058529165
150	0xbf056ab9	-0.5211597
151	0xbd750362	-0.05981768
152	0xbdb4d67c	-0.08829972
153	0xbe8a97ba	-0.27068883
154	0x3e03c1e2	0.12866929
155	0xbcab9b03	-0.020947939
156	0x3ede7b84	0.4345361
157	0xbe5a4437	-0.21315084
158	0xbe38c306	-0.18043146
159	0xbe009298	-0.12555921
160	0x3e5c70d4	0.21527416
161	0xbbf4c527	-0.0074697915
162	0xbc232b30	-0.009959027
163	0xbc2c2aa8	-0.010508217
164	0xbeff4b14	-0.49861968
165	0x3e82b89f	0.2553148
166	0xbd0c92c4	-0.034319654
167	0xbe0e4cdb	-0.13896506
168	0x3ddfc4aa	0.109261826
169	0xbdd2c2b5	-0.10291044
170	0xbe9e8b5c	-0.30965698
171	0xbd2ae609	-0.041723285
172	0xbee45760	-0.44597912
173	0x3e1b6d77	0.15178476
174	0xbd5134a3	-0.05107559
175	0xbf080fa6	-0.5314888
176	0x3d8f1f96	0.069884464
177	0x3e3a1728	0.18172896
178	0x3e34c9d9	0.17655124
179	0xbe21b084	-0.15789992
180	0xbda7888d	-0.08180342
181	0x3e280f77	0.1641215
182	0x3ddde7ed	0.10835252
183	0x3a182ec4	0.00058053085
184	0xbeba33d5	-0.3636767
185	0xbdde7c69	-0.10863573
186	0xbcc6d3eb	-0.024270972
187	0xbdeb1547	-0.11478668
188	0xbccde5e0	-0.025134027
189	0x3def2850	0.11677611
190	0xbe676c35	-0.22599871
191	0x3d155f6d	0.03646796
192	0xbf003031	-0.50073534
193	0x3d7b1ec6	0.061308645
194	0xbe898cf6	-0.26865357
195	0xbeae81ae	-0.34083313
196	0xbee5e97b	-0.44904694
197	0xbd83df77	-0.06439107
198	0xbd68e974	-0.056863263
199	0x3d481cb9	0.048855517
200	0x3dd88fd1	0.10574306
201	0x3c7832df	0.015148847
202	0xbeb5cb6b	-0.35506758
203	0xbdad4bd1	-0.084617265
204	0xbd825873	-0.063645266
205	0x3d8fe2d9	0.0702569
206	0x3eb41b44	0.35177052
207	0xbf1036d9	-0.5633369
208	0xbdcbacc5	-0.099450625
209	0x3e0f892b	0.14017169
210	0xbd49dd65	-0.049283404
211	0xbe5d1953	-0.21591692
212	0x3d369682	0.04457713
213	0xbd3c4e2d	-0.04597299
214	0xbc915a89	-0.017743366
215	0x3e8c3505	0.273842
216	0xbe2359eb	-0.1595227
217	0xbccbc511	-0.024874242
218	0x3ebd5b14	0.3698355
219	0xbe0dfec5	-0.13866718
220	0x3e816b50	0.25277185
221	0xbed3201b	-0.41235432
222	0xbd608b9b	-0.05482064
223	0x3e8f9148	0.28040528
224	0x3e8cee60	0.27525616
225	0x3e8d8151	0.27637723
226	0xbde3ee84	-0.111294776
227	0x3e87b1d3	0.26502857
228	0x3c12dfd1	0.008964495
229	0x3df94d44	0.121729404
230	0xbcf7c672	-0.030245993
231	0xbd849b29	-0.06474907
232	0xbda0c151	-0.07849372
233	0x3e8ad869	0.27118233
234	0xbbc45f67	-0.005992818
235	0xbd448585	-0.047978897
236	0xbb03fec6	-0.002014087
237	0xbebc41fd	-0.36769095
238	0xbd9a1bb1	-0.07524813
239	0x3dcb350a	0.09922226
240	0x3d84a9b1	0.064776786
241	0x3bc997e6	0.006152141
242	0xbe8687f7	-0.26275608
243	0xbdbca8c4	-0.09211877
244	0xbe02ae38	-0.12761772
245	0x3e263bc3	0.16233735
246	0xbeba5338	-0.36391616
247	0xbe48dea6	-0.19616184
248	0x3e277f8e	0.16357252
249	0x3ed555eb	0.41667113
250	0xbcc29898	-0.023754403
251	0xbd677d60	-0.05651605
252	0x3ddff28e	0.109349355
253	0xbdbcfba0	-0.09227681
254	0xbdc91e3b	-0.09820219
255	0xbe8ec1a2	-0.27882105

value_layer.weight f4 [1, 256]
0	0xbb5e64ea	-0.0033934661
1	0x3cfc5eca	0.030806918
2	0xbddab172	-0.10678376
3	0x3d95923f	0.07303285
4	0xbcdd121e	-0.026986178
5	0xbe10f33f	-0.14155291
6	0xbd733903	-0.059380542
7	0x3d3e2eb7	0.04643127
8	0xba6979ae	-0.00089063763
9	0xbcaa78fe	-0.020809647
10	0x3d022cf3	0.03178115
11	0xbdd290fe	-0.10281561
12	0x3dc210b1	0.0947584
13	0x3ddc895d	0.107683875
14	0x3d9b837f	0.0759344
15	0xbdc82e41	-0.09774447
16	0xbd403843	-0.046928655
17	0xbd031193	-0.031999182
18	0xbe52066f	-0.20510267
19	0x3cb3d9bc	0.02195441
20	0xbda04709	-0.07826049
21	0xbd5695a4	-0.052388802
22	0xbd24995e	-0.040185325
23	0xbd95e541	-0.07319117
24	0x3ca6e546	0.020372998
25	0xbde5a8a6	-0.11213808
26	0x3d0d5c80	0.034512043
27	0x3cf62536	0.03004704
28	0xbd44f31e	-0.048083417
29	0xbc822982	-0.015888933
30	0x3ba25f28	0.004955191
31	0x3cdc5b12	0.026898894
32	0x3ddaa011	0.106750615
33	0x3d62da36	0.055383883
34	0xbd5343f8	-0.051578492
35	0xbc36d93b	-0.01116019
36	0xbc86c756	-0.016452473
37	0xbb958e16	-0.004564057
38	0xbda8d333	-0.08243408
39	0xbd9e4cf5	-0.07729522
40	0x3d5c7738	0.053824633
41	0x3cadbf44	0.021209367
42	0x3cf6281e	0.030048426
43	0xbd6b22d4	-0.05740626
44	0xbd9343b3	-0.07190647
45	0x3d6cb911	0.05779368
46	0xbd891fea	-0.0669554
47	0xbc5da57d	-0.013528225
48	0xbdd5e3f4	-0.10443869
49	0xbb999975	-0.004687483
50	0x3d964006	0.0733643
51	0xbc1ffd88	-0.009765036
52	0xbbfcc0e4	-0.007713424
53	0xbe40a4ae	-0.1881282
54	0xbd780b0f	-0.06055742
55	0xbde435c4	-0.111430675
56	0x3dcec962	0.100970045
57	0x39d30ba4	0.0004025373
58	0x3d8745e3	0.06605127
59	0xbc19767a	-0.009366626
60	0xbe024d40	-0.12724781
61	0x3d080f93	0.033217978
62	0x3c7f6570	0.015588149
63	0x3bc7107d	0.0060749636
64	0x3c4f5a62	0.012655826
65	0xbe009865	-0.12558134
66	0xbe55e0e7	-0.20886575
67	0x3d76820a	0.06018261
68	0xbd6d9596	-0.058003984
69	0xbe583327	-0.21113263
70	0xba1266e3	-0.00055847893
71	0xbaf2de64	-0.0018529412
72	0xba8ed21c	-0.0010896358
73	0xbe45dc35	-0.19322284
74	0xbe3cbc69	-0.18431248
75	0x3cefefce	0.029289152
76	0xbe6561d0	-0.22400594
77	0xbe10d2e4	-0.14142948
78	0xbcda56f7	-0.026652796
79	0x3cdda50a	0.027056236
80	0xbe4f01a7	-0.20215474
81	0x3b7f139b	0.0038921598
82	0x3d82ea25	0.06392316
83	0xbd03068d	-0.03198867
84	0x3d1794d9	0.037007187
85	0x3c25f18c	0.01012839
86	0xbdf9df0c	-0.12200746
87	0x3cc61117	0.024178071
88	0xbd277ac1	-0.04088855
89	0xbc53d60e	-0.012929453
90	0xbcf49e97	-0.029860778
91	0xbbf0da5b	-0.0073502488
92	0x3ce35ed2	0.027755175
93	0xbaba787a	-0.0014226579
94	0xbd4a48d9	-0.04938588
95	0x3bddcc6c	0.0067687538
96	0x3aa7bed2	0.0012797958
97	0x3ca6d873	0.020366883
98	0xbae2e17e	-0.0017309634
99	0xbe27d787	-0.16390811
100	0xbd1aaef0	-0.03776449
101	0x3ccf626f	0.025315491
102	0x3cf28667	0.029605104
103	0x3b8eaccd	0.0043540956
104	0x3d1ebd27	0.03875461
105	0xbbcc0727	-0.0062264386
106	0xbdd300d3	-0.103028916
107	0xbd722ff4	-0.059127763
108	0x3d375792	0.044761248
109	0xb9c334c6	-0.00037232618
110	0xbd93a7c7	-0.07209735
111	0x3be7bf7a	0.0070723863
112	0xbe2f178a	-0.17098823
113	0x3d82755c	0.06370041
114	0xbd1454b7	-0.036213603
115	0xbe27f152	-0.1640065
116	0x3d40b3df	0.04704654
117	0x3dc67a53	0.096913
118	0xbdabe0a6	-0.08392458
119	0xbdfecd98	-0.12441558
120	0xbb890a51	-0.004182138
121	0xbde4d627	-0.11173659
122	0xbdfccbfa	-0.12343593
123	0xbcc1e35e	-0.023667987
124	0xbdfcf39d	-0.12351153
125	0x3d11dd1a	0.03561125
126	0x3d2f9459	0.042866085
127	0x3cbc427a	0.022980917
128	0xbd9dfeda	-0.07714625
129	0xbe81883a	-0.25299245
130	0xbcbba901	-0.022907736
131	0x3c7da748	0.0154817775
132	0xbd334cfb	-0.043774586
133	0xbdb12cc3	-0.08651116
134	0xbc2ae1ca	-0.010429809
135	0x3af28970	0.0018504094
136	0xbe03eede	-0.1288409
137	0xbe24d547	-0.16096984
138	0xbe4c1d56	-0.19933066
139	0xbc3e36e2	-0.011609765
140	0xbdf7f653	-0.121075295
141	0x3db78954	0.0896174
142	0x3c559e08	0.013038166
143	0xbd1a1e58	-0.037626594
144	0xbb71f120	-0.0036917403
145	0x3d0fc114	0.035096243
146	0x3c76485f	0.015031903
147	0x3b82f0d4	0.003995994
148	0x3afbee11	0.001922073
149	0x3b29ab8f	0.002588961
150	0xbc26808e	-0.010162486
151	0xbd1894a7	-0.03725114
152	0xbd6dbe5b	-0.058042865
153	0xbd99d524	-0.075113565
154	0x3bd723e3	0.0065655573
155	0xbe646b9a	-0.22306672
156	0x3dfb432a	0.1226867
157	0xbdfe4969	-0.124163456
158	0xbe2d6bf1	-0.16935708
159	0xbdaa715c	-0.08322403
160	0x3d93d484	0.072182685
161	0x3ba132e2	0.004919396
162	0xbd22c38a	-0.03973726
163	0xbda234a2	-0.07920195
164	0xbbe1565a	-0.006876749
165	0x3d509f06	0.050932907
166	0xbe94449e	-0.289586
167	0xbe2411d0	-0.1602242
168	0x3c9b3ccc	0.018949889
169	0xbc82c2d5	-0.015962044
170	0xbbf5cc83	-0.0075011863
171	0xbe98bf71	-0.29833558
172	0xbd13add6	-0.036054455
173	0x3c75cd5d	0.015002576
174	0xbb602a5b	-0.0034204933
175	0x3c8cb9df	0.017178474
176	0x3bd295c2	0.006426544
177	0x3d3b4861	0.045723323
178	0x3cdbb65a	0.02682035
179	0xbd8cdd4e	-0.06878148
180	0xbbd96217	-0.0066340077
181	0x3d31610d	0.043305445
182	0x3d5be970	0.05368942
183	0xbc1876b8	-0.0093056485
184	0xbca226f6	-0.019793969
185	0xbd882cf8	-0.06649202
186	0xbd326779	-0.04355571
187	0xbc82bb1b	-0.01595836
188	0xbde8ccc2	-0.113671795
189	0xba1057f8	-0.00055062724
190	0xbd7835ee	-0.060598306
191	0x3d18b346	0.037280343
192	0xbc80f5f4	-0.01574228
193	0x3bf84e8c	0.007577723
194	0xbd965d28	-0.07341987
195	0x3bfbae19	0.007680666
196	0x3d86bc06	0.065788314
197	0xb9e1f77b	-0.00043099732
198	0xbe072869	-0.13199009
199	0x3c5b9f28	0.013404645
200	0x3c291bf0	0.010321602
201	0xbe61a508	-0.2203561
202	0x3c4a9cf5	0.012366523
203	0xbe13fbd6	-0.14451537
204	0xbb89d99e	-0.00420685
205	0x3be64a26	0.007027882
206	0x3d04befe	0.032408707
207	0x3c3dca8e	0.011583937
208	0xbe415d9c	-0.18883365
209	0x3b962b10	0.00458277
210	0xbe703c2d	-0.23460455
211	0xbdc196a4	-0.094525605
212	0x39e74866	0.00044113694
213	0xbcf3332f	-0.029687492
214	0xbccd4ce9	-0.025061088
215	0x3d1432a3	0.036181103
216	0xbd41241f	-0.04715359
217	0x3c023e55	0.007949431
218	0x3df3904b	0.11892756
219	0xbde51302	-0.11185266
220	0x3ce3f7b2	0.027828071
221	0xbd3d0fce	-0.04615765
222	0xbdd9306b	-0.10604938
223	0x3d87f327	0.066381745
224	0x3d91bde6	0.071162984
225	0x3d2eaeb0	0.042647064
226	0xbdead77d	-0.114668824
227	0x3d45018e	0.048097186
228	0xbe24cdf9	-0.16094197
229	0x3ab7d2d3	0.0014024623
230	0x38998fd0	7.322396e-05
231	0xbe308631	-0.1723869
232	0xbe4888a6	-0.19583377
233	0x3d4a3cd4	0.049374416
234	0xbdf77513	-0.12082877
235	0xbe0a5dcb	-0.13512342
236	0xbe6c6a35	-0.2308739
237	0xbd88a521	-0.06672121
238	0xbe5fa2da	-0.21839467
239	0x3c97d6e0	0.018535078
240	0x3cac5503	0.02103663
241	0xbe389a3e	-0.18027589
242	0xbe2c0a67	-0.16800843
243	0xbd19677b	-0.037452202
244	0xbd3695d0	-0.044576466
245	0x3c705bbc	0.014670309
246	0xbcc7ba3d	-0.024380798
247	0xbdabedaa	-0.0839494
248	0x3d5b6f43	0.053572904
249	0x3da8224c	0.082096666
250	0x3b8f5aba	0.004374829
251	0xbe2cc38e	-0.16871473
252	0x3baada3a	0.005214003
253	0xbe35d212	-0.17755917
254	0xbd1cd3da	-0.038287975
255	0xbe303019	-0.17205848

action_layer.weight f4 [2, 256]
0	0xbd3bc5f1	-0.04584307
1	0xbda6ee11	-0.08150876
2	0x3e4fe0b1	0.20300557
3	0xbe5bd09e	-0.214663
4	0xbceb320f	-0.028710393
5	0x3d9ad18c	0.07559499
6	0x3e37331b	0.17890589
7	0xbe35a7cf	-0.17739795
8	0x3ce0fa08	0.027462974
9	0x3d71830c	0.058962867
10	0xbd184fef	-0.037185606
11	0xbdfdb690	-0.12388337
12	0xbd4ce266	-0.050020598
13	0xbd825198	-0.06363219
14	0xbe052be0	-0.13005018
15	0x3da23677	0.079205446
16	0x3d25d99f	0.040490743
17	0xbd731a33	-0.059351157
18	0xbadda8ed	-0.0016911306
19	0x3dc45f30	0.09588468
20	0x3dd8df9b	0.10589524
21	0xbe16762a	-0.14693514
22	0x3d071bab	0.03298537
23	0x3d20e617	0.03928193
24	0x3d6d9514	0.0580035
25	0xbe18324e	-0.1486294
26	0x3d81fc72	0.06346978
27	0xbe0e1c8a	-0.13878074
28	0x3d339195	0.04384001
29	0x3b3b4fb7	0.002858145
30	0x3c62c7b0	0.0138415545
31	0x3ddb9fea	0.107238606
32	0xbb3a02bc	-0.0028382977
33	0x3e25c544	0.16188532
34	0xbbc306e9	-0.0059517515
35	0x3cfbf678	0.030757174
36	0xbde446f0	-0.11146343
37	0x3d950378	0.07276052
38	0x3da8d84f	0.082443826
39	0xbd75d2da	-0.060015537
40	0x3d341c27	0.04397216
41	0xbce3710d	-0.027763868
42	0xbd81e775	-0.06342975
43	0x3e27943d	0.16365142
44	0x3d1553a7	0.03645673
45	0xbdfe6387	-0.12421327
46	0xbdab31fa	-0.08359142
47	0xbd2db286	-0.04240658
48	0x3da483cb	0.0803295
49	0x3dcfe622	0.10151316
50	0xbe031ef2	-0.12804773
51	0x3d1b30e7	0.037888434
52	0x3ce6026c	0.028077327
53	0x3bda4532	0.0066610808
54	0x3ccd35a7	0.025049997
55	0x3a4b8cb0	0.00077647995
56	0xbd5d9672	-0.054098554
57	0x3db9c886	0.0907145
58	0xbddbd64d	-0.10734234
59	0xbe2ded21	-0.16984989
60	0xbd5d0be0	-0.053966403
61	0x3e22f47d	0.15913577
62	0x3e0b55b3	0.1360691
63	0xbcdca175	-0.026932457
64	0xbe01b1db	-0.12665503
65	0x3ddbdc17	0.10735338
66	0xbcc42c8f	-0.023947028
67	0xbd9b3d6d	-0.075800754
68	0x3d3f6602	0.04672814
69	0xbe0aee12	-0.13567379
70	0x3d004025	0.031311173
71	0xbd0f949f	-0.035053845
72	0xbdcca3ea	-0.099922016
73	0xbc7f0d16	-0.015567085
74	0xbe1ef860	-0.15524435
75	0x3d78cab5	0.06074019
76	0xbe34b880	-0.17648506
77	0x3d8c5ed9	0.06854028
78	0x3cf79369	0.030221658
79	0xbddbde3c	-0.10735747
80	0x3e0fedf5	0.14055617
81	0x3e0c0008	0.13671887
82	0xbdf620f2	-0.120180026
83	0xbc84f68a	-0.01623084
84	0x3d40e9bf	0.047097918
85	0xba9e2ecc	-0.001206839
86	0xbe36d357	-0.17854057
87	0x3dd6085a	0.10450812
88	0x3df9e4de	0.12201856
89	0xbd2dda30	-0.042444408
90	0x3cf85cb4	0.030317642
91	0x3c8a31ab	0.016869387
92	0xbd220a85	-0.039560813
93	0xbceb20d6	-0.02870218
94	0x3d231018	0.03981027
95	0x3df898ed	0.12138543
96	0x3d4db69e	0.050222985
97	0x3db3a0d5	0.08770911
98	0x3db403f0	0.087898135
99	0xbd5c3735	-0.053763587
100	0xbdb22586	-0.08698563
101	0x3de990e0	0.11404586
102	0xbe4e687a	-0.20157042
103	0x3d02f044	0.031967416
104	0x3c6d9140	0.014499962
105	0x3db66016	0.08905046
106	0x3d9ee048	0.07757622
107	0x3e21ea29	0.15811981
108	0x3e2d46f3	0.16921596
109	0x3d6d271b	0.057898622
110	0xbe284b2d	-0.16434927
111	0xbd61aff3	-0.05509944
112	0x3cecea4a	0.028920311
113	0x3d1e0f6c	0.038588926
114	0x3c736b39	0.014857107
115	0xbdee3d85	-0.11632828
116	0x3cef3d91	0.029204162
117	0xbd1b1451	-0.037861172
118	0xbe1f6ef0	-0.15569663
119	0xbb3aac63	-0.0028484098
120	0x3cdc5fcd	0.02690115
121	0x3e06c387	0.13160525
122	0x3dd3d21d	0.1034281
123	0x3df27bf1	0.11840046
124	0x3de9b0fa	0.11410709
125	0xbcce020b	-0.025147459
126	0x3d188f9b	0.037246328
127	0x3c893829	0.016750412
128	0xbe119ab0	-0.14219165
129	0xbd031fe2	-0.032012828
130	0x3b4cfd7c	0.0031279018
131	0x3e3f4d38	0.186818
132	0xbd815c06	-0.0631638
133	0xbbc82e3e	-0.006109028
134	0xbdc46319	-0.09589214
135	0x3d592db0	0.053022087
136	0x3d9da823	0.07698085
137	0x3db73e36	0.08947413
138	0x3d9966fa	0.07490344
139	0x3d005498	0.031330675
140	0x3dcc1860	0.09965587
141	0x3cc80a87	0.024419082
142	0xbdd8c370	-0.10584152
143	0xbd139de2	-0.03603924
144	0xbccadacd	-0.024762535
145	0xbe33ae46	-0.17546949
146	0x3d45e049	0.048309598
147	0xbdc81b9a	-0.097708896
148	0x3d8b556b	0.068034016
149	0xbd543ff9	-0.05181882
150	0x3d27cb6f	0.040965494
151	0x3de91e3a	0.113827184
152	0xbd4b8a7a	-0.04969261
153	0x3d45a6aa	0.048254646
154	0xbda7601f	-0.081726305
155	0xbe94d85b	-0.29071316
156	0x3d427f31	0.04748458
157	0xbd514c37	-0.051098075
158	0xbd0f349b	-0.034962278
159	0x3d60ddd6	0.05489906
160	0xbc04c5b4	-0.008103777
161	0xbd8bb866	-0.068222806
162	0x3ca1c5e1	0.019747676
163	0xbde95eea	-0.113950565
164	0xba448bb0	-0.00074976217
165	0xba1c802f	-0.00059700286
166	0x3e607973	0.21921329
167	0xbdb71c55	-0.08940951
168	0x3e36bbd4	0.17845088
169	0x3d1b19ef	0.03786653
170	0xbc10a679	-0.008828753
171	0xbe491155	-0.19635518
172	0xbcf0aa36	-0.029378038
173	0x3bd7ace1	0.006581888
174	0x3dafedc4	0.08590272
175	0x3c1c8b6c	0.009554725
176	0x3d8d936a	0.069128826
177	0x3b15c2f2	0.0022851792
178	0x3e7dfd8d	0.24803753
179	0x3d4f8361	0.050662402
180	0xbcd4b255	-0.025963942
181	0x3e5a899a	0.21341553
182	0xbe0bf58f	-0.13667892
183	0x3d8ae70b	0.06782349
184	0xbd77e68b	-0.060522597
185	0x3cf26050	0.029586941
186	0xbdb485a7	-0.08814555
187	0x3db7e1e8	0.08978635
188	0xbda3a9db	-0.07991382
189	0xbd14be7f	-0.036314484
190	0xbcee9693	-0.029124534
191	0xbd199bc2	-0.037502058
192	0xbd83d52a	-0.06437142
193	0xbe40075b	-0.18752806
194	0x3d29cc77	0.04145476
195	0xbc075f82	-0.008262517
196	0x3d4d1d92	0.05007703
197	0x3d1ae401	0.037815098
198	0x3df6bdee	0.12047945
199	0x3d6b1037	0.05738851
200	0xbd194ce8	-0.03742686
201	0xbe47906c	-0.19488686
202	0x3ccf2de0	0.02529043
203	0x3dbdfd91	0.092768796
204	0x3e07aa0b	0.1324846
205	0x3c845119	0.016151952
206	0xbced55e0	-0.028971612
207	0xbdedcaa8	-0.11610919
208	0xbc8f7e03	-0.017516142
209	0x3e4bba58	0.19895303
210	0x3d315a71	0.043299142
211	0x3cf2ef39	0.029655086
212	0x3d9f793d	0.07786796
213	0xbde31e53	-0.11089768
214	0x3e347d11	0.17625834
215	0x3e11864b	0.14211385
216	0xbe1349d6	-0.14383635
217	0xbd4d2808	-0.050087005
218	0x3dd5fe16	0.10448854
219	0xbe21e35a	-0.15809384
220	0xbc09569a	-0.008382464
221	0x3b28fd00	0.0025785565
222	0xbca0c537	-0.01962529
223	0xbe028532	-0.12746122
224	0x3e489590	0.19588304
225	0x3dc1569e	0.09440349
226	0x3c52489b	0.012834693
227	0x3dcdd830	0.10051
228	0xbe664275	-0.22486289
229	0xbb34e93e	-0.0027604843
230	0xbe13a3d6	-0.14417967
231	0xbbc3c0d3	-0.005973914
232	0x3dab2aeb	0.08357795
233	0xbdc4174a	-0.095747545
234	0xbd2b6455	-0.04184373
235	0x3dc06fe1	0.09396339
236	0xb8ae6d18	-8.317287e-05
237	0x3d9535ca	0.0728565
238	0x3e5b1784	0.21395689
239	0xbd079f74	-0.03311105
240	0xbd26bf35	-0.040709693
241	0xbd1d8be8	-0.038463503
242	0xbe0b128f	-0.13581298
243	0xbd844ed0	-0.06460345
244	0x3d9f0f2a	0.07766564
245	0xbe3c8065	-0.18408354
246	0x3c657740	0.014005482
247	0x3e59251f	0.21205567
248	0xbe029d9a	-0.12755433
249	0xbdcc2d2d	-0.09969554
250	0xbd94d800	-0.07267761
251	0x3ddbe364	0.10736731
252	0xbe411fd9	-0.18859805
253	0x3dd04ffc	0.10171506
254	0x3cafe7d7	0.021472855
255	0xbdbbe35b	-0.09174224

action_layer.bias f4 [2]
0	0x3d0c59ff	0.034265514
1	0x3d1472be	0.03624224
