hw1/preTrained/CartPole_v0_0.005.pth (torch, 10199 bytes, 5 tensors)

share_layer.weight f4 [256, 4]
-0.011888376 0.012883928 -0.21752886 0.08499431 -0.17238577 0.21527879 0.3224425 0.5231999
0.34493402 -0.14714226 -0.066422 -0.1860358 0.22890326 0.15912448 0.6910915 0.5251331
-0.16660388 0.052661095 0.10428009 -0.061868746 -0.10949358 -0.44055697 -0.7379876 -0.4973588
-0.47751257 -0.41287333 -0.8742385 -0.5829945 -0.2753442 0.3920262 0.55232435 0.5196658
0.09628643 0.08069558 0.13245082 -0.26793116 0.57776725 -0.024971122 0.55421305 0.3045852
0.40306762 0.3377257 -0.024599632 -0.054705493 0.053081844 -0.031102771 0.26994646 0.30254325
-0.24989942 0.13373066 -0.08915022 0.56444955 -0.110021025 0.23915829 -0.009364237 0.29741183
0.026809592 0.03834595 0.7599846 0.54583156 -0.44663373 -0.43673775 -0.22727609 0.037178613
0.13241151 0.40049446 0.14093158 0.011591046 -0.29686093 0.34722 0.1494885 -0.04742215
-0.3997679 0.13628039 -0.7343592 0.014344005 -0.2857068 0.18594992 -0.7725143 -0.35897535
-0.18066607 -0.011582396 0.257502 0.014485526 0.37909377 -0.040190738 0.32833016 0.31804684
-0.38695833 0.042799316 -0.37345555 0.52672344 0.46273455 -0.035196494 0.098828904 0.08444309
-0.021627998 0.13985242 -0.50964224 -0.29339227 0.051851418 0.3971349 0.6901845 0.30021936
-0.27942675 0.3757845 0.364782 0.24425894 -0.1364505 0.17509314 0.5436209 0.35904688
0.55207115 -0.19647348 0.63328993 -0.15426555 -0.04564251 -0.047757927 0.110202074 0.2983901
0.25403014 0.0076325014 -0.3650834 -0.000362265 0.5474417 -0.030474575 -0.3491835 0.05818701
-0.08563614 0.15791988 0.022107707 0.057989545 -0.04580233 -0.047588795 -0.51046365 -0.46712083
0.23388778 0.3530719 -0.6258615 -0.30660892 -0.23635596 0.42903227 0.12508126 -0.3798116
0.010353056 -0.055036765 0.37797347 -0.040867206 0.15076949 -0.17782287 -0.3794085 -0.082163475
-0.30538523 -0.066972606 -0.6205713 -0.23680088 0.38078105 0.32169256 0.6000218 0.24493068
-0.060237173 -0.017079554 -0.059886213 -0.088025935 -0.110395536 0.4877642 -0.4217734 0.20417152
-0.1785066 0.2532881 -0.24668925 0.46926725 0.20539701 -0.24325575 0.4383564 -0.42510572
0.34133062 -0.3360343 0.29289094 0.112788625 0.129828 -0.024115216 0.8049243 0.4695064
-0.11150818 -0.12645967 0.3203694 0.41520882 0.38801238 0.2347946 0.39033657 0.1772629
-0.2013558 -0.207984 0.37393028 -0.2749748 -0.08408649 0.28284737 -0.7598579 -0.19118567
-0.15889284 0.4007471 0.2587927 0.43350688 -0.059261966 -0.105250716 0.57796526 -0.31494376
-0.13598719 0.32412183 0.18998092 -0.13827339 -0.5871288 0.10104246 -0.23164304 0.014646962
0.054925248 -0.1326127 -0.49453625 -0.17759974 0.43490282 0.10672379 -0.33301106 0.106619515
-0.04340702 -0.13150722 0.45345274 0.17123197 0.309106 0.2621085 -0.26124778 -0.40722698
0.20405696 0.31134954 0.6385581 0.3484075 0.20153472 0.11613697 0.39440367 0.22022682
-0.5333552 0.35711694 -0.13822515 0.24286407 -0.13114303 0.12523347 -0.27558827 -0.62690884
-0.19766678 0.24897344 -0.81297296 -0.24724199 0.24595866 0.23871353 -0.3215098 0.3684133
00000000: 77c7 42bc 1c17 533c e3bf 5ebe 7f11 ae3d
00000010: e585 30be 0b72 5c3e 2f17 a53e 6ef0 053f
00000020: 319b b03e 76ac 16be 4208 88bd 2b80 3ebe
00000030: 9e65 6a3e 87f1 223e 5feb 303f 1f6f 063f
00000040: 359a 2abe 29b3 573d cd90 d53d 156a 7dbd
00000050: 2c3e e0bd af90 e1be c1ec 3cbf d0a5 febe
00000060: 877c f4be 2264 d3be 18ce 5fbf 213f 15bf
00000070: eaf9 8cbe a8b7 c83e 2165 0d3f d108 053f
00000080: d231 c53d b943 a53d 30a1 073e 462e 89be
00000090: 8ee8 133f 3d90 ccbc e8e0 0d3f 97f2 9b3e
000000a0: e15e ce3e 62ea ac3e 2b85 c9bc de12 60bd
000000b0: 596c 593d 3dcb febc 6c36 8a3e f3e6 9a3e
000000c0: a2e5 7fbe b1f0 083e 6494 b6bd c47f 103f
000000d0: b452 e1bd e9e5 743e 756c 19bc 5d46 983e
000000e0: ca9f db3c a510 1d3d 5a8e 423f 9ebb 0b3f
000000f0: 2dad e4be 179c dfbe 10bb 68be 9a48 183d
00000100: e296 073e 9c0d cd3e 5e50 103e 5fe8 3d3c
00000110: 28fe 97be d2c6 b13e 8313 193e ba3d 42bd
00000120: 61ae ccbe 168d 0b3e f7fe 3bbf 1e03 6b3c
00000130: 2948 92be a869 3e3e 7fc3 45bf 9ecb b7be
00000140: 8700 39be 17c4 3dbc 4dd7 833e b354 6d3c
00000150: 9418 c23e 0b9f 24bd e41a a83e 09d7 a23e
00000160: 671f c6be 564e 2f3d 9135 bfbe 59d7 063f
00000170: 8beb ec3e 332a 10bd cf66 ca3d 80f0 ac3d
00000180: 332d b1bc 7935 0f3e ea77 02bf 8337 96be
00000190: 2762 543d 4455 cb3e eeaf 303f 5ab6 993e
000001a0: 0611 8fbe d366 c03e b5c4 ba3e 041f 7a3e
000001b0: aeb9 0bbe 9e4b 333e bd2a 0b3f fed4 b73e
000001c0: 8954 0d3f 5830 49be 4a1f 223f caf7 1dbe
000001d0: a4f3 3abd d19d 43bd a0b1 e13d 96c6 983e
000001e0: 3d10 823e 101a fa3b 36ec babe 63ee bdb9
000001f0: 2425 0c3f d1a5 f9bc 2ec8 b2be 8155 6e3d
00000200: 0062 afbd c0b5 213e 391b b53c 7286 6d3d
00000210: 399b 3bbd 78ec 42bd bfad 02bf 762a efbe
00000220: 4780 6f3e d7c5 b43e 7638 20bf d8fb 9cbe
00000230: 4c07 72be 1eaa db3e 4d15 003e ab76 c2be
00000240: dd9f 293c 3b6e 61bd bd85 c13e 5f64 27bd
00000250: 5163 1a3e 3317 36be d541 c2be 5345 a8bd
00000260: 745b 9cbe ef28 89bd c3dd 1ebf ee7b 72be
00000270: bcf5 c23e e3b4 a43e 079b 193f 1ccf 7a3e
00000280: 41bb 76bd 6cea 8bbc 3f4b 75bd f146 b4bd
00000290: 0e17 e2bd 3bbc f93e aff2 d7be 5712 513e
000002a0: 6fca 36be faae 813e 1b9c 7cbe cc43 f03e
000002b0: 9853 523e 0918 79be 4070 e03e 75a7 d9be
000002c0: e3c2 ae3e b00c acbe cdf5 953e b9fd e63d
000002d0: a2f1 043e 468d c5bc 850f 4e3f 2563 f03e
000002e0: 675e e4bd a57e 01be 7507 a43e 4096 d43e
000002f0: 8fa9 c63e ff6d 703e 32da c73e 6884 353e
00000300: 3730 4ebe c2f9 54be ca73 bf3e 7fc9 8cbe
00000310: 8a35 acbd 5fd1 903e 0c86 42bf 2dc6 43be
00000320: ceb4 22be b92e cd3e 7a80 843e 9df4 dd3e
00000330: adbc 72bd b08d d7bd 88f5 133f 4f40 a1be
00000340: 3a40 0bbe 4cf3 a53e 5c8a 423e 8a97 0dbe
00000350: 134e 16bf 59ef ce3d d533 6dbe d0f9 6f3c
00000360: 4cf9 603d a0cb 07be db33 fdbe b5dc 35be
00000370: 95ab de3e 0192 da3d 6d80 aabe 555b da3d
00000380: 8fcb 31bd d4a9 06be f52a e83e 6f57 2f3e
00000390: 2443 9e3e 1633 863e 45c2 85be 0e80 d0be
000003a0: 4ff4 503e 3569 9f3e 8b78 233f 7862 b23e
000003b0: 1e5f 4e3e 38d9 ed3d 47ef c93e 2483 613e
000003c0: f789 08bf 08d8 b63e e58a 0dbe 5cb1 783e
000003d0: 5c4a 06be 343d 003e e819 8dbe 197d 20bf
000003e0: 2969 4abe e5f2 7e3e ff1e 50bf 012d 7dbe
000003f0: 96dc 7b3e 5271 743e ef9c a4be aba0 bc3e

share_layer.bias f4 [256]
-0.20111555 0.012475223 -0.08167528 0.43277478 -0.3088229 -0.07595108 -0.069727376 0.22700761
-0.15125865 -0.25809798 0.39664623 -0.31854236 0.43551072 0.19106345 0.5076219 -0.22076295
-0.16471499 -0.15906677 -0.047392525 -0.020437706 -0.47747284 -0.14582841 -0.32839638 -0.1324254
0.005986799 -0.08015805 -0.2896608 0.034011684 -0.060614664 -0.27543262 -0.5618525 -0.19369921
0.1825471 0.27417928 -0.32969466 -0.2358258 -0.29278335 0.024606062 -0.07142311 -0.09039958
0.08234353 0.07266112 -0.05256967 -0.23831367 -0.49918124 0.3771751 -0.41094783 -0.090026766
-0.6304995 -0.06865027 0.21192208 -0.40761384 -0.048764266 -0.029578887 -0.055635832 -0.09108303
0.42455998 0.18399532 0.44412947 -0.035783775 -0.0032159355 0.11795467 -0.008853777 -0.50561076
0.013247738 -0.17023054 -0.0266682 -0.016717738 -0.5695073 -0.07867005 -0.2597641 -0.019284813
-0.540854 -0.01820956 -0.075595796 0.11854551 -0.07557786 -0.043993704 -0.30418518 0.29156584
-0.1630682 0.09470929 0.44092444 -0.39025667 0.37223396 0.06111216 -0.07408825 0.38145325
-0.058151413 -0.28858483 0.12017074 -0.10713508 0.03883172 -0.12670067 -0.059257608 -0.024051353
-0.06818276 0.3644675 -0.09069676 -0.2364206 -0.52654135 -0.4753147 0.16010486 -0.04779119
0.38080218 0.08925698 -0.48099977 -0.09939381 -0.040506434 -0.41123304 -0.044763874 -0.57995605
-0.063303635 0.24328405 -0.08115492 0.0059196884 -0.065222204 0.17061901 -0.26623878 -0.15470049
0.040607758 -0.07347444 -0.2878542 -0.40007713 -0.3730584 -0.5115922 0.3228847 -0.2810317
-0.21158156 -0.042917497 -0.3582507 0.12296291 -0.40307558 -0.11905873 0.0417652 -0.09637904
-0.16628167 -0.05226735 -0.3073565 -0.42349893 -0.03703614 -0.5352387 -0.20256785 -0.35611627
-0.23151237 0.054962974 -0.52389884 -0.46998662 0.16242148 -0.03999664 -0.45635396 -0.09649447
-0.15784371 -0.24613886 0.001001288 -0.07720256 0.5048984 -0.23328067 -0.23661357 -0.14392166
0.09722809 -0.08174941 -0.0345762 -0.088117205 -0.57877296 0.39906868 -0.13079926 -0.33794555
-0.058384817 -0.2431794 -0.39590284 0.011794604 -0.39875674 0.20903833 -0.09196616 -0.3306068
0.11519203 0.13715984 0.20958044 -0.12867786 -0.09096981 0.10611379 0.0054307403 -0.05062934
-0.52366906 -0.13473248 -0.036777243 -0.18772396 -0.1143096 0.010465463 -0.23029204 -0.26313233
-0.4465162 0.034626927 -0.22102194 -0.31735843 -0.2762849 -0.05749973 -0.04666764 0.12143245
-0.08050439 -0.08606538 -0.42049837 -0.2519929 -0.13844109 -0.0064326953 0.40152445 -0.5312858
-0.25187328 0.033139706 -0.031309735 -0.31048802 -0.05009393 -0.07405772 -0.0858552 0.35401925
-0.16320525 -0.15652908 0.36618197 -0.14084707 0.15388757 -0.53098434 -0.038867377 0.07453647
0.22224803 0.31953388 -0.20749433 0.36189795 -0.05639696 0.04456551 -0.21758063 -0.07732724
-0.034298684 0.12917356 -0.069167584 -0.14453095 -0.081667446 -0.67080104 -0.100630306 0.17203994
-0.10106669 -0.1055605 -0.3055074 -0.13143587 -0.21755186 0.24789655 -0.57398254 -0.4656487
0.14039473 0.42777044 -0.055762883 -0.16878736 0.0054193353 -0.076645784 -0.27933177 -0.3200793
00000000: 3cf1 4dbe e164 4c3c 5f45 a7bd a894 dd3e
00000010: 091e 9ebe 3d8c 9bbd 3acd 8ebd af74 683e
00000020: 8ce3 1abe 6b25 84be 3715 cb3e fc17 a3be
00000030: 43fb de3e 23a6 433e 82f3 013f af0f 62be
00000040: 0cab 28be 66e2 22be aa1e 42bd fa6c a7bc
00000050: 5277 f4be 0b54 15be 9223 a8be 869a 07be
00000060: e92c c43b e729 a4bd 6c4e 94be d64f 0b3d
00000070: 1547 78bd 8105 8dbe 91d5 0fbf 1659 46be
00000080: a1ed 3a3e 3a61 8c3e bdcd a8be 527c 71be
00000090: b3e7 95be a792 c93c 4846 92bd 6a23 b9bd
000000a0: baa3 a83d 5acf 943d 4b53 57bd 8008 74be
000000b0: af94 ffbe 181d c13e c167 d2be f45f b8bd
000000c0: 6a68 21bf 8398 8cbd 1a02 593e c3b2 d0be
000000d0: 0abd 47bd 6c4f f2bc 66e2 63bd bd89 babd
000000e0: ed5f d93e 4569 3c3e f064 e33e 0292 12bd
000000f0: 72c2 52bb 3892 f13d 6f0f 11bc b56f 01bf
00000100: 0a0d 593c ea50 2ebe 4577 dabc a3f3 88bc
00000110: 3bcb 11bf c31d a1bd cdff 84be 2ffb 9dbc
00000120: 6875 0abf 372c 95bc f8d1 9abd fdc7 f23d
00000130: 91c8 9abd be32 34bd 29be 9bbe 1e48 953e
00000140: 5afb 26be f2f6 c13d d9c0 e13e b9cf c7be
00000150: 7395 be3e bf50 7a3d 95bb 97bd d74d c33e
00000160: 2d30 6ebd 64c1 93be 141c f63d a369 dbbd
00000170: 020e 1f3d d2bd 01be 1bb8 72bd 5807 c5bc
00000180: 67a3 8bbd 7c9b ba3e 39bf b9bd 3e18 72be
00000190: 6acb 06bf 735c f3be 87f2 233e b2c0 43bd
000001a0: 81f8 c23e 5dcc b63d 9a45 f6be fb8e cbbd
000001b0: 13ea 25bd 238d d2be 535a 37bd 0078 14bf
000001c0: 56a5 81bd 741f 793e 8d34 a6bd f2f9 c13b
000001d0: 3893 85bd c0b6 2e3e 7350 88be ce69 1ebe
000001e0: 5254 263d c479 96bd a061 93be e9d6 ccbe
000001f0: 8301 bfbe b5f7 02bf 2551 a53e 63e3 8fbe
00000200: d6a8 58be 42ca 2fbd a36c b7be fad3 fb3d
00000210: ec5f cebe 10d5 f3bd fd11 2b3d 6062 c5bd
00000220: be45 2abe 4a16 56bd d55d 9dbe dad4 d8be
00000230: 35b3 17bd 6705 09bf f26d 4fbe df54 b6be
00000240: 9411 6dbe db20 613d 3c1e 06bf 16a2 f0be
00000250: d151 263e 84d3 23bd 3aa7 e9be e59e c5bd
00000260: c8a1 21be d30b 7cbe a63d 833a 601c 9ebd
00000270: 0641 013f 21e1 6ebe d44a 72be 3360 13be
00000280: 851f c73d 3c6c a7bd c69f 0dbd cb76 b4bd
00000290: 772a 14bf bb52 cc3e 3ef0 05be 3307 adbe
000002a0: eb24 6fbd 0504 79be c7b3 cabe 283e 413c
000002b0: d829 ccbe 250e 563e c158 bcbd 4b45 a9be
000002c0: cde9 eb3d a173 0c3e 419c 563e 21c4 03be
000002d0: 614e babd 3052 d93d 5af4 b13b b660 4fbd
000002e0: 2d0f 06bf 50f7 09be bca3 16bd b63a 40be
000002f0: 271b eabd 5577 2b3c add1 6bbe 48b9 86be
00000300: c59d e4be f7d4 0d3d 9353 62be ce7c a2be
00000310: 3775 8dbe d684 6bbd 9126 3fbd 94b1 f83d
00000320: 7cdf a4bd 0c43 b0bd 904b d7be 3705 81be
00000330: 80c3 0dbe 5cc9 d2bb 9d94 cd3e 5902 08bf
00000340: 89f5 80be 80bd 073d a33e 00bd 49f8 9ebe
00000350: 4b2f 4dbd 93ab 97bd dad4 afbd 0342 b53e
00000360: 471f 27be 2949 20be 347c bb3e 373a 10be
00000370: b494 1d3e 97ee 07bf 6633 1fbd 94a6 983d
00000380: fd94 633e f299 a33e 6579 54be b04a b93e
00000390: 8000 67bd 538a 363d 75cd 5ebe be5d 9ebd
000003a0: c77c 0cbd 1346 043e bca7 8dbd ecff 13be
000003b0: 4341 a7bd 9eb9 2bbf 4317 cebd 3d2b 303e
000003c0: 0efc cebd 1a30 d8bd 776b 9cbe 2097 06be
000003d0: eac5 5ebe 98d8 7d3e 85f0 12bf 8269 eebe
000003e0: a3c3 0f3e ba04 db3e 9f67 64bd 98d6 2cbe
000003f0: ae94 b13b 77f8 9cbd 9304 8fbe 6fe1 a3be

value_layer.weight f4 [1, 256]
-0.0033934661 0.005212887 -0.22953714 0.18057898 0.06500804 -0.11123434 -0.09415015 0.026389794
0.011429008 -0.1449794 0.12755439 -0.09979838 0.07892151 0.04300786 0.12697499 -0.07820942
-0.043857902 0.0017093123 -0.110397145 -0.012825208 -0.013920907 -0.050551817 -0.011316409 -0.21328194
0.016591953 -0.14066786 0.15129365 0.0066373893 -0.21926259 0.0017823129 -0.011913068 -0.17239033
0.033320118 0.06057464 -0.05141797 0.005205134 -0.012409076 0.027197657 -0.07747755 -0.14569956
0.0110410685 0.024288846 0.0023844463 0.017077133 -0.07543918 0.11287403 0.0023482384 -0.0571791
0.027964272 0.0030502102 0.048685018 0.053947914 0.013719043 -0.16196007 0.008922211 -0.23130304
0.1220268 0.062038023 0.15045673 -0.021165086 -0.15977785 0.031319205 -0.0007017415 0.0026612286
0.013694377 -0.004307043 -0.16036895 0.0031196421 0.01766744 -0.23392814 0.0027956588 0.008152112
0.021682717 -0.19387937 -0.21866375 0.05249596 -0.24700291 -0.11108801 -0.031345773 0.09397499
-0.08353911 0.04565521 0.16622706 -0.003870416 0.09617259 0.034598667 -0.13307679 0.08576288
-0.05953207 -0.012354844 0.042672414 -0.00079653173 0.032020807 -0.028084654 -0.014938461 0.0081353355
0.0010618297 0.11164043 -0.024053898 -0.20071442 0.021216083 0.051918235 0.03338324 0.01167748
0.17712572 0.029654019 0.011901869 -0.015158061 0.0087733995 -0.003806771 -0.13806929 0.007472715
-0.052105814 0.04139873 -0.05397092 -0.10387272 0.007276459 0.06844416 -0.056981582 -0.15511441
0.02268496 -0.07693002 0.010343431 -0.03073097 0.007495459 0.05065384 0.07057051 0.17188945
-0.0061430205 -0.04718852 -0.054922566 0.027932402 -0.014925383 -0.07408281 0.020055978 -0.09440641
-0.00030773878 -0.15877044 -0.03519401 -0.011609744 -0.17103827 -0.034239262 -0.003932999 -0.062055852
-0.037844952 0.023806058 -0.032649517 0.0007401414 0.05030483 0.022002796 0.07617239 -0.010400561
-0.08215535 -0.016107807 0.02247383 -0.25453708 0.12213398 -0.050796982 -0.23080161 -0.03433257
0.04426376 -0.00081959326 -0.003088065 -0.108452186 0.004709116 0.1677903 -0.3362231 0.06918279
0.011071371 -0.0053334855 -0.0022054357 -0.22894937 -0.07386492 0.0699381 -0.0026088322 -0.10081036
0.036103684 0.062226873 0.072529905 -0.061291218 0.010362761 0.032210402 0.013313796 0.004321732
0.010427496 -0.2133497 -0.031657904 -0.020725327 -0.11659737 0.0116294995 -0.013802823 -0.0014406637
-0.038993094 0.016514257 -0.07658013 -0.021505315 -0.19816212 0.0060834684 -0.10684699 0.028460752
0.00384389 -0.24524872 0.035274275 0.015396108 -0.014746581 0.006999397 0.09541131 -0.0033583667
-0.0024095336 0.016211063 -0.17424388 0.0032981157 0.015117745 -0.065816045 -0.0018325697 0.16627088
0.037383817 -0.011743393 0.077573635 -0.12857476 0.04945071 0.046820637 -0.15361534 0.011199014
0.048295364 0.07727171 -0.12693928 0.06271147 -0.17156513 0.019014487 0.006783431 -0.080363296
-0.19703744 0.0131231975 -0.12603188 -0.13281542 -0.25683758 0.02124236 -0.08299006 0.07910212
0.0037320375 -0.20443988 -0.11637752 0.002507974 -0.07971747 0.05283095 -0.00055155373 0.009793923
0.019287163 0.13594809 0.0028228438 -0.16805291 -0.021088256 -0.10594303 0.044052888 -0.046768278
00000000: ea64 5ebb ded0 aa3b c90b 6bbe b2e9 383e
00000010: ef22 853d d4ce e3bd cbd1 c0bd 692f d83c
00000020: bc40 3b3c 7b75 14be 9e9d 023e 1863 ccbd
00000030: 9aa1 a13d 0329 303d bb05 023e 432c a0bd
00000040: 58a4 33bd 010b e03a e617 e2bd d220 52bc
00000050: 8414 64bc 6c0f 4fbd 7668 39bc 9566 5abe
00000060: d9eb 873c 3c0b 10be b9ec 1a3e 757e d93b
00000070: 5f86 60be 7f9c e93a 072f 43bc 1787 30be
00000080: ad7a 083d 1d1d 783d a69b 52bd d48f aa3b
00000090: 704f 4bbc 9fcd de3c 8dac 9ebd 4432 15be
000000a0: 99e5 343c 67f9 c63c 5f44 1c3b 58e5 8b3c
000000b0: db7f 9abd 802a e73d e7e4 193b a234 6abd
000000c0: 5415 e53c 09e6 473b f169 473d 7df8 5c3d
000000d0: d6c5 603c dcd8 25be 772e 123c b4da 6cbe
000000e0: 30e9 f93d 951b 7e3d 5411 1a3e 6762 adbc
000000f0: ce9c 23be 9148 003d 13f5 37ba 0268 2e3b
00000100: 615e 603c 1822 8dbb c237 24be e972 4c3b
00000110: 4fbb 903c dc8a 6fbe 5f37 373b 7090 053c
00000120: f49f b13c 5088 46be 64e9 5fbe 0106 573d
00000130: 55ee 7cbe 1c82 e3bd 6d64 00bd f675 c03d
00000140: 8e16 abbd f500 3b3d 6d37 2a3e cea6 7dbb
00000150: 23f6 c43d 55b7 0d3d 4845 08be 73a4 af3d
00000160: e6d7 73bd f96b 4abc 45c9 2e3d 57ce 50ba
00000170: 4028 033d ca11 e6bc 72c0 74bc 124a 053c
00000180: 182d 8b3a bda3 e43d ae0c c5bc 1588 4dbe
00000190: 5acd ad3c 37a8 543d ddbc 083d e752 3f3c
000001a0: 7260 353e fcec f23c 0f00 433c 8459 78bc
000001b0: 4ebe 0f3c 057b 79bb 0962 0dbe addd f43b
000001c0: e86c 55bd b791 293d 9d10 5dbd 38bb d4bd
000001d0: 5d6f ee3b 742c 8c3d 8565 69bd 50d6 1ebe
000001e0: cfd5 b93c 7c8d 9dbd 7e77 293c 84bf fbbc
000001f0: 789c f53b 677a 4f3d 4687 903d ca03 303e
00000200: 644b c9bb c048 41bd 7cf6 60bd 7ed2 e43c
00000210: 9889 74bc bab8 97bd 6f4c a43c 2658 c1bd
00000220: 0058 a1b9 b894 22be 9827 10bd cc36 3ebc
00000230: a824 2fbe 783e 0cbd 63e0 80bb 472e 7ebd
00000240: 4f03 1bbd ec04 c33c 80bb 05bd 0c06 423a
00000250: 700c 4e3d 353f b43c 4500 9c3d 1d67 2abc
00000260: 1041 a8bd 85f4 83bc 0a1b b83c af52 82be
00000270: 6121 fa3d 7f10 50bd 4257 6cbe 4fa0 0cbd
00000280: eb4d 353d f9d9 56ba 2261 4abb 2e1c debd
00000290: ee4e 9a3b 38d1 2b3e 6f25 acbe b5af 8d3d
000002a0: b264 353c 85c4 aebb 1289 10bb b471 6abe
000002b0: 7e46 97bd b53b 8f3d f1f8 2abb a975 cebd
000002c0: 75e1 133d 9be1 7e3d 8f8a 943d 800c 7bbd
000002d0: 92c8 293c 0eef 033d 1c22 5a3c 519d 8d3b
000002e0: 17d8 2a3c 5878 5abe b8ab 01bd 29c8 a9bc
000002f0: 9aca eebd a889 3e3c 3c25 62bc a7d4 bcba
00000300: 39b7 1fbd e848 873c 0bd6 9cbd ea2b b0bc
00000310: 03eb 4abe d557 c73b 98d2 dabd 8626 e93c
00000320: c6e9 7b3b 7b22 7bbe c27b 103d f53f 7c3c
00000330: a59b 71bc 335b e53b 0167 c33d 0b18 5cbb
00000340: 44e9 1dbb 10cd 843c fd6c 32be 3325 583b
00000350: 6bb0 773c 90ca 86bd d632 f0ba ea42 2a3e
00000360: c61f 193d 5c67 40bc edde 9e3d 1aa9 03be
00000370: d48c 4a3d ffc6 3f3d 574d 1dbe 127c 373c
00000380: 5cd1 453d a140 9e3d 5ffc 01be df6e 803d
00000390: c5ae 2fbe 45c4 9b3c 8b47 de3b 8395 a4bd
000003a0: 2fc4 49be ae02 573c 800e 01be c400 08be
000003b0: 3780 83be 7504 ae3c b1f6 a9bd 4b00 a23d
000003c0: 3395 743b b058 51be 5657 eebd d25c 243b
000003d0: ea42 a3bd 4465 583d 2596 10ba b176 203c
000003e0: 1d00 9e3c fa35 0b3e 76ff 383b 1016 2cbe
000003f0: 47c1 acbc a9f8 d8bd cd70 343d 1890 3fbd

action_layer.weight f4 [2, 256]
-0.04584307 -0.10706731 0.13789302 -0.26886678 -0.018356338 0.100462615 0.18727401 -0.23731658
0.048828084 -0.03853917 -0.05510383 -0.12954986 -0.062670104 -0.09821827 -0.19918372 0.048209168
0.03258 0.0068183024 0.0068490133 0.11685962 0.0033850167 -0.15888096 -0.016351985 -0.093210466
0.08119433 -0.15108521 -0.021004792 -0.17323549 -0.11239122 -0.07213996 0.028454497 -0.08777457
-0.012684777 0.17107128 0.0015597601 0.12622759 -0.047014825 0.042271633 0.091633596 -0.068683036
0.035111815 -0.052650906 -0.11550917 0.13032201 0.041951634 -0.19897743 -0.16161345 -0.038580492
-0.048899133 0.107497364 -0.2006609 0.020089824 0.056101207 -0.004463391 0.14095712 -0.06020324
-0.06679292 0.05483428 -0.121104285 -0.15494461 -0.13346797 0.16147043 0.11605428 -0.053751692
-0.11412889 0.12324371 -0.061959207 -0.10975603 -0.027504986 -0.1649899 0.06482728 -0.041788056
-0.03194841 -0.053049054 -0.17892335 0.0757889 -0.19795848 0.042155553 0.06310098 -0.16563489
0.23128459 0.13638696 -0.14516845 -0.076367736 0.0035239502 0.029040186 -0.16572265 0.11583414
0.13014229 -0.05406002 -0.014522708 0.03930162 -0.030903818 -0.03706709 0.008773606 0.096775964
0.039079476 0.08146094 0.05070812 -0.033877667 -0.21280852 0.08149945 -0.2506604 0.015952693
-0.012991593 0.06650398 0.027472075 0.16769654 0.20271845 -0.039678276 -0.1628533 -0.18107174
0.041436497 0.051651303 0.007799727 -0.17808339 0.015969861 -0.077335514 -0.14765479 6.4661384e-05
0.036211032 0.117540896 0.049680144 -0.024511788 0.07081104 -0.07855271 0.053501807 0.08186231
-0.16355136 -0.07430801 -0.0500775 0.17540625 0.042730484 0.009274166 -0.15782446 0.05632038
0.051236685 0.093629904 0.057607897 0.031297103 0.10715798 0.057104036 -0.11063676 -0.0071657165
0.002662864 -0.25828883 0.029154008 -0.07266288 0.031293247 -0.031422663 0.06549646 0.102682345
-0.04825435 0.1263345 -0.07590538 -0.30742854 0.055659078 0.01524487 -0.022288576 0.10074413
-0.00092834997 -0.079697214 -0.012649527 -0.11439655 -0.04951046 -0.022326233 0.24478157 -0.04994668
0.18952107 0.007706256 -0.109524265 -0.26315606 -0.011704747 -0.01996449 0.070586994 -0.078061715
0.035465587 -0.006618346 0.25350213 0.01268062 -0.010986073 0.21903451 -0.16233337 0.038468596
-0.16625138 0.001057136 -0.18306701 0.072015345 -0.06379501 -0.046303496 0.08776243 -0.03487251
-0.046661638 -0.16698304 0.02988571 0.024523001 -0.05288203 0.005197529 0.11685692 0.053395744
-0.037961632 -0.19592945 0.03076883 -0.004039013 0.10275319 0.019618265 -0.086079255 -0.11027018
0.00907507 0.21592237 0.037552476 0.0046273316 0.04842092 -0.11518445 0.18846391 0.12467666
-0.11569617 -0.06141086 0.11248994 -0.15620099 -0.011777857 -0.06256532 -0.027742065 -0.14419702
0.20935832 0.12579264 0.029686373 0.10012308 -0.26669624 -0.08283172 -0.13676985 0.018927386
0.0644992 -0.11227603 -0.06227823 0.02289835 0.00053456833 0.0027610403 0.27917653 -0.019256707
-0.036411826 -0.046381883 -0.11976423 -0.01634917 0.07637215 -0.25618917 -0.054196533 0.11796842
-0.2147712 -0.11145027 -0.06789358 -0.0072213076 -0.20533957 0.09693975 -0.040826894 -0.14565997
00000000: f1c5 3bbd 1b46 dbbd d433 0d3e e8a8 89be
00000010: 0860 96bc 58bf cd3d c2c4 3f3e 1e03 73be
00000020: f5ff 473d 40db 1dbd 8eb4 61bd b8a8 04be
00000030: 2f59 80bd a926 c9bd d1f6 4bbe fa76 453d
00000040: 9b72 053d 116c df3b b06d e03b 1954 ef3d
00000050: 28d7 5d3b b1b1 22be 99f4 85bc 21e5 bebd
00000060: 3649 a63d 15b6 1abe 3e12 acbc a564 31be
00000070: 5e2d e6bd 1ebe 93bd 6819 e93c 27c3 b3bd
00000080: d0d3 4fbc 4f2d 2f3e dd70 cc3a ce41 013e
00000090: 9e92 40bd 0525 2d3d 65aa bb3d b1a9 8cbd
000000a0: 68d1 0f3d 7aa8 57bd 1290 ecbd 2273 053e
000000b0: 7ad5 2b3d bdc0 4bbe ff7d 25be 9406 1ebd
000000c0: 754a 48bd 9427 dc3d 0d7a 4dbe 6a93 a43c
000000d0: 61ca 653d a341 92bb 1057 103e ac97 76bd
000000e0: baca 88bd e999 603d 8605 f8bd cda9 1ebe
000000f0: d4ab 08be 8158 253e dead ed3d bc2a 5cbd
00000100: 68bc e9bd 3367 fc3d f0c8 7dbd c5c7 e0bd
00000110: 2352 e1bc 1df3 28be 2ac4 843d f429 2bbd
00000120: 56dc 02bd f749 59bd af37 37be 3637 9b3d
00000130: a1b5 4abe 4dab 2c3d 163b 813d 319c 29be
00000140: ded5 6c3e 06a9 0b3e 0aa7 14be b066 9cbd
00000150: 13f2 663b afe5 ed3c 33b3 29be 733a ed3d
00000160: 0544 053e 0a6e 5dbd a7f0 6dbc bcfa 203d
00000170: 012a fdbc a9d3 17bd 2cbf 0f3c 7a32 c63d
00000180: cd11 203d fed4 a63d 51b3 4f3d 4fc3 0abd
00000190: 7aea 59be 2fe9 a63d 8f56 80be 39af 823c
000001a0: b1da 54bc 3d33 883d 1e0d e13c a4b8 2b3e
000001b0: 6d95 4f3e b085 22bd 04c3 26be df6a 39be
000001c0: 51b9 293d 5190 533d da94 ff3b 7e5b 36be
000001d0: 3ad3 823c 1562 9ebd d132 17be d19a 8738
000001e0: 0552 143d 48b9 f03d 687d 4b3d f2cc c8bc
000001f0: 6105 913d 3ee0 a0bd b624 5b3d 6da7 a73d
00000200: 027a 27be cc2e 98bd 111e 4dbd b29d 333e
00000210: 2906 2f3d acf2 173c bc9c 21be 33b0 663d
00000220: 8fdd 513d 09c1 bf3d 42f6 6b3d 6431 003d
00000230: a575 db3d ece5 693d 8795 e2bd 63ce eabb
00000240: 7283 2e3b 6f3e 84be 63d4 ee3c 47d0 94bd
00000250: 592d 003d 0db5 00bd 0223 863d 1f4b d23d
00000260: 5aa6 45bd d55d 013e 4874 9bbd 4667 9dbe
00000270: c6fa 633d 9fc5 793c 8896 b6bc f052 ce3d
00000280: 835c 73ba 4b38 a3bd f63f 4fbc bd48 eabd
00000290: 7bcb 4abd 81e5 b6bc 05a8 7a3e e494 4cbd
000002a0: d011 423e c384 fc3b 424e e0bd 64bc 86be
000002b0: 44c5 3fbc 928c a3bc ea8f 903d d2de 9fbd
000002c0: 5d44 113d b6de d8bb 08cb 813e 60c2 4f3c
000002d0: eefe 33bc 954a 603e b83a 26be 3f91 1d3d
000002e0: cd3d 2abe 998f 8a3a eb75 3bbe c87c 933d
000002f0: f5a6 82bd bca8 3dbd cabc b33d 7ad6 0ebd
00000300: 4620 3fbd 9afd 2abe e0d2 f43c 76e4 c83c
00000310: d49a 58bd 0950 aa3b ae52 ef3d 7fb5 5a3d
00000320: a87d 1bbd bba1 48be ea0e fc3c b259 84bb
00000330: 4470 d23d 7cb6 a03c 524a b0bd 55d5 e1bd
00000340: 9aaf 143c c11a 5d3e a0d0 193d dfa0 973b
00000350: 0455 463d d3e5 ebbd affc 403e 7a56 ff3d
00000360: 1df2 ecbd f489 7bbd 2061 e63d 27f3 1fbe
00000370: eaf7 40bc 3f22 80bd 5443 e3bc 62a8 13be
00000380: 0762 563e c9cf 003e d630 f33c 540d cd3d
00000390: 698c 88be ada3 a9bd 650d 0cbe 9b0d 9b3c
000003a0: 2818 843d faf0 e5bd 7517 7fbd 5295 bb3c
000003b0: 4622 0c3a 92f2 343b 3af0 8e3e 3ec0 9dbc
000003c0: 9124 15bd eefa 3dbd f346 f5bd b2ee 85bc
000003d0: 0069 9c3d 3a2b 83be 2ffd 5dbd 6d99 f13d
000003e0: fbec 5bbe 0a40 e4bd ca0b 8bbd b8a0 ecbb
000003f0: 8944 52be 5988 c63d 1a3a 27bd e327 15be

action_layer.bias f4 [2]
0.010177703 0.06033006
00000000: 61c0 263c a71c 773d
