hw1/preTrained/LunarLander_baseline_0.005.pth (torch, 16343 bytes, 5 tensors)

share_layer.weight f4 [256, 8]
-0.0853641 -0.0919393 -0.07739539 0.07308953 -0.20430154 -0.045576558 -0.004025667 0.19469805
0.08357112 -0.001712923 -0.107436016 0.04846046 0.28608793 0.022888301 0.111513376 0.41437232
-0.1621291 -0.2480546 -0.036267098 -0.2405013 0.10688952 -0.23033203 -0.39196396 -0.45396793
-0.49151278 -0.7868348 0.08062777 -0.25065622 -0.5429355 0.03873366 0.22852121 0.15734887
-0.0025846662 -0.07162225 0.08638092 -0.3325677 0.17909923 -0.2584652 0.28872505 0.04294208
0.29166105 0.13389133 -0.00010665487 -0.20953605 0.04188147 -0.03849415 0.03819867 0.15774035
-0.33188084 0.12385724 -0.60257727 0.46544442 -0.07012146 -0.006078476 -0.33986548 0.15843588
0.2543748 -0.073617056 0.48719984 0.32205576 -0.4610187 -0.16305949 0.019008499 0.013831299
-0.056480903 0.23115966 0.26479292 -0.26582927 -0.4988139 0.04580141 0.33282366 -0.272946
-0.21019508 -0.0002097023 -0.22859477 -0.1917304 -0.34340602 0.06999154 0.13966788 -0.21568117
-0.33103904 -0.30087665 0.12729704 -0.06701598 0.22758615 -0.35229468 -0.14196791 0.37653995
-0.21956688 -0.2503484 -0.34441617 0.5141483 0.82796115 -0.082459815 -0.0453404 0.2612289
-0.0060685547 0.14397155 -0.25664482 -0.17437968 0.15749379 0.15735663 0.31969067 0.12623872
-0.21172458 0.07306371 0.18158689 0.17106566 -0.18636861 0.043781944 0.08634289 0.07779219
0.018764298 -0.32509333 0.07479828 -0.14506495 0.11006183 -0.25009876 -0.11919138 0.3027001
0.1816464 0.2126321 -0.12188354 -0.20638162 0.23445702 -0.06614326 -0.3111849 0.14009835
-0.47386208 0.009918542 0.02442419 -0.15343809 -0.12662257 -0.096272364 -0.21500206 -0.16053799
-0.16103585 0.050553486 -0.30696118 -0.54972374 -0.14532849 0.26052397 0.48411283 -0.2724362
-0.07897397 -0.034192573 0.110789694 -0.120466895 0.26813713 -0.05574268 -0.39943922 -0.07148647
-0.32588696 0.34739655 -0.30928403 -0.24877687 0.43772972 0.34044698 0.25163367 -0.08510169
-0.65247124 -0.54313534 0.14565381 -0.20174247 -0.5451295 0.010914359 -0.18900399 -0.12545866
-0.46570897 0.12652701 0.026361931 0.27080476 -0.023582675 -0.29834566 0.25929523 -0.3842798
0.038767345 -0.14389451 0.15091456 -0.10900939 0.012782369 -0.20772745 0.34137616 0.35343686
-0.043614455 0.010409464 -0.018946387 0.2769827 0.44262868 0.45582238 0.033835273 0.08774213
-0.20864183 -0.41806224 0.21992971 -0.19920363 -0.04687287 0.18682145 -0.45609716 -0.368381
-0.3681277 0.01835652 0.09012774 0.06863913 -0.119093336 -0.2508224 0.6741999 0.1548105
-0.24278927 0.10268899 0.35949743 -0.2581313 -0.6024241 -0.09329712 0.023360217 -0.11061127
0.03866779 -0.022982962 -0.20101002 -0.17506194 0.26940212 -0.059245866 -0.16425411 -0.05299496
-0.20986754 -0.09874611 0.06732323 0.06916012 0.33406428 0.32714775 -0.021268709 -0.43458834
-0.13087335 -0.02538306 0.06784453 -0.12067278 0.23492683 0.3561106 0.26339793 0.29669094
-0.48779005 -0.03771106 -0.024858264 -0.057154305 0.053621218 0.14709838 0.28091052 -0.50887215
-0.1196094 -0.0019848428 -0.19492838 -0.25235596 0.11939243 -0.008646346 -0.26263776 0.23223972
00000000: 60d3 aebd ac4a bcbd 7981 9ebd f7af 953d
00000010: 6c34 51be 7cae 3abd bee9 83bb ed5e 473e
00000020: 5627 ab3d 2984 e0ba 6a07 dcbd 7a7e 463d
00000030: 1e7a 923e 3f80 bb3c 2061 e43d 9c28 d43e
00000040: 2c05 26be 0602 7ebe cf8c 14bd f945 76be
00000050: e5e8 da3d 29dc 6bbe 80af c8be 7c6e e8be
00000060: 90a7 fbbe 016e 49bf 2c20 a53d 0356 80be
00000070: d2fd 0abf 30a7 1e3d 7701 6a3e 1020 213e
00000080: 8163 29bb b0ae 92bd 7be8 b03d 5046 aabe
00000090: ca65 373e 8d55 84be c5d3 933e 09e4 2f3d
000000a0: 9954 953e cf1a 093e e6ab dfb8 9e90 56be
000000b0: e78b 2b3d 0bac 1dbd 3576 1c3d b086 213e
000000c0: 49ec a9be dda8 fd3d 8142 1abf bb4e ee3e
000000d0: d79b 8fbd f42d c7bb d902 aebe 043d 223e
000000e0: 6a3d 823e 8ac4 96bd 4272 f93e 7ee4 a43e
000000f0: a50a ecbe 11f9 26be b6b7 9b3c ac9c 623c
00000100: 8558 67bd 1eb5 6c3e f092 873e c61a 88be
00000110: 8964 ffbe 429a 3b3d dd67 aa3e 94bf 8bbe
00000120: 613d 57be 88e3 5bb9 bf14 6abe f954 44be
00000130: ead2 afbe b957 8f3d 1905 0f3e 86db 5cbe
00000140: f37d a9be 810c 9abe 285a 023e ad3f 89bd
00000150: 580c 693e f85f b4be 0960 11be d8c9 c03e
00000160: 24d6 60be aa2d 80be 5157 b0be 399f 033f
00000170: 43f5 533f b1e0 a8bd dbb6 39bd cbbf 853e
00000180: bada c6bb 476d 133e f366 83be 9690 32be
00000190: 0d46 213e 1922 213e 7fae a33e b944 013e
000001a0: 54ce 58be 6da2 953d eaf1 393e d62b 2f3e
000001b0: 6ad7 3ebe b254 333d 8bd4 b03d 8351 9f3d
000001c0: 96b7 993c a272 a6be d72f 993d e88b 14be
000001d0: 1968 e13d f20c 80be 9c1a f4bd 82fb 9a3e
000001e0: 8401 3a3e 3bbc 593e 149e f9bd b455 53be
000001f0: 8015 703e 1e76 87bd a153 9fbe f175 0f3e
00000200: 0d9e f2be 6181 223c 3d15 c83c e01e 1dbe
00000210: 59a9 01be 722a c5bd 8029 5cbe 1264 24be
00000220: 95e6 24be 2c11 4f3d 042a 9dbe b2ba 0cbf
00000230: fed0 14be 6663 853e a3dd f73e c27c 8bbe
00000240: 1bbd a1bd 830d 0cbd b5e5 e23d 59b7 f6bd
00000250: 4549 893e 7052 64bd 4c83 ccbe 8067 92bd
00000260: a8da a6be f6dd b13e 7a5a 9ebe 5dbf 7ebe
00000270: 1c1e e03e 114f ae3e 21d6 803e cb49 aebd
00000280: 5b08 27bf eb0a 0bbf 4626 153e 9495 4ebe
00000290: 9b8d 0bbf 24d2 323c 438a 41be 3c78 00be
000002a0: 6871 eebe 4c90 013e faf4 d73c eca6 8a3e
000002b0: 7430 c1bc c3c0 98be 58c2 843e 52c0 c4be
000002c0: 82ca 1e3d 1559 13be 5989 1a3e 5140 dfbd
000002d0: 246d 513c 81b6 54be dbc8 ae3e adf5 b43e
000002e0: 12a5 32bd 758c 2a3c 7435 9bbc add0 8d3e
000002f0: 3aa0 e23e 8d61 e93e db96 0a3d 25b2 b33d
00000300: 34a6 55be 410c d6be 4135 613e 09fc 4bbe
00000310: c4fd 3fbd 1f4e 3f3e 9185 e9be 6f9c bcbe
00000320: 3c7b bcbe 6a60 963c e494 b83d ac92 8c3d
00000330: 35e7 f3bd cb6b 80be 5d98 2c3f a586 1e3e
00000340: c09d 78be 9b4e d23d 0c10 b83e c929 84be
00000350: 7738 1abf 8f12 bfbd ed5d bf3c 2988 e2bd
00000360: 1e62 1e3d c446 bcbc 92d5 4dbe 7043 33be
00000370: 13ef 893e cbab 72bd 3b32 28be 3e11 59bd
00000380: 84e7 56be 673b cabd c3e0 893d d2a3 8d3d
00000390: 790a ab3e e97f a73e b73b aebc 5d82 debe
000003a0: aa03 06be 23f0 cfbc 13f2 8a3d 4a23 f7bd
000003b0: a990 703e 2154 b63e 18dc 863e e0e7 973e
000003c0: 9ebf f9be ea76 1abd 8fa3 cbbc a21a 6abd
000003d0: eca1 5b3d f5a0 163e 81d3 8f3e 7245 02bf
000003e0: c6f5 f4bd 2314 02bb 4e9b 47be cd34 81be
000003f0: 0584 f43d 67a9 0dbc 7578 86be 40d0 6d3e

share_layer.bias f4 [256]
-0.0574552 0.27898526 0.1745183 -0.2528029 -0.02888106 -0.30911723 0.07911869 -0.4078482
-0.16161099 -0.45320863 0.3419696 -0.039722744 0.23216502 -0.29938778 -0.30770537 -0.16454147
0.14498445 -0.28778204 -0.186394 0.15307455 -0.20935294 -0.35979006 -0.24453697 -0.42141762
-0.19670735 -0.3720847 -0.08898306 -0.0828649 0.19667225 -0.034089625 -0.05113122 -0.24316902
-0.2290022 -0.19220328 0.07670735 -0.22274174 -0.45648995 -0.3365889 -0.3509775 -0.33912265
-0.12738049 -0.41818517 -0.043706857 -0.25679186 -0.20057322 -0.36749208 -0.35988572 -0.0365736
-0.14280713 -0.49929878 0.33566836 -0.08043885 -0.10206904 0.13446723 0.08481588 -0.09333503
-0.12341194 0.41521436 0.07372873 -0.38928455 -0.33141345 -0.03479332 0.008022724 -0.29906946
0.004526189 0.075393856 0.020242386 0.20337443 -0.35601985 0.32079408 -0.2209432 -0.21267389
-0.023538265 -0.23120043 0.06913756 -0.21806487 -0.42391744 -0.028225552 -0.06887291 0.026558371
-0.19188891 -0.2533677 -0.048619412 -0.2011261 -0.43577936 -0.19432865 0.2269273 -0.21392807
-0.18549934 0.15267289 -0.46074417 -0.28949678 -0.056255657 -0.28253055 -0.3325389 -0.036698192
0.27263328 -0.088257656 -0.09046502 -0.10214893 -0.12948999 0.21091925 0.12658322 -0.049578916
-0.14711706 -0.3235004 -0.22448736 -0.0017191328 0.105474375 0.1483923 0.0941256 -0.17819402
0.15863372 -0.27485925 -0.4252693 0.094317116 0.019393329 -0.3729807 -0.4075024 0.22244744
0.11346708 0.07575803 0.12937005 -0.3154678 -0.3860604 -0.25284275 -0.20049563 -0.30903223
0.170797 -0.25840375 -0.2223505 -0.288542 -0.40409362 -0.27686423 -0.14141685 -0.18346159
-0.43468443 0.016264748 -0.3017678 0.38144368 -0.19580129 -0.0855031 0.23740974 -0.33068803
-0.33592817 -0.19063587 -0.13223512 -0.3177166 -0.079403765 -0.396339 -0.2604284 -0.19528927
-0.073510535 -0.17605114 -0.025346423 0.03617213 -0.38157824 -0.39685303 -0.22332083 -0.3637915
0.00080512866 0.18718469 0.047639955 -0.1556213 -0.12655775 -0.16971813 0.3094245 0.08104001
0.029534014 -0.31524342 0.17024462 -0.23409891 -0.11546401 0.30431372 -0.17937407 -0.18507281
-0.44333643 0.13772461 -0.37997186 -0.165841 -0.12929657 -0.15919396 -0.07105677 -0.1637435
-0.10460764 -0.11563012 -0.005808648 -0.23011324 -0.28902656 -0.21185003 0.13239688 -0.45258346
-0.14771084 -0.20327976 -0.19380555 -0.2032297 -0.1006037 -0.33037552 0.30980504 -0.030842243
-0.27059424 -0.1397599 -0.33361325 0.09334444 -0.24095628 0.16397305 0.0981948 -0.32739365
-0.0047564534 0.13261545 0.33334315 -0.45289838 0.20059425 -0.24776284 -0.012990352 0.3878537
-0.051174704 -0.09561129 -0.37399334 -0.110403135 -0.46207735 0.22211564 0.103226006 -0.31645617
0.16733235 -0.1806848 0.10174552 -0.36212832 -5.0838724e-05 0.09062503 -0.2014041 0.13888192
-0.39129442 0.0513678 0.074117854 -0.3094199 -0.08998373 0.079211 -0.0057816603 -0.2700075
-0.124207795 0.10361765 -0.10309516 -0.09243462 -0.40753445 0.19910453 -0.3943938 -0.12200846
0.35090673 0.32616377 0.29916397 0.17359103 -0.30915952 -0.04415969 -0.30629143 0.2223002
00000000: 2556 6bbd 28d7 8e3e edb4 323e 626f 81be
00000010: f997 ecbc 9d44 9ebe fb08 a23d 7bd1 d0be
00000020: 5a7d 25be f60a e8be a416 af3e 51b4 22bd
00000030: abbc 6d3e 5b49 99be 8f8b 9dbe 8f7d 28be
00000040: ce76 143e 2b58 93be 12de 3ebe 93bf 1c3e
00000050: 9e60 56be 6736 b8be e667 7abe 0dc4 d7be
00000060: a76d 49be e381 bebe c03c b6bd 13b5 a9bd
00000070: 7364 493e 90a1 0bbd f86e 51bd 4d01 79be
00000080: 8d7f 6abe f0d0 44be be18 9d3d 6916 64be
00000090: 0db9 e9be 6155 acbe 53b3 b3be 7ca1 adbe
000000a0: 0870 02be 5e1c d6be f605 33bd 397a 83be
000000b0: 1163 4dbe ec27 bcbe f142 b8be 33ce 15bd
000000c0: 083c 12be 17a4 ffbe b9dc ab3e 20bd a4bd
000000d0: 9309 d1bd c7b1 093e f3b3 ad3d 7026 bfbd
000000e0: 66bf fcbd fa96 d43e 17ff 963d 4e50 c7be
000000f0: 06af a9be 7183 0ebd be71 033c a21f 99be
00000100: 6d50 943b 1868 9a3d 5cd3 a53c 6341 503e
00000110: 3c48 b6be 1f3f a43e ef3e 62be 2fc7 59be
00000120: 52d3 c0bc cebf 6cbe fe97 8d3d 664c 5fbe
00000130: b50b d9be 4639 e7bc 3e0d 8dbd f190 d93c
00000140: 877e 44be 69b9 81be 2625 47bd 00f4 4dbe
00000150: 791e dfbe 17fe 46be a15f 683e f60f 5bbe
00000160: 8af3 3dbe 4856 1c3e a9e6 ebbe ec38 94be
00000170: 556c 66bd d8a7 90be 8a42 aabe d850 16bd
00000180: 9796 8b3e 6ec0 b4bd b945 b9bd 7533 d1bd
00000190: 0699 04be 37fb 573e 089f 013e 4313 4bbd
000001a0: dba5 16be d8a1 a5be 04e0 65be 8654 e1ba
000001b0: f302 d83d 27f4 173e ecc4 c03d 7e78 36be
000001c0: e170 223e 5aba 8cbe e6bc d9be 5529 c13d
000001d0: c2de 9e3c 54f7 bebe 28a4 d0be 43c9 633e
000001e0: 6e61 e83d 0727 9b3d 9579 043e ff84 a1be
000001f0: b5a9 c5be 9b74 81be ba4e 4dbe 7939 9ebe
00000200: 69e5 2e3e 7f4d 84be d9af 63be c7bb 93be
00000210: 5ce5 cebe 26c1 8dbe 94cf 10be 5bdd 3bbe
00000220: f58e debe a63d 853c 4f81 9abe 964c c33e
00000230: 2280 48be 401c afbd 8a1b 733e f14f a9be
00000240: c7fe abbe 0d36 43be a568 07be c0ab a2be
00000250: 719e a2bd f2ec cabe df56 85be e9f9 47be
00000260: b18c 96bd c046 34be 4da3 cfbc 3a29 143d
00000270: 395e c3be 5230 cbbe 37ae 64be e142 babe
00000280: 450f 533a 58ad 3f3e 1d22 433d 315b 1fbe
00000290: 5b98 01be 97ca 2dbe e36c 9e3e 4ef8 a53d
000002a0: 51f1 f13c 9667 a1be 9b54 2e3e a0b7 6fbe
000002b0: 6578 ecbd 02cf 9b3e d6ad 37be ba83 3dbe
000002c0: fefc e2be ae07 0d3e ac8b c2be 39d2 29be
000002d0: 5266 04be be03 23be 3686 91bd 60ac 27be
000002e0: 883c d6bd 7ccf ecbd 7956 bebb cea2 6bbe
000002f0: 4afb 93be 37ef 58be 0c93 073e 05b9 e7be
00000300: 8341 17be 9228 50be f674 46be 721b 50be
00000310: 5009 cebd fb26 a9be c49e 9e3e dfa8 fcbc
00000320: 548b 8abe 381d 0fbe 5bcf aabe 5f2b bf3d
00000330: 3ebd 76be 8de8 273e 5b1a c93d 24a0 a7be
00000340: 06dc 9bbb 58cc 073e f4ab aa3e 4ce2 e7be
00000350: 9468 4d3e 8bb5 7dbe 7cd5 54bc c394 c63e
00000360: 919c 51bd dacf c3bd 0e7c bfbe 0a1b e2bd
00000370: 6795 ecbe 4872 633e 2868 d33d 8b06 a2be
00000380: 2c59 2b3e 7005 39be f55f d03d e268 b9be
00000390: aa3b 55b8 9e99 b93d e03c 4ebe 1037 0e3e
000003a0: be57 c8be 0b67 523d 1acb 973d 496c 9ebe
000003b0: 6449 b8bd 6039 a23d 1574 bdbb 6c3e 8abe
000003c0: a860 febd 7e35 d43d 8e23 d3bd 5d4e bdbd
000003d0: 5ba8 d0be 0fe2 4b3e fced c9be 92df f9bd
000003e0: 0caa b33e f0fe a63e 052c 993e d9c1 313e
000003f0: 284a 9ebe cbe0 34bd 3bd2 9cbe aaa2 633e

value_layer.weight f4 [1, 256]
-0.007143372 -0.022752402 -0.1615729 0.24213794 -0.02480913 -0.027095247 0.20904353 0.18196738
0.032971445 -0.015905304 -0.12985341 0.2799315 -0.056357447 0.008309993 0.03718494 0.036854938
0.102306165 0.035860185 -0.0065899915 0.27705473 0.37251928 0.057702232 -0.047366194 -0.07300186
0.018192546 -0.02908534 0.03943276 0.0051936065 -0.085530795 -0.041963637 -0.02955406 -0.0446356
-0.09280159 -0.008951294 0.16617809 -0.03205774 -0.052123435 0.032155387 -0.041956365 -0.028829172
0.045917727 -0.044317022 -0.06464217 -0.051771097 -0.044848673 -0.035392325 0.06788807 0.0067748027
-0.047646746 -0.006562631 -0.040622517 -0.0016361409 0.19386403 0.33745527 -0.17075664 0.11512619
0.08925659 -0.15808262 0.120835274 -0.045338497 0.060912978 -0.007969815 0.12181673 0.06811034
0.16026801 0.043869846 -0.03388183 0.044690702 0.21739373 0.20160231 -0.013888543 -0.008154305
0.07436492 -0.05767959 -0.38837343 -0.059839565 -0.018483803 -0.07028711 0.30175903 0.17441249
-0.03585261 -0.006333301 0.41060546 0.13066772 0.058808282 -0.007010622 0.045239836 -0.033820357
0.30855292 0.022054272 0.02881046 -0.017952388 0.34429643 -0.0475359 -0.048657075 -0.026854899
-0.054604705 0.20555954 0.16164511 0.19112597 -0.043989763 0.060713645 0.25884128 0.07050099
-0.09253994 -0.017619457 -0.041021947 0.19700351 0.18167862 -0.13859014 -0.049994625 0.19265883
-0.1991116 -0.042349063 0.061684877 0.104511805 0.26830718 0.016185477 0.09995722 0.18110216
0.0729531 -0.028166406 -0.030342463 0.085179225 0.05321336 0.2274478 0.22305666 0.029072385
-0.03888849 0.14083937 -0.041659422 0.03436887 0.083002925 -0.035707977 -0.05599743 -0.032393366
0.015147296 -0.014564549 -0.0034990618 0.032816906 -0.03137192 -0.04443733 -0.062616296 0.107021056
-8.074668e-05 -0.13211381 0.044295732 0.010502724 -0.02581017 -0.020167612 -0.018158177 0.004970033
0.15996976 -0.02178997 0.004615237 -0.20508483 -0.054278586 -0.02195823 0.1390239 -0.04547992
0.22143587 0.119236745 0.16046104 0.17825305 0.10154034 0.005737151 -0.3134444 0.22451295
-0.12417063 -0.04455133 -0.20787238 -0.020950168 -0.15829088 0.121572696 0.11517034 -0.06802994
-0.023124808 -0.15775585 0.0319789 0.35982636 0.025535187 0.26267543 -0.025495848 0.14564897
0.115819715 -0.29550487 -0.12677343 0.24795346 -0.044933036 0.0992866 0.1643452 -0.050966885
0.16672964 0.11450793 -0.02755481 0.23702222 0.09947991 0.027062802 -0.102162994 -0.0011706164
-0.008829345 0.107338026 0.11061532 -0.0034936522 -0.073470846 -0.0448396 0.17040691 0.014496605
-0.0058656004 0.07509024 -0.06688062 -0.031341653 0.072875865 0.1677587 0.047606803 -0.18869954
-0.17641447 0.014489222 0.06862849 0.0007454277 -0.05771234 0.023379602 -0.03395649 -0.00048205268
0.19698735 -0.20422783 -0.035689224 0.2606894 0.25918952 -0.033952225 0.07497295 -0.14277446
0.15854335 0.08941391 0.03345379 0.058079895 0.05285559 -0.070600316 -0.11510196 -0.051316835
0.16971889 -0.019847598 -0.04642595 -0.023082536 -0.027550405 0.0340258 0.06262712 -0.057580896
-0.024877736 -0.0692746 -0.056826565 -0.19538696 0.08714074 0.08187992 0.01309546 -0.06681076
00000000: f312 eabb 3f63 babc 5e73 25be 02f3 773e
00000010: 843c cbbc daf6 ddbc 820f 563e a855 3a3e
00000020: 110d 073d d74b 82bc 4bf8 04be 2e53 8f3e
00000030: 11d7 66bd a326 083c 3c4f 183d 34f5 163d
00000040: e585 d13d 21e2 123d dbf0 d7bb 1eda 8d3e
00000050: d9ba be3e 2d59 6c3d 0e03 42bd 0082 95bd
00000060: 8908 953c 6144 eebc 3f84 213d 212f aa3b
00000070: c52a afbd 10e2 2bbd 5b1b f2bc d2d3 36bd
00000080: c30e bebd 73a8 12bc 972a 2a3e fa4e 03bd
00000090: 627f 55bd 5eb5 033d 70da 2bbd 282b ecbc
000000a0: 3a14 3c3d c485 35bd 1d63 84bd ee0d 54bd
000000b0: 3eb3 37bd 8bf7 10bd e708 8b3d 2aff dd3b
000000c0: 3c29 43bd 570b d7bb cc63 26bd c773 d6ba
000000d0: 4b84 463e f0c6 ac3e d4da 2ebe 48c7 eb3d
000000e0: 29cc b63d 69e0 21be 7c78 f73d dcb4 39bd
000000f0: e37f 793d d493 02bc 0d7b f93d 6f7d 8b3d
00000100: 4c1d 243e deb0 333d acc7 0abd 990d 373d
00000110: 769c 5e3e d670 4e3e c58c 63bc a299 05bc
00000120: a34c 983d 6f41 6cbd e2d8 c6be 551a 75bd
00000130: 586b 97bc b0f2 8fbd 2980 9a3e 3099 323e
00000140: 30da 12bd 9487 cfbb e13a d23e c2cd 053e
00000150: f4e0 703d 5cb9 e5bb 684d 393d 3787 0abd
00000160: a6fa 9d3e 29ab b43c ea03 ec3c e310 93bc
00000170: 9f47 b03e 01b5 42bd a44c 47bd cefe dbbc
00000180: 2fa9 5fbd 337e 523e 4c86 253e 87b6 433e
00000190: 9c2e 34bd dfae 783d d886 843e d362 903d
000001a0: 9485 bdbd ae56 90bc a106 28bd 4abb 493e
000001b0: f609 3a3e 93ea 0dbe 2ac7 4cbd 5b48 453e
000001c0: e9e3 4bbe 3676 2dbd 48a9 7c3d 490a d63d
000001d0: 8f5f 893e 6897 843c 5fb6 cc3d d872 393e
000001e0: 6f68 953d 3cbd e6bc c290 f8bc 7272 ae3d
000001f0: 41f6 593d 13e8 683e f768 643e 3629 ee3c
00000200: 8a49 1fbd 3238 103e 12a3 2abd 5fc6 0c3d
00000210: 70fd a93d 8742 12bd 905d 65bd e8ae 04bd
00000220: 5d2c 783c 25a0 6ebc 8450 65bb 056b 063d
00000230: d87f 00bd eb03 36bd f93c 80bd db2d db3d
00000240: 8b56 a9b8 d848 07be 716f 353d 9e13 2c3c
00000250: da6f d3bc 8c36 a5bc 75c0 94bc a9db a23b
00000260: 1dcf 233e e180 b2bc 6a3b 973b c201 52be
00000270: 3953 5ebd bfe1 b3bc 485c 0e3e 2749 3abd
00000280: 16c0 623e 6532 f43d e64f 243e f887 363e
00000290: 62f4 cf3d b6fe bb3b c97b a0be b9e6 653e
000002a0: 2c4d febd 757b 36bd 7fdc 54be b09f abbc
000002b0: 0117 22be 1bfb f83d 6dde eb3d 4853 8bbd
000002c0: 3d70 bdbc c08a 21be 4ffc 023d 293b b83e
000002d0: 2b2f d13c 657d 863e abdc d0bc 0125 153e
000002e0: e332 ed3d 6a4c 97be e5d0 01be 83e7 7d3e
000002f0: b40b 38bd c656 cb3d 1c4a 283e a7c2 50bd
00000300: 2dbb 2a3e 2283 ea3d a0ba e1bc f4b5 723e
00000310: 20bc cb3d cfb2 dd3c d53a d1bd 5e6f 99ba
00000320: f5a8 10bc 0ad4 db3d 498a e23d c2f5 64bb
00000330: e277 96bd baa9 37bd 267f 2e3e 2b83 6d3c
00000340: 3934 c0bb e9c8 993d b5f8 88bd 1b60 00bd
00000350: f13f 953d f0c8 2b3e 5aff 423d 743a 41be
00000360: ffa5 34be 3464 6d3c 188d 8c3d ce68 433a
00000370: c663 6cbd 9486 bf3c f615 0bbd 04bc fcb9
00000380: 0db7 493e 1a21 51be dd2e 12bd 1579 853e
00000390: 7db4 843e 7d11 0bbd 6b8b 993d 7833 12be
000003a0: 3059 223e a41e b73d d706 093d 2fe5 6d3d
000003b0: 1a7f 583d e696 90bd 94ba ebbd 9a31 52bd
000003c0: caca 2d3e 6e97 a2bc 2329 3ebd 9617 bdbc
000003d0: 63b1 e1bc a35e 0b3d a642 803d f2d9 6bbd
000003e0: 65cc cbbc d7df 8dbd f9c2 68bd 8513 48be
000003f0: d876 b23d a9b0 a73d 578e 563c 14d4 88bd

action_layer.weight f4 [4, 256]
0.19582583 0.18015173 -0.15413727 0.08635965 -0.07800368 -0.024630882 0.10124645 0.1437975
0.09854266 0.08981029 0.042175397 0.19942214 0.08953989 0.017054593 -0.078821115 -0.14002298
-0.06375751 -0.10139467 -0.091914214 0.0031420153 0.003451591 -0.009389607 0.08397829 0.055036824
0.029881733 0.13432592 0.120922685 -0.09806581 0.12037333 0.16584003 0.037964936 0.019378085
0.09544747 0.19752291 -0.10992171 -0.15247446 -0.033046853 -0.004314754 0.054855835 -0.021325985
-0.03380382 -0.117236 -0.16841209 -0.07724183 0.093450196 -0.09989469 0.032931097 0.054793347
-0.16798703 -0.059603557 0.24285033 0.10322674 0.0082251225 -0.14460902 -0.23498288 0.17210485
-0.019326942 -0.10318675 -0.058194313 -0.07223647 0.08563656 -0.26511803 0.040547956 0.060299054
0.11848892 0.056674987 0.013573749 0.10774007 0.13378754 -0.17419416 0.03548622 0.016562283
0.29330823 -0.03617635 -0.34151515 0.12506473 0.10152951 0.3310774 -0.10890166 0.13642524
-0.08507068 -0.045980796 0.14929716 0.10723368 -0.028795388 0.0017350899 -0.09560385 -0.04991333
0.20377214 0.019851465 0.046137635 -0.016155556 -0.022931697 -0.10341209 -0.08434746 0.17842124
0.11471641 0.20702578 0.022827243 -0.02465132 -0.03238069 0.22015159 0.0018499388 0.16680545
-0.22488865 0.015602082 -0.02580871 -0.053367652 0.2567432 -0.13246217 0.09978747 0.1828951
-0.18835111 -0.07626841 0.016980626 0.0064792065 0.11975497 -0.06145829 0.17987816 -0.2343901
0.17154537 0.09606963 0.12723817 -0.18343957 -0.0021046803 0.038625825 0.053698257 0.038998984
0.21241784 0.015663395 0.032592565 0.02059911 0.05774091 -0.016610174 0.008212177 -0.07887867
-0.005416421 -0.12778331 -0.122377776 0.20695691 0.06296928 -0.020626992 0.026969958 0.090192504
0.07568205 -0.068533465 -0.11811602 -0.15372252 0.006639235 -0.17960499 -0.008780735 0.03840377
-0.067473285 -0.10735308 -0.07966597 -0.1584128 -0.06635855 0.034734588 0.16829662 -0.09806248
0.12325334 -0.08967575 0.016404288 0.09066383 -0.055373963 -0.03972396 -0.08430727 0.06637705
-0.110025115 0.008752104 -0.29683238 -0.04726139 -0.07909933 -0.15392363 0.18688719 -0.07661912
-0.022040978 -0.030640872 0.03975627 0.0029432925 -0.00729988 -0.01247545 -0.015478425 -0.06972721
0.09122886 0.041066166 -0.043464508 0.101848535 -0.051999647 0.079815455 0.17254391 -0.05942167
0.1465313 0.04787922 -0.25611734 0.13978219 -0.2421434 -0.021473391 -0.0018247339 0.12227778
0.023572437 0.06386602 0.008430154 -0.044010837 -0.13369867 0.22545594 0.18159136 -0.0071190116
-0.14809354 0.007826419 0.24187371 0.07578861 -0.029360205 -0.022466281 0.02414883 -0.10756699
0.0032921967 -0.099521376 0.20247927 0.16591232 0.015666153 -0.028673546 0.07898387 -0.11833826
-0.3097657 -0.06761643 -0.04111862 0.09753446 -0.015626952 0.06635525 0.051500887 -0.16023824
0.094006255 0.17924581 0.28048047 0.08872161 -0.1959313 0.12638363 0.0037009206 -0.03412014
0.13457094 0.11863463 0.17629343 0.050193265 0.056605384 0.063283354 0.009904185 -0.039959762
0.16089222 0.22368297 0.1752993 -0.16799277 0.21636972 -0.02945461 0.09326521 0.009353887
00000000: 9186 483e b279 383e 29d6 1dbe 54dd b03d
00000010: 65c0 9fbd b4c6 c9bc 4c5a cf3d a73f 133e
00000020: bcd0 c93d 75ee b73d 1cc0 2c3d 5135 4c3e
00000030: b160 b73d 13b6 8b3c f76c a1bd 2f62 0fbe
00000040: 4c93 82bd 02a8 cfbd 853d bcbd 45ea 4d3b
00000050: 1634 623b ded6 19bc cffc ab3d 4b6e 613d
00000060: 89ca f43c bc8c 093e 50a6 f73d bad6 c8bd
00000070: 4b86 f63d f8d1 293e 1f81 1b3d cabe 9e3c
00000080: f779 c33d 7243 4a3e a21e e1bd 4422 1cbe
00000090: 235c 07bd c862 8dbb 83b0 603d d5b3 aebc
000000a0: e075 0abd 6e19 f0bd 3874 2cbe f730 9ebd
000000b0: d162 bf3d 9695 ccbd c2e2 063d fd6e 603d
000000c0: cb04 2cbe dc22 74bd c2ad 783e 8b68 d33d
000000d0: aac2 063c 6314 14be 5a9f 70be 413c 303e
000000e0: 8953 9ebc 9353 d3bd 295d 6ebd b7f0 93bd
000000f0: 3962 af3d 8dbd 87be 9d15 263d 24fc 763d
00000100: 52aa f23d 0824 683d 6e64 5e3c d3a6 dc3d
00000110: 9aff 083e f45f 32be 005a 113d a0ad 873c
00000120: 7f2c 963e a72d 14bd 13db aebe f810 003e
00000130: b4ee cf3d fa82 a93e d507 dfbd 0fb3 0b3e
00000140: 8939 aebd 5c56 3cbd 5be1 183e 559d db3d
00000150: 4ee4 ebbc f56b e33a f4cb c3bd eb71 4cbd
00000160: a5a9 503e 8a9f a23c d1fa 3c3d a858 84bc
00000170: 41db bbbc b8c9 d3bd 5cbe acbd 0fb4 363e
00000180: 70f0 ea3d 91fe 533e 3300 bb3c 91f1 c9bc
00000190: 9da1 04bd 6b6f 613e a579 f23a 0ccf 2a3e
000001a0: 3649 66be e09f 7f3c ca6c d3bc 0a98 5abd
000001b0: d873 833e 2aa4 07be 605d cc3d da48 3b3e
000001c0: 1ddf 40be 9d32 9cbd f41a 8b3c 864f d43b
000001d0: 1842 f53d b0bb 7bbd fb31 383e f503 70be
000001e0: 97a9 2f3e 27c0 c43d b94a 023e 95d7 3bbe
000001f0: adee 09bb 1d36 1e3d b4f2 5b3d 66bd 1f3d
00000200: 1084 593e 8550 803c c87f 053d 77bf a83c
00000210: bc81 6c3d 0f12 88bc 5e8c 063c 248b a1bd
00000220: 3c7c b1bb a1d9 02be 33a1 fabd 83ec 533e
00000230: 0af6 803d f0f9 a8bc 1af0 dc3c d9b6 b83d
00000240: 31ff 9a3d 465b 8cbd d0e6 f1bd 7069 1dbe
00000250: f18d d93b 5fea 37be 12dd 0fbc 464d 1d3d
00000260: 6f2f 8abd eedb dbbd e927 a3bd f736 22be
00000270: fee6 87bd db45 0e3d f355 2c3e fbd4 c8bd
00000280: 3f6c fc3d eba7 b7bd 4962 863c f5ad b93d
00000290: cfcf 62bd 97b5 22bd 4aa9 acbd b1f0 873d
000002a0: d954 e1bd fc64 0f3c 6afa 97be 2995 41bd
000002b0: d4fe a1bd 289e 1dbe 5b5f 3f3e 7cea 9cbd
000002c0: 488f b4bc 9102 fbbc 78d7 223d 41e4 403b
000002d0: d533 efbb d465 4cbc 3899 7dbc 24cd 8ebd
000002e0: 32d6 ba3d ff34 283d d707 32bd f795 d03d
000002f0: 95fd 54bd 4976 a33d 5aaf 303e 2364 73bd
00000300: 4d0c 163e 001d 443d d021 83be 1023 0f3e
00000310: 70f4 77be f7e8 afbc e92b efba c66c fa3d
00000320: fc1a c13c 30cc 823d a11e 0a3c b544 34bd
00000330: 4ee8 08be ecdd 663e 16f3 393e 9946 e9bb
00000340: d5a5 17be 613a 003c bead 773e 0f37 9b3d
00000350: d084 f0bc 350b b8bc c4d3 c53c 154c dcbd
00000360: e5c1 573b ddd1 cbbd ba56 4f3e ebe4 293e
00000370: 4e56 803c c9e4 eabc 4cc2 a13d 545b f2bd
00000380: 9c99 9ebe 7c7a 8abd 006c 28bd 26c0 c73d
00000390: 1804 80bc 43e5 873d 98f2 523d 7e15 24be
000003a0: 5a86 c03d 378c 373e 239b 8f3e adb3 b53d
000003b0: 37a2 48be b66a 013e 258b 723b 8fc1 0bbd
000003c0: f7cc 093e b7f6 f23d 4486 343e 7497 4d3d
000003d0: 0cdb 673d b49a 813d 2a45 223c d9ac 23bd
000003e0: eec0 243e 260d 653e a981 333e 4c06 2cbe
000003f0: 0690 5d3e cb4a f1bc d501 bf3d 0c41 193c

action_layer.bias f4 [4]
0.08771777 0.098588064 -0.021426026 -0.17027779
00000000: 60a5 b33d 8ae8 c93d a285 afbc 4d5d 2ebe
