hw1/preTrained/LunarLander_baseline_0.01.pth (torch, 6039 bytes, 5 tensors)

share_layer.weight f4 [128, 4]
0	0xbc182932	-0.0092871655
1	0x3d822973	0.06355562
2	0xbd025689	-0.031820808
3	0x3dd2b4b6	0.10288374
4	0xbd8c8ce3	-0.068628095
5	0x3e54fcb1	0.20799519
6	0x3f04374b	0.5164687
7	0x3f0d955a	0.5530602
8	0x3e86a672	0.26298863
9	0xbe49b42a	-0.19697633
10	0x3ed08973	0.40729865
11	0xbe7da067	-0.2476822
12	0xbdae9941	-0.085253246
13	0xbc4a0f3a	-0.012332732
14	0x3f23d0d8	0.63990545
15	0x3ee8dd07	0.4548113
16	0xbe081ad3	-0.13291483
17	0x3d58cbb8	0.052928656
18	0x3e400f56	0.1875585
19	0xbdc5515a	-0.09634657
20	0xbd90d16d	-0.07071195
21	0xbeebd690	-0.46062136
22	0xbfb50260	-1.414135
23	0xbf0a56fe	-0.5403899
24	0xbf3cbae5	-0.7372268
25	0xbf0dd24d	-0.5539902
26	0xbfb67c03	-1.4256595
27	0xbf187361	-0.59551054
28	0xbe8496eb	-0.2589639
29	0x3e9963d8	0.29958987
30	0x3eb19e64	0.34691155
31	0x3f241e07	0.6410832
32	0x3ce3aeef	0.027793376
33	0xbd524835	-0.051338393
34	0x3e78422a	0.2424399
35	0xbdf883e7	-0.121345334
36	0x3e3cc18a	0.18433204
37	0xbe8b07e7	-0.27154467
38	0x3e21089f	0.15725945
39	0xbdc51cfe	-0.096246704
40	0x3f16161c	0.58627486
41	0x3eab5008	0.33459496
42	0xbe9887b5	-0.29791036
43	0x3e9c10c2	0.30481535
44	0xbd9ea41e	-0.077461466
45	0x3d29c2f7	0.0414457
46	0x3f156b63	0.58366984
47	0x3e9260fd	0.2858962
48	0xbe195b3a	-0.14976206
49	0x3e92470d	0.28569832
50	0xbe9cd460	-0.3063078
51	0x3eb8555a	0.36002618
52	0xbe50591b	-0.20346491
53	0x3e812a87	0.25227758
54	0xbe8637ae	-0.26214355
55	0x3e2ec6a8	0.17067969
56	0x3e420f1d	0.18951078
57	0x3ea9e466	0.33182067
58	0x3f1780b5	0.59180766
59	0x3e99797d	0.299755
60	0xbd2d2a2c	-0.042276546
61	0xbe604efe	-0.21905133
62	0x3d31d81f	0.043419
63	0x3d1747f7	0.036933865
64	0xbcfbf4eb	-0.030756434
65	0x3e26ce34	0.16289598
66	0xbc83c0bc	-0.016083114
67	0xbe44b832	-0.1921089
68	0xbd9a58f1	-0.075364955
69	0x3e9addd5	0.3024737
70	0x3e544f07	0.20733272
71	0x3de6c43d	0.11267898
72	0xbef295b1	-0.4737983
73	0x3e157b08	0.14597714
74	0xbfc5a971	-1.5442334
75	0x3de9b5c2	0.11411621
76	0xbeb7e169	-0.35914162
77	0x3e6f5016	0.23370394
78	0xbde7b58a	-0.11313923
79	0xbe4822be	-0.19544503
80	0xbdda22e8	-0.10651189
81	0xbe1ffdc4	-0.15624148
82	0x3f0b3cd2	0.5438968
83	0xbddf107b	-0.10891815
84	0x3e1f4695	0.15554269
85	0xbea1e36a	-0.31618816
86	0x3dfdb706	0.123884246
87	0x3ecda204	0.4016267
88	0xbe405b2d	-0.18784781
89	0xbdee4376	-0.11633961
90	0x3c98968d	0.018626476
91	0x3eb9d690	0.3629651
92	0x3e3a58a5	0.18197878
93	0xbeca271a	-0.39482957
94	0xbeabaa11	-0.33528188
95	0xbc9aa152	-0.018875752
96	0x3d3ca111	0.046052042
97	0x3e006bcf	0.12541126
98	0xbde5aec5	-0.11214975
99	0xbef9bcd0	-0.48776865
100	0x3e5aeecd	0.21380158
101	0x3f1f3a2e	0.6219815
102	0x3f2df144	0.6794627
103	0x3ee927d7	0.45538208
104	0xbdd998fa	-0.10624881
105	0x3e7cc42a	0.24684206
106	0x3ea90418	0.33010936
107	0x3f06e764	0.52696824
108	0x3d395816	0.04525002
109	0x3e57cef9	0.21075048
110	0x3f11bdb7	0.56930107
111	0x3e827322	0.25478464
112	0x3eb96579	0.3621023
113	0xbea8f151	-0.3299661
114	0x3f3a978a	0.7288748
115	0xbed7ca35	-0.4214646
116	0x3e831771	0.25603822
117	0xbe2c652b	-0.16835468
118	0xbe6b7156	-0.22992453
119	0x3e6353ab	0.22199886
120	0x3eb39810	0.35076952
121	0xbe971d73	-0.29514655
122	0xbf968f6a	-1.1762516
123	0xbe538ae7	-0.20658456
124	0x3e254d4b	0.16142766
125	0xbde8c299	-0.113652416
126	0xbe98a332	-0.29812008
127	0x3db02371	0.0860051
128	0xbe4d06f3	-0.20022182
129	0x3e7abcb4	0.24486047
130	0xbcf54a7e	-0.029942747
131	0x3db4b911	0.08824361
132	0xbe650e4e	-0.22368738
133	0xbe5506ab	-0.20803325
134	0xbfb20330	-1.3907223
135	0xbe8a991f	-0.27069947
136	0xbc46d2b9	-0.012135201
137	0x3e0290cb	0.12750547
138	0xbf7f2d46	-0.99678457
139	0xbef5ff94	-0.48046553
140	0xbe34aebe	-0.17644784
141	0x3f0fc700	0.56163025
142	0x3e113801	0.1418152
143	0xbe983603	-0.29728708
144	0x3d1a2011	0.037628237
145	0xbd3edd74	-0.046597913
146	0x3e355b5a	0.17710629
147	0xbe204142	-0.15649894
148	0x3e664aed	0.2248952
149	0xbe401d6f	-0.18761228
150	0xbed026d4	-0.40654624
151	0xbbb98bba	-0.0056624087
152	0xbe970c2c	-0.29501474
153	0xbdfd9c0d	-0.1238328
154	0xbf95319a	-1.1655762
155	0xbee639de	-0.44966024
156	0x3e26f814	0.16305572
157	0x3da167d6	0.07881133
158	0x3dc2c0bb	0.09509417
159	0xbe3571c9	-0.17719187
160	0xbf514a12	-0.8175365
161	0xbeda01a4	-0.42579377
162	0xbf276915	-0.6539472
163	0xbef0455c	-0.46927917
164	0xbe2963c4	-0.16541964
165	0x3f0e5b68	0.55608225
166	0xbf24d470	-0.64386654
167	0x3dd67d30	0.10473096
168	0xbf51679e	-0.8179873
169	0x3e96bac5	0.2943937
170	0xbe55ab6b	-0.20866172
171	0x3e947c88	0.2900126
172	0x3e388dd1	0.18022849
173	0xbe8dbcc1	-0.2768307
174	0x3f29e12b	0.66359204
175	0xbed3e2a2	-0.41383845
176	0x3e4ce6cc	0.20009917
177	0xbea32340	-0.3186283
178	0x3f1cfdc4	0.61324716
179	0xbdb1e12d	-0.08685527
180	0x3eaf0adb	0.3418797
181	0x3e59befc	0.21264261
182	0x3f628489	0.8848348
183	0x3e9d5819	0.30731276
184	0x3d375712	0.04476077
185	0xbd2387b7	-0.03992435
186	0x3d2b41d8	0.04181084
187	0x3e312e8d	0.17302914
188	0x3ece45a5	0.4028751
189	0x3d9f8ee3	0.07790925
190	0x3eb903e9	0.36135796
191	0xbd665fda	-0.056243755
192	0xbe2f1cf9	-0.17100896
193	0xbe391cf8	-0.18077457
194	0x3f14b600	0.5809021
195	0xbe925dd0	-0.28587198
196	0xbdcecf07	-0.10098081
197	0x3e8e45b0	0.27787542
198	0xbf772127	-0.9653496
199	0xbeb1a932	-0.34699398
200	0xbf336f49	-0.7009168
201	0x3f024118	0.50880575
202	0x3c943cf7	0.018095477
203	0x3eef9f75	0.46801344
204	0xbd8680cd	-0.065675355
205	0xbe9cc0b5	-0.30615774
206	0xbe6b49ea	-0.22977415
207	0xbea3f15b	-0.32020077
208	0xbd3c4878	-0.04596755
209	0x3e6d8379	0.23194684
210	0x3e3af78a	0.18258491
211	0xbe7d9b0a	-0.24766174
212	0xbebf14bb	-0.37320504
213	0x3e2feed2	0.17180946
214	0x3de3541a	0.111000255
215	0xbd96eaa0	-0.0736897
216	0x3d9c2c34	0.076256186
217	0xbe4d0f0a	-0.20025268
218	0xbe8d7e60	-0.2763548
219	0xbea661ab	-0.3249639
220	0x3e55eaef	0.20890401
221	0xbe13a984	-0.14420134
222	0xbf99ff03	-1.2030948
223	0xbe8c2ec1	-0.2737942
224	0xbd648b46	-0.055796884
225	0xbd60ad60	-0.054852843
226	0x3ed9996e	0.4249987
227	0x3d9e9d9f	0.077449076
228	0x3d1b6598	0.037938684
229	0xbda5b1d0	-0.08090556
230	0xbedc938a	-0.43081313
231	0xbe959b9a	-0.29220277
232	0x3ebbb5d7	0.3666217
233	0x3f2ab83b	0.66687363
234	0x3f059259	0.52176434
235	0x3ef8ba34	0.48579562
236	0xbcf8fb6e	-0.030393329
237	0x3d473491	0.048634116
238	0x3eafc9ff	0.34333798
239	0x3e63eefe	0.22259137
240	0xbdd2bd14	-0.1028997
241	0x3ecf8646	0.4053213
242	0x3e16e33d	0.14735122
243	0x3eca191d	0.39472285
244	0x3d0ea49a	0.034824945
245	0xbd8648e0	-0.065568686
246	0xbe9e1bf5	-0.30880705
247	0xbefe55d5	-0.4967486
248	0xbe3a386c	-0.18185586
249	0x3e62d9dd	0.22153421
250	0xbe8beaa6	-0.2732746
251	0xbdcd9edc	-0.10040066
252	0x3e066be1	0.1312709
253	0x3dd12447	0.102119975
254	0xbf08383e	-0.5321082
255	0x3d8b0d80	0.06789684

share_layer.bias f4 [128]
0	0xbe66925e	-0.22516772
1	0xbe55a37d	-0.20863147
2	0x3e642dd6	0.2228311
3	0xbd84f061	-0.06491161
4	0xbe9b3def	-0.3032069
5	0xbdd182ea	-0.10230048
6	0xbe32fd3a	-0.17479411
7	0xbd0b8186	-0.03405907
8	0xbe8b5919	-0.27216414
9	0xbf1a270e	-0.6021584
10	0xbd5e79b5	-0.054315288
11	0xbe45764e	-0.19283411
12	0xbeb861e4	-0.36012185
13	0xbf20653b	-0.62654465
14	0xbdb28180	-0.087161064
15	0xbf204259	-0.6260124
16	0xbf105c2c	-0.56390643
17	0xbe7345c4	-0.23757082
18	0xbdea142c	-0.11429629
19	0xbf32a4ca	-0.697827
20	0x3f0e8d65	0.556845
21	0x3d856673	0.06513681
22	0x3f0bc653	0.54599494
23	0xbeeccf56	-0.46251935
24	0x3ea36c9a	0.31918794
25	0xbd7d32f6	-0.06181618
26	0xbd7711ca	-0.0603197
27	0xbd9e90cc	-0.077424616
28	0x3e9615b0	0.2931342
29	0xbe86377f	-0.26214215
30	0xbe496fba	-0.19671527
31	0xbeb7d4f3	-0.35904655
32	0xbed30414	-0.4121405
33	0xbdd582d8	-0.10425347
34	0xbe8f2747	-0.27959654
35	0xbed79534	-0.4210602
36	0xbeeaa213	-0.45826778
37	0xbed34c00	-0.4126892
38	0xbe4332db	-0.19062369
39	0xbf3aff97	-0.7304625
40	0xbe0ee89b	-0.1395592
41	0xbe75ed2e	-0.24016258
42	0xbd2456fc	-0.040122017
43	0xbf05335e	-0.52031505
44	0xbeab4bfa	-0.33456403
45	0xbdc82911	-0.09773458
46	0xbea1cdd1	-0.31602338
47	0x3edebc77	0.43503162
48	0xbf1b9b03	-0.60783404
49	0xbeea441a	-0.45755082
50	0xbc1e4d3e	-0.009661971
51	0xbe44e4a9	-0.19227852
52	0x3cb2f70b	0.021846315
53	0xbee25de7	-0.44212267
54	0xbdcfedfc	-0.10152814
55	0xbe3d29d1	-0.18472983
56	0xbeb320a0	-0.34985828
57	0xbf17223e	-0.59036624
58	0xbd67429a	-0.05646
59	0xbe693358	-0.22773492
60	0xbde2c4f4	-0.11072722
61	0xbe793a94	-0.24338752
62	0xbf0d108d	-0.5510338
63	0xbefde321	-0.49587348
64	0xbe455bb5	-0.19273265
65	0xbe513ccb	-0.20433347
66	0xbd29e77d	-0.04148053
67	0x3eea2523	0.45731458
68	0xbe0e302a	-0.1388556
69	0x3e0595fd	0.13045497
70	0xbe36a2f6	-0.17835602
71	0xbe53e48d	-0.20692654
72	0x3efb5cb6	0.4909417
73	0xbd92093f	-0.0713067
74	0xbd807929	-0.062731095
75	0xbe2454b9	-0.16047944
76	0xbd3d6d7c	-0.04624699
77	0xbdff6172	-0.12469758
78	0xbe907217	-0.28212044
79	0xbd3075fb	-0.043081265
80	0x3e159c35	0.1461037
81	0xbf20b74c	-0.6277969
82	0xbf0d4821	-0.55188185
83	0xbebc75e9	-0.36808708
84	0xbe833ae5	-0.2563087
85	0x3d6be126	0.057587765
86	0xbefa3853	-0.48871097
87	0xbe59ae52	-0.21257904
88	0xbed4fdf0	-0.4159999
89	0x3e900899	0.2813156
90	0xbee39b6e	-0.4445452
91	0x3eddaa87	0.43294165
92	0xbe3b2986	-0.18277559
93	0xbe9dc419	-0.30813673
94	0xbe0b13cb	-0.13581769
95	0xbe0fd0cf	-0.14044498
96	0x3ec18368	0.37795568
97	0x3e1b2138	0.1514939
98	0xbd966e6f	-0.07345282
99	0xbe9c839b	-0.30569157
100	0xbf027885	-0.5096515
101	0x3e946557	0.28983566
102	0xbdc883b3	-0.09790745
103	0xbe917e47	-0.28416654
104	0xbe6c9d04	-0.23106772
105	0x3d259374	0.040423825
106	0xbe294293	-0.16529302
107	0x3ef74aed	0.4829935
108	0xbe3a98be	-0.18222329
109	0x3e09df18	0.1346401
110	0x3ed3ebd9	0.41390875
111	0xbd86c6eb	-0.06580909
112	0xbf0f3183	-0.55934924
113	0x3e826408	0.25466943
114	0x3dc59632	0.09647788
115	0xbf270a6f	-0.65250295
116	0xbd3eb8ff	-0.046563145
117	0xbea6c7b9	-0.3257425
118	0xbe17bf21	-0.14819004
119	0xbd646d2d	-0.05576818
120	0x3e52ad9c	0.20574039
121	0xbeb11273	-0.34584388
122	0xbd52d07f	-0.05146837
123	0xbe4c6403	-0.19960026
124	0xbe0e7d07	-0.13914882
125	0xbe2288fb	-0.15872566
126	0xbecf7e2f	-0.40525958
127	0xbeb1ef31	-0.347528

value_layer.weight f4 [1, 128]
0	0x3d158d60	0.03651178
1	0xbda6ce03	-0.08144762
2	0x3e0248aa	0.12723032
3	0xbcb611f0	-0.02222535
4	0xbd34ded5	-0.04415782
5	0xbd4c78db	-0.049919944
6	0xbe8dfa7e	-0.27730173
7	0xbd80c193	-0.06286921
8	0xbd30c739	-0.043158744
9	0xbd4f1aa9	-0.050562534
10	0xbe24cc27	-0.16093503
11	0x3c004298	0.007828377
12	0xbd8fdec5	-0.07024912
13	0xbdc6d7c6	-0.09709124
14	0xbe00d9f2	-0.1258314
15	0x3d0fb8f5	0.0350885
16	0xbdde0a72	-0.10841836
17	0xbdc39ce8	-0.09551412
18	0xbeaeaec3	-0.34117708
19	0xb9f40668	-0.0004654408
20	0x3e420116	0.18945727
21	0x3d6ca3d2	0.05777342
22	0x3e0aab98	0.1354202
23	0x3b4076ed	0.002936776
24	0x3dd9eb23	0.10640552
25	0xbec15cd2	-0.3776613
26	0xbd11c197	-0.035585012
27	0xbd05e9fe	-0.032693855
28	0x3e5da4a9	0.21644844
29	0x3d9428b8	0.07234329
30	0x3cf5263b	0.029925456
31	0x3cbf6cb7	0.023367269
32	0xbd12131c	-0.035662755
33	0xbe75c999	-0.24002685
34	0x3cc0fcaa	0.02355798
35	0xbdc86e72	-0.09786691
36	0x3d37c6f7	0.044867482
37	0xbc70b264	-0.014690969
38	0xbe5bb1cf	-0.21454547
39	0xbc44b567	-0.01200614
40	0xbe9c5abb	-0.30537972
41	0xbde93cf0	-0.11388576
42	0xbed68790	-0.419003
43	0xbda47871	-0.08030785
44	0xbdc08fd6	-0.094024345
45	0xbe171d07	-0.14757167
46	0xbd1e5650	-0.038656533
47	0x3e1953a2	0.1497331
48	0x394f5d48	0.00019775808
49	0xbd544c79	-0.051830743
50	0xbf03fab2	-0.51554406
51	0xbdca4b39	-0.09877629
52	0x3bb1be6c	0.0054243114
53	0xbc90f118	-0.017693087
54	0xbd25f5cb	-0.04051761
55	0x3cb088fa	0.02154969
56	0x3d1438a2	0.03618682
57	0x3d870889	0.06593425
58	0xbedc39b4	-0.43012774
59	0xbb4b8d09	-0.0031059405
60	0xbd84f2bf	-0.06491613
61	0xbd0f412e	-0.03497427
62	0x38b4479c	8.596407e-05
63	0xbd876f9c	-0.06613085
64	0xbd88f14d	-0.066866495
65	0xbe21c514	-0.15797836
66	0xbeca2fe1	-0.39489654
67	0x3dc6d3c8	0.09708363
68	0xbe7f8730	-0.24953914
69	0x3d947bb1	0.07250155
70	0xbd37e51d	-0.044896234
71	0xbcc53a84	-0.024075754
72	0x3e0acaf8	0.13553989
73	0xbeb7a338	-0.35866714
74	0xbeaf5039	-0.34240893
75	0xbe5aeee7	-0.21380197
76	0xbc21aa17	-0.009867213
77	0x3bd9531f	0.0066322233
78	0xbcb36958	-0.021900818
79	0xbe674f87	-0.22588931
80	0x3dc758ce	0.09733735
81	0x3da358b3	0.079759024
82	0xbd21e466	-0.03952446
83	0xbc6fd7c2	-0.014638843
84	0x3cb13c3f	0.021635173
85	0x3c58b7c0	0.013227403
86	0x3bc0da2d	0.0058853836
87	0xbd8a4178	-0.067507684
88	0xbdda69c0	-0.106647015
89	0x3dd5573c	0.10417029
90	0x3e0e970a	0.13924804
91	0x3e61115c	0.21979278
92	0xbc5a8dad	-0.013339442
93	0xbce133ad	-0.027490461
94	0xbcc57636	-0.024104219
95	0xbe9a7052	-0.3016382
96	0x3e23ac8f	0.15983795
97	0x3deab50f	0.114603154
98	0xbe4761aa	-0.1947085
99	0xbd3ea37b	-0.046542626
100	0x3d840168	0.06445581
101	0x3e0c4507	0.13698207
102	0xbefee3ef	-0.49783275
103	0xbe105501	-0.14094926
104	0xbe484071	-0.19555832
105	0xb95bc08c	-0.00020957197
106	0xbe91bf27	-0.2846615
107	0x3e8aecab	0.27133688
108	0xbdd7ee85	-0.10543541
109	0x3c4a61a2	0.012352379
110	0x3e7a698b	0.24454324
111	0xbc7641a5	-0.015030299
112	0xbcb97bbb	-0.022642007
113	0x3de66cfe	0.11251257
114	0x3ca34f31	0.019935222
115	0x3c1fc657	0.009751878
116	0xbd50dd8f	-0.050992545
117	0x3db19ece	0.08672868
118	0xbd790a0a	-0.06080059
119	0xbe39ba75	-0.18137534
120	0x3db16a42	0.08662845
121	0xbbd765ef	-0.0065734307
122	0xbb82aab1	-0.003987633
123	0x3cb3cec1	0.021949174
124	0xbeaa9eac	-0.33324182
125	0xbd1f1261	-0.038835887
126	0xbd7d0d07	-0.061780002
127	0xbced0b45	-0.028936038

action_layer.weight f4 [2, 128]
0	0xbd35f8e1	-0.044426803
1	0xbe424744	-0.18972498
2	0xbd97a0e4	-0.07403734
3	0xbebef8a6	-0.3729908
4	0x3da92bac	0.08260283
5	0x3f09559b	0.5364625
6	0x3eae3ec4	0.3403226
7	0xbf22d3bd	-0.63604337
8	0x3cd7fdff	0.026366232
9	0x3d8ce7ca	0.06880148
10	0x3e2d5edb	0.16930716
11	0xbead0b77	-0.3379781
12	0xbda95a48	-0.08269173
13	0xbe4bb23d	-0.19892211
14	0xbe826706	-0.25469226
15	0x3dece9b0	0.1156801
16	0x3ddd9f15	0.10821358
17	0x3c8f38bb	0.017483106
18	0x3ebfcace	0.37459415
19	0xbde767f9	-0.11299128
20	0xbe2a153f	-0.16609667
21	0xbe62b51f	-0.22139405
22	0xbe62aaff	-0.22135542
23	0xbe12cd6e	-0.14336178
24	0x3e36d186	0.17853364
25	0xbeaa8433	-0.33303985
26	0xbeb26997	-0.34846184
27	0xbebf604c	-0.37378156
28	0x3d2088e9	0.039193068
29	0xba9c0df0	-0.0011906009
30	0x3ec135b8	0.37736297
31	0xbe885283	-0.2662545
32	0xbdca7a04	-0.09886554
33	0x3f4c7c3b	0.7987706
34	0x3ea46286	0.32106417
35	0x3e8c3580	0.27384567
36	0x3e9f69e3	0.31135473
37	0xbc6b36e1	-0.014356346
38	0x3f22c1ff	0.63577265
39	0xbb51fdf7	-0.0032042244
40	0x3e4a3f0f	0.19750617
41	0x3e722185	0.23645599
42	0xbe89df1d	-0.26928034
43	0xbe0bf74b	-0.13668554
44	0xbe1b6e52	-0.15178803
45	0xbe29d87d	-0.1658649
46	0xbdf1ad94	-0.118006855
47	0x3d0bafb0	0.034103096
48	0xbd940337	-0.07227176
49	0x3e940db6	0.2891671
50	0xbf0710bd	-0.52759916
51	0x3eb61512	0.3556295
52	0x3dc54781	0.09632779
53	0xbd358c6e	-0.044323377
54	0x3e21ee73	0.15813617
55	0x3f0782ee	0.5293416
56	0xbe214261	-0.15747978
57	0x3e2cd3bf	0.1687765
58	0xbe4aa621	-0.19789936
59	0xbdc5416d	-0.096316196
60	0xbe6f4795	-0.2336715
61	0x3e8c220c	0.27369726
62	0x3bc3da21	0.0059769307
63	0x3dc081f3	0.09399786
64	0xbd3330d8	-0.043747753
65	0x3eaf2c2f	0.34213397
66	0xbeca7f96	-0.39550465
67	0xbe899a1c	-0.2687539
68	0x3e98c387	0.29836676
69	0xbe78a726	-0.24282512
70	0x3dd9f900	0.10643196
71	0x3dbb2f3c	0.091398686
72	0x3dbf25aa	0.09333356
73	0xbddd83bf	-0.10816144
74	0xbea96189	-0.33082226
75	0x3ef3f30c	0.47646368
76	0xbeb061ca	-0.34449607
77	0xbc8ec6c7	-0.017428769
78	0x3e342610	0.17592645
79	0xbd4f89bf	-0.050668474
80	0x3ea7da22	0.3278361
81	0xbd385c53	-0.045009922
82	0x3df4aeab	0.11947378
83	0xbe137230	-0.14399028
84	0xbe102016	-0.1407474
85	0xbe71bafc	-0.23606485
86	0x3da26e54	0.079312
87	0x3e9ae5f3	0.30253562
88	0x3e13d76c	0.14437646
89	0x3d3085a9	0.04309622
90	0x3e994e93	0.2994276
91	0xbd8142eb	-0.06311592
92	0x3cea1d6b	0.02857848
93	0x3e289d59	0.16466273
94	0x3db4850d	0.0881444
95	0x3e5f6889	0.21817221
96	0xbc442734	-0.011972237
97	0x3ed0f8d4	0.4081484
98	0x3e77eab3	0.24210624
99	0xbc15bdc0	-0.009139478
100	0xbe1f0474	-0.15529042
101	0xbe194f3e	-0.14971635
102	0xbf0599a2	-0.5218755
103	0xbd2974d4	-0.04137118
104	0x3e829fd6	0.2551257
105	0x3d1a9004	0.037735
106	0x3efb01d8	0.49024844
107	0x3e1443a1	0.14478923
108	0x3eedafe5	0.4642326
109	0xbe8420d3	-0.25806293
110	0x3c309368	0.010777332
111	0xbe973b3d	-0.29537383
112	0x3d81bc57	0.06334751
113	0x3e47e2a0	0.19520044
114	0xbe82f00e	-0.25573772
115	0xbdd31f02	-0.10308649
116	0xbe91f7b7	-0.28509304
117	0xbe4ae97d	-0.19815631
118	0xbe4d001c	-0.20019573
119	0x3e11eaae	0.1424968
120	0x3c9c15fd	0.019053454
121	0x3dc8eab1	0.09810389
122	0x3ed6d7cf	0.41961524
123	0xbe1b223d	-0.1514978
124	0x3ead3ae4	0.33833992
125	0xbe3c76bf	-0.18404673
126	0xbde86363	-0.113470815
127	0xbe343b84	-0.17600828
128	0x3ce94573	0.028475499
129	0x3dbac6db	0.0911996
130	0xbd94ef47	-0.07272201
131	0x3e8e19fa	0.27754194
132	0x3d6b3c28	0.057430416
133	0xbf1ce583	-0.6128771
134	0xbec35891	-0.38153508
135	0x3f230fb0	0.6369581
136	0xbd52a7b2	-0.051429458
137	0xbdb124b5	-0.086495794
138	0xbe3a34b5	-0.18184169
139	0x3e9d286e	0.30694908
140	0x3daa20f1	0.08307064
141	0x3dec47ea	0.11537154
142	0x3e71c743	0.23611169
143	0xbd35b7c3	-0.044364702
144	0xbdb2a044	-0.087219745
145	0x3d56b7b0	0.05242127
146	0xbeba75a2	-0.36417872
147	0x3e4cec44	0.20012003
148	0x3da0af82	0.078459755
149	0x3e0a3192	0.13495472
150	0x3e7f7ebf	0.24950694
151	0x3dc447f8	0.095840394
152	0xbe7a5871	-0.244478
153	0x3ebdc957	0.37067673
154	0x3eb7b73e	0.3588199
155	0x3e9a2c93	0.30112132
156	0xbd92f43d	-0.07175491
157	0x3db15d12	0.0866033
158	0xbedcf431	-0.43155053
159	0x3e6ff41d	0.23432966
160	0x3d8aa8dc	0.067704886
161	0xbf3ca9d1	-0.7369662
162	0xbecb8f3e	-0.39757723
163	0xbe92f3e7	-0.28701708
164	0xbe951edc	-0.29125106
165	0x3d4d1631	0.05006999
166	0xbf072bb7	-0.5280108
167	0xbb331b66	-0.0027329563
168	0xbe2aac78	-0.16667354
169	0xbe9120ae	-0.28345245
170	0x3eaa46d6	0.3325717
171	0x3e331788	0.17489445
172	0x3d95720d	0.07297144
173	0x3e56a9d3	0.2096322
174	0x3db4a020	0.08819604
175	0x3dfba184	0.12286666
176	0x3dc25458	0.094887435
177	0xbe65ca11	-0.22440363
178	0x3ee8996a	0.45429546
179	0xbee79022	-0.45227152
180	0xbdc9bdea	-0.09850676
181	0x3cce6dfd	0.02519893
182	0xbe18e576	-0.14931282
183	0xbef4fa4f	-0.4784722
184	0x3d943f2b	0.07238611
185	0xbe821c68	-0.25412297
186	0x3e529f1d	0.2056851
187	0x3e47b742	0.19503501
188	0x3e8d5714	0.27605498
189	0xbe44a61d	-0.19203992
190	0xbd3a9b61	-0.045558337
191	0xbe2e891b	-0.17044489
192	0x3d35836a	0.04431478
193	0xbe5905fb	-0.21193688
194	0x3ec1cfdb	0.37853894
195	0x3ea93197	0.33045647
196	0xbe4ff248	-0.20307267
197	0x3e4c5d67	0.19957505
198	0xbe247381	-0.16059686
199	0xbe15a7fb	-0.1461486
200	0xbdadcad0	-0.08485949
201	0x3e4164ed	0.18886156
202	0x3ecfae91	0.4056287
203	0xbf084620	-0.53232
204	0x3eb23834	0.34808505
205	0x3c486321	0.012230665
206	0xbe378e67	-0.17925416
207	0x3e173899	0.14767684
208	0xbeac2e45	-0.3362905
209	0x3d2d7a12	0.042352743
210	0xbe104e70	-0.14092422
211	0x3e16d281	0.14728738
212	0x3e42ea26	0.19034633
213	0x3ea36c54	0.31918585
214	0x3dae334e	0.08505879
215	0xbea326a9	-0.31865433
216	0xbe8f24d1	-0.27957776
217	0xbde9d2e2	-0.11417176
218	0xbe616016	-0.2200931
219	0x3e42a594	0.19008476
220	0xbdfba34e	-0.12287007
221	0xbe9c6636	-0.3054673
222	0xbe097c6c	-0.1342637
223	0xbe9a8c68	-0.30185246
224	0x3cf7c3a2	0.030244652
225	0xbec3b9e9	-0.38227776
226	0xbe1ad935	-0.1512192
227	0xbd8d92d1	-0.06912769
228	0x3e31c937	0.17361914
229	0x3e35d088	0.1775533
230	0x3f1aca83	0.6046526
231	0xbcc6f64d	-0.024287367
232	0xbec6f517	-0.38858864
233	0xbc4d99c2	-0.012548866
234	0xbefe6d7e	-0.4969291
235	0xbc934dd7	-0.017981453
236	0xbef799eb	-0.48359618
237	0x3e8f6380	0.280056
238	0x3d9bb02c	0.076019615
239	0x3e6379da	0.22214451
240	0x3c700a8c	0.014650952
241	0xbe367366	-0.17817459
242	0x3e9a8210	0.30177355
243	0x3d93d4c0	0.07218313
244	0x3e1da23f	0.15393923
245	0x3e54e39d	0.20789953
246	0x3d872ca9	0.06600315
247	0xbe335658	-0.17513406
248	0xbdb3da70	-0.08781898
249	0xbcc7a581	-0.02437091
250	0xbeffc5bd	-0.4995555
251	0x3d018f48	0.031630784
252	0xbeb19583	-0.3468438
253	0x3eb63057	0.35583755
254	0x3e74c24d	0.23902245
255	0x3de07f58	0.10961789

action_layer.bias f4 [2]
0	0x3c32e662	0.010919185
1	0x3d9b85b2	0.0759386
